BipedalWalkerHardcore-TD3-FORK/dir_bpw_td3_fork/weights_actor_final_315.85.pth (torch_old, 527053 bytes, 6 tensors)

fc1.weight f4 [400, 24]
-0.16151585 -0.24967943 0.37980893 -0.059474956 -0.1461205 -0.110140055 0.037192967 0.115283005
-0.37436223 -0.00037718835 -0.014377466 -0.094588 -0.032153517 0.13015227 -0.09599857 0.4067038
0.46359944 -0.42622116 0.21747844 0.41606674 0.0017211761 0.28885496 -0.16967952 -0.29585615
-1.2485323 1.10691 1.0534111 -1.3096126 -0.4628978 0.07201467 -0.34534726 0.07284903
0.045562454 -0.490198 0.07156675 -0.2755963 0.022550715 0.035273653 -0.1675273 -0.07740805
-0.0051296386 -0.06870614 -0.25842708 -0.02323601 -0.16559319 -0.41397542 -0.11328666 0.24776115
0.42835802 -0.1341272 -0.34799865 -0.35887206 0.030950088 0.07492452 -0.24745184 0.05656288
0.30324557 0.07720885 -0.0570991 0.18326768 -0.035257272 -0.29610303 0.059363592 0.37931806
0.76309633 0.13832903 -0.61787194 -0.39811513 0.3078594 0.03140826 -0.2607481 -0.14338733
0.26477835 0.8876561 -0.17438471 -1.435286 -0.019409409 -0.10141493 -0.05826347 -0.0029352386
0.0786476 0.22769783 0.09131189 -0.7456647 -0.1495987 -0.18410234 -0.14263012 0.09531083
0.09638416 -0.23880364 -0.4205371 -0.12793854 -0.10970181 0.17171934 -0.28430572 0.13327499
-0.14532824 0.11952212 0.7392649 -0.78159404 0.5939477 0.03543297 -0.34523898 0.09542619
0.12658247 -0.17490256 -0.025350993 -0.56102616 0.014138411 0.037421986 0.2122578 -0.16601561
-0.1981246 0.049372178 0.021132512 -0.17648183 -0.59268856 -0.40238485 -0.34859183 -0.19786356
0.20616601 1.2966763 -0.29389447 1.7719941 0.07457089 -0.25074387 0.2362229 -0.04552305
0.029813724 0.3289624 0.29768386 -0.23697138 0.008321852 0.5340883 0.05960328 0.13173209
-0.11250096 -0.19566315 0.025671922 0.23366679 0.09810154 0.009642584 -0.40426695 -0.15191877
-0.26538017 -0.92933744 0.87778765 -0.33652487 -0.36621076 -0.05460285 -0.23703699 -0.07316787
-0.12232566 0.24213052 -0.04665984 0.36956215 -0.060275104 0.077388115 0.13942043 -0.020624321
-0.37612262 -0.037004326 -0.009312226 -0.37906614 -0.33168104 0.22586729 -0.05375789 -0.06734408
0.26023015 -0.397009 -0.47318414 1.4609952 0.4937409 -0.07810658 0.41803378 -0.05888005
0.083451726 0.25851557 0.097572714 -0.54917985 -0.06946962 0.020596849 -0.0050284816 -0.4132003
-0.29730168 0.20244254 0.09990594 -0.027795613 0.116244696 0.20921062 0.12632802 -0.15366161
0.1636885 1.0445571 -0.034385476 -0.53774136 -0.04331792 0.1555035 0.4146355 -0.060332846
0.046336442 -0.17746665 -0.16930185 -0.013951767 -0.06865137 0.23193382 0.35098282 0.53996265
0.22017445 -0.28265473 -0.53922915 -0.4728 0.10250715 0.26856318 -0.35330567 -0.20730159
-0.4573601 -0.7432363 -0.9742293 0.5966012 0.09550048 0.012713881 0.03684593 0.0704224
0.063166834 -0.1653397 -0.22128971 -0.24282978 -0.11327924 -0.020334542 -0.61495554 -0.37989444
-0.35674772 0.28090462 0.39971578 0.179576 0.4107455 0.46661475 0.13701975 -0.09600903
0.2549378 -0.97089887 -0.35980445 -1.2008102 0.092833154 0.09893955 -0.04734428 0.13864584
-0.02425977 -0.4195433 -0.028066864 -0.5867803 0.028345529 -0.24898918 -0.6083909 -0.32449856
00000000: 6964 25be f7ab 7fbe 5176 c23e 039c 73bd
00000010: 9da0 15be 1c91 e1bd a757 183d 7f19 ec3d
00000020: 68ac bfbe 5dc1 c5b9 778f 6bbc 5ab7 c1bd
00000030: 68b3 03bd a346 053e e69a c4bd 7b3b d03e
00000040: e85c ed3e a939 dabe abb2 5e3e b306 d53e
00000050: 1699 e13a cce4 933e 78c0 2dbe 757a 97be
00000060: e8cf 9fbf 3aaf 8d3f 2dd6 863f 63a1 a7bf
00000070: f100 edbe 6d7c 933d 5bd1 b0be df31 953d
00000080: b29f 3a3d 3bfb fabe 9791 923d f51a 8dbe
00000090: 47bc b83c 1b7b 103d 478c 2bbe 1d88 9ebd
000000a0: 8716 a8bb ceb5 8cbd 8e50 84be 7259 bebc
000000b0: 4391 29be 96f4 d3be d602 e8bd 19b5 7d3e
000000c0: be51 db3e a458 09be e12c b2be 14be b7be
000000d0: 0a8b fd3c 0772 993d 0464 7dbe 7aae 673d
000000e0: 0143 9b3e ac1f 9e3d bfe0 69bd 86aa 3b3e
000000f0: ee69 10bd d19a 97be 3d27 733d fa35 c23e
00000100: 485a 433f 20a6 0d3e db2c 1ebf bfd5 cbbe
00000110: bf9f 9d3e f3a5 003d c680 85be 21d4 12be
00000120: 0791 873e 6e3d 633f e891 32be 74b7 b7bf
00000130: 7b00 9fbc a1b2 cfbd ada5 6ebd 225d 40bb
00000140: fe11 a13d 9f29 693e ba01 bb3d e2e3 3ebf
00000150: 6730 19be 5385 3cbe a10d 12be 5332 c33d
00000160: 0f65 c53d f188 74be a450 d7be 5202 03be
00000170: 58ab e0bd 32d7 2f3e 8590 91be 3d79 083e
00000180: edd0 14be 03c8 f43d 7740 3d3f 8c16 48bf
00000190: f50c 183f 2922 113d 2ac3 b0be ce6e c33d
000001a0: d69e 013e a819 33be e3ac cfbc 699f 0fbf
000001b0: cba4 673c cc47 193d 1c5a 593e ffff 29be
000001c0: 2de1 4abe 7b3a 4a3d 171e ad3c a7b7 34be
000001d0: 70ba 17bf 6305 cebe a17a b2be bf9c 4abe
000001e0: 2f1d 533e 7df9 a53f 5679 96be b4d0 e23f
000001f0: 9fb8 983d 8061 80be 6ae4 713e 6176 3abd
00000200: e93b f43c c26d a83e 056a 983e a0a8 72be
00000210: 6158 083c 03ba 083f 9222 743d c7e4 063e
00000220: e766 e6bd ec5b 48be ec4d d23c 5946 6f3e
00000230: 76e9 c83d eefb 1d3c 14fc cebe 9890 1bbe
00000240: e9df 87be 0fe9 6dbf b1b6 603f fd4c acbe
00000250: fa7f bbbe 3da7 5fbd d3b9 72be 09d9 95bd
00000260: e085 fabd 10f1 773e 631e 3fbd 4037 bd3e
00000270: 07e3 76bd a97d 9e3d 3bc4 0e3e 56f4 a8bc
00000280: 2593 c0be d991 17bd 4f92 18bc f514 c2be
00000290: 19d2 a9be c149 673e 3c31 5cbd b1eb 89bd
000002a0: e33c 853e c344 cbbe 3145 f2be e401 bb3f
000002b0: 9bcb fc3e 58f6 9fbd 8608 d63e 352c 71bd
000002c0: bde8 aa3d 275c 843e 34d4 c73d 0d97 0cbf
000002d0: 1746 8ebd b9ba a83c f6c5 a4bb fd8e d3be
000002e0: ed37 98be 194d 4f3e 7c9b cc3d a0b3 e3bc
000002f0: b311 ee3d 4f3b 563e 225c 013e 7859 1dbe
00000300: f59d 273e 0cb4 853f c9d7 0cbd 6ba9 09bf
00000310: 226e 31bd 4f3c 1f3e 1b4b d43e 931f 77bd
00000320: 48cb 3d3d d1b9 35be 775d 2dbe f495 64bc
00000330: 1799 8cbd 0f80 6d3e 05b4 b33e fe3a 0a3f
00000340: 6975 613e 1fb8 90be ec0a 0abf d712 f2be
00000350: 45ef d13d 1d81 893e 7be4 b4be de46 54be
00000360: 1a2b eabe bc44 3ebf 1767 79bf dbba 183f
00000370: c195 c33d e24d 503c c2eb 163d 9f39 903d
00000380: 9d5d 813d cf4e 29be c599 62be 5fa8 78be
00000390: f2fe e7bd a094 a6bc ba6d 1dbf 8681 c2be
000003a0: a3a7 b6be bbd2 8f3e 8ca7 cc3e c5e2 373e
000003b0: 3c4d d23e 21e8 ee3e e84e 0c3e 62a0 c4bd
000003c0: 3587 823e d48c 78bf 4a38 b8be 26b4 99bf
000003d0: 4f1f be3d d2a0 ca3d 13ec 41bd 2df9 0d3e
000003e0: 6dbc c6bc 61ce d6be 7bec e5bc 3c37 16bf
000003f0: e234 e83c 05f7 7ebe 82bf 1bbf ad24 a6be

fc1.bias f4 [400]
-0.438438 0.3036797 -0.19574307 -0.058762465 0.5251499 -0.29974794 0.30630955 -0.18604854
0.045768227 -0.06254419 0.20643988 -0.329975 0.25339213 0.18990283 -0.30119509 0.20019624
0.035934407 0.10800468 -0.14594871 0.20100032 0.32533243 -0.1644595 -0.22772083 0.13171409
0.00067947485 0.34485745 -0.23329899 0.013930513 -0.24469666 0.0728897 -0.3536365 0.040172953
0.027142495 0.0709028 -0.06505956 -0.6370042 0.085583724 0.030967858 0.31046608 0.22827968
0.0396672 -0.14175002 0.3349738 -0.151711 0.19730158 0.18599083 0.16004796 -0.13348751
0.21235773 0.03852965 -0.28407028 0.0037688909 -0.08003015 0.11541841 -0.2708928 -0.10391116
-0.15021966 0.3835246 0.28847927 -0.18121865 -0.0073422994 0.19936006 0.042240024 -0.24650553
-0.06866386 -0.15653218 0.05992738 -0.43796554 -0.2755285 -0.25722146 0.081498496 -0.010381752
-0.46938452 0.26847667 -0.2918877 0.09919903 -0.12531939 0.22193086 -0.18502496 -0.005237834
-0.16975687 0.07581586 -0.07115564 0.20988351 -0.28148684 0.4363382 0.03585885 0.43781242
-0.4522544 0.009972722 -0.029371057 -0.08086657 0.23137248 -0.2275983 -0.0318439 -0.8463077
-0.22251622 0.14842893 -0.1864006 -0.04853906 -0.2937579 0.32282454 -0.60705477 0.06686225
0.023041444 0.034102436 -0.21674532 0.34924898 -0.066497155 0.038233332 0.38219765 0.27713108
0.17003109 0.08530637 0.43924433 -0.009477621 -0.48968598 0.1803449 0.07832228 -0.09238839
-0.35297343 0.14684741 0.51426494 -0.19321352 0.17947046 -0.25787508 -0.5599457 -0.41522804
-0.01778225 -0.28839928 -0.29435605 -0.0949671 -0.06338013 0.38379243 0.21003067 -0.36633524
-0.10224573 -0.046336643 -0.025130771 -0.30364707 -0.063690394 -0.1890752 -0.2511815 -0.074448936
-0.322736 -0.17290996 -0.18954839 0.09831797 -0.34718785 -0.0060262517 0.030539703 -0.2079467
-0.4231105 -0.5118818 -0.27372524 -0.46130964 0.19741426 0.12263388 -0.41132027 -0.47569287
0.09777798 -0.16729634 -0.023698736 -0.3022603 -0.10667121 0.13424097 0.15860167 -0.26775667
0.06328534 -0.3954883 0.23797686 0.27026677 0.07477692 -0.052663796 -0.19326444 0.047796123
0.26501054 0.08283466 -0.042495344 -0.2780305 0.13688016 0.36774415 -0.14566053 -0.0829
0.38872325 -0.38626352 -0.3124558 0.14775679 -0.23224723 0.48018256 0.18760139 -0.04324371
0.002384452 -0.37055784 0.22166997 0.10592494 -0.3291555 -0.52269065 0.16830486 -0.26318437
0.26177424 -0.41024736 0.08068946 -0.050657995 -0.043759797 -0.39380616 0.2808213 0.48453426
0.15590505 -0.26367152 -0.14360571 -0.22220849 -0.038572956 0.015767861 0.69299203 0.11538401
0.29051256 -0.33481976 -0.07822338 -0.22619492 0.17287806 -0.120257676 -0.051939745 -0.36395738
0.12165157 0.41821134 -0.275265 -0.22935645 -0.24720399 -0.14717107 -0.35734734 0.29033962
0.012999722 -0.5629731 -0.31316152 -0.36573228 0.022722933 0.15224893 -0.24795662 -0.2114474
0.0913666 0.08748224 -0.071155265 -0.244279 -0.27744657 -0.36306843 -0.4545198 -0.023101943
-0.2291462 -0.17029314 -0.34138057 -0.202695 0.28154248 -0.12011085 -0.42297798 -0.0662091
00000000: f27a e0be e87b 9b3e df70 48be e9b0 70bd
00000010: 3970 063f 9078 99be 9bd4 9c3e 8283 3ebe
00000020: 7777 3b3d 2b17 80bd fa64 533e 7cf2 a8be
00000030: 9dbc 813e e375 423e 3e36 9abe 3e00 4d3e
00000040: f52f 133d 8f31 dd3d 9473 15be 07d3 4d3e
00000050: f991 a63e 1268 28be a62f 69be 0fe0 063e
00000060: c91e 323a 2891 b03e eee5 6ebe ce3c 643c
00000070: c391 7abe 3247 953d d80f b5be 658c 243d
00000080: f059 de3c 7d35 913d f23d 85bd b512 23bf
00000090: 8546 af3d 4eb0 fd3c 69f5 9e3e 26c2 693e
000000a0: 137a 223d eb26 11be b081 ab3e 215a 1bbe
000000b0: 6d09 4a3e 6174 3e3e 9de3 233e f3b0 08be
000000c0: 4e74 593e 44d1 1d3d a971 91be 7fff 763b
000000d0: d9e6 a3bd 7d60 ec3d 76b2 8abe 60cf d4bd
000000e0: 2fd3 19be 565d c43e 8eb3 933e 6291 39be
000000f0: ac97 f0bb 0b25 4c3e e003 2d3d f26b 7cbe
00000100: a39f 8cbd f949 20be 6a76 753d 053d e0be
00000110: 1212 8dbe 88b2 83be afe8 a63d 3918 2abc
00000120: 2b53 f0be c675 893e 4e72 95be dc28 cb3d
00000130: ba53 00be d841 633e 2f77 3dbe 23a2 abbb
00000140: bfd4 2dbe 5845 9b3d 0cba 91bd b4eb 563e
00000150: 0b1f 90be b867 df3e bbe0 123d f328 e03e
00000160: e48d e7be a164 233c 929b f0bc 5f9d a5bd
00000170: e8ec 6c3e 870f 69be c06e 02bd 9fa7 58bf
00000180: 4bdb 63be c1fd 173e cddf 3ebe e5d0 46bd
00000190: 6f67 96be 4249 a53e f167 1bbf 13ef 883d
000001a0: 69c1 bc3c ffae 0b3d 7cf2 5dbe c3d0 b23e
000001b0: a92f 88bd 8e9a 1c3d 69af c33e 20e4 8d3e
000001c0: a11c 2e3e 1bb5 ae3d a2e4 e03e 0648 1bbc
000001d0: 1fb8 fabe 55ac 383e 6e67 a03d 2036 bdbd
000001e0: efb8 b4be 2b5f 163e dea6 033f c4d9 45be
000001f0: 1bc7 373e 3408 84be 9a58 0fbf c598 d4be
00000200: 15ac 91bc 12a9 93be d6b5 96be 1c7e c2bd
00000210: 71cd 81bd 7180 c43e 4812 573e 4b90 bbbe
00000220: 3666 d1bd 7ecb 3dbd 0cdf cdbc a177 9bbe
00000230: 1c70 82bd ee9c 41be dd9a 80be af78 98bd
00000240: a73d a5be 4f0f 31be f918 42be ef5a c93d
00000250: 9bc2 b1be dd77 c5bb 662e fa3c fbef 54be
00000260: f1a1 d8be b00a 03bf b725 8cbe c730 ecbe
00000270: f726 4a3e 7927 fb3d 9298 d2be 048e f3be
00000280: d23f c83d bb4f 2bbe da23 c2bc ddc1 9abe
00000290: 6f76 dabd 7776 093e 7a68 223e 6717 89be
000002a0: bf9b 813d 717d cabe 35b0 733e 6860 8a3e
000002b0: a424 993d feb5 57bd 1de7 45be dec5 433d
000002c0: 76af 873e 38a5 a93d 990f 2ebd 045a 8ebe
000002d0: 502a 0c3e f648 bc3e 0928 15be 7ac7 a9bd
000002e0: bc06 c73e 55c4 c5be 35fa 9fbe 8e4d 173e
000002f0: 38d2 6dbe 7dda f53e 941a 403e 5120 31bd
00000300: 7744 1c3b c2b9 bdbe 74fd 623e 2def d83d
00000310: 1287 a8be 0ecf 05bf 1c58 2c3e 1ac0 86be
00000320: 4607 863e f10b d2be 8440 a53d c27e 4fbd
00000330: 793d 33bd f6a0 c9be cfc7 8f3e e014 f83e
00000340: 93a5 1f3e f4ff 86be 600d 13be 9f8a 63be
00000350: adfe 1dbd 9a2b 813c ed67 313f 744e ec3d
00000360: 10be 943e 7f6d abbe 9433 a0bd a49f 67be
00000370: f206 313e a849 f6bd c5be 54bd 9f58 babe
00000380: 7524 f93d cc1f d63e 89ef 8cbe 6bdc 6abe
00000390: 0b23 7dbe 03b4 16be 3bf6 b6be 65a7 943e
000003a0: c9fc 543c 011f 10bf b556 a0be 4341 bbbe
000003b0: 7225 ba3c 25e7 1b3e 57e8 7dbe ab85 58be
000003c0: 691e bb3d e329 b33d dab9 91bd 4624 7abe
000003d0: 7a0d 8ebe 1be4 b9be d2b6 e8be 4940 bdbc
000003e0: 4da5 6abe 5361 2ebe 6fc9 aebe 478f 4fbe
000003f0: 5626 903e adfc f5bd 9290 d8be a398 87bd

fc2.weight f4 [300, 400]
-0.16878572 -0.36124256 0.118026 -0.25660118 -0.029039793 -0.011393102 0.09050581 0.2843268
0.2819865 0.37599564 -0.07659923 0.045609076 -0.4607126 0.5581489 0.07235636 -0.24968012
0.1166218 0.32296744 0.3594979 -0.7465538 0.044885594 0.09355043 0.17202546 -0.03600694
0.061595682 0.29790574 -0.17188163 -0.016917797 -0.16512053 0.30614096 0.14278084 -0.26692432
-0.06384646 -0.16944231 -0.055998523 -0.17336893 0.12598401 0.15129536 0.5221779 -0.46529815
-0.13207318 -1.1421318 0.49827212 0.091181554 -0.52554053 -0.10036927 0.2500691 0.08088643
-0.23317987 0.18511918 0.004250144 -0.26460442 -0.14626361 -0.27608362 -0.28118062 0.0030499755
-0.06388382 -0.4822679 -0.23551083 0.4442594 -0.014590343 0.11456399 0.22840342 -0.33490056
-0.14433344 0.016749898 0.2664286 -0.15978251 0.2740499 -0.11096675 0.04751477 -0.42200777
-0.3482985 -0.23836815 -0.3486872 0.102416016 0.16319261 -0.277165 -0.14359602 0.13585734
-0.21317187 -0.04707629 0.14007452 -0.39408723 -0.31359667 -0.19257951 0.13565075 -0.16656335
0.048647307 0.2768986 -0.19042414 0.0169334 0.52645355 0.29705283 0.03797559 0.013534266
-0.13640313 -0.15016937 -0.31916875 -0.20524672 0.029181635 0.12083782 0.076834835 -0.67657626
-0.019372817 -0.4393556 -0.08704829 -0.12983525 -0.431169 -0.19697699 -0.0017708088 -0.1823404
-0.31594872 -0.29205632 -0.3504975 -0.77470344 -0.1128503 0.100791834 0.023688953 0.32204416
-0.20381089 0.0142588625 -0.21799485 0.13785225 -0.20249687 0.18676509 -0.16592415 0.17174856
0.23294267 -0.039502893 -0.16493702 -0.27466068 0.32676712 0.11006135 -0.23881876 -0.41988158
-0.6393042 -0.58914524 0.23349142 -0.3100486 -0.25148317 0.19387864 0.07326407 0.37462357
-0.094006285 0.009234765 0.07677673 -0.7726557 0.010269177 0.13887997 0.15814592 -0.66452044
-0.30296794 -0.047299966 0.014832266 0.6393045 0.40474004 -0.063411266 0.07820722 -0.3124443
-0.30796528 -1.0496442 0.88716197 0.2867524 0.14811027 0.16482627 -0.4162011 0.31969488
0.24111529 -0.34748915 0.46928808 -0.10209697 -0.09095628 -0.38526112 -0.019065205 0.111137755
-0.0700822 0.18127242 0.0146456435 0.05931085 -0.2861892 0.105167255 0.19232869 0.15193082
-0.14599323 -0.030215599 0.2825046 -0.45073593 0.6438864 0.017303327 -0.45099282 -0.23054866
0.40939575 0.28834268 0.13034758 0.15637119 -0.20789558 0.42512965 -0.18292116 0.560009
0.14718373 0.26511282 -0.009589271 0.14061776 0.10378948 -0.36600184 0.20083807 -0.5695934
0.08482807 0.20233883 0.41968787 -0.73814857 -0.1366139 -0.43555436 -0.14226192 -1.0026737
0.15358143 0.43273932 -0.48501682 0.005103991 -0.151757 -0.07795282 -0.013398152 0.4516087
0.29582825 -0.49300888 0.19375384 -0.24960105 -0.072133 0.084278405 0.26648065 0.02061026
-0.033861455 0.014814245 0.19106093 0.35141447 0.54142326 -0.6719782 0.15863948 0.07380578
-0.1762032 -0.31619436 -0.30298084 -0.48365265 -0.20087494 -0.16787192 0.42521086 -0.39229786
0.05262451 0.074941285 0.31276903 -0.29454884 -0.25027373 -0.19034739 0.16487852 -1.2553259
00000000: 2ad6 2cbe c9f4 b8be 9eb7 f13d 3b61 83be
00000010: dce4 edbc 22aa 3abc 1c5b b93d 4893 913e
00000020: 8960 903e 8082 c03e 0fe0 9cbd 95d0 3a3d
00000030: 86e2 ebbe d9e2 0e3f 922f 943d 25ac 7fbe
00000040: 69d7 ee3d fd5b a53e 1c10 b83e 261e 3fbf
00000050: f5d9 373d 5e97 bf3d 7127 303e 037c 13bd
00000060: c14b 7c3d 1a87 983e bd01 30be 3197 8abc
00000070: 5b15 29be 82be 9c3e 2435 123e 4eaa 88be
00000080: efc1 82bd 4982 2dbe b55e 65bd a087 31be
00000090: f401 013e 2ced 1a3e 73ad 053f 8f3b eebe
000000a0: 313e 07be 6031 92bf 861d ff3e 65bd ba3d
000000b0: d389 06bf 678e cdbd 0f09 803e c9a7 a53d
000000c0: b4c6 6ebe e28f 3d3e cb44 8b3b 3b7a 87be
000000d0: 21c6 15be d55a 8dbe e8f6 8fbe 19e2 473b
000000e0: 85d5 82bd d1eb f6be c029 71be f875 e33e
000000f0: 560c 6fbc 86a0 ea3d 96e2 693e 1678 abbe
00000100: 25cc 13be 1537 893c 5469 883e 079e 23be
00000110: 4550 8c3e 8942 e3bd d99e 423d 6711 d8be
00000120: 2e54 b2be c816 74be 2187 b2be 7dbf d13d
00000130: f71b 273e 92e8 8dbe d60a 13be 301e 0b3e
00000140: ba49 5abe 11d3 40bd b26f 0f3e cdc5 c9be
00000150: be8f a0be 9033 45be 08e8 0a3e 958f 2abe
00000160: 6642 473d a7c5 8d3e 8cfe 42be eab7 8a3c
00000170: a9c5 063f 4f17 983e 4b8c 1b3d d3be 5d3c
00000180: 43ad 0bbe 00c6 19be 166a a3be 322c 52be
00000190: 530e ef3c d279 f73d 955b 9d3d 1a34 2dbf
000001a0: beb3 9ebc 38f3 e0be 6046 b2bd 88f3 04be
000001b0: 2fc2 dcbe 56b4 49be 7c1a e8ba 71b7 3abe
000001c0: 08c4 a1be 6888 95be 6974 b3be f752 46bf
000001d0: 0f1e e7bd f36b ce3d 560f c23c f9e2 a43e
000001e0: cdb3 50be 019e 693c 0b3a 5fbe 2429 0d3e
000001f0: 575b 4fbe 593f 3f3e 05e8 29be dbde 2f3e
00000200: 8688 6e3e c9cd 21bd 40e5 28be 53a0 8cbe
00000210: 054e a73e d867 e13d e88c 74be b8fa d6be
00000220: 71a9 23bf 39d2 16bf 6018 6f3e b1be 9ebe
00000230: 67c2 80be 1f88 463e 790b 963d a9ce bf3e
00000240: 5e86 c0bd 694d 173c 1e3d 9d3d c4cc 45bf
00000250: 0d40 283c 8d36 0e3e 01f1 213e 031e 2abf
00000260: 9d1e 9bbe 9cbd 41bd 0803 733c 76a9 233f
00000270: 163a cf3e c4dd 81bd 1b2b a03d b3f8 9fbe
00000280: a0ad 9dbe be5a 86bf 0c1d 633f 36d1 923e
00000290: 38aa 173e 38c8 283e 5018 d5be 0caf a33e
000002a0: ede6 763e 19ea b1be 8746 f03e 3718 d1bd
000002b0: 4947 babd f240 c5be a22e 9cbc 319c e33d
000002c0: 4287 8fbd 7a9f 393e 48f4 6f3c efef 723d
000002d0: 6487 92be ee61 d73d d0f1 443e c193 1b3e
000002e0: 407f 15be b486 f7bc 71a4 903e dcc6 e6be
000002f0: bdd5 243f b5bf 8d3c 88e8 e6be f314 6cbe
00000300: 529c d13e a7a1 933e d679 053e c51f 203e
00000310: 94e2 54be 98aa d93e af4f 3bbe c05c 0f3f
00000320: 55b7 163e debc 873e 511c 1dbc 1afe 0f3e
00000330: 948f d43d 9864 bbbe 7fa8 4d3e e0d0 11bf
00000340: 57ba ad3d e931 4f3e 54e1 d63e 4ef7 3cbf
00000350: 84e4 0bbe fb00 dfbe 1cad 11be 9d57 80bf
00000360: 7344 1d3e 0290 dd3e 2054 f8be 613f a73b
00000370: 3066 1bbe baa5 9fbd ec83 5bbc 4139 e73e
00000380: cd76 973e a96b fcbe 6867 463e 6b97 7fbe
00000390: 77ba 93bd 289a ac3d 2770 883e d9d6 a83c
000003a0: 4fb2 0abd 72b7 723c 7aa5 433e 99ec b33e
000003b0: b79a 0a3f c306 2cbf 6372 223e 7c27 973d
000003c0: 9d6e 34be 3ae4 a1be 4e20 9bbe 52a1 f7be
000003d0: 29b2 4dbe 9ee6 2bbe 3db5 d93e 44db c8be
000003e0: cc8c 573d d17a 993d 4323 a03e 1bcf 96be
000003f0: e123 80be 6dea 42be ead5 283e 85ae a0bf

fc2.bias f4 [300]
0.06292562 0.3737363 -0.046832483 0.003739635 0.0055402643 -0.13563357 -0.0062515074 -0.20841907
0.05890612 -0.53395146 -0.34363893 -0.26338005 -0.0008161163 0.24276851 -0.37521532 0.1072155
-0.21434453 -0.08885562 -0.3841841 -0.011362222 0.001175358 0.22808056 -0.2932562 0.07327271
-0.24066843 -0.016140945 0.019660857 -0.082900405 0.106538735 -0.05978508 -0.14376003 -0.0033322775
0.066101946 -0.42297938 -0.07012826 0.032131124 -0.34735098 -0.009011702 -0.13837989 -0.23742156
0.09436291 0.10073214 -0.05321517 -0.2884996 -0.26750037 0.34587994 -0.043458715 0.16096881
-0.096414156 -0.22204007 -0.081232615 0.17624737 0.041911796 0.23468192 -0.4349612 -0.25887784
-0.14669882 -0.015819155 0.19755323 -0.27978185 -0.043155674 -0.021090358 -0.028205844 -0.012077483
0.0060346466 0.0064263 -0.014019351 -0.13746634 -0.40159473 -0.039873976 0.026995417 -0.0405914
-0.3778273 -0.149147 0.0070168846 0.16328615 0.020772796 -0.048384827 -0.21296275 -0.16862622
0.09178459 -0.123421595 0.24226156 -0.09907015 -0.037788834 0.15296514 0.01834113 -0.2543444
-0.087197855 -0.04501735 -0.14162374 -0.11611632 0.11560441 -0.07675474 -0.122405864 -0.3173078
-0.34624696 0.20518172 -0.26364848 0.32622787 0.010193074 -0.065724395 -0.09258693 -0.050203014
0.0066039255 -0.03269556 -0.0032739094 -0.11243454 -0.5847612 -0.11588168 -0.019106112 0.07945449
-0.05066502 -0.07365331 0.13824306 0.14248578 -0.04596753 -0.067765355 -0.01727559 0.030685272
0.0711898 -0.12957296 -0.32628688 -0.0019531199 0.012050438 -0.034429636 -0.0684489 -0.25205567
0.010056523 0.1641779 0.11870202 -0.11862297 -0.32812276 0.1876202 -0.17790362 0.19957383
0.026311452 -0.2707761 0.13414042 -0.2804019 0.14820912 -0.02936292 -0.23066239 -0.3936046
-0.0058730575 -0.24596661 0.0056473142 0.050423924 -0.059643175 -0.22749639 -0.10509703 -0.35349703
0.012406133 -0.021180464 -0.044505645 -0.24465549 -0.34059146 0.023908867 -0.07026273 -0.02668643
-0.047892135 0.16551563 -0.043392025 0.0001774039 -0.17625315 -0.016535545 -0.100476265 0.07587151
-0.18894067 -0.046474114 0.2418613 -0.017075542 0.14962919 -0.039043635 -0.05913952 -0.09562246
-0.34863958 -0.06749937 -0.19900246 0.065080985 -0.029265469 -0.00019920386 0.0035704698 -0.42388728
0.17282239 -0.07860232 -0.03692761 -0.18782927 -0.038228143 0.011769489 -0.033860404 -0.021271447
-0.25779802 -0.20296976 -0.14123362 -0.14086184 -0.13759378 -0.00072052196 -0.008367357 0.39183658
-0.08110453 -0.061940372 0.07218401 -0.35095662 -0.03823389 0.011168315 -0.07675608 -0.04025994
-0.24299373 -0.060401548 -0.54745734 -0.32600138 -0.0069503128 0.039400335 -0.050133806 -0.10561204
-0.22258231 0.051537585 0.1889751 -0.049383678 -0.017802613 -0.015740542 -0.08396678 -0.012416905
-0.3133941 0.002451516 -0.34677073 0.2495614 -0.028183509 -0.36418584 -0.15621808 -0.01450467
-0.0063745272 0.0030725237 0.053594917 -0.15026581 -0.13285334 -0.21166663 0.13832405 0.18712832
-0.058372468 -0.4355056 0.059901938 -0.37249056 -0.2404487 0.4385716 -0.029633291 -0.014658531
-0.18911268 -0.006907427 0.08688176 -0.5442183 0.23369162 -0.33788553 -0.2391892 -0.017626353
00000000: 26df 803d 5d5a bf3e 6bd3 3fbd aa14 753b
00000010: 1b8b b53b 87e3 0abe 72d9 ccbb cf6b 55be
00000020: 8b47 713d 0bb1 08bf 71f1 afbe c0d9 86be
00000030: a3f0 55ba 4f98 783e 391c c0be cd93 db3d
00000040: 227d 5bbe eff9 b5bd c7b3 c4be 9d28 3abc
00000050: 780e 9a3a f38d 693e ad25 96be 0110 963d
00000060: c971 76be 043a 84bc ce0f a13c b0c7 a9bd
00000070: fb30 da3d 33e1 74bd d435 13be 5762 5abb
00000080: 7560 873d c190 d8be 689f 8fbd ed9b 033d
00000090: fdd7 b1be d1a5 13bc 75b3 0dbe a31e 73be
000000a0: 5741 c13d a74c ce3d 26f8 59bd 38b6 93be
000000b0: cff5 88be 2d17 b13e c401 32bd 02d5 243e
000000c0: c974 c5bd 795e 63be 495d a6bd 317a 343e
000000d0: b4ab 2b3d 7550 703e 3cb3 debe a38b 84be
000000e0: 3738 16be 2c97 81bc 654b 4a3e 913f 8fbe
000000f0: 01c4 30bd b0c5 acbc f10f e7bc a3e0 45bc
00000100: 49be c53b b693 d23b 6cb1 65bc fac3 0cbe
00000110: d39d cdbe e552 23bd 7e25 dd3c 2b43 26bd
00000120: 9472 c1be feb9 18be e5ed e53b 7c34 273e
00000130: b62b aa3c 2b2f 46bd e812 5abe 5aac 2cbe
00000140: 8ff9 bb3d 76c4 fcbd 6a13 783e 4ae5 cabd
00000150: 77c8 1abd e5a2 1c3e 2340 963c 6e39 82be
00000160: ca94 b2bd 1d64 38bd d005 11be 65ce edbd
00000170: 01c2 ec3d 9731 9dbd edaf fabd 2b76 a2be
00000180: 4847 b1be 281b 523e effc 86be 5707 a73e
00000190: da00 273c 839a 86bd 379e bdbd ada1 4dbd
000001a0: be65 d83b c8eb 05bd 168f 56bb 1544 e6bd
000001b0: e9b2 15bf 6053 edbd 6c84 9cbc 09b9 a23d
000001c0: 2086 4fbd 8cd7 96bd 978f 0d3e cbe7 113e
000001d0: 7348 3cbd 90c8 8abd 8a85 8dbc ae5f fb3c
000001e0: f5cb 913d c6ae 04be 130f a7be d4ff ffba
000001f0: 336f 453c 1706 0dbd f02e 8cbd 710d 81be
00000200: 1dc4 243c 401e 283e 0b1a f33d 9af0 f2bd
00000210: b5ff a7be 821f 403e 5e2c 36be 155d 4c3e
00000220: 1d8b d73c 2aa3 8abe 1b5c 093e d690 8fbe
00000230: 22c4 173e 828a f0bc c332 6cbe 8b86 c9be
00000240: c772 c0bb acde 7bbe 1b0d b93b 5189 4e3d
00000250: 674c 74bd d0f4 68be 1d3d d7bd 90fd b4be
00000260: 1843 4b3c a782 adbc 8d4b 36bd f886 7abe
00000270: 0162 aebe 87dc c33c e8e5 8fbd 809d dabc
00000280: 8b2a 44bd ee7c 293e d6bb 31bd 7f05 3a39
00000290: b57b 34be 8d75 87bc 80c6 cdbd 8662 9b3d
000002a0: aa79 41be a45b 3ebd 7daa 773e 02e2 8bbc
000002b0: 6538 193e 38ec 1fbd 483c 72bd b5d5 c3bd
000002c0: e380 b2be 1c3d 8abd 4dc7 4bbe 2e49 853d
000002d0: 23be efbc 61e1 50b9 8bfe 693b c107 d9be
000002e0: 5af8 303e 41fa a0bd 6841 17bd 5156 40be
000002f0: 1d95 1cbd d1d4 403c 35b1 0abd 7541 aebc
00000300: 1afe 83be 4ed7 4fbe 8c9f 10be 163e 10be
00000310: 62e5 0cbe 69e1 3cba 3d17 09bc ce9e c83e
00000320: 221a a6bd 30b5 7dbd 36d5 933d 96b0 b3be
00000330: 249b 1cbd 4ffb 363c 4b32 9dbd 9be7 24bd
00000340: 59d3 78be 9d67 77bd 2a26 0cbf a7e9 a6be
00000350: 73bf e3bb 3f62 213d 1b59 4dbd 204b d8bd
00000360: 9eec 63be 1319 533d b082 413e 8a46 4abd
00000370: c9d6 91bc 4ff2 80bc c6f6 abbd 4670 4bbc
00000380: 3175 a0be 9da9 203b ef8b b1be 068d 7f3e
00000390: 1ae1 e6bc 9176 babe a2f7 1fbe ffa4 6dbc
000003a0: 69e1 d0bb 655c 493b 5886 5b3d 48df 19be
000003b0: b50a 08be 23bf 58be d2a4 0d3e 919e 3f3e
000003c0: f817 6fbd 97fa debe bc5b 753d 15b7 bebe
000003d0: 2f38 76be 758c e03e 84c1 f2bc 562a 70bc
000003e0: c1a6 41be b357 e2bb 10ef b13d e451 0bbf
000003f0: db4c 6f3e 55ff acbe 03ee 74be 2465 90bc

fc3.weight f4 [4, 300]
0.14234671 -0.19369397 -0.02715072 -0.014597495 0.3987972 0.12207751 0.0029321217 -0.15112045
-0.5316556 0.07156036 -0.38418645 -0.73471665 -0.009415205 1.9733638 -0.6470015 0.25356296
0.28708798 0.392431 -0.9226537 0.03905199 -1.6182833 -3.7389958 -1.0963354 -0.63199526
-0.6123236 -0.02768016 -0.012240355 -0.7433963 0.58261126 -0.56367016 0.041833445 0.07776492
0.5130683 0.6252844 -0.029751377 0.28671968 0.29134667 0.0102922665 -1.1310078 0.97930795
-0.021810286 -0.26130068 0.2280805 -0.09438104 -0.45701373 0.7303543 -0.69521993 -0.6562045
1.273368 -0.41390964 -0.23428316 0.0018854948 0.0013507352 0.95991707 1.3360558 0.051089484
0.17495666 -0.16505496 0.6747247 0.3111997 -0.015024188 -0.18015829 0.034364622 0.27213842
0.02141227 -0.04611799 -0.0057692635 0.1640947 1.1661245 -1.1084355 0.15664224 -0.3031658
0.033184487 -0.2530181 -0.011624352 0.32880223 -0.016968597 -0.22921763 0.72515595 1.7692959
-0.21103275 0.3360844 -0.04503176 -0.6059081 -0.023457129 0.1813691 -0.10545323 0.11278296
0.5306506 -0.0079675075 0.60172033 0.36885038 0.2157151 0.35934103 -0.48590368 -1.7264957
1.4711636 -0.57818377 0.6025286 0.22258736 0.011635684 -0.46020928 -0.15184481 -0.034930613
-0.022626078 0.6711479 -0.19747399 -0.26434827 -0.26864722 0.22631906 0.66212493 -0.74303347
0.03281291 0.019872064 -0.20678724 0.10297672 -0.005461829 -0.33300605 -0.04483138 -1.4478778
0.20875251 0.16778572 -0.539326 -0.13236125 -0.6038814 -0.036916774 -0.049189527 1.1309575
-0.003382671 1.569419 -0.059135888 0.19099937 -0.7055584 0.3777485 -0.93884546 0.24692048
0.2581575 -0.04736606 -0.2507821 0.19046685 0.0137401875 0.030079035 -0.042978294 -0.28411385
0.0010592283 1.7466099 0.005184398 -0.11165158 0.04089695 -1.2203255 1.7648014 0.083170235
0.0022587327 0.029899811 0.21981925 0.12477732 -1.2056023 0.106355265 -0.021361938 -0.06142422
-0.018777503 0.15556313 -0.0117878085 -0.012730196 0.6169318 -0.30801266 -0.29791182 0.3940104
0.0864366 -0.9134201 0.013039735 0.008864021 0.019075051 0.10613026 0.013721488 -0.20129181
-0.45106825 -0.048933487 0.64066184 -0.29071596 -0.29816318 0.14412276 -0.034495585 0.8965303
0.55410886 0.47471407 -0.4713378 -0.6959789 0.01362066 -0.6895999 -0.4871609 -0.010282355
-0.38757297 0.22314917 0.13889205 0.33859214 0.0037793673 -0.59601206 -0.61010605 0.4104749
0.552469 0.014662684 0.7977659 -0.22660431 -0.026767176 -0.01461604 -1.598315 -0.21123394
0.08217335 -1.1227536 -0.6688227 -0.18942437 -0.36577392 0.20081985 -0.008767893 0.2426271
-0.28517407 -0.6776816 -0.7431349 0.0076424074 -0.0061128293 0.008802625 -0.5144609 0.058150046
-0.3685091 0.13803038 0.81505203 -0.07180745 -0.039529067 0.56522906 -0.5586344 -0.027618226
0.37115327 -0.014861154 0.67499983 -1.1436603 1.5976511 -0.42523995 1.1187112 -0.061352897
0.00931688 0.5264225 0.34507492 -0.32023287 0.5209885 0.35916248 -1.4008185 0.03856328
-0.081734255 -0.0024345587 -0.046638962 -0.15540855 0.39235276 -1.3456903 -0.21838681 -0.03951566
00000000: 56c3 113e b657 46be 306b debc 552a 6fbc
00000010: 262f cc3e c603 fa3d d728 403b 52bf 1abe
00000020: 951a 08bf 3d8e 923d 16b4 c4be 6416 3cbf
00000030: 3b42 1abc 2f97 fc3f e4a1 25bf 01d3 813e
00000040: 32fd 923e b7ec c83e 0833 6cbf fbf4 1f3d
00000050: e823 cfbf b54b 6fc0 b854 8cbf 71ca 21bf
00000060: 3dc1 1cbf 81c1 e2bc c58b 48bc 384f 3ebf
00000070: 0326 153f b04c 10bf 8c59 2b3d 3743 9f3d
00000080: 7258 033f a312 203f 29b9 f3bc eccc 923e
00000090: 642b 953e e5a0 283c ddc4 90bf edb3 7a3f
000000a0: 7cab b2bc 34c9 85be ef8d 693e d94a c1bd
000000b0: b4fd e9be 80f8 3a3f eff9 31bf 05fd 27bf
000000c0: b9fd a23f f7eb d3be ede7 6fbe b522 f73a
000000d0: 270b b13a 20bd 753f e003 ab3f 3543 513d
000000e0: d727 333e 2b04 29be c2ba 2c3f 9155 9f3e
000000f0: 0328 76bc 6a7b 38be ebc1 0c3d ba55 8b3e
00000100: c968 af3c 38e6 3cbd 170c bdbb 7108 283e
00000110: 9143 953f 37e1 8dbf d366 203e 8c38 9bbe
00000120: 75ec 073d 978b 81be 1174 3ebc c458 a83e
00000130: ba01 8bbc 07b8 6abe d2a3 393f 4a78 e23f
00000140: f818 58be 4113 ac3e 3973 38bd cb1c 1bbf
00000150: 2a29 c0bc d2b8 393e ddf7 d7bd c1fa e63d
00000160: b8d8 073f 268a 02bc 580a 1a3f f5d9 bc3e
00000170: 6be4 5c3e 8cfb b73e 5ec8 f8be d0fd dcbf
00000180: 174f bc3f da03 14bf 503f 1a3f f1ed 633e
00000190: 99a3 3e3c 8da0 ebbe 357d 1bbe 6713 0fbd
000001a0: 535a b9bc 59d0 2b3f 9f36 4abe a858 87be
000001b0: 218c 89be 2fc0 673e 0581 293f 7137 3ebf
000001c0: d466 063d bdca a23c 09c0 53be 75e5 d23d
000001d0: 24f9 b2bb c57f aabe 1ca1 37bd 0f54 b9bf
000001e0: 38c3 553e 05d0 2b3e 4511 0abf b589 07be
000001f0: f997 1abf 0b36 17bd f57a 49bd 37c3 903f
00000200: cdaf 5dbb b9e2 c83f 7938 72bd 5795 433e
00000210: 7a9f 34bf 4068 c13e 2d58 70bf b9d8 7c3e
00000220: 382d 843e ea02 42bd 8366 80be be09 433e
00000230: 861e 613c 4f68 f63c 020a 30bd 5f77 91be
00000240: ced5 8a3a ea90 df3f e2e1 a93b 95a9 e4bd
00000250: 8f83 273d a033 9cbf 03e5 e13f 2855 aa3d
00000260: 3f07 143b 73f0 f43c 4c18 613e 408b ff3d
00000270: 2d51 9abf cad0 d93d 3bff aebc f797 7bbd
00000280: 47d3 99bc f14b 1f3e a721 41bc 5092 50bc
00000290: 3eef 1d3f d6b3 9dbe e687 98be bbbb c93e
000002a0: ac05 b13d e6d5 69bf 9da4 553c 663a 113c
000002b0: 4843 9c3c d25a d93d 18d0 603c 711f 4ebe
000002c0: 6bf2 e6be 7b6e 48bd 6a02 243f b9d8 94be
000002d0: d8a8 98be eb94 133e 3e4b 0dbd 0283 653f
000002e0: 14da 0d3f b90d f33e 3053 f1be ac2b 32bf
000002f0: 3029 5f3c 9e89 30bf 276d f9be 5377 28bc
00000300: f76f c6be 3781 643e b839 0e3e f35b ad3e
00000310: 43af 773b 3f94 18bf e92f 1cbf c429 d23e
00000320: 9c6e 0d3f c13b 703c 633a 4c3f f60a 68be
00000330: d646 dbbc 1d78 6fbc 9695 ccbf b64d 58be
00000340: 804a a83d 64b6 8fbf f737 2bbf 76f8 41be
00000350: b846 bbbe b8a3 4d3e 35a7 0fbc 3d73 783e
00000360: 5602 92be 8b7c 2dbf 173e 3ebf 296d fa3b
00000370: 214e c8bb e338 103c b6b3 03bf be2e 6e3d
00000380: 3aad bcbe d657 0d3e 40a7 503f c90f 93bd
00000390: 3be9 21bd dab2 103f aa02 0fbf 9e3f e2bc
000003a0: cd07 be3e 337c 73bc cacc 2c3f 7663 92bf
000003b0: d57f cc3f 0db9 d9be ee31 8f3f 2d4d 7bbd
000003c0: d4a5 183c a0c3 063f a9ad b03e 90f5 a3be
000003d0: 815f 053f 25e4 b73e 054e b3bf 88f4 1d3d
000003e0: 4a64 a7bd 1e8d 1fbb 7f08 3fbd 6b23 1fbe
000003f0: 76e2 c83e 943f acbf cba0 5fbe 2cdb 21bd

fc3.bias f4 [4]
-0.05585606 0.15812789 0.05869632 -0.02338091
00000000: 53c9 64bd 47ec 213e 8d6b 703d 5289 bfbc
