BipedalWalkerHardcore-TD3-FORK/dir_bpw_td3_fork/weights_sysmodel_final_315.85.pth (torch_old, 557524 bytes, 6 tensors)

l1.weight f4 [400, 28]
0	0xbe8499f4	-0.25898707
1	0xbe68c45c	-0.22731155
2	0x3d49bdca	0.049253263
3	0x3d121b5b	0.03567062
4	0xbe981eae	-0.29710907
5	0x3d24f085	0.04026844
6	0xbe86c4f8	-0.2632215
7	0x3d3822c2	0.044955023
8	0xbecdbd16	-0.40183324
9	0x3d276bc9	0.040874276
10	0xbc5099a5	-0.012731944
11	0x3b829370	0.003984861
12	0xbb98a7cf	-0.004658676
13	0x3bf34869	0.0074244034
14	0x3fa78a71	1.3089124
15	0x3f3b285b	0.7310845
16	0x3f0b7b1a	0.54484713
17	0x3e881fc0	0.26586723
18	0xbf028f32	-0.5099975
19	0x3d291c9e	0.041287057
20	0xbdde5e92	-0.108578816
21	0xbcdd801c	-0.027038626
22	0x3c0e78ef	0.008695825
23	0xbd91a1f1	-0.07110966
24	0x3cd38cdf	0.025824009
25	0x3ce3f45b	0.027826479
26	0x3cc14d48	0.02359642
27	0x3c3330fc	0.010936972
28	0xbe13bd35	-0.14427646
29	0x40107395	2.2570546
30	0x3d9d2cbb	0.07674547
31	0xbe95ae88	-0.2923472
32	0xbe2e61c5	-0.17029484
33	0x3ed9c3fc	0.42532337
34	0x3d174662	0.036932357
35	0xbf4ce75e	-0.8004054
36	0x3e9e73bf	0.30947682
37	0x3e88c7f3	0.2671505
38	0xbdf3131f	-0.118688814
39	0x3e48920a	0.1958696
40	0xbd56303c	-0.052292094
41	0x3d808854	0.062760025
42	0xbf3412f8	-0.70341444
43	0xbe208285	-0.15674789
44	0x3e7f7bfa	0.24949637
45	0xbd3fc5e6	-0.04681959
46	0xbcb41da0	-0.021986783
47	0xbe02774d	-0.12740822
48	0x3d9aff71	0.07568253
49	0xbc70b8a7	-0.014692462
50	0xbe022445	-0.12709148
51	0xbe686c0d	-0.22697468
52	0x3d5cb0bb	0.05387948
53	0x3b998aef	0.0046857516
54	0xbc24a6a0	-0.010049492
55	0xbbee6d72	-0.0072762305
56	0xbbeb4d22	-0.007180826
57	0x3f922a79	1.1419212
58	0xbe8a35f8	-0.269943
59	0xbf8434c3	-1.0328602
60	0x3e7a60d1	0.24450995
61	0x3e7bfd0c	0.24608248
62	0x3e2e8abe	0.17045113
63	0x3dd38a4b	0.10329112
64	0xbebc5fc4	-0.36791813
65	0xbdb26b45	-0.08711866
66	0x3d314594	0.043279245
67	0xbea424e1	-0.32059386
68	0x3d7f5356	0.062335335
69	0x3d494564	0.04913844
70	0x3ef3a6d7	0.47588226
71	0xbf006f85	-0.50170165
72	0xbe8a3a6a	-0.2699769
73	0x3eb0dc3a	0.3454302
74	0xbc9785e7	-0.018496467
75	0xbaefeac2	-0.0018304216
76	0x3e0677a6	0.1313158
77	0xbbb45a4d	-0.0055039288
78	0xbc4fbe99	-0.012679719
79	0xbce2d45c	-0.027689151
80	0xbc78c14b	-0.015182803
81	0x3dd547fe	0.10414122
82	0x3d9d20dd	0.07672284
83	0xbdbfab51	-0.09358848
84	0xbf44e980	-0.7691879
85	0xbdbf0402	-0.09326936
86	0xbc32100b	-0.010868083
87	0x3ef97376	0.48720902
88	0x3edee420	0.4353342
89	0x3dfdc816	0.12391679
90	0x3e767a58	0.24070108
91	0x3de89e7b	0.11358353
92	0xbe0bd825	-0.13656671
93	0x3f5d6ab5	0.86490947
94	0x3f0e0e90	0.5549097
95	0x3e7a2729	0.24429001
96	0x3f09d216	0.5383619
97	0x3e846291	0.2585645
98	0x3e914d53	0.28379306
99	0x3e3c63da	0.18397465
100	0xbecd0f7d	-0.4005088
101	0xbf2c66f0	-0.6734457
102	0xbeade0c0	-0.33960533
103	0xbdaf8ea4	-0.085721284
104	0xbe47254a	-0.19447818
105	0xbeb41472	-0.3517185
106	0x3e3d9ed9	0.18517627
107	0x3e25556d	0.16145869
108	0xbc65e41b	-0.014031435
109	0x3defa507	0.11701398
110	0x3c992707	0.018695368
111	0x3d7009c2	0.058603056
112	0x3d9607e6	0.07325725
113	0xbf112538	-0.56697416
114	0xbda0cfd0	-0.07852137
115	0x3ee9ec85	0.45688263
116	0x3d867edf	0.065671675
117	0x3d81e1f5	0.06341926
118	0x3d478caa	0.048718132
119	0x3c4a0e09	0.012332448
120	0xbc98628b	-0.018601676
121	0xbded194d	-0.11577091
122	0xbf052f4c	-0.52025294
123	0x3e8274b8	0.25479674
124	0xbea5c525	-0.32376972
125	0xbd941426	-0.072304055
126	0x3e1b542a	0.15168825
127	0xbdce3b10	-0.10069859
128	0x3e1488d7	0.14505325
129	0xbdaad6a8	-0.08341724
130	0x3d2bfc6f	0.041988786
131	0x3d22650a	0.03964714
132	0xbb8ce072	-0.004299217
133	0x3dd9c6cf	0.10633623
134	0x3cbd8579	0.023134934
135	0x3d0931b2	0.03349466
136	0xbd7adf4a	-0.0612481
137	0x3ca4407f	0.020050285
138	0xbe41e8a9	-0.18936409
139	0xbf5af44d	-0.85529023
140	0xbf44e433	-0.76910704
141	0xbf3caefd	-0.7370451
142	0x3e73debe	0.23815438
143	0x3e9887b8	0.29791045
144	0xbf2f48df	-0.6847057
145	0xbde2aed8	-0.11068505
146	0xbe721bed	-0.23643465
147	0xbd15b63c	-0.036550745
148	0x3eb39066	0.35071105
149	0xbd3f927f	-0.04677057
150	0x3b9cee60	0.0047891587
151	0xbdefadea	-0.11703093
152	0x3a4fa3ec	0.00079208496
153	0xbcbceac9	-0.023061173
154	0x3f1041f2	0.56350625
155	0xbf0b8cd3	-0.54511756
156	0xbf380e2d	-0.7189663
157	0xbec73d00	-0.38913727
158	0xbdb161d9	-0.08661241
159	0x3cdc2bef	0.026876418
160	0xbdea4453	-0.11438813
161	0xbda12b23	-0.07869556
162	0xbcb66a8a	-0.022267599
163	0x3d72853c	0.059209093
164	0xbd1b9e77	-0.03799292
165	0x3cc406c3	0.023929005
166	0xbcb073bc	-0.021539561
167	0x3c9318f4	0.017956235
168	0x3ea96014	0.33081114
169	0x3fb70a6f	1.4300059
170	0xbddff81c	-0.10935995
171	0xbd8cc51b	-0.068735324
172	0x3e1cd3c0	0.15315151
173	0x3e5bf8f7	0.21481691
174	0xbe496bc6	-0.19670019
175	0x3d9cbb4d	0.07652912
176	0xbde99e33	-0.11407127
177	0x3d71f154	0.05906804
178	0x3df79647	0.1208921
179	0xbde9fa5a	-0.11424704
180	0x3d039757	0.03212675
181	0x3d50dc01	0.050991062
182	0x3f145275	0.5793832
183	0x3d9379bf	0.072009556
184	0x3efcfbfe	0.49411005
185	0xbcb18d58	-0.021673843
186	0xbf0abe14	-0.54196286
187	0xbf159c45	-0.58441573
188	0xbd203896	-0.039116465
189	0xbe6236b6	-0.22091183
190	0x3e0e663b	0.13906185
191	0xbe2403ce	-0.16017076
192	0x3e754d66	0.23955306
193	0x3cfba6bd	0.030719155
194	0xbd1c575e	-0.038169257
195	0xbe7dce98	-0.2478584
196	0x3d03eeb6	0.032210074
197	0xbe2b70e2	-0.1674228
198	0x3de573fd	0.11203764
199	0xbf993fb5	-1.1972567
200	0x3f2f95ca	0.68587935
201	0xbd3e5b5b	-0.046473842
202	0x3ebf8894	0.37408888
203	0x3dc2d23d	0.09512756
204	0x3e4e20fc	0.2012977
205	0xbea9d063	-0.331668
206	0x3e9fc3ff	0.3120422
207	0x3e9899c3	0.2980481
208	0x3e042a64	0.12906796
209	0x3dc96ae7	0.09834843
210	0x3f806bf6	1.0032947
211	0xbe018b7d	-0.12650867
212	0xbf56fa80	-0.8397598
213	0xbe9a706b	-0.30163893
214	0xbe94129d	-0.2892045
215	0x3e1156ab	0.14193217
216	0x3d4e3039	0.050338957
217	0xbeb73402	-0.35781866
218	0xbe235f9b	-0.1595444
219	0xbde314f7	-0.11087983
220	0xbe0d5ff6	-0.13806137
221	0x3b90ec67	0.0044227126
222	0x3e5c2576	0.21498665
223	0x3e8ca10e	0.27466625
224	0x3dccb8be	0.09996174
225	0xbe6a3539	-0.22871865
226	0x3e659dbf	0.22423457
227	0xbf98002c	-1.1875052
228	0x3ec55e16	0.38548344
229	0xbe548bfb	-0.20756523
230	0x3c358467	0.01107893
231	0xbe011cf0	-0.12608695
232	0x3e9e6dbe	0.30943102
233	0x3c316424	0.010827098
234	0x3ce370d6	0.027763765
235	0x3e90c92e	0.28278488
236	0x3c3916ff	0.011296987
237	0xbdb8c8a8	-0.09022647
238	0x3e7fc16a	0.24976125
239	0xbe606adc	-0.21915764
240	0x3ecaa98e	0.39582485
241	0xbe893cfe	-0.26804346
242	0x3ea066ae	0.31328338
243	0x3de94479	0.11390013
244	0x3dd87166	0.10568504
245	0xbd062a19	-0.03275499
246	0x3aa62372	0.0012675358
247	0xbed09f96	-0.40746754
248	0xbdeea506	-0.116525695
249	0xbd3ab50d	-0.04558282
250	0x3b243134	0.0025053741
251	0xbc07add0	-0.008281186
252	0x3d76cfa9	0.060256634
253	0xbdca7f37	-0.098875456
254	0xbd641a2a	-0.055689014
255	0x3f373516	0.7156538

l1.bias f4 [400]
0	0xbf352043	-0.7075235
1	0xbefcf7f5	-0.49407926
2	0xbdf838eb	-0.12120231
3	0x3d2436e7	0.04009142
4	0xbeee2abd	-0.46516982
5	0x3f326323	0.6968252
6	0xbd25ff4e	-0.04052668
7	0xbf064fb8	-0.5246539
8	0xbe90045f	-0.28128335
9	0xbd4459a8	-0.047937065
10	0xbd187be2	-0.03722752
11	0xbe90e6b9	-0.28301027
12	0xbf2e8125	-0.6816581
13	0x3f224b7c	0.6339643
14	0xbe4704fb	-0.19435494
15	0xbe86a6db	-0.26299176
16	0xbe809597	-0.25114128
17	0x3eb68e9b	0.35655674
18	0x3eb68fd5	0.3565661
19	0xbecec9a1	-0.40388206
20	0xbf05c556	-0.52254236
21	0xbe0ac26a	-0.13550726
22	0xbe996a1c	-0.29963768
23	0xbe692896	-0.22769389
24	0x3d5cbff1	0.053893987
25	0x3f651248	0.8948102
26	0xbd34d63d	-0.044149626
27	0xbf34d430	-0.7063627
28	0x3f0a81b6	0.54104173
29	0xbb93e29c	-0.004513098
30	0x3d9ca2c9	0.07648236
31	0xbeaccfc5	-0.33752266
32	0x3e8210fe	0.2540359
33	0x3db15733	0.0865921
34	0xbf227604	-0.6346133
35	0x3de1e8f8	0.110307634
36	0xbda67525	-0.08127812
37	0xbe4c7b79	-0.19968976
38	0xbfb65613	-1.4245018
39	0xbccb640d	-0.024827981
40	0xbe98422f	-0.29737994
41	0x3f0a4a32	0.54019463
42	0x3ea0700f	0.31335494
43	0x3ef97d39	0.4872835
44	0xbf307e1d	-0.68942434
45	0x3e2a1c1c	0.16612285
46	0x3e775f1b	0.24157374
47	0x3e931d54	0.28733313
48	0x3e0fb713	0.14034681
49	0xbee0eeb7	-0.43932125
50	0xbe87d641	-0.2653065
51	0xbee37f11	-0.4443288
52	0xbe60b77b	-0.21944992
53	0xbe2530b0	-0.16131854
54	0xbe2475ea	-0.16060606
55	0x3e81da47	0.25361845
56	0xbe2cb0d6	-0.16864333
57	0xbc1a289d	-0.009409097
58	0xbf12890d	-0.5724037
59	0x3e5865ab	0.21132533
60	0xbed14d8a	-0.4087947
61	0x3d2ce0d9	0.04220662
62	0x3e9c94c9	0.30582264
63	0x3da21380	0.079138756
64	0xbe55ce8b	-0.20879571
65	0x3ed712ba	0.42006475
66	0xbed8dea4	-0.4235736
67	0xbe26e868	-0.16299593
68	0xbf412043	-0.7543985
69	0x3e9eee2b	0.31041083
70	0x3e250331	0.16114499
71	0x3eb6c475	0.3569676
72	0xbea1e468	-0.31619573
73	0xbee5b1dd	-0.4486226
74	0xbea508e1	-0.32233337
75	0xbe9b1a09	-0.302933
76	0xbef2daff	-0.47432706
77	0x3e25ee19	0.16204108
78	0x3e263825	0.16232355
79	0xbf389abc	-0.72111106
80	0xbee77965	-0.45209804
81	0xbf0b5411	-0.5442515
82	0x3ec64915	0.38727632
83	0xbf0ed619	-0.5579544
84	0x3ec034ba	0.37540227
85	0xbf75d436	-0.96026933
86	0xbcecfcc2	-0.028929118
87	0xbeae625b	-0.34059414
88	0xbea46490	-0.32107973
89	0xbdee2e07	-0.11629873
90	0x3e7dbc9d	0.24778982
91	0xbdebd6ec	-0.115156025
92	0x3dd97d85	0.10619644
93	0x3f5bfad5	0.85929614
94	0x3f084984	0.53237176
95	0xbe2084b2	-0.15675619
96	0xbecc9fa8	-0.39965558
97	0xbf06b757	-0.52623504
98	0x3bc1c1d5	0.005912999
99	0xbd412dc9	-0.047162805
100	0xbf3b1ecc	-0.7309387
101	0x3e585e95	0.2112983
102	0x3e9f114e	0.3106789
103	0x3c1c56b5	0.009542157
104	0xbf73e78d	-0.95275193
105	0xbde83b6c	-0.11339459
106	0xbeee967f	-0.46599194
107	0xbeeabd39	-0.4584749
108	0xbf255e05	-0.6459659
109	0x3db2d2ca	0.08731611
110	0xbf502de6	-0.81320035
111	0x3f24d795	0.6439145
112	0x3ebcee8f	0.36900756
113	0x3f2fd927	0.68690723
114	0xbf0033ad	-0.5007885
115	0x3f06055c	0.5235193
116	0x3c6805ed	0.014161569
117	0x3f1036f5	0.5633386
118	0xbb4c83c0	-0.0031206459
119	0xbee5a284	-0.44850552
120	0x3e495d04	0.19664389
121	0xbe157ad5	-0.14597638
122	0x3dcb773a	0.0993485
123	0x3e9c331a	0.30507737
124	0xbe851562	-0.25992876
125	0x3e655bf0	0.22398353
126	0x3eb76b88	0.35824227
127	0xbf4c8d1f	-0.79902834
128	0xbee94b0c	-0.4556507
129	0xbf625041	-0.8840371
130	0xbed7a679	-0.42119196
131	0xbf0d0db5	-0.5509904
132	0xbe68548c	-0.22688502
133	0xbdac2a9c	-0.084065646
134	0xbd2b2720	-0.04178536
135	0xbe01b9c7	-0.12668525
136	0xbf503db7	-0.8134417
137	0x3d7f1fb4	0.062286094
138	0xbf7473e6	-0.95489347
139	0x3e5816d6	0.21102461
140	0xbbb3be88	-0.0054853596
141	0xbe4201d2	-0.18946007
142	0xbeaf88cc	-0.34284055
143	0x3f473b8a	0.77825224
144	0xbd95e7e7	-0.073196225
145	0xbf56cfc1	-0.8391076
146	0x3f0612c7	0.523724
147	0xbebdd22b	-0.37074408
148	0xbe081533	-0.13289337
149	0xbeb9dddf	-0.36302087
150	0xbcc6bbc5	-0.024259457
151	0xbd65cd33	-0.056103896
152	0x3f89fb82	1.0779879
153	0xbeaa3d1a	-0.33249742
154	0xbcdc945d	-0.026926214
155	0xbeb7888b	-0.35846362
156	0xbe1e4939	-0.1545762
157	0xbdf83f14	-0.12121406
158	0x3ec41db4	0.38303912
159	0xbc951bde	-0.018201765
160	0xbeab1ce8	-0.3342049
161	0xbebbe6c3	-0.36699495
162	0xbdcccee4	-0.10000399
163	0x3ce1fd08	0.027586475
164	0xbf40fcff	-0.7538604
165	0xbebfb2fd	-0.37441245
166	0x3d831450	0.06400359
167	0xbc49401b	-0.01228335
168	0x3e23ac92	0.15983799
169	0xbe89fd3f	-0.26951024
170	0xbeb6db0e	-0.35714
171	0x3e12d8e0	0.14340544
172	0xbf39b0a8	-0.7253518
173	0x3eebce7e	0.4605598
174	0x3f70261f	0.9380817
175	0xbf06787d	-0.525276
176	0xbdd6dd35	-0.10491411
177	0x3d11c707	0.035590198
178	0xbedc3a9c	-0.43013465
179	0xbdaedd0c	-0.08538255
180	0xbf67f5e4	-0.90609574
181	0xbf0b8d83	-0.54512805
182	0x3e9f1f6d	0.31078663
183	0xbd60f177	-0.05491778
184	0xbeb3c9d5	-0.35114923
185	0x3e7c3468	0.24629366
186	0x3f8d3fe5	1.1035124
187	0x3e46d9ef	0.19419073
188	0xbea3949d	-0.3194932
189	0xbf3b6528	-0.7320123
190	0xbd369481	-0.044575218
191	0xbefb0373	-0.4902607
192	0x3f0ec97b	0.55776185
193	0x3e6bf7cc	0.23043746
194	0xbe41f3c4	-0.18940645
195	0xbf1419e2	-0.57851994
196	0xbd399378	-0.045306653
197	0x3f10c236	0.5654634
198	0xbcf6c58f	-0.0301235
199	0x3ed657ae	0.4186377
200	0x3d7aed3e	0.061261408
201	0xbec017c5	-0.37518135
202	0xbe83161e	-0.25602812
203	0x3e3bed6d	0.1835229
204	0x3d3f57d5	0.046714623
205	0x3f0a407a	0.54004633
206	0xbea87f6a	-0.3290971
207	0xbf85bb43	-1.0447773
208	0xbc5442f0	-0.012955412
209	0xbf4dfbf6	-0.80462587
210	0xbcc87df9	-0.024474131
211	0xbf1118e3	-0.566786
212	0xbf0e8be0	-0.5568218
213	0xbf6963d1	-0.9116793
214	0x3e467503	0.19380574
215	0xbee3077e	-0.44341654
216	0xbee10fbc	-0.43957317
217	0xbe82d85f	-0.25555703
218	0x3e9bc3e1	0.3042288
219	0xbf348d30	-0.70527935
220	0x3e58541b	0.21125834
221	0xbddf9309	-0.109167166
222	0xbf1ddb15	-0.6166242
223	0xbf829f62	-1.020489
224	0x3e0e3dcd	0.13890763
225	0x3dd1060f	0.10206234
226	0xbef0e68b	-0.4705089
227	0x3d72c887	0.05927327
228	0xbf066bc5	-0.52508193
229	0xbf7964c1	-0.97419363
230	0xbdd4d336	-0.10391848
231	0x3e8bf4dd	0.27335253
232	0xbf081fd2	-0.53173554
233	0xbec906f5	-0.3926312
234	0x3edf4392	0.4360624
235	0xbede3cf6	-0.43405885
236	0xbf126fce	-0.5720185
237	0xbf13fa62	-0.5780393
238	0xbe006c60	-0.12541342
239	0xbf620eeb	-0.88304013
240	0xbe41696a	-0.18887869
241	0xbcae9f29	-0.021316128
242	0x3ea55f7e	0.32299417
243	0x3f17ed3d	0.5934637
244	0xbe5f4a53	-0.21805696
245	0xbf0bf4f6	-0.54670656
246	0xbdbfd195	-0.093661465
247	0x3f206fbe	0.62670505
248	0xbf81373a	-1.0094979
249	0x3e5fe16b	0.21863334
250	0xbf61f39f	-0.8826236
251	0x3e98a682	0.29814535
252	0x3d1fb412	0.038990088
253	0xbe3c5292	-0.18390873
254	0xbf3a722b	-0.72830456
255	0xbebaa34e	-0.36452717

l2.weight f4 [300, 400]
0	0x3c182a90	0.009287491
1	0xbe98082f	-0.29693744
2	0x3d647db0	0.055783927
3	0x3eac0972	0.33600956
4	0xbcaaf1d5	-0.020867268
5	0x3c9cc14e	0.019135144
6	0x3ecc1f2b	0.3986753
7	0xbd05e13e	-0.03268551
8	0xbe6d18bb	-0.23153965
9	0x3eb97f68	0.36230016
10	0x3f27a4be	0.6548575
11	0xbf3203c6	-0.6953701
12	0xbf149b28	-0.5804925
13	0xbe684d21	-0.22685672
14	0xbeb2210f	-0.34790847
15	0xbe972c8e	-0.2952618
16	0x3ef8846f	0.4853854
17	0xbebe1a80	-0.37129593
18	0xbe296b2c	-0.16544789
19	0xbea2f9dd	-0.31831256
20	0xbe6a60fb	-0.22888558
21	0x3da67287	0.08127313
22	0xbd836992	-0.0641662
23	0x3e3e1a47	0.18564712
24	0x3e1551e7	0.14582025
25	0x3e592d7c	0.21208757
26	0x3e8359a8	0.2565434
27	0x3ccb03bf	0.02478206
28	0x3e1eee23	0.1552053
29	0xbeae9106	-0.3409502
30	0x3f0f48a3	0.5597021
31	0xbdc8382e	-0.097763404
32	0xbf706ff7	-0.93920845
33	0x3f3de1da	0.7417275
34	0x3dea959e	0.114543185
35	0x3ef2000d	0.47265664
36	0xbd03e82a	-0.03220383
37	0xbf4f7ca7	-0.8104958
38	0x3e2613cc	0.1621849
39	0x3f051cbc	0.5199697
40	0x3d57961a	0.052633382
41	0xbf6e1cf5	-0.93012935
42	0x3eac6315	0.33669344
43	0xbefc11ca	-0.49232322
44	0xbf64349a	-0.89142764
45	0xbaaa93db	-0.0013014035
46	0x3da8779c	0.08225939
47	0x3e8551cc	0.2603897
48	0xbd2007bf	-0.039069887
49	0xbe6e5af7	-0.23276888
50	0x3d9a2b0d	0.075277425
51	0x3e330406	0.17482004
52	0xbeefa922	-0.46808726
53	0x3eca9478	0.39566398
54	0xbe468d15	-0.19389756
55	0x3f08a3f8	0.53375196
56	0xbf544a83	-0.82926196
57	0x3f0b512f	0.5442075
58	0xbdc124fe	-0.09430884
59	0xbed8f8d6	-0.42377347
60	0x3f9d9345	1.2310568
61	0x3d4d933a	0.050189234
62	0x3d46acfc	0.048504815
63	0x3d866aa7	0.06563311
64	0x3dc3a7c5	0.09553484
65	0xbe680420	-0.22657824
66	0xbfa70fc7	-1.305169
67	0x3f0ecf89	0.55785424
68	0x3d598c72	0.053112455
69	0x3e974d27	0.2955105
70	0xbf69752b	-0.9119441
71	0xbdfd9693	-0.123822354
72	0xbe98c7d1	-0.29839948
73	0x3e5da890	0.21646333
74	0xbe9ba990	-0.30402803
75	0x3e03f122	0.12884954
76	0x3ed2d4ed	0.41178074
77	0xbe460ad6	-0.19340071
78	0x3e49674b	0.1966831
79	0xbc801163	-0.01563329
80	0xbd039a0a	-0.032129325
81	0xbe8138c0	-0.2523861
82	0xbd9fcae7	-0.078023724
83	0x3df46fd1	0.1193539
84	0x3eef5a25	0.46748462
85	0x3f052aae	0.5201825
86	0xbf2a2ca1	-0.6647435
87	0xbee7907f	-0.4522743
88	0x3c647d5e	0.0139459055
89	0x3f47c543	0.7803537
90	0xbe2e01db	-0.16992895
91	0x3d4f0fd3	0.0505522
92	0xbc8b4474	-0.017000414
93	0xbdb12d21	-0.08651186
94	0xbddf9ed1	-0.10918964
95	0xbea4d927	-0.32196924
96	0xbe4c1904	-0.19931418
97	0xbe1a6343	-0.15076928
98	0x3e1130ec	0.14178818
99	0xbfca9595	-1.5826899
100	0x3e3de7e1	0.18545486
101	0x3cae853b	0.021303764
102	0x3e002c3f	0.12516879
103	0x3ea91a46	0.33027858
104	0xbf6393aa	-0.8889719
105	0xbf0fea63	-0.5621702
106	0xbed0938d	-0.40737572
107	0xbe96e0f9	-0.29468516
108	0x3e75c299	0.24000014
109	0x3e6d38c3	0.23166184
110	0x3ebf0dc6	0.37315196
111	0x3cd2ecf7	0.02574776
112	0x3d638f7d	0.055556763
113	0xbde0986d	-0.10966573
114	0xbd9bd00f	-0.076080434
115	0x3de13134	0.10995713
116	0x3e50ebf2	0.20402506
117	0xbf17ff6f	-0.59374136
118	0x3eed6497	0.46365806
119	0x3e8c55d6	0.27409238
120	0xbdba8553	-0.09107461
121	0x3ded2f0d	0.1158124
122	0xbea00364	-0.31252587
123	0xbe381dc0	-0.17980099
124	0x3e873fbb	0.2641581
125	0xbde55903	-0.11198618
126	0x3d234d8f	0.039868888
127	0xbeca924c	-0.3956474
128	0x3d87169d	0.0659611
129	0x3bd6036c	0.0065311696
130	0xbe7819e5	-0.24228628
131	0xbe1f6572	-0.15566042
132	0xbe52c52e	-0.2058303
133	0xbca0f8b7	-0.019649846
134	0xbf082b55	-0.5319112
135	0x3e997539	0.29972246
136	0xbe69b2f9	-0.22822179
137	0xbf2cb74b	-0.6746718
138	0xbec03760	-0.37542248
139	0xbbd2b1fb	-0.0064299083
140	0x3eacde30	0.33763266
141	0x3dddef1b	0.108366214
142	0xbc85fa2c	-0.016354643
143	0xbec61339	-0.3868654
144	0xbe74668d	-0.23867245
145	0x3f26a852	0.65100586
146	0xbfd795f2	-1.6842635
147	0x3ea22a72	0.31673008
148	0xbe9ca074	-0.30591166
149	0x3f7c32e4	0.9851515
150	0x3ebde32c	0.3708738
151	0xbda0fe5e	-0.07861017
152	0x3e270f81	0.16314508
153	0x3ef6a0c9	0.48169544
154	0x3f36551b	0.7122361
155	0x3f3b501d	0.7316912
156	0xbfd33b17	-1.6502408
157	0xbba173da	-0.0049271407
158	0xbf31f49d	-0.69513875
159	0x3e8ebd39	0.2787874
160	0x3f54a583	0.8306505
161	0xc015a9dd	-2.3384926
162	0xbd6ebf16	-0.058287703
163	0xbc8cdd79	-0.01719545
164	0xbf82fd3a	-1.0233529
165	0xbe14c236	-0.1452721
166	0x3cd30ef1	0.02576396
167	0x3d3c1d9d	0.04592668
168	0x3d00afc1	0.031417612
169	0xbfb336f4	-1.4001145
170	0xbc3e4cbd	-0.0116149755
171	0xbf02c56b	-0.51082486
172	0xbdb5eca5	-0.08883027
173	0xbe06d341	-0.13166524
174	0xbd3e53bd	-0.046466578
175	0xbf1c1523	-0.6096975
176	0x3e98e07a	0.29858762
177	0xbceac2cb	-0.028657338
178	0xbeb1cadf	-0.3472509
179	0xbe145409	-0.14485182
180	0xbd0f17a2	-0.034934647
181	0xbe71b079	-0.23602475
182	0xbd30ef6f	-0.04319709
183	0xbd609c96	-0.054836832
184	0xbd075987	-0.033044364
185	0xbf2741f4	-0.6533501
186	0x3f02d393	0.51104087
187	0xbe01271c	-0.12612575
188	0x3ea4cf58	0.3218944
189	0xbe5468d9	-0.20743121
190	0x3bce38c0	0.006293386
191	0xbcaa4060	-0.02078265
192	0xbd1b42dd	-0.037905563
193	0xbd86f5a5	-0.06589822
194	0xbf05f82d	-0.5233181
195	0x3e01997f	0.1265621
196	0x3f789ad3	0.97111243
197	0xbe9da4ef	-0.30789897
198	0xbe113dcc	-0.1418373
199	0xbf3dd12d	-0.741473
200	0xbf013e9c	-0.5048616
201	0x3cb524f2	0.022112343
202	0xbd4af372	-0.049548574
203	0x3f2f5691	0.68491465
204	0xbd0b09a8	-0.033944756
205	0xbdb8e328	-0.090277016
206	0x3d4044fb	0.046940785
207	0xbf043ded	-0.5165699
208	0x3e01d24d	0.1267788
209	0x3e0ea6b3	0.13930778
210	0xbe175672	-0.1477907
211	0x3e2e695e	0.17032382
212	0xbd38a38d	-0.04507785
213	0xbde0c3a7	-0.10974818
214	0x3e80756c	0.25089586
215	0xbf2b1cb8	-0.66840696
216	0x3f0c951e	0.54915035
217	0xbd5bf72c	-0.05370252
218	0x3f7de240	0.99173355
219	0xbe8b4a14	-0.27204955
220	0x3f746387	0.95464367
221	0x3e8441a5	0.25831333
222	0xbffc5120	-1.9712257
223	0x3dbd07ed	0.09230027
224	0xbf70ec38	-0.9411044
225	0x3f2556a1	0.6458531
226	0xbdf46a9d	-0.11934397
227	0xbf220c32	-0.6329986
228	0xbe60554e	-0.21907541
229	0xbfa62fc7	-1.298333
230	0xbe18d6bc	-0.14925665
231	0x3c70feb9	0.014709168
232	0x3e339d8d	0.1754057
233	0xbf4279bd	-0.7596701
234	0x3ea5bce2	0.3237067
235	0xbf01774d	-0.50572664
236	0xbdca3bd1	-0.0987469
237	0xbeb31617	-0.3497779
238	0xbf2897df	-0.65856737
239	0xbe3b85f7	-0.18312822
240	0x3e8867bf	0.26641652
241	0x3e19866d	0.14992686
242	0xbd8dc8ca	-0.06923063
243	0xbe918c66	-0.28427428
244	0x3da1cc71	0.07900322
245	0xbe7b20f5	-0.24524291
246	0xbd8433f6	-0.06455223
247	0xbd380255	-0.0449241
248	0xbcc552a0	-0.02408725
249	0xbe30c77a	-0.17263594
250	0xbe2526b5	-0.16128047
251	0xbcadab5c	-0.021199875
252	0xbbb3cd10	-0.005487092
253	0xbeebada4	-0.46030915
254	0xbe182e8c	-0.14861506
255	0xbf4ba6a0	-0.79551125

l2.bias f4 [300]
0	0xbe6e2b31	-0.23258664
1	0xbc8daf8a	-0.017295618
2	0x3ece0a3c	0.40242183
3	0x3eb85686	0.36003512
4	0xbd91b81c	-0.07115194
5	0x3e43b659	0.19112529
6	0x3c832c24	0.016012259
7	0x3df37db7	0.118892126
8	0x3d5772a9	0.052599583
9	0x3e8e1678	0.27751517
10	0xbd83b433	-0.06430855
11	0xbcdd509f	-0.027015982
12	0xbda66986	-0.08125596
13	0xbd2fcedc	-0.042921886
14	0xbe92db92	-0.28683144
15	0xbe7ddbc4	-0.24790865
16	0x3ea45807	0.3209841
17	0x3bf8ae2f	0.0075891237
18	0x3ecda72c	0.40166605
19	0xbbeaae65	-0.0071619027
20	0x3e27bb3e	0.16380021
21	0x3e2d8ab3	0.16947441
22	0x3da8085c	0.082047194
23	0x3e516e15	0.20452149
24	0x3ea6a339	0.32546404
25	0x3c148092	0.009063857
26	0x3d697e6d	0.057005335
27	0x3f0144da	0.50495684
28	0x3eb20ffd	0.34777823
29	0xbd0db862	-0.03459967
30	0x3e63db7f	0.222517
31	0x3e358261	0.17725517
32	0xbd12ceff	-0.035841938
33	0x3e7d6182	0.24744228
34	0x3da0ca3a	0.07851072
35	0x3e1a0a88	0.1504308
36	0x3f1cc552	0.61238587
37	0xbe669e12	-0.22521237
38	0x3e4c949d	0.19978566
39	0xbd53a720	-0.051673055
40	0x3ed18fbc	0.40929973
41	0xbe5338cc	-0.20627135
42	0x3e94a8b0	0.29034948
43	0x3d862528	0.06550056
44	0x3e9bf710	0.3046193
45	0x3e189d6f	0.14903806
46	0xbd2836bc	-0.041067824
47	0xbe3a13a0	-0.18171549
48	0x3ee01d64	0.43772423
49	0x3bfbd5b4	0.0076853875
50	0xbd56a6f9	-0.05240533
51	0xbead0e02	-0.3379975
52	0xbd36ca72	-0.04462666
53	0xbe777a6a	-0.24167791
54	0xbca97c2f	-0.020689098
55	0x3e8f5a7a	0.27998716
56	0xbc506201	-0.012718678
57	0x3d40f67e	0.047110073
58	0x3c8db0ac	0.017296158
59	0xbd881d56	-0.066462204
60	0xbe575ea6	-0.210322
61	0xbe812e57	-0.25230667
62	0xbf1127bd	-0.5670126
63	0x3e1e1148	0.1543628
64	0xbe07ff6b	-0.13281028
65	0xbe3f3da5	-0.1867586
66	0xbe567d48	-0.20946229
67	0x3ddabba6	0.10680322
68	0xbd5a9f61	-0.05337465
69	0xbe9dc9a3	-0.308179
70	0xbd069632	-0.03285808
71	0xbe589f88	-0.21154606
72	0xbd6e0906	-0.058114074
73	0xbdf0ee0a	-0.11764152
74	0xbd958a8c	-0.07301816
75	0x3e4933f1	0.1964872
76	0x3dbeca0d	0.09315882
77	0xbd98b8b2	-0.07457103
78	0x3e335cc1	0.17515852
79	0xbe857fa9	-0.2607396
80	0xbd9b9c18	-0.07598132
81	0xbea44890	-0.3208661
82	0x3ca64865	0.020298192
83	0x3e02970e	0.12752935
84	0x3dd7904a	0.10525568
85	0xbd30f60d	-0.043203402
86	0xbdd918b2	-0.106004134
87	0xbd6642e6	-0.056216143
88	0x3d55731c	0.05211173
89	0xbd0356e5	-0.03206529
90	0xbd939c05	-0.07207493
91	0x3e14ca5a	0.14530316
92	0xbddb1f35	-0.10699312
93	0x3ec69eaa	0.38792926
94	0xbe334c13	-0.17509489
95	0x3ecc2c9c	0.39877784
96	0x3dbddcbb	0.092706166
97	0x3e2b0768	0.16702044
98	0x3e6519d8	0.2237314
99	0x3a00bd94	0.0004911062
100	0xbd0c42a1	-0.03424323
101	0xbcea842b	-0.028627476
102	0xbdbebe0a	-0.09313591
103	0xbdc4b6ed	-0.09605203
104	0xbe314a32	-0.1731346
105	0xbd94f8f3	-0.07274046
106	0xbcaf447b	-0.021394959
107	0xbe30a67d	-0.1725101
108	0xbe806a80	-0.25081253
109	0x3dc3b576	0.09556095
110	0xbd11e9e2	-0.03562344
111	0x3de3cfc5	0.11123613
112	0xbde1ad7f	-0.1101942
113	0xbdb74907	-0.08949476
114	0xbd8130cc	-0.063081354
115	0x3b920141	0.004455716
116	0xbcca3d8b	-0.02468755
117	0xbe9adda5	-0.30247226
118	0xbdb12167	-0.08648949
119	0x3e4a59b7	0.19760786
120	0xbe3c15d2	-0.18367699
121	0x3e83268e	0.25615352
122	0x3da3ee4e	0.080044374
123	0x3ec67609	0.3876193
124	0x3d9c732b	0.07639154
125	0xbe4955ae	-0.1966159
126	0x3ee57616	0.44816655
127	0x3e9fc661	0.3120604
128	0x3ea714c3	0.32633027
129	0xbca8a146	-0.020584714
130	0x3d3e4659	0.046453808
131	0x3e77da11	0.2420428
132	0x3e792aab	0.24332683
133	0xbe21864d	-0.15773888
134	0x3de21dc6	0.11040835
135	0x3ec0305e	0.375369
136	0xbe479960	-0.19492102
137	0x3e407feb	0.18798797
138	0x3f13f349	0.577931
139	0xbd3a9b04	-0.04555799
140	0xbd673fa4	-0.056457177
141	0x3d12d55a	0.035848
142	0xbca92727	-0.020648552
143	0xbd7e990a	-0.06215767
144	0x3f203b22	0.6259023
145	0xbc97ec7e	-0.018545385
146	0xbd7b6cf8	-0.061383218
147	0x3e09fa2a	0.13474336
148	0x3e75dc8f	0.24009918
149	0xbee384c0	-0.44437218
150	0xbc1f78e0	-0.009733409
151	0xbdd3ae31	-0.10335959
152	0xbae56d7a	-0.001750394
153	0xbccc1156	-0.02491061
154	0xbd17e5e6	-0.037084483
155	0xbe25b6f5	-0.16183074
156	0x3e800429	0.25003174
157	0xbcd5c714	-0.026095904
158	0x3cd70002	0.02624512
159	0x3d2eb6f1	0.042654935
160	0x3e8f3ae1	0.2797461
161	0x3d74d50a	0.059773482
162	0xbd013626	-0.03154578
163	0x3e17fcca	0.14842525
164	0x3c224da9	0.009906211
165	0xbcdfcc3e	-0.02731907
166	0xbe29e2e6	-0.16590461
167	0xbecf82f7	-0.40529606
168	0xbd068ea5	-0.03285088
169	0x3e33130a	0.17487732
170	0xbd727067	-0.059189226
171	0xbd9f66e1	-0.077832945
172	0x3e699c9b	0.22813646
173	0x3e6be58a	0.23036781
174	0xbea55f95	-0.32299486
175	0xbe5cd2ed	-0.21564837
176	0x3d1164f9	0.035496686
177	0xbc8e74a3	-0.017389601
178	0x3db13679	0.08652968
179	0xbdd6beec	-0.10485634
180	0x3e3a919b	0.18219607
181	0x3df30905	0.11866955
182	0x3ebf6bb2	0.37386853
183	0xbd0f8bd7	-0.03504547
184	0x3d96f31f	0.073705904
185	0x3d4f7be6	0.050655268
186	0xbd7dd7d7	-0.06197342
187	0xbe15c08c	-0.14624232
188	0x3e8e9596	0.278485
189	0xbe999207	-0.29994223
190	0x3d9f3dfd	0.07775495
191	0x3ea4acf7	0.32163212
192	0xbe644211	-0.22290827
193	0xbe0df846	-0.1386424
194	0x3e80ee02	0.25181586
195	0x3e83d6b8	0.25749755
196	0x3d88156f	0.06644713
197	0xbe89bc64	-0.26901543
198	0xbe6f89f9	-0.23392476
199	0xbdaf62a2	-0.085637346
200	0xbdccf3a1	-0.10007406
201	0x3d39c6e4	0.045355693
202	0x3afeb703	0.0019433204
203	0x3d856655	0.06513659
204	0xbeb2d99b	-0.34931645
205	0x3eb530dc	0.3538884
206	0x3d5b742e	0.053577594
207	0x3ea21433	0.31656036
208	0xbde93c7d	-0.1138849
209	0x3e07caad	0.13260908
210	0xbb2d456c	-0.0026439084
211	0x3e957c69	0.2919648
212	0x3e8a6ad2	0.27034622
213	0x3d05a143	0.032624494
214	0xbcf37dde	-0.029723104
215	0x3e9922b0	0.29909277
216	0xbe6751ee	-0.22589847
217	0x3c287559	0.010281884
218	0x3ca452d1	0.020059021
219	0x3e85bfc1	0.2612286
220	0x3e0dc88f	0.13846038
221	0xbd95c6f1	-0.07313336
222	0x3d92740f	0.07151043
223	0x3e6af050	0.22943234
224	0xbd7278fc	-0.05919741
225	0xbee5c462	-0.4487639
226	0x3cbc5cba	0.022993434
227	0x3ef84eac	0.48497522
228	0x3e6af01f	0.22943161
229	0xbe419a80	-0.18906593
230	0xbecfae48	-0.40562654
231	0xbe4803d5	-0.19532712
232	0x3ef9a973	0.48762092
233	0xbd72ced6	-0.059279285
234	0x3e0de601	0.13857271
235	0x3e61da1f	0.22055863
236	0x3e3ca626	0.18422756
237	0x3d12c3bc	0.035831198
238	0xbd2bae5b	-0.041914325
239	0x3aea5954	0.0017879405
240	0xbd51e39d	-0.05124246
241	0xbd29cf6e	-0.041457586
242	0x3eb53afd	0.35396567
243	0x3ef3e40b	0.4763492
244	0x3d896e55	0.06710497
245	0xbe810114	-0.25196135
246	0xbe029d28	-0.12755263
247	0xbb9553d0	-0.0045571104
248	0xbe9f6a23	-0.31135663
249	0xbd2b4165	-0.041810412
250	0xbe4fbd95	-0.20287164
251	0xbd286d45	-0.041119833
252	0x3d935e00	0.071956635
253	0xbde3c676	-0.11121838
254	0xbd73237a	-0.059360005
255	0x3cbd9e51	0.02314678

l3.weight f4 [24, 300]
0	0xbb2eb145	-0.0026655954
1	0x3a379b99	0.0007004082
2	0xba4bd536	-0.00077756064
3	0x3c8e5550	0.017374665
4	0xbb4c4c69	-0.0031173474
5	0xb95900b4	-0.00020694995
6	0x3b220ff8	0.0024728756
7	0xbbc6c3e3	-0.006065832
8	0xb7366ecd	-1.0873843e-05
9	0xbd996815	-0.07490555
10	0x3d2aaf0e	0.04167085
11	0x3d3d9016	0.04627999
12	0xbab8f8f8	-0.0014112284
13	0xbaa551c2	-0.0012612867
14	0x3c80a719	0.015704678
15	0xb97cdaab	-0.00024114053
16	0xba5c23d4	-0.0008397673
17	0xbac69342	-0.0015150087
18	0x3a97733e	0.0011554731
19	0x3c08d940	0.008352578
20	0xbafd5524	-0.0019327742
21	0xbb2e6370	-0.0026609562
22	0x3bded1ec	0.006799927
23	0x3bbfe3d7	0.005856018
24	0x3b113306	0.0022155656
25	0xbc2ba97f	-0.010477423
26	0xbb08eaa3	-0.0020891808
27	0xba93d417	-0.0011278418
28	0x3ac5a0ea	0.0015077863
29	0x38c7057b	9.49008e-05
30	0xbad6d057	-0.0016388994
31	0xbb79c79f	-0.0038113368
32	0x3afca9b6	0.0019276652
33	0x3b04ae70	0.0020245574
34	0x3ad65b98	0.0016354201
35	0x3a6b2c7e	0.00089711684
36	0xba01290b	-0.00049270754
37	0x3ce79c2e	0.028272714
38	0x3b977693	0.0046222894
39	0x3d237963	0.039910685
40	0xbab8d264	-0.0014100787
41	0x36aeac64	5.205673e-06
42	0xba051b08	-0.00050775753
43	0x3b538a2e	0.0032278406
44	0x3b64f7e6	0.0034937798
45	0xbd950383	-0.072760604
46	0x3d0a6b89	0.03379396
47	0x3a5b17dc	0.00083577423
48	0x3a1328ca	0.0005613683
49	0x3a1637b9	0.0005730349
50	0xbd3005bc	-0.04297422
51	0x3c3fb858	0.011701666
52	0x3a4538ab	0.0007523398
53	0x3ab9ff21	0.0014190414
54	0xbca75bb0	-0.020429462
55	0x386f4e5f	5.705503e-05
56	0xba3dde8b	-0.00072429393
57	0xbc0a9a95	-0.008459707
58	0xba5c44b5	-0.0008402572
59	0xbb8824c7	-0.004154775
60	0x3c7a6d3b	0.015284832
61	0x3b36ffd1	0.0027923475
62	0xbb16081b	-0.0022893015
63	0xba763619	-0.00093922165
64	0xbb30c9fd	-0.0026975863
65	0xbb0b73bd	-0.0021278702
66	0x3ab2b865	0.0013635276
67	0x3c415637	0.01180034
68	0x3b1a396a	0.0023532757
69	0x3a014682	0.0004931466
70	0xbe398299	-0.18116225
71	0xba52aeeb	-0.0008036929
72	0xbc456c3d	-0.012049732
73	0x3a9a33fc	0.001176476
74	0xbaad4602	-0.0013219716
75	0xb7e75975	-2.7579003e-05
76	0xba505547	-0.00079472776
77	0x3a48c501	0.00076587504
78	0xba30bd37	-0.00067420624
79	0x391550ed	0.00014239895
80	0xbd161054	-0.036636665
81	0xbb5dd273	-0.0033847361
82	0x3bade1d4	0.005306462
83	0xbadcdbb6	-0.0016850147
84	0xbf3f2e64	-0.7468016
85	0x3bc25ff3	0.005931848
86	0xb7f54af3	-2.9241177e-05
87	0xbb75ba88	-0.0037495214
88	0x3b049774	0.0020231875
89	0x3d2a57ce	0.041587643
90	0xbb23a253	-0.002496858
91	0xbb2750ba	-0.0025530295
92	0x39d9d957	0.00041551396
93	0x3bc31ec0	0.0059545934
94	0x3aa7305f	0.0012755505
95	0x39cd423b	0.00039149993
96	0xba239a93	-0.000624099
97	0x3a35d60f	0.0006936499
98	0xb9b81c2b	-0.00035116202
99	0x3d32de79	0.043669198
100	0xbb3371e2	-0.0027381112
101	0x3c017a2f	0.007902666
102	0xbb6cf8aa	-0.0036158958
103	0x3a888ae3	0.0010417368
104	0xba58e53e	-0.0008273906
105	0x3be11edf	0.006870135
106	0x3d3916e8	0.04518786
107	0x3c04064c	0.008058142
108	0xbe7b38b0	-0.24533343
109	0x3be42001	0.006961823
110	0x3c9c452b	0.01907595
111	0x39607d20	0.00021408917
112	0x3b506a84	0.003180177
113	0x3b9e4ad3	0.004830697
114	0xbc0e3d8e	-0.008681668
115	0x39a30116	0.00031090592
116	0xba81c930	-0.0009901877
117	0xbbdfdbf3	-0.00683164
118	0xba39d9c2	-0.00070896384
119	0x393f3472	0.00018234717
120	0x3a6957f0	0.00089013483
121	0xba58de28	-0.000827285
122	0xbaa859f0	-0.0012844186
123	0x39721b92	0.00023089189
124	0xbb95b75d	-0.0045689777
125	0xbb207a54	-0.0024486976
126	0x3eab4710	0.33452654
127	0x3b267ee2	0.0025405218
128	0x3ae0318e	0.0017104612
129	0xbb1a5c3c	-0.002355351
130	0x38d024e0	9.9250814e-05
131	0x3a6be6b5	0.00089989166
132	0x3a7a3d9c	0.00095459237
133	0xbeb8f32c	-0.36123025
134	0xbaab2830	-0.0013058241
135	0x3bd5ffe3	0.006530748
136	0x3b91d9da	0.0044510188
137	0xba9b5943	-0.0011852164
138	0xb915f5a4	-0.00014301256
139	0x3adeb4fc	0.0016991193
140	0x3a369e47	0.0006966334
141	0x3c20d3b7	0.009816102
142	0x3a5938ee	0.0008286376
143	0x3b3aef71	0.0028524066
144	0xba2c808a	-0.0006580433
145	0xbd0936ec	-0.033499643
146	0xbacb5456	-0.0015512805
147	0xb9e359a8	-0.00043363613
148	0x39787cf1	0.00023697667
149	0x3b191fd5	0.002336492
150	0xbc16c7a7	-0.009202874
151	0x3a41c48f	0.0007391655
152	0xbbd0f954	-0.0063773785
153	0x3c9d0072	0.019165251
154	0xbaf7014e	-0.0018844993
155	0x3b3bd0db	0.0028658423
156	0x3b11b824	0.0022235
157	0xbae5e84d	-0.0017540545
158	0xbb829b9f	-0.0039858366
159	0x3a953160	0.0011382513
160	0x3c354291	0.011063234
161	0xbac6c8a1	-0.0015165993
162	0xbd1dc9c9	-0.038522515
163	0xba885222	-0.0010400454
164	0x3ab820ce	0.0014047862
165	0x39a341a9	0.00031138703
166	0x3b08fbde	0.0020902078
167	0xbac18efe	-0.0014767346
168	0xbd4ac118	-0.049500555
169	0xba23702f	-0.0006234673
170	0x39d05503	0.0003973619
171	0xbb378a55	-0.0028006036
172	0x3eacfa8f	0.3378491
173	0x3adaaaa7	0.0016682938
174	0x3c003267	0.007824517
175	0xbb0dfe58	-0.0021666493
176	0xba1668f7	-0.0005737687
177	0x3a86259d	0.0010234598
178	0xbbee3444	-0.007269414
179	0xbc1300e7	-0.008972383
180	0xbb6d6d86	-0.003622861
181	0xb982dd3c	-0.00024960365
182	0xbc01121b	-0.007877852
183	0xbb58c0e3	-0.0033073954
184	0xbb5aa684	-0.0033363411
185	0xbbf862fe	-0.00758016
186	0x3bcbdc9d	0.0062213675
187	0xbc91cf1e	-0.017798956
188	0x3a9cee32	0.0011972843
189	0xbae76fea	-0.0017657254
190	0xbaeab3f0	-0.0017906409
191	0x3bd3c391	0.0064625223
192	0x3b146493	0.0022642955
193	0x3a76b4e3	0.00094111095
194	0x3a6ab005	0.00089526206
195	0x3a89925f	0.0010495892
196	0x3a890088	0.0010452429
197	0xbb1d4b45	-0.0024001163
198	0x3bd8d436	0.0066170944
199	0x3a089e01	0.00052115327
200	0x396e83f6	0.00022746608
201	0xbc13aa0a	-0.009012708
202	0xba118dbd	-0.00055524317
203	0xba527026	-0.00080275757
204	0x3aae38f9	0.0013292126
205	0x3a680f8f	0.0008852416
206	0xba5c6ee7	-0.000840886
207	0x3b1f197b	0.0024276662
208	0x3b42f251	0.0029746483
209	0xbb24350c	-0.0025056032
210	0xbb240ccc	-0.0025032042
211	0xba670789	-0.00088130735
212	0x3bc6e4bf	0.006069749
213	0x3e99d8d8	0.3004825
214	0x3b07a79e	0.0020699273
215	0xba059a7f	-0.0005096569
216	0x385ada9b	5.2178842e-05
217	0x3a8bbd6c	0.001066131
218	0xbc03daa4	-0.008047733
219	0xb85ab3f8	-5.214286e-05
220	0x3b9b3fe4	0.004737841
221	0xbb4cfb20	-0.0031277612
222	0xbc08929c	-0.008335736
223	0xbac997a9	-0.0015380281
224	0xb96d1373	-0.00022609327
225	0x3b44dd46	0.0030039116
226	0xba66903e	-0.00087952975
227	0x3aff8fe7	0.0019497842
228	0xb93f4aa8	-0.00018242991
229	0x3a24b2c9	0.00062827446
230	0x3b4d0162	0.0031281342
231	0xbb890b2c	-0.00418224
232	0xbaa01fae	-0.0012216473
233	0x3eb8df7f	0.36108014
234	0xba348ec1	-0.0006887727
235	0x3ae06ed2	0.0017122871
236	0xbb2776c6	-0.0025552972
237	0xb9d8a5b4	-0.0004132219
238	0x3ba326b9	0.0049789813
239	0xb9837302	-0.00025071955
240	0xbc9a7ac6	-0.018857371
241	0xb877c10f	-5.906919e-05
242	0xba06f5df	-0.0005148332
243	0x3e39cc9e	0.18144462
244	0xbd8383ca	-0.06421621
245	0xbe7b11e3	-0.24518542
246	0xbae5b210	-0.001752438
247	0xba5af3d3	-0.00083523727
248	0x39d998d0	0.0004150332
249	0x38faa0fb	0.00011950914
250	0x3b23f764	0.0025019282
251	0xba2b3340	-0.0006530769
252	0x3be7d956	0.007075469
253	0x3a85d43c	0.0010210345
254	0xbd42ccc6	-0.04755857
255	0xba7e1b83	-0.00096934306

l3.bias f4 [24]
0	0x3f0acf31	0.542224
1	0xbd3afea5	-0.045653004
2	0x3eadaaba	0.33919317
3	0x3e61693a	0.22012797
4	0xbe5f0ffc	-0.21783441
5	0x3d74f809	0.059806857
6	0xbe669f57	-0.22521721
7	0xbc597309	-0.013272055
8	0x3e21a973	0.15787296
9	0xbebf7621	-0.37394813
10	0x3dcbcc17	0.099510364
11	0xbedb2806	-0.42803973
12	0xbd168c45	-0.036754865
13	0x3e34bee7	0.17650948
14	0x3ea8d155	0.32972208
15	0x3e8f5505	0.27994552
16	0x3e90eeac	0.28307092
17	0x3ea8a7ae	0.3294043
18	0x3e8b47ca	0.27203208
19	0x3e9c2efb	0.30504593
20	0x3eb9e096	0.36304158
21	0x3eda3005	0.4261476
22	0x3f34a735	0.7056764
23	0x3f66d92b	0.9017512
