HopperBulletEnv-v0-SAC/dir_chk_hopper_sac/weights_actor_final_2624.8.pth (torch_old, 287081 bytes, 8 tensors)

linear1.weight f4 [256, 15]
00000000: b6f3 393f e28b b43d 1e66 fb3e d925 68bf
00000010: 09da 91bd 9453 573c ccbf 9d3d d4f0 d73d
00000020: fa8a 99be 7b30 043e 0fda 4bbe db9c a03e
00000030: 1440 82bc b105 1a3a 09ff f0bd 6f24 39bf
00000040: 8a4b 153e a2c9 fc3d 6863 033e 1053 e23d
00000050: a088 17be 7c4a 453d 2c81 943e e808 03bf
00000060: 9522 55bd 599e 0ebf ee72 c9bd 2f71 573e
00000070: 26fc 6f3d bd7e cdbd 915a 813f d403 403d
00000080: 85d3 b8be e368 7d3d bff5 17be 619c 303e
00000090: a451 d3bd adf9 a9be ba35 a23e adb2 d73d
000000a0: 03c9 8e3e bcc0 b83e 41a2 eb3d 53bb 573d
000000b0: 320e fd3c 45c0 4d3f a016 103c 6421 23be
000000c0: f885 a2be 8842 79bd 739f 84be aec7 aa3d
000000d0: e941 0ebe c131 d93e 5096 be3d 8d60 5e3e
000000e0: d992 c8bc a4f1 b43c b0e6 603d fd13 c63d
000000f0: d07d 883d 9006 9abd adbd 963d 5593 cb3e
00000100: 166e cfbd 2db3 e63d 4a2e 9d3d 9be2 513c
00000110: 6c21 61be cdd8 4bbd da5e babe 565c 54be
00000120: a99e 433d 9ba8 7abd 42c2 1dbe 23a5 6e3e
00000130: c00a afbb 10f2 e2bc 7d24 a93e 503e 643d
00000140: 24dc 313f 99f6 06be 79ed 2b3f 2814 4bbe
00000150: f30f 043d fa05 c5bd 8bdc 20be b26b 11be
00000160: 6087 0dbd 5f79 1abf 2ba2 d93f aa77 113e
00000170: f846 3abe 54c9 8cbd 14c3 03be e9ef 8b3f
00000180: 7809 ef3d 73dc 8f3f 43a6 cfbc 09e9 95bd
00000190: 72bf b0be 029a 6bbe bcfb e7bd 5e50 663c
000001a0: 4efa 7d3e 0137 663e e051 c63b 73e0 cdbd
000001b0: 9b49 a03e bc11 85bd cdc4 7abe 7118 a7bd
000001c0: caa1 e1be 12d3 1cbe c5d3 28bd 6656 82bf
000001d0: d246 8bbd 04af 93bd 3b8d 9cbe 12c3 d5be
000001e0: 52a5 713e b8b8 b73c 74e9 32be 6948 4abf
000001f0: 4248 efbd 0b39 c9bd e862 a13c c44e aebe
00000200: 3af5 bc3e 1dfc bb3e dcde b2be 9fe1 cd3e
00000210: 42e8 90be 25f0 b43b 2e73 603e 11cb 3b3f
00000220: a1c3 01be 2c53 423d 8246 2bbe 702f 5cbc
00000230: 2a53 db3e cc19 fe3d 202b 013f 5869 16be
00000240: dcbb 96bc 9505 c9be 6dd0 dbba ed2b 40bd
00000250: ac23 1d3d cd79 9d3e 198d 393f f445 0a3d
00000260: c0cb 6dbe be78 c7be 9864 863c 6abd 463f
00000270: 28d6 733d 8b1d 96bd d727 1e3f 8471 ac3c
00000280: fc9f 49be 558e 18be 7cd3 863e 36db a03c
00000290: 39d7 bd3d 0eee 3b3e 9c23 3bbd 55c5 47be
000002a0: b2fb cbbb 95dd 95bd c358 9b3e ec06 0b3d
000002b0: 6ea0 a2be 29cc ad3e c559 03bc e308 a83e
000002c0: 1237 193e 483d 863e 5dce 723e c6ec 32be
000002d0: 94c9 8b3e d828 243d 34f1 61be 606e 89be
000002e0: d0f8 1f3c 5e40 b13e 2411 773d 009d 703e
000002f0: 3824 133f 7948 43be 9efe 11bd 0bc4 0bbe
00000300: 3cf0 193d 3edb 153e 3082 fb3c 91f8 703f
00000310: 604f 54bc c755 f9bc 5f99 25bf e9d7 c7bd
00000320: bfcf 663e bc97 22bd 0d77 0fbf 6d83 42bd
00000330: 40db 483d 8df4 f13d e0bd f73d d689 8cbd
00000340: 0e71 0fbd bcfb 983d d816 86be 4011 173d
00000350: e749 1abe 62a8 fb3e 4811 83bd 37f4 973e
00000360: 087d d73c 6e82 8c3e 2e35 c3be 3e90 43be
00000370: c5ab cd3e 549f 9dbe 03ac 333c 808e 17be
00000380: 13e4 463e 346d 22bf 0cf6 9d3d 1432 943e
00000390: 8d2b e53e ec13 ec3d 8e2b a4be c0f8 b4bd
000003a0: 2b3f 473f 9768 52bf 5276 bebc 99ea aebe
000003b0: 2282 f9bc e3ed fbbd 55b9 70bd 480a 5abd
000003c0: 774e 8e3e 5ea6 87bd 6a26 65be 53d6 dd3e
000003d0: 1e06 023e 80c5 01bd c226 933d 7518 ad3e
000003e0: 4fc4 c9bd e0e7 253d 7ef3 a23e b79b a63d
000003f0: 4a8a 1f3e bb6e 043d aad0 183e 6dcd 413f
0.726375 0.08815743 0.49101347 -0.9068275 -0.07121665 0.013142485 0.07702598 0.10543981
-0.29988843 0.12909119 -0.19907402 0.3136967 -0.015899695 0.0005875482 -0.11767394 -0.7232122
0.14579597 0.12343146 0.12830889 0.11050999 -0.14798212 0.048166737 0.290048 -0.51185465
-0.052034933 -0.5571037 -0.09836374 0.2103927 0.058590077 -0.10033939 1.0105764 0.04687865
-0.36098877 0.061867606 -0.14839838 0.17247154 -0.10318306 -0.331983 0.31681615 0.105321266
0.27887735 0.36084545 0.11505557 0.05266888 0.030890558 0.80371505 0.008794457 -0.15930706
-0.31742835 -0.060854465 -0.259029 0.08338867 -0.1389233 0.42420772 0.093060136 0.21716519
-0.024484085 0.02208788 0.0549075 0.09671781 0.06664622 -0.07520783 0.073603965 0.39760843
-0.10128419 0.11264644 0.076748446 0.012810375 -0.21985406 -0.049767304 -0.3640049 -0.20738348
0.047758732 -0.06119595 -0.15406135 0.23305182 -0.0053418577 -0.027703315 0.3303565 0.05572349
0.6947653 -0.13180007 0.6715923 -0.19831908 0.032241773 -0.096202806 -0.1570913 -0.14201239
-0.03455293 -0.6034145 1.7002615 0.14205804 -0.18191135 -0.06874338 -0.12867385 1.093259
0.11671728 1.1239151 -0.025347834 -0.073198386 -0.3452106 -0.23007968 -0.113273114 0.014057247
0.24802515 0.2248192 0.0060522407 -0.10052576 0.31306157 -0.06497523 -0.24489136 -0.08158959
-0.44068748 -0.15314892 -0.041217584 -1.0182617 -0.06800617 -0.07211116 -0.305765 -0.4175039
0.23598221 0.022426948 -0.17471868 -0.7901674 -0.11683704 -0.09825333 0.019700482 -0.34044468
0.36905843 0.36715785 -0.34935653 0.40211198 -0.283022 0.0055217915 0.21918938 0.7335673
-0.12672283 0.0474426 -0.16726115 -0.013439044 0.42836887 0.12407264 0.5045643 -0.14688623
-0.018400125 -0.3926207 -0.001677049 -0.04691689 0.038364097 0.3075699 0.7248092 0.03375812
-0.23222256 -0.38959306 0.016405389 0.7763277 0.059530407 -0.073298536 0.6177954 0.021050222
-0.19689935 -0.14898045 0.26333225 0.019635778 0.09269566 0.1835253 -0.045688257 -0.1950887
-0.006225073 -0.07317654 0.30341157 0.033942148 -0.31763023 0.33944824 -0.008017008 0.3281928
0.14962414 0.2621863 0.23711534 -0.17473134 0.2730223 0.040078014 -0.22064668 -0.26842022
0.009763911 0.3461942 0.06031908 0.23497391 0.5747714 -0.19070615 -0.035643212 -0.13649003
0.03758262 0.14634416 0.030701727 0.9412928 -0.012958378 -0.03043641 -0.6468715 -0.097579785
0.22540186 -0.039695486 -0.5604103 -0.04748862 0.049037218 0.118142225 0.12096763 -0.068622276
-0.035019927 0.074698895 -0.26189303 0.036881685 -0.15067254 0.49151903 -0.063997805 0.2967851
0.026304737 0.2744326 -0.3812651 -0.19097993 0.40170112 -0.3078562 0.010966304 -0.14800453
0.19422941 -0.6344788 0.07712945 0.28944457 0.4475979 0.11527237 -0.3206448 -0.08836508
0.7783076 -0.8219084 -0.023249779 -0.3416336 -0.03045756 -0.12301233 -0.058770496 -0.05323246
0.2779424 -0.06623529 -0.22377935 0.4332758 0.12697646 -0.03168249 0.07185127 0.33807722
-0.09851896 0.040504336 0.31826395 0.08135169 0.15580097 0.032332163 0.14923349 0.7570408

linear1.bias f4 [256]
00000000: 4344 e83e afa0 013d 83a4 9cbe da51 6cbe
00000010: 4be8 e1bc 5614 2ebe b802 91be 9648 aebc
00000020: 1693 68be 1718 03bd 8863 2bbe 0564 8abe
00000030: eb5a bdbd 1d56 993d 9679 7bbd ccfd b33e
00000040: 50d9 9cbd 4644 09be 7b1a 593c cf89 373d
00000050: cc83 f33d 5d9c 06be 79fc 4cbd b6e4 ca3d
00000060: a51b e7bd 0b72 95be 83b6 6d3e caeb b83e
00000070: c04d d73e 6945 c9bc 4a33 083f a796 1ebe
00000080: ce23 85be 258f b5be 6cf3 a53e 1feb 59bc
00000090: 734c 3bbe 05e8 863b 85c5 d83e 20fb 39be
000000a0: 3586 4abe 3aa4 1d3e 1b4b f7bd 161f 90bd
000000b0: 4cab a53e eca5 393d 66da 18be e9a3 9abe
000000c0: 00d8 89bd a8e5 91be 0b1f 1f3e 2a61 63be
000000d0: d434 3bbe de3e 133e d1a2 953d bddf 8bbd
000000e0: fbea 073e ba0d 43be 4b5b 16be aac0 013e
000000f0: d107 f93c 1ba6 8a3d 5590 e23d 2384 94be
00000100: 8977 fb3c 64de e4bc 2cc2 c23d aa18 62be
00000110: c214 323d f754 b8bd 166c 763e 70fd 7dbc
00000120: 0662 0bbe 4704 283e ffea d4bd 50f8 193d
00000130: d9c0 b93a ef3e df3c 2ff8 6b3e a491 803e
00000140: fbdc 6c3d 176f fe3d b127 01be cc39 2e3e
00000150: a48a 8bbe dc80 653e 1e1c e8bd b939 363e
00000160: d233 dabc 759e 1bbd d5e2 2d3e 7add 6dbd
00000170: c574 cf3c 95fd b53d cc2e ac3e 3f94 5e3d
00000180: d960 423e 488e 10be 5e17 17be 1552 a33e
00000190: 3747 a73d b78d ddbe f610 f33d 3305 c1be
000001a0: a4d1 f1be 4ed9 afbe b771 a9be 2051 c4bc
000001b0: fa01 15be a698 2d3e ee1f 3a3e 6086 e43d
000001c0: f069 3b3d 4768 76bd 274e 38be 2680 1abe
000001d0: 24be 70bd 250c ecbd d6e7 833e 9b5c 07be
000001e0: 4709 43be d103 c4bb 0531 b6be 4d20 5ebd
000001f0: 4169 403e 6ac0 763d f9d7 a1be dc34 6e3e
00000200: 706f 90bd 6544 18be 2b6b 393e b13a 41bd
00000210: 492c 483e d5a2 e33e f149 493c f80f 52be
00000220: 2003 e23e d187 a0be 1579 d1be bb45 c1bd
00000230: dcac d5be c69b 44bd 3fce 903d 1d45 133e
00000240: 3560 813e 4cd6 10be f711 9b3c 993e 1c3c
00000250: 7604 103e 6a9f 013d 00c6 37bd d128 33be
00000260: 7cd2 ef3d 322a 30bd 1ddc 563d b9eb 88be
00000270: 13e5 873e 9a4c abbc c7da 723e 6c7d 833d
00000280: e976 413e b1f7 6e3e 844e 0d3e 9b96 ad3c
00000290: 35df 02be 1899 82bd e420 c6bd 4efb 19be
000002a0: 27c5 59be 6ee7 afbc bc65 4bbe df76 03bd
000002b0: 2ccd 2abe ccfa bcbd b751 883d e621 123c
000002c0: da15 493e 2552 15bd 7c7a f33c 6008 47bd
000002d0: b192 fb3e 5051 5ebe cce1 acbd 639a c03b
000002e0: 588b 72be 0d8e a3bd 6827 fdbe 2fd8 163e
000002f0: bb1c 673d 3a5f 5e3d 1beb f3bd dbe3 283d
00000300: 3d61 65be 580c 4e3e a714 86be 65e5 1f3e
00000310: 81eb 093f 4c28 6b3e 77d5 b93d 5acf d33d
00000320: cb10 40be c058 763e eed2 a0be 9823 14be
00000330: ab43 89be 14dc 8bbd df42 d23d 86d8 12be
00000340: 24e1 58bd 19c1 cc3d 3694 82be 1c5c 083e
00000350: 8338 a9be fb24 9bbe 6326 e53d 95c2 a7bd
00000360: 8658 1bbe bcc1 b0bd 09fd b73d 19d6 b2bd
00000370: 3f2d c03e 28fe 53bd a59f 593e a1b5 90bc
00000380: 0761 2a3e 9d5c e43d 3744 1e3d f197 0f3d
00000390: b7e0 a43e 6203 0f3e 34fe debe 6041 2ebe
000003a0: 7da8 593e 3b4a 253d f89a 39be 6720 d8bd
000003b0: 8fb0 96bd 3495 b0bd 4429 3abe 8b2f 3a3d
000003c0: f383 76be 89d2 023e 320a 42be ec4c 1ebe
000003d0: 2b03 13be 7ef5 b0be f23d 66be 3b94 eebd
000003e0: 9b3f 3abe 8e98 fdbd e840 ccbd 940d bd39
000003f0: 5a32 b9bd c8aa 62be e7ac 98be 1d05 4c3e
0.4536458 0.03164738 -0.30594262 -0.23078099 -0.027576586 -0.16999945 -0.28322387 -0.021274846
-0.22712359 -0.032005396 -0.16737187 -0.27029434 -0.09245857 0.07487128 -0.06139525 0.3515457
-0.076586366 -0.1340495 0.013250942 0.04480916 0.11890373 -0.13145585 -0.050045464 0.099069044
-0.1128457 -0.2918857 0.23214154 0.36117393 0.42051506 -0.02456923 0.5320326 -0.15487157
-0.2600388 -0.35460773 0.3241228 -0.013300686 -0.18290882 0.0041170144 0.42338195 -0.18162203
-0.19777758 0.15394679 -0.12074872 -0.07037179 0.32357252 0.04532425 -0.14927062 -0.3020318
-0.06730652 -0.28495526 0.15539186 -0.22205034 -0.18281871 0.1437945 0.073064454 -0.06829784
0.13273232 -0.19048205 -0.14683263 0.12671152 0.030399235 0.06769963 0.110626854 -0.29007062
0.030696647 -0.027938075 0.095096916 -0.22079721 0.043476827 -0.09000581 0.24064669 -0.015502319
-0.13611612 0.16407882 -0.103963844 0.037590325 0.0014171853 0.027251689 0.23043893 0.25111115
0.05782793 0.124235325 -0.12612797 0.17014235 -0.27254212 0.22412437 -0.11333488 0.17795457
-0.026636038 -0.037992913 0.16981061 -0.058072545 0.025324235 0.088862576 0.33629453 0.054340597
0.18982257 -0.14116776 -0.14755008 0.3189856 0.0816788 -0.43272182 0.118684694 -0.3769928
-0.47230256 -0.34345478 -0.3309457 -0.023964465 -0.14551535 0.16952762 0.18176243 0.111584425
0.045755327 -0.06015804 -0.17998563 -0.15087947 -0.058775082 -0.11525754 0.25762814 -0.1321892
-0.19046508 -0.0059819003 -0.35584274 -0.054230023 0.18790151 0.060242094 -0.31610087 0.23262352
-0.07052505 -0.1486984 0.18107288 -0.047175113 0.19548143 0.44460168 0.012285695 -0.20513904
0.4414301 -0.3135362 -0.4091269 -0.09437128 -0.41733444 -0.04800012 0.07070588 0.14381833
0.25268713 -0.14144248 0.018929465 0.009536409 0.14064202 0.03164617 -0.044866562 -0.17496039
0.117100686 -0.04300899 0.05245601 -0.26742342 0.26541957 -0.02091055 0.2371627 0.06420407
0.18893017 0.23336674 0.13799483 0.021189978 -0.12780459 -0.063768566 -0.09674242 -0.15037271
-0.21266614 -0.021472659 -0.19863027 -0.032095786 -0.1667983 -0.09227523 0.06656211 0.008919215
0.19637242 -0.036455292 0.029721491 -0.04859197 0.49135354 -0.21710706 -0.08441505 0.0058777793
-0.23685968 -0.079860784 -0.49444127 0.14730905 0.056423884 0.054290034 -0.11910077 0.041232925
-0.22400375 0.20121896 -0.2618763 0.15614851 0.53874975 0.22964591 0.09073918 0.103422835
-0.18756406 0.24057293 -0.31410927 -0.14466703 -0.2680944 -0.06829086 0.10266661 -0.1434041
-0.052949086 0.09997768 -0.255037 0.13316387 -0.33050928 -0.3030165 0.11188962 -0.081914105
-0.15170488 -0.08630702 0.089838095 -0.08732242 0.3753452 -0.051756054 0.21252306 -0.017664732
0.16638575 0.11150477 0.038639273 0.035057012 0.32202694 0.13966134 -0.43553317 -0.17017126
0.2125568 0.040353995 -0.18125522 -0.10553055 -0.07357895 -0.08622208 -0.18179804 0.045455497
-0.24073772 0.12775625 -0.18949202 -0.15459031 -0.14356677 -0.34562296 -0.22484568 -0.116493665
-0.18188326 -0.12382613 -0.099733174 0.00036059006 -0.09042807 -0.2213546 -0.29819414 0.19923826

linear2.weight f4 [256, 256]
00000000: ba3f 67bc 8ca9 6cbe 0f0e 0d3f c126 43bd
00000010: e3ef 1d3c c0e6 6bbe 19e9 0bbd 9f7f a23e
00000020: 188f 98be acc7 eabd a5ce 44be 354d 49bf
00000030: 6b0b e3be d726 9b3e ff7d 43be 0dff 9fbd
00000040: afec 073f c762 8fbe db16 99bd 2080 f7bd
00000050: 81d5 a73e c96f 723e c02d 98bc 1bab acbf
00000060: 4637 8dbe c01e 0dbd 95d9 55be 5644 cf3e
00000070: 104f ce3e 311b 1fbf 9726 01bf f3ef 4cbe
00000080: ed56 58be cf40 88bf 84b3 5c3e 5ef7 c83e
00000090: 1441 5dbc 2072 793d 0928 233f 7936 de3e
000000a0: cf6a 06be e59d 21bf 52f9 b73e 2236 a73e
000000b0: 3928 cbbe cb80 153e fddd f5be d0d2 843e
000000c0: 524d 1cbf dbc7 85be 5fc6 b4bd 2473 f1bd
000000d0: 49d4 cebc 0eb4 32c0 94cb 5dbe 0cf7 27bf
000000e0: a53f d4be d94a 87bf 4023 1fbe 7729 7a3d
000000f0: f39d b0be 9661 3d3d deac 803f d3b2 d7bd
00000100: e97f 75bd 8d3c 173e 3125 5ebe 1c2e 32be
00000110: 7099 1bbf 1671 25bf ec3a 9f3d 6ba1 04bf
00000120: 1a29 be3e 833c 6fbc 0a32 623f 907c 5f3e
00000130: a8ac 01bc 0b67 a4be 621b 65bf 44dd e5be
00000140: 691d 78bf aa6f 613d 3bc7 c7be 7daa 1b3f
00000150: a88a 5d3e c795 a03e d1fb 11bf 1d0d da3d
00000160: 7293 81bf 3261 043e 1a79 0abf ac92 35be
00000170: e309 113f ab8b b1be a3a8 b83d 0eb0 cbbe
00000180: 0839 6fbe 7c0a 613c 5300 08bf 8c79 a93e
00000190: c82f e5be 08c6 4c3e d692 1f3c 3f31 ed3e
000001a0: 5b43 50c0 7867 c13d 768f a2be e236 f0bd
000001b0: 247d 08bf 7e84 45be f898 0ebf e187 7ebe
000001c0: 926f 06bc f2b2 cb3e b945 d23c 9302 5c3f
000001d0: f280 97bf 764c 45bd 479f 633e e2c6 d3be
000001e0: 9bc1 8abe bd07 ecbe 0d2e 55bf 80ff 3cbe
000001f0: 00fc 0dbf 8d6f a73e 11fd 61bf 64c8 2ebe
00000200: 78cc 73bf b734 bcbd 509a dabe f9a5 50bf
00000210: 6dcf 5d3e 9dcd 8cbd a259 463e bdeb dbbd
00000220: 1533 c63d 4194 debf 7d04 c9bd 3652 55bf
00000230: ad38 7fbe d1b8 23be 459d 45bd 3201 00be
00000240: 9244 40be c6dc 613e 6204 543e 2295 80be
00000250: d120 c93e 04c9 49bf 25df 95bf 040a 3f3e
00000260: 87de 0ebf 0eb8 5a3e 1a05 30be 7f9c b53e
00000270: f990 b6be 03c3 dd3c d7d5 ae3c a1eb b13c
00000280: 6415 29bf 1c86 a1bd 64b6 983e 2edf 063e
00000290: 41b4 8d3e db6a 96bf cae5 d83e 72f7 8b3e
000002a0: 434a efbd a378 ea3e 9c4a 3a3c 6d18 5b3d
000002b0: bb49 17bf cd86 8dbf cfdf 54bf 7ba8 efbe
000002c0: b104 6a3e fadd d7bd 9933 11be b02d 7b3d
000002d0: e23b 213d 0eba 6f3e 3664 c73e 1b8b 1c3e
000002e0: 7ee9 0bbf a800 0fbe 32a0 6dbf b00c 203f
000002f0: 0db2 753e ec6f 01be 943a 443e 1448 3ebc
00000300: 6721 1cbf 1da7 babc b71d cebe dfad c03c
00000310: b69c 37bf 346c 2a3e 9389 c6be 2afd 0a3f
00000320: 53bd a2be db7d 4e3e 89e6 6abe 4cf7 29bf
00000330: d5b0 05c0 b9bb 8abe 5a68 35bf 79e4 1bbc
00000340: eac6 7dbe 6b50 393e b281 d83d dd5f e8bf
00000350: 761c 38bf d652 40bf 8d4d b0bd ce37 a1be
00000360: 07d2 f7be 65cc 64be 1993 ad3d b9df 67bd
00000370: afbf 373e 15cf 413e 2f80 a63e 15ed 4b3f
00000380: b293 8c3e 1266 c83c c337 003f 0301 4fbf
00000390: ce12 0fbd 00c2 8e3e fa2f 803e 545c 2abf
000003a0: b9f4 ca3d 0a94 e8bd fb2d b43e 8721 143e
000003b0: c202 55be b7d5 4c3d 443b 3bbf b949 72bf
000003c0: a4dc 21bf 6835 18be a7a7 3ebe fa6f 8dbf
000003d0: d83c f9be a6dd dcbe 7a4b 9abe eda1 1cbf
000003e0: 7fe5 2a3e 5d93 c4bc 9377 0bbe 4b8a 023f
000003f0: 10c7 33bf 0007 86bf 1186 87be 8eb7 063e
-0.014114315 -0.23111552 0.55099577 -0.04764438 0.009639713 -0.23037243 -0.034157846 0.31737992
-0.29796672 -0.11463866 -0.19219454 -0.78633434 -0.4434465 0.3030307 -0.19091032 -0.07812319
0.53095526 -0.2800505 -0.074750625 -0.12084985 0.32780078 0.23675455 -0.018576503 -1.3489717
-0.27581233 -0.034453154 -0.20883782 0.40481824 0.40294695 -0.62150866 -0.5044951 -0.20013408
-0.2112691 -1.0644778 0.21552855 0.39251226 -0.013504285 0.060899854 0.63732964 0.43400934
-0.13126682 -0.6313155 0.35932404 0.32658488 -0.39679125 0.14599912 -0.48020926 0.25942087
-0.6105548 -0.2612904 -0.08826899 -0.117895395 -0.02524771 -2.7922397 -0.2165969 -0.6561134
-0.41454807 -1.0569717 -0.1554079 0.0610747 -0.34495506 0.046235643 1.0052755 -0.10532155
-0.059936438 0.14769192 -0.21693875 -0.17400402 -0.60781 -0.6462568 0.0777491 -0.51808804
0.37140733 -0.014601829 0.88357604 0.2182486 -0.0079147 -0.32109866 -0.8949491 -0.44895375
-0.96919876 0.05503813 -0.39019188 0.6080702 0.21634924 0.3136427 -0.57024866 0.106470324
-1.0123122 0.12927702 -0.54091036 -0.17731732 0.5665571 -0.3467687 0.0901654 -0.39782757
-0.233616 0.01373541 -0.53125495 0.33100545 -0.44763017 0.19997418 0.009739598 0.46326634
-3.254111 0.09443563 -0.31750077 -0.11729218 -0.5331595 -0.19288823 -0.5570216 -0.24856521
-0.008205311 0.39784962 0.025668012 0.8594143 -1.1836226 -0.048168622 0.22228728 -0.41362673
-0.27100834 -0.46099654 -0.8327339 -0.1845684 -0.55462646 0.32702294 -0.88276774 -0.1706863
-0.9523387 -0.09189742 -0.42695856 -0.81503254 0.21661158 -0.06875155 0.1937013 -0.10738323
0.09677712 -1.7388994 -0.09815309 -0.8332857 -0.24923964 -0.1598847 -0.048245687 -0.12500456
-0.18776157 0.22056875 0.20704797 -0.2511378 0.3928285 -0.7882235 -1.1708723 0.18656164
-0.558083 0.21359274 -0.17189446 0.3547096 -0.3565748 0.027070528 0.021342201 0.021718802
-0.66048265 -0.078869075 0.29826653 0.13171074 0.27676585 -1.175136 0.42362815 0.27337223
-0.11684086 0.45795164 0.011370327 0.05349009 -0.5909688 -1.1056763 -0.83154005 -0.46808228
0.22853352 -0.105403855 -0.14179839 0.061322868 0.03936375 0.23410818 0.38943642 0.1528744
-0.54653156 -0.13965094 -0.92822564 0.6251936 0.23993702 -0.12640351 0.19162971 -0.011613864
-0.6098847 -0.022784764 -0.40257046 0.023520408 -0.71723497 0.16642839 -0.38776836 0.5429255
-0.31785068 0.20165198 -0.22939505 -0.6639297 -2.088918 -0.27096346 -0.7086235 -0.009514921
-0.24782911 0.18097083 0.105716124 -1.8154255 -0.7191843 -0.751264 -0.08608542 -0.31487888
-0.48402426 -0.22343595 0.08475322 -0.056609843 0.17944215 0.18926652 0.3251967 0.79658633
0.27456433 0.024462733 0.50085086 -0.8086092 -0.034930043 0.27882385 0.25036603 -0.6654713
0.099099584 -0.11356361 0.3519133 0.14465915 -0.20801833 0.0500085 -0.7313731 -0.9464374
-0.63227296 -0.14864123 -0.18618642 -1.1049798 -0.48679233 -0.43137854 -0.3013571 -0.6118458
0.16689108 -0.02399605 -0.13619833 0.5099227 -0.7022562 -1.0470886 -0.26469472 0.13155958

linear2.bias f4 [256]
00000000: 0088 db3d a786 2cbd a544 133e 90fc cbbd
00000010: cf54 73be c4ef 9fbd 59f0 7f3e 3d7b 913e
00000020: f102 b63d 1b1d 98bc d5ff 183d ce00 173d
00000030: 41ea 633d d50f bbbd 9c6f 89be a700 ddbd
00000040: 6e43 913c ba60 e73d 1461 f03d f32e 833e
00000050: 8f85 793c a358 8cbd ac62 c1ba 41d5 e7bd
00000060: 1783 c9bd e965 8cbe 01bf 0cbe f767 12bd
00000070: bdb2 80bd 68f3 25be 8205 b13d d759 793d
00000080: bed7 dd3e f9bd 74bd d31d 18be 1819 bb3d
00000090: 6e68 39bd e917 d63c b79d 943d d8a3 87bd
000000a0: 91f2 1f3e abcc c03d 9a55 d43c aadd df3c
000000b0: 0e74 d0bd c82b 4a3d 851d ea3d e0b6 96be
000000c0: bf6e 213d 24f7 a6be b16e a4bb 2ea9 87be
000000d0: aa34 40bc d144 3f3a 96f2 d9bc 91b0 443d
000000e0: ce45 e53d 51af f93d 9edd e23d 404b c63d
000000f0: 0bc5 8f3d 8a94 053d 4ef6 5dbc 1afc 493d
00000100: f148 d43e 4aa4 e6bd 6fb6 0ebe a63f 2dbe
00000110: b74c 103e 6beb 2abe 121e ddbb 68cd c9be
00000120: 35e5 b0bd 538e 8ebd 3bed 45be f63d 87bd
00000130: 7c9f 13be 6916 09be 05cb b1bc f2d5 dbbd
00000140: b42a d63d 4fb9 c6bc 8eb4 b53c 92ee c0bd
00000150: ec75 83bd 3a04 e6bd e6ba f4be aaf0 2b3e
00000160: 6e95 0c3b f8b6 e7bd 3fde ebbd 230c dcbd
00000170: 30ea e33d 61c4 5dbe 8a12 1bbd 03d3 3ebd
00000180: b77d 613b 2a51 d23d ba02 4fbd d172 89be
00000190: eb63 b43d 92f6 153e ba54 d93c e0d0 7bbd
000001a0: b569 513e 0831 03be bb30 32bc f8a8 11bc
000001b0: 8f5b 983d b6a0 10be e8be 0cbe 443e 87bd
000001c0: 20b8 893e 8b41 94bd 3bdf 8b3e 7058 ad3d
000001d0: 808f 34be 1bcb d7be 98e4 d8bd e2e3 cbbd
000001e0: 75c0 5a3e e791 273d 6c3a aa3a a081 9b3c
000001f0: eabf a33e 2471 22bd f959 293e 4dec 82be
00000200: 12f1 d43d 241a ff3b 9c33 4cbe a894 8c3e
00000210: e045 913c a1f1 af3d ec86 f5be 3ce9 7b3d
00000220: fbe3 9e3d 48a0 083c 142d a7be ed71 0dbd
00000230: 0804 513d 1e33 483d 5a6f d2be 2e2e 0e3e
00000240: c922 a3bd 2f25 89bc e4e3 1e3e ad3c 53bd
00000250: 847c 15be fb1d 54be a66a 24bc 78b1 bbbc
00000260: 36e0 e6bd a8b8 863d e54d 0f3c 7b74 be3d
00000270: 8f1d dabd b681 2d3d 818b 9ebd 7c9c 1f3e
00000280: 800b 88be 5b43 813d 4c94 033e b36f 953d
00000290: de83 a3bc b1ae bf3c bbc7 4e3e 9c2a 5fbd
000002a0: 27bd 4a3d 17fd de3c a8f0 d6bd 958d 8ebd
000002b0: 9782 873e 249c 01be e196 b0bd 9750 b6bc
000002c0: 42fa 933e a8ef 7a3e aabd aebb a64e 4a3e
000002d0: 852e 533e ba30 513d aed0 52be c829 823c
000002e0: 4a56 aebd be7b 1dbd 3075 9f3d 17fb b03e
000002f0: 0877 303e 1367 39be 0d8e 963e 79b2 a63b
00000300: 0190 87bd 8507 9e3d 059f 8b3d 37fd eabc
00000310: 0f31 f13d c3b7 363e aa11 9ebe 4d9e 12be
00000320: 7650 6f3d 1866 ddbd 5e48 ca3c 5393 f73b
00000330: 158c 84be 45f2 9abd d9f6 d0be ec2f 0c3e
00000340: 78aa 983d 1e3c 40bd a923 dbbb 8d3f 0b3e
00000350: 7184 bf3e 8284 7ebe 145a b8be 1b46 27be
00000360: bdb6 883e 0857 a3be 0490 173e 59bb a13c
00000370: 5123 6d3d 5f6c da3d 52ff 4c3e e294 fabd
00000380: bb21 04be 688d 5bbb 2f51 19be 6cd7 2dbe
00000390: bd06 53be 10ce 9b3e 08c6 03bb 1e82 48be
000003a0: d4fd 00bd 16ed 85bd 3f3b c4bd 1e43 cebd
000003b0: ef81 b23d 3896 63be 8e7e febb e3ff 523e
000003c0: 13ee 98bd 1fc7 0dbe 4d7c 83bd 25e7 4f3e
000003d0: 0d0c 3c3e c54f 003e 6932 da3d 315d c33e
000003e0: 0bda 8f3e f3e0 583c c6e4 46bd a0bb ac3d
000003f0: 9610 6bbe ff98 003d 07b4 01be b874 a03c
0.10719299 -0.042120602 0.14381655 -0.09960282 -0.2376282 -0.078094035 0.24994029 0.28414336
0.0888728 -0.018568566 0.037353355 0.036866 0.055643324 -0.09133879 -0.26842964 -0.1079114
0.017732348 0.11297746 0.11737266 0.25621757 0.015229597 -0.068528436 -0.0014754138 -0.11319972
-0.098394565 -0.274215 -0.13744737 -0.03574368 -0.062840916 -0.16206133 0.08643629 0.060876694
0.4332866 -0.059751485 -0.14855127 0.09135646 -0.045265608 0.026134448 0.07256644 -0.066230476
0.15619875 0.09414037 0.025919724 0.027327377 -0.10178386 0.04935816 0.11431412 -0.29436398
0.039412256 -0.32610428 -0.0050180783 -0.2649626 -0.011731306 0.0007296326 -0.026604932 0.04801995
0.11194955 0.12191642 0.110774264 0.096823215 0.07020005 0.03261236 -0.013547493 0.04931269
0.414619 -0.112618044 -0.1393678 -0.16918811 0.14091764 -0.16691367 -0.0067479694 -0.39414525
-0.08637468 -0.0696074 -0.19328777 -0.06603615 -0.14416307 -0.13387455 -0.021703253 -0.10734166
0.10457364 -0.024258284 0.022180822 -0.09420504 -0.06418976 -0.11231275 -0.47798842 0.16791025
0.0021451372 -0.113141954 -0.115169995 -0.107445024 0.11128652 -0.21656944 -0.037859477 -0.046587955
0.0034407207 0.10269387 -0.05053971 -0.2684541 0.0880812 0.1464484 0.026529659 -0.061478496
0.2045048 -0.12811673 -0.010875876 -0.008890383 0.074393384 -0.14123806 -0.137447 -0.06603673
0.2689829 -0.07239064 0.2731875 0.08464134 -0.17632866 -0.42147145 -0.10590476 -0.099555746
0.21362479 0.040910628 0.0012987382 0.018982708 0.31982356 -0.03965868 0.16538228 -0.25570908
0.10397543 0.0077850986 -0.19941562 0.27457166 0.017733514 0.08591009 -0.479545 0.061501727
0.077583276 0.008338995 -0.3265158 -0.034532476 0.051029235 0.048876874 -0.4110058 0.13884804
-0.07965619 -0.016741363 0.15516621 -0.051571537 -0.1459828 -0.20714562 -0.010035193 -0.022911772
-0.112732336 0.06578189 0.008746599 0.09299561 -0.10650169 0.04236003 -0.07741452 0.15587038
-0.26571274 0.06311675 0.1284954 0.072966956 -0.01996034 0.023398729 0.20193379 -0.054483995
0.049496796 0.027220292 -0.1049512 -0.069605984 0.2646682 -0.12657219 -0.08622528 -0.022255225
0.2890187 0.24505484 -0.0053326683 0.19756564 0.20623215 0.05107186 -0.20587417 0.015889063
-0.08512552 -0.038448088 0.077860236 0.34566566 0.17232907 -0.18105726 0.2940525 0.0050871936
-0.066192634 0.07716278 0.0681744 -0.028685195 0.11776935 0.17843537 -0.30872852 -0.143182
0.058426343 -0.108104885 0.02469271 0.007555404 -0.25888124 -0.075657405 -0.4081333 0.13690156
0.07454389 -0.046932332 -0.0066876006 0.13598461 0.37405732 -0.24855235 -0.36006224 -0.16335337
0.26701918 -0.31902337 0.14801031 0.019742655 0.05789501 0.106652014 0.20019272 -0.122354284
-0.12903492 -0.0033501033 -0.14972375 -0.16976708 -0.20608039 0.3043065 -0.002010705 -0.19580886
-0.03149207 -0.06539361 -0.09581613 -0.10071395 0.08716189 -0.22225273 -0.0077665513 0.20605426
-0.07467284 -0.1384549 -0.06420193 0.20303018 0.18363972 0.1253043 0.10654146 0.38157037
0.2809604 0.013237226 -0.04855802 0.08434224 -0.22955546 0.03139591 -0.12666331 0.019586906

mean_linear.weight f4 [3, 256]
00000000: 639d 27be 1972 a33e 37f9 45bf 2338 c63d
00000010: c4d1 50bf 751b 173f 929b 063e 0e09 23bd
00000020: 8c08 6bbe 52b3 2c3f 8a5e 573f 71c7 be3e
00000030: 935c 053e 843f a5be dd26 2d40 df1a 963f
00000040: e57a 103f dd95 89be d6d2 3e3e 1c15 1abd
00000050: 70be e7bf 6451 b6be 3f5c 45bf 7f0f 373f
00000060: 63ce 553f 3c0c df3e 22b6 37be 4249 aabe
00000070: 6b6b 61be 1f26 89bf dceb ac3e 1e7d 55bc
00000080: 82c8 2ebe d25a 32bf 8417 243e 9746 1ebe
00000090: c603 1d3f 493f 8a3e dd81 5abf 6635 7640
000000a0: 909f bcbc e3b1 293f 2907 713d bbc7 81bf
000000b0: 2569 56bf 9306 8f40 dce9 5ac0 a629 74bf
000000c0: 9ee2 ae3e 5b80 a73f 0b1d adbe c273 07bd
000000d0: 8ec1 0a3e abed 12bd c4c6 32bf 8844 edbd
000000e0: 9873 5b3f 4213 d3be c7a6 a4be df7f 03bf
000000f0: 8ba8 113f f010 34bd 94e2 abbd 3bb9 df3e
00000100: 4522 4cbd d032 a03f 6a91 49bf 4e51 71c0
00000110: 2b14 6240 372d 3ebe b1a2 c53e be8d eabd
00000120: 9257 cbbe 679f e2ba d08d 073f 9add a3be
00000130: 0ae6 b63e 8612 a83e 1b81 563e b2c5 8a3d
00000140: f2ec 883f de0f 1e3f 4e23 28c0 ca6b 883e
00000150: a45e eebe 5210 833f eb02 db3e 0930 43bf
00000160: 3d6b 443c 5d01 f43e a04d a5be 36d9 9bbe
00000170: e103 6e3c d510 e3be 5729 f03e 79ac cabe
00000180: 4a94 f6be 1870 033e f84c 4b3f 7ae1 2ac0
00000190: d722 86be 75b5 89bd 02d6 0cbf 0474 0cbf
000001a0: f83b c33e 2016 d33e 6897 11bd fea8 8640
000001b0: 9201 a0be 7050 18be fb70 b040 efa8 a83e
000001c0: 9a25 1ebe 7636 9fbe 8e43 20be 106e 61be
000001d0: 5677 b43d bedc 2cbf af2e 32bf 4a75 89be
000001e0: 9c0c 233f 1b89 13bf 16d7 0e3e 53f0 39be
000001f0: 80f1 9e3e 7ec0 a73e aef0 183b f3f9 3ebe
00000200: 4681 fb3c 2b29 5bbe 323c bc3e 7894 debe
00000210: d3e1 a5bf 9173 0fbf f032 43bf beba bc3e
00000220: e386 033f a5a4 4b3f b3a2 f83e b9b7 a9bf
00000230: f48b 20bf ad07 81be 9455 0140 e628 a1be
00000240: 0166 42be 653f 96bf 09ef 60c0 113d cd3e
00000250: 44cf 92bf 90c1 b7be ce4a e0bd 251c bbbe
00000260: ae23 eabe 6d02 82bf 11aa 073f b8dc 4e3f
00000270: 0002 32bf 5098 853e 8781 83bf 2826 69bd
00000280: de28 b1be 607c 9a3e d6bc e4be b145 f23e
00000290: 1276 e63e b224 13bf 9255 1abd e79c 2fbf
000002a0: 4d77 763f dfd3 1e3f 846e a23e 2825 82bc
000002b0: ae13 b93d ff28 cf3d bceb 9d3d 2911 5abf
000002c0: db0e 1fbe 6476 243f 390c 643f bc0d 6c3e
000002d0: 7cc3 313e 385d 99be 972f ed3e f0f6 0cbe
000002e0: 65b6 0dbf 2081 853f 28c6 34be 2eed 5c3e
000002f0: 218d 7440 9ad2 cf3e 7448 9ebd 10d9 1c3e
00000300: 55b6 cb3d 8c30 843e d982 adbd 1499 58be
00000310: f6d8 cf3e a921 3e3e 3494 8b3f a0e9 f8be
00000320: 4385 2e3c 1489 a93f be58 a4bf 589c 21bf
00000330: fa34 5cbf 4f30 183e 3737 14c0 2cce 783d
00000340: 1b15 96be 5835 663f 5e54 9b3e 85dc f03e
00000350: d1aa 41bc c15f 0b3f 5636 38bf 0dc4 1640
00000360: 7fc2 85bd d46f 093f c0f8 1dbf cdca 203f
00000370: 4f51 66be 8564 34bf fe0d 8a3f f9e1 8e3e
00000380: 8e06 6a40 5d5d f9be c012 db3e 8bf7 03bf
00000390: e736 0fbd 4b09 283f 98d2 763f 331d 013e
000003a0: 0efa 9a3e 7235 a0be 74dc e2bf 6bcb 143f
000003b0: 07dc 8e3d 2946 323e 748a f33e 9145 25bf
000003c0: 259f 20bf e808 b03e 3b10 813e 7915 a3bd
000003d0: c18f 1740 4a9b ecbe 483d 13bd 3a8c 4e3e
000003e0: 2da8 583e 7632 7f3f 13f5 31bf 9e55 a13d
000003f0: c390 64bc 7ec0 f03d 9c5c 15bf 3895 283f
-0.16368632 0.31922987 -0.77333397 0.09678676 -0.81570077 0.5902627 0.13145283 -0.039803557
-0.22952479 0.6746112 0.8412863 0.37261537 0.13023596 -0.3227502 2.705497 1.172695
0.5643752 -0.2687215 0.18635115 -0.037617788 -1.8104992 -0.3560897 -0.7709388 0.7150802
0.83518046 0.43564022 -0.17940572 -0.33259016 -0.22013633 -1.0714759 0.33773696 -0.013030319
-0.17068675 -0.6966983 0.16024595 -0.15456615 0.6133388 0.27001408 -0.85354406 3.8470092
-0.023025304 0.6628706 0.05884472 -1.0139078 -0.8375419 4.4695525 -3.4205236 -0.9537605
0.3415727 1.3086046 -0.3381122 -0.03306938 0.13550398 -0.03587119 -0.6983454 -0.11585337
0.8572326 -0.4122563 -0.3215849 -0.5136699 0.568978 -0.043961465 -0.08392826 0.43696007
-0.04983737 1.2515507 -0.7873751 -3.7705874 3.532481 -0.18571936 0.38600686 -0.114528164
-0.39715248 -0.0017289937 0.52950764 -0.32005006 0.3572238 0.32826632 0.20947687 0.06775989
1.069731 0.6174296 -2.6271548 0.26644737 -0.4655658 1.0239356 0.42775664 -0.7624517
0.011988458 0.4765729 -0.32285786 -0.30439156 0.014527292 -0.4434878 0.4690654 -0.3958471
-0.4816001 0.12835729 0.7941432 -2.670012 -0.26198456 -0.06724063 -0.5501405 -0.54864526
0.3813169 0.41227818 -0.035544783 4.208129 -0.31251198 -0.14874434 5.5137916 0.32941386
-0.15444031 -0.31096238 -0.1565077 -0.22014642 0.08811824 -0.67524326 -0.69602484 -0.26847297
0.63691115 -0.5763108 0.13949236 -0.18158083 0.31043625 0.32764047 0.0023336816 -0.18650036
0.03070129 -0.21402423 0.36764675 -0.43472648 -1.2959541 -0.56035715 -0.762496 0.36861223
0.51377696 0.795481 0.4856163 -1.3259193 -0.6271355 -0.2520117 2.0208483 -0.31476516
-0.18984224 -1.1738096 -3.5145895 0.40085652 -1.1469502 -0.35889864 -0.10951768 -0.3654491
-0.45730346 -1.015699 0.52993876 0.8080554 -0.695343 0.26092768 -1.0273904 -0.056921154
-0.34601492 0.30173016 -0.4467532 0.47318795 0.45011955 -0.5747787 -0.037679262 -0.6859879
0.9627579 0.6204204 0.31724942 -0.015886858 0.09036957 0.10115241 0.077109784 -0.85182434
-0.1553301 0.6424315 0.8908115 0.23052114 0.17359728 -0.29953933 0.4632537 -0.13766074
-0.55356437 1.0430031 -0.17653716 0.21574852 3.8211138 0.40590364 -0.07728663 0.15317178
0.099468865 0.25818288 -0.08472223 -0.21152145 0.40595216 0.18567528 1.0904603 -0.48615742
0.010651889 1.3244958 -1.2839582 -0.63129187 -0.86018336 0.14862178 -2.31587 0.060743496
-0.29312977 0.89925146 0.30337805 0.47043243 -0.011820511 0.54442984 -0.7195791 2.355716
-0.06531238 0.5368626 -0.6170769 0.6280945 -0.22491954 -0.7046588 1.078552 0.27906778
3.65665 -0.48704043 0.42787743 -0.51549596 -0.03496447 0.6563918 0.9641509 0.12608795
0.30268902 -0.31290776 -1.7723527 0.5812289 0.06975561 0.17409576 0.4756657 -0.64559275
-0.62742835 0.34381795 0.25207695 -0.0796308 2.368149 -0.46212226 -0.035947114 0.2017068
0.21157904 0.9968637 -0.6951458 0.07877658 -0.0139505295 0.11755465 -0.58344436 0.6585269

mean_linear.bias f4 [3]
00000000: 8670 7c3d b394 cabb 0a1a 6739
0.06163075 -0.006182277 0.00022039577

log_std_linear.weight f4 [3, 256]
00000000: d22f 0bbe e3f1 e03e 6637 babe 7a82 8bbd
00000010: 4f18 c33d fd3c 9e3e 982d 84bd 8bda 0cbf
00000020: f00b 973e d22e 873e d3ff 073f 75da 8f3c
00000030: dd56 cebc 431e 773e 04a9 c23f 39b9 af3f
00000040: 1caa c73e 1fdf 13be 5999 623e ee92 c73d
00000050: 27ca c03f a118 08be fc15 1cbf 6a32 133e
00000060: 9e88 463f ce80 a3ba 0cd4 b43d dfcc 4fbe
00000070: 3cda 2dbf c692 933d 9ab0 373c 5aed 383d
00000080: 3b42 d2bf 6c48 6fbc f560 ecbd 6e47 bebd
00000090: 6825 923e 6010 603d 6d0f 36bf ac5f 4640
000000a0: 239f 82be 397d 953e e200 b73e 8077 33bf
000000b0: 148b e9be 84f1 5a40 6bac 91be 90e0 c7bd
000000c0: 2e05 a13d da34 22bc b264 6dbe cf1a e9bd
000000d0: cf6f c13e 2afd b3be cd45 84be 1e9b c6bd
000000e0: 7c57 2ebe 7ea0 38be 99f6 d3be ded9 bcbe
000000f0: 6105 8f3d af81 2dbe 720b c6bd 38e5 993e
00000100: 422d cabd 3859 053f 29ad 0bbf 0b12 3140
00000110: 7d49 2240 8ceb acbe cba3 023f 8639 873e
00000120: da92 6fbe 7f43 bc3e e6dc 513e cac5 38bf
00000130: ec87 983e 2698 9d3e 96fb 2f3e 94c4 3c3e
00000140: 6943 f73e 4f20 263f a793 93bf 5689 fb3e
00000150: 72fe 9c3d eaba 083f 0adc 483e 1d4d 2bbf
00000160: b045 36bd 88f8 c1bc 0c75 c7be e826 f73b
00000170: 9035 d4bc d81f 3cbe b8c4 a03e 4105 adbe
00000180: b7fd 48be f331 993e 177c 363f 4470 90bf
00000190: 35fc a1bd 7a6a 94be 9fa5 a1be f013 d13c
000001a0: 57b5 81bd 02cc b83e f5c9 163d 84fc 3440
000001b0: 362b 03bd c5d4 b33e 847f a240 c5bc 14bd
000001c0: df82 90be 7281 84bd 7801 55be da89 3c3e
000001d0: 85fc 2f3e 2742 6dbe 1364 1abf 4c8a f6bd
000001e0: 6ea6 f23d aa9c c5be a8a8 babe 8f32 2d3d
000001f0: 47da e03d e88c c13e 5f81 11bf 08a4 85be
00000200: cadb c63e a9c9 aabe 7e89 f33d 68c8 08bf
00000210: 6dc9 97bf 1190 4f3d 114d 6fbe 6257 bd3e
00000220: acdb 7e3e 552e 423f 5e0d 893e e3d8 55bf
00000230: 207b debe 5e09 263e 09d6 443e 7cae 80be
00000240: 6403 3c3f 8503 0c3f a4fb 1440 9e7a cb3e
00000250: 54fa 9cbe 9a78 1fbe 5e38 32be 38d3 04be
00000260: b8ee 0ebe dff7 4b3e 2648 8e3e 97b9 2c3f
00000270: 0cc3 e53d f810 b4be 020e 72bf 40e6 c13e
00000280: 377d 76be 7b77 c53d 08ba 9cbe 9da9 1f3e
00000290: 74e0 b13e d667 c6bd 17a5 37bc 9c24 cdbe
000002a0: 5035 4a3f de06 423f cc09 413e fdef bdbd
000002b0: 1ec9 1fbe 2e37 9dbe ecf9 333f c277 78be
000002c0: 6be8 a8be 8846 c33e 875f 063f 1d67 2c3e
000002d0: 1185 78be ddb4 bebe d126 bd3e 496d ca3d
000002e0: 58eb 02be cf5e 983e 706d f23e 2716 a6be
000002f0: 60fe 1d40 60ca f13e cc4e 2ebe 9670 423f
00000300: a6f7 b33e fc19 b13e b940 d53d 8f04 66be
00000310: f521 063e 4b68 083e 843e 2d3f 95a1 eb3c
00000320: fe96 8dbe 2626 4d3f 3e24 f8be 6083 c4be
00000330: f3b5 39be d445 063d 567c 9b3f 2a1a f1be
00000340: ee9f 163d a6e7 593f 1300 a83e b452 883e
00000350: 3f04 a1be f8cc 0c3e 2810 85be 2eb3 d73f
00000360: 1515 5f3d 441c 663f 60c7 92be 5714 b03e
00000370: c71b 17be 73c1 9a3d 4e07 073f ff70 d63e
00000380: 6433 3440 04a5 0d3e c149 a23e 9404 af3e
00000390: ba59 74be 2a87 2d3e d71b 353f fc45 123f
000003a0: 1a95 073e 32b0 e0bd 5510 16bf b1ed d93e
000003b0: 7aa1 113e f3ea a13e 95b9 213e 7c07 e0be
000003c0: 45c8 71be 72be d63e b1f2 6b3e 5d6b 94be
000003d0: 8d63 ba3f 52e4 08bf 2e89 b13d 8925 9fbe
000003e0: 3ab6 073e b3dd 753e e0d3 e2be 77ab d13c
000003f0: ca10 ccbd 8989 003e e811 98be 84c6 c03e
-0.13592461 0.43934545 -0.3637039 -0.06811996 0.09526121 0.30905905 -0.06454009 -0.5502097
0.29501295 0.2640291 0.5312473 0.017560223 -0.025187904 0.24132638 1.520783 1.37284
0.3899697 -0.14440583 0.2212881 0.097448215 1.5061692 -0.13290645 -0.60971045 0.143747
0.7755221 -0.00124743 0.08829507 -0.20292996 -0.67911124 0.07205729 0.011211539 0.04514823
-1.6426462 -0.014604669 -0.115419306 -0.09290968 0.28544164 0.054703116 -0.7111729 3.0995893
-0.25512037 0.291971 0.3574286 -0.7010422 -0.4561392 3.420991 -0.28451857 -0.09759629
0.07862316 -0.009900296 -0.23182943 -0.113820665 0.37780616 -0.35154086 -0.25834504 -0.09697555
-0.1702556 -0.18029973 -0.41399077 -0.3688497 0.06983448 -0.16944002 -0.09670152 0.30057693
-0.098719135 0.5208926 -0.54561096 2.7667263 2.5357354 -0.33773458 0.5103118 0.26411074
-0.23395863 0.36770245 0.20494422 -0.721768 0.297912 0.30780143 0.17185816 0.18434364
0.48293617 0.6489305 -1.1529435 0.49128217 0.07665719 0.5341021 0.19615188 -0.6691454
-0.044500053 -0.02367808 -0.38956487 0.00754248 -0.025904447 -0.18371522 0.31400084 -0.3379307
-0.19628035 0.2992092 0.71283096 -1.1284261 -0.07909433 -0.28987485 -0.3157167 0.025522202
-0.06333416 0.36093146 0.036813695 2.8279123 -0.03202363 0.35123268 5.078066 -0.036312837
-0.28224847 -0.06470002 -0.20801342 0.18411961 0.17186172 -0.23169766 -0.6030895 -0.12038097
0.1184815 -0.38596088 -0.364568 0.042284545 0.10979133 0.37802815 -0.5683803 -0.26101708
0.3883956 -0.3335698 0.11891459 -0.53430796 -1.1858345 0.0506745 -0.23369242 0.3698073
0.24888486 0.7585195 0.2676801 -0.8353407 -0.43453312 0.16214511 0.19222273 -0.2513312
0.73442674 0.5469287 2.327859 0.39741987 -0.30659735 -0.1557335 -0.17404315 -0.12971199
-0.13958251 0.19918774 0.2778942 0.6747069 0.11218843 -0.35169196 -0.94552624 0.3787098
-0.24071203 0.0964193 -0.3061068 0.15592046 0.34741557 -0.09687774 -0.011208794 -0.40066993
0.789876 0.7579173 0.18851393 -0.0927429 -0.15604064 -0.3070616 0.70303226 -0.24264434
-0.3298982 0.3813975 0.52489513 0.1683621 -0.24269511 -0.37247363 0.36943677 0.09884126
-0.12785089 0.29759833 0.4734912 -0.32438776 2.4686508 0.47224712 -0.17022246 0.7595304
0.35149878 0.34590137 0.104127355 -0.22462676 0.13098891 0.13321035 0.67673516 0.028763572
-0.2765426 0.80136335 -0.4846515 -0.3838148 -0.18135814 0.032781437 1.2147319 -0.47090274
0.036773615 0.8511909 0.32812557 0.26625597 -0.31448552 0.13750064 -0.2598889 1.6851556
0.054463465 0.8988688 -0.28667736 0.34390518 -0.1475669 0.07556429 0.5274552 0.41883084
2.8156366 0.1383248 0.31696895 0.3418318 -0.23862353 0.16946092 0.70745605 0.5713804
0.13240471 -0.109711066 -0.5861867 0.42564157 0.14221755 0.31624565 0.1579345 -0.4375571
-0.23611553 0.41942173 0.23041798 -0.28988162 1.456163 -0.5347339 0.08668743 -0.31083325
0.13253108 0.24010353 -0.44302273 0.025594456 -0.0996414 0.12552465 -0.2970116 0.37651455

log_std_linear.bias f4 [3]
00000000: a424 a4bf 0e9b 94bf de4d c0bf
-1.2823682 -1.1609819 -1.5023763
