BipedalWalker-TwinDelayed-DDPG (TD3)/dir_chk/checkpoint_293_actor_t.pth (torch_old, 527024 bytes, 6 tensors)

l1.weight f4 [400, 24]
0	0xbf0c69d7	-0.54849
1	0xbfe506d4	-1.7892709
2	0x3fd6016e	1.6719186
3	0xbdd658a9	-0.10466129
4	0xc01a4615	-2.4105275
5	0xbcac76a7	-0.021052672
6	0xbf903063	-1.1264766
7	0xbd25c459	-0.040470455
8	0xbdc8e2d0	-0.09808886
9	0x3ed69110	0.4190755
10	0xbf50be53	-0.8154041
11	0x3e81bd73	0.2533985
12	0xbea821bf	-0.32838246
13	0xbed56776	-0.41680497
14	0xbec11809	-0.3771365
15	0xbe90a8f4	-0.282539
16	0xbe551e3e	-0.20812318
17	0xbe2af7de	-0.16696116
18	0xbeda7b6e	-0.42672294
19	0xbebd053e	-0.36918062
20	0xbe471077	-0.19439875
21	0xbdac43b9	-0.084113546
22	0xbe188dd1	-0.14897849
23	0x3ef8f09f	0.4862108
24	0xbe3a02ae	-0.18165085
25	0xbfd57d78	-1.6678915
26	0x3fe75dc9	1.8075496
27	0x3eff9ed3	0.4992586
28	0xbfac1aed	-1.3445717
29	0xbf860924	-1.047154
30	0xbfc0b6b4	-1.5055757
31	0xbe385868	-0.18002474
32	0xbe951933	-0.29120788
33	0xbef17c68	-0.47165227
34	0xbe44dfbd	-0.19225974
35	0x3ff02bb9	1.8763343
36	0x3f2d5adf	0.67716783
37	0x3e736d60	0.23772192
38	0x3dff29ad	0.12459121
39	0x3e0b3b60	0.13596869
40	0x3d4ebb93	0.050471853
41	0xbd7b2c14	-0.061321333
42	0x3da9da24	0.0829356
43	0xbe0ea024	-0.13928276
44	0xbdc38662	-0.09547116
45	0xbd4df440	-0.050281763
46	0x3e9c59ac	0.30537164
47	0x3d838879	0.064225145
48	0xbd3ece87	-0.04658368
49	0x3f2a4af7	0.6652064
50	0xbf0f675d	-0.56017095
51	0x3e4737a9	0.19454826
52	0x3dea2833	0.11433449
53	0xbea650fe	-0.32483667
54	0xbd306578	-0.04306552
55	0xbdad512f	-0.0846275
56	0xbe9b9dee	-0.30393928
57	0xbb05026d	-0.0020295635
58	0xbe9c8b6d	-0.30575123
59	0x3eaa80de	0.33301443
60	0xbd9e8d7d	-0.077418305
61	0xbd870abd	-0.06593845
62	0xbebbde30	-0.36692953
63	0xbe3cce08	-0.1843797
64	0xbe093ecd	-0.13402863
65	0xbe8b2ee5	-0.27184215
66	0xbe740dcc	-0.23833388
67	0xbe4b8d09	-0.1987802
68	0xbdf454e4	-0.11930254
69	0xbd4894e1	-0.048970107
70	0xbef0ab64	-0.4700576
71	0xbeeb3813	-0.4594122
72	0x3efb4a01	0.49079898
73	0xbf24e570	-0.64412594
74	0x3eaabbf0	0.3334651
75	0xc0292bc8	-2.6432972
76	0x3f825102	1.0180972
77	0xbfd6c8ed	-1.6780068
78	0x3f2763a0	0.6538639
79	0xbf16badb	-0.5887887
80	0xbf148c01	-0.5802613
81	0xbf640aca	-0.8907896
82	0x3edf2b1f	0.43587586
83	0xbefb6b37	-0.49105236
84	0xbf017c62	-0.5058042
85	0xbf0c6767	-0.5484528
86	0xbee6d7af	-0.4508643
87	0xbef1139b	-0.4708527
88	0xbe852f0f	-0.26012465
89	0xbed798fb	-0.42108902
90	0xbe479b21	-0.1949277
91	0xbe18ee0a	-0.14934555
92	0xbdeaceb2	-0.11465205
93	0xbe68fcbd	-0.22752662
94	0xbf39836c	-0.7246616
95	0xbe016ccc	-0.12639159
96	0xbd3b6cfb	-0.04575823
97	0x3fecb7b0	1.8493557
98	0x3dd5ed31	0.10445631
99	0xc00bfb10	-2.1871986
100	0x3e535a5a	0.20639935
101	0x3fc440f6	1.5332325
102	0xbf61da5b	-0.8822381
103	0x3f4cfd50	0.80074024
104	0xbf8fc5a0	-1.1232185
105	0xbf2a69f1	-0.66567904
106	0xbfab2add	-1.3372456
107	0xbeabab8c	-0.33529317
108	0xbf378a96	-0.7169584
109	0xbfabf8a2	-1.3435252
110	0xbeb8ba06	-0.36079425
111	0xbe2395ce	-0.15975115
112	0xbecfc7dc	-0.40582168
113	0xbdc3f85c	-0.09568855
114	0xbe13e235	-0.1444176
115	0xbeec507f	-0.46155164
116	0xbeacd668	-0.3375733
117	0xbe878b0b	-0.2647327
118	0xbe72a95f	-0.23697422
119	0xbc957cfa	-0.01824807
120	0xbf5c6621	-0.86093336
121	0xc044406e	-3.0664325
122	0x3febc22d	1.8418633
123	0x40a15fe7	5.042957
124	0xbeb517aa	-0.35369617
125	0xbf18d499	-0.596994
126	0x3e4c12bc	0.19929022
127	0x3f37f458	0.71857214
128	0xbe321ecf	-0.17394565
129	0xbf810e9c	-1.0082583
130	0x3ebe8b7b	0.3721579
131	0xbe8adcb9	-0.27121523
132	0x3e1f7d96	0.15575251
133	0xbed14a93	-0.40877208
134	0xbd193250	-0.037401497
135	0xbe550ac2	-0.20804885
136	0xbe402acf	-0.1876633
137	0xbe5ebfbb	-0.21752827
138	0xbe296549	-0.16542543
139	0xbdb60dc9	-0.08889348
140	0xbd162983	-0.036660682
141	0xbdebf466	-0.11521225
142	0xbdfce93d	-0.12349174
143	0xbe364521	-0.17799808
144	0xc07d8aa9	-3.9615881
145	0xc117425a	-9.453699
146	0x3fe8cfe1	1.818844
147	0x3f62cfe4	0.88598466
148	0xbf693f38	-0.9111209
149	0xbf97f60b	-1.1871961
150	0xbf4e70a2	-0.80640614
151	0xbeb1c11b	-0.3471764
152	0xbe284574	-0.16432744
153	0xbfb55626	-1.4166915
154	0xbdd13d6a	-0.10216792
155	0xbd93f2dd	-0.07224057
156	0x3df50f96	0.119658634
157	0xbe4191d3	-0.18903284
158	0x3d4ce7cb	0.050025743
159	0x3c49d5c3	0.012319031
160	0x3d63ef3a	0.055648066
161	0x3d3dbfa3	0.046325337
162	0xbdef9229	-0.116978
163	0xbe0f6ce3	-0.1400638
164	0xbd479094	-0.048721865
165	0xbdb0690e	-0.086137876
166	0xbe352228	-0.17688811
167	0x3eac9658	0.33708453
168	0xbef1b4dd	-0.472083
169	0x3ed72003	0.4201661
170	0x3ebf00f7	0.37305424
171	0x3d9ee340	0.07758188
172	0xbedd7689	-0.43254498
173	0xbf1de14f	-0.6167192
174	0xbfb916cd	-1.4460083
175	0xbe90df51	-0.28295377
176	0xbf01c8c7	-0.50696987
177	0x3fed06ab	1.851766
178	0x3f5a03ea	0.8516222
179	0x3fcbad35	1.5912234
180	0xbcb181b5	-0.021668294
181	0x3f6bf0f5	0.92164546
182	0xbe26325d	-0.1623015
183	0xbe7d61e8	-0.2474438
184	0xbe50db74	-0.20396215
185	0xbe6bad1f	-0.23015259
186	0xbeb27540	-0.3485508
187	0xbeaf8b38	-0.34285903
188	0xbef417ff	-0.47674558
189	0xbe5d1f59	-0.2159399
190	0xbdbf47d4	-0.09339872
191	0x3cdb6163	0.026779836
192	0x3e8e070a	0.27739745
193	0x3f993a03	1.1970829
194	0xbfca5c81	-1.580948
195	0x3fbab097	1.4585141
196	0x3fbcf578	1.4762411
197	0x3f04f0e4	0.5193007
198	0xbfc27f39	-1.5195075
199	0xbebfe3e2	-0.37478548
200	0x3efbf15c	0.4920758
201	0xbf97f0c9	-1.1870357
202	0xbe90b646	-0.28264064
203	0xbf2fdd2e	-0.6869687
204	0xbd847c43	-0.064690135
205	0x3e8f0c9b	0.27939305
206	0xbf2ff66b	-0.6873538
207	0xbee3e608	-0.44511437
208	0xbf09781a	-0.53698885
209	0xbf132614	-0.5747998
210	0xbf15c246	-0.5849956
211	0xbf19ef72	-0.6013099
212	0xbf047827	-0.5174584
213	0xbf1082cd	-0.56449586
214	0xbe827207	-0.2547762
215	0xbdc42764	-0.09577826
216	0xbf6ef20e	-0.93338096
217	0xbfd22bc3	-1.6419605
218	0xbea278de	-0.3173284
219	0xc052b0ed	-3.2920487
220	0xbec6056a	-0.38676006
221	0xbe6052c2	-0.2190657
222	0x3f341bf4	0.70355153
223	0x3d4dc80b	0.050239604
224	0xbf003481	-0.50080115
225	0x3efd65c0	0.49491692
226	0x3dbf8a10	0.09352505
227	0xbedb26d2	-0.42803055
228	0x3f1c44bb	0.61042374
229	0xc01bb1c3	-2.4327247
230	0x3e245e78	0.16051662
231	0x3ea7da8a	0.3278392
232	0x3e3967fa	0.1810607
233	0x3eaaf310	0.33388567
234	0x3e8da6a9	0.27666214
235	0x3ceede15	0.029158631
236	0x3e78ae47	0.24285232
237	0xbc78c15d	-0.01518282
238	0x3d1cb8c8	0.03826216
239	0xbca6d08d	-0.020363117
240	0x3f7dac51	0.9909106
241	0xbfb0ef19	-1.3822967
242	0x4061f14e	3.530353
243	0xbf79e26c	-0.9761112
244	0xbe2c67bb	-0.16836445
245	0x3d69d1bb	0.05708478
246	0xbfb72621	-1.4308511
247	0x3c401d63	0.011725756
248	0x3dbd9f05	0.09258846
249	0x3fcad1b4	1.5845246
250	0xbebcc634	-0.36869967
251	0xbebc5665	-0.36784664
252	0x3c63dbb6	0.013907364
253	0x3f0be797	0.54650253
254	0xbf1027cf	-0.56310743
255	0xbf06d678	-0.52671003

l1.bias f4 [400]
0	0x3f1a836f	0.603568
1	0xbc80b82f	-0.015712826
2	0xbed47d52	-0.41501862
3	0x3e57bcef	0.21068166
4	0xbc370049	-0.011169502
5	0xbe378718	-0.17922628
6	0x3e7b9bd8	0.24571168
7	0xbd390b73	-0.045176934
8	0xbe71d22c	-0.2361533
9	0xbe82dc74	-0.25558817
10	0xbea8d228	-0.32972836
11	0xbf89db9b	-1.0770143
12	0x3d84697f	0.06465434
13	0xbe3189cf	-0.17337726
14	0x3eb6f00d	0.3573002
15	0xbf81050d	-1.0079666
16	0xbdf1b493	-0.1180202
17	0xbf840792	-1.031481
18	0xbf046fa7	-0.5173287
19	0x3b930b92	0.0044874633
20	0xbf443a79	-0.7665172
21	0xbd28c261	-0.041201
22	0xbef9c039	-0.48779467
23	0xbe729154	-0.23688251
24	0xbe90f6b1	-0.2831321
25	0xbf78583c	-0.97009635
26	0xbf0dc3b4	-0.55376744
27	0xbeb6846c	-0.35647905
28	0xbe251d24	-0.16124398
29	0xbf0c12b6	-0.5471605
30	0xbea57588	-0.32316232
31	0xbe3ac925	-0.18240793
32	0x3d859be0	0.065238714
33	0x3daa000b	0.083007894
34	0xbd5d931a	-0.054095365
35	0xbe766a7c	-0.24064058
36	0xbe098706	-0.13430414
37	0xbef2eec3	-0.47447786
38	0xbe0969c3	-0.13419251
39	0xbe2330ea	-0.15936628
40	0x3f57f04b	0.8435103
41	0xbe4d8429	-0.20069946
42	0x3d27d233	0.040971946
43	0xbbf11e72	-0.0073583657
44	0xbf477499	-0.7791229
45	0xbbb6d9d0	-0.0055801645
46	0xbd80d035	-0.06289712
47	0x3e6e397e	0.23264119
48	0x3f7fdf58	0.9995017
49	0xbf22d898	-0.63611746
50	0xbe2d8a7b	-0.16947357
51	0xbec99a9a	-0.39375764
52	0xbedf77ac	-0.4364599
53	0x3e8e809d	0.278325
54	0xbe8c21dd	-0.27369586
55	0xbe7ada6c	-0.24497384
56	0xbf0b57ac	-0.5443065
57	0xbeb33ff0	-0.35009718
58	0xbd6b2a8a	-0.057413615
59	0xbe341755	-0.17587025
60	0x3f0c5bb8	0.5482745
61	0xbd01b579	-0.031667206
62	0xbf34ad90	-0.70577335
63	0xbe3bf348	-0.18354523
64	0xbe388e49	-0.18023027
65	0x3e1302bf	0.14356516
66	0x3cfbc301	0.030732634
67	0xbe9da336	-0.30788583
68	0x3cf328f0	0.029682606
69	0xbda7d102	-0.08194162
70	0xbf66a433	-0.900943
71	0xbed84b72	-0.4224506
72	0x3f01e990	0.50747013
73	0xbe8d460d	-0.27592507
74	0xbf2a04ec	-0.6641376
75	0x3b3ce327	0.0028821917
76	0xbea3f154	-0.32020056
77	0xbeed63fb	-0.46365342
78	0xbbabe303	-0.0052455678
79	0xbe560afa	-0.20902625
80	0x3b7adcc3	0.0038278557
81	0x3eb31bec	0.3498224
82	0xbdecad50	-0.11556494
83	0xbe3c5a4b	-0.18393819
84	0xbe121325	-0.14265116
85	0xbf12a16d	-0.57277566
86	0x3e1c7cef	0.15282033
87	0xbf8ef8de	-1.1169698
88	0xbf9bec0e	-1.2181413
89	0xbe52aea5	-0.20574434
90	0xbeec124e	-0.46107715
91	0xbf3a3e90	-0.7275171
92	0xbebcf770	-0.3690753
93	0xbf2bda1c	-0.67129683
94	0xbee719de	-0.45136923
95	0xbe4d61ec	-0.20056885
96	0x3e335e42	0.17516425
97	0x3e409be6	0.1880947
98	0xbe760370	-0.24024749
99	0xbf300560	-0.687582
100	0xbec56f69	-0.38561562
101	0xbf43b09e	-0.7644137
102	0xbec2b60b	-0.38029513
103	0xbeeff76b	-0.46868452
104	0x3e8f498a	0.27985793
105	0x3dac6103	0.08416941
106	0xbe8fea51	-0.28108457
107	0xbe4c88b2	-0.1997402
108	0xbe7fee6c	-0.24993294
109	0xbeb769f6	-0.3582303
110	0xbedbc882	-0.42926413
111	0xbe861ecd	-0.26195374
112	0xbe79497f	-0.24344443
113	0x3f1d2727	0.61387867
114	0xbf214bac	-0.6300609
115	0xbdbc1631	-0.0918392
116	0xbf82a435	-1.0206362
117	0xbe041295	-0.12897713
118	0xbded5e86	-0.115902945
119	0x3e5be72e	0.21474907
120	0x3df06e41	0.11739779
121	0xbeb01758	-0.3439281
122	0x3ebb4853	0.36578616
123	0xbeaeeb62	-0.34163958
124	0xbe8fe45d	-0.28103915
125	0x3ea0eba1	0.3142977
126	0xbe3b7f0e	-0.18310186
127	0xbe9312db	-0.28725323
128	0xbf10e97d	-0.56606275
129	0xbd4fc626	-0.05072608
130	0xbe03d3f3	-0.12873821
131	0xbe69320c	-0.22772998
132	0xbf92fb36	-1.1482913
133	0xbe335e68	-0.17516482
134	0xbe465a54	-0.19370395
135	0x3f117fd1	0.5683566
136	0xbda6a787	-0.08137422
137	0xbdab6202	-0.08368303
138	0xbf1e634e	-0.61870277
139	0xbf428a6e	-0.75992477
140	0xbf208694	-0.6270535
141	0x3de23565	0.110453404
142	0x3e5fad65	0.21843489
143	0xbf1a3313	-0.60234183
144	0xbe84c68a	-0.25932723
145	0x3e9fb3a4	0.31191742
146	0xbecaacac	-0.39584863
147	0xbf357f17	-0.7089705
148	0xbf03a46d	-0.5142277
149	0x3e20869b	0.15676348
150	0xbe8ba21c	-0.27272117
151	0xbe806c03	-0.25082406
152	0xbd669581	-0.05629492
153	0xbe1ddc26	-0.15416011
154	0xbdbb90bd	-0.09158466
155	0xbf51dfd4	-0.8198216
156	0x3e9ffd05	0.31247726
157	0xbfa13c59	-1.2596542
158	0xbecb8f34	-0.39757693
159	0xbe6d61de	-0.23181865
160	0x3e80a113	0.2512289
161	0xbe438979	-0.1909541
162	0x3d1b8519	0.03796873
163	0xbf56317c	-0.8366926
164	0xbe525a43	-0.20542245
165	0x3c6fc82f	0.01463513
166	0x3f0e3e89	0.5556417
167	0x3dbfe9fa	0.09370799
168	0xbe66acf8	-0.2252692
169	0x3e9e1396	0.30874318
170	0xbea8d4bf	-0.32974812
171	0xbeda57c2	-0.4264508
172	0xbf240728	-0.6407342
173	0xbceff7d3	-0.029292976
174	0x3de41aff	0.111379616
175	0xbd6b4147	-0.0574353
176	0xbe871e54	-0.26390326
177	0xbe552d1a	-0.20817986
178	0xbe6dda38	-0.23227775
179	0xbf8225bd	-1.0167767
180	0xbdfe88c9	-0.124284334
181	0xbeb221a0	-0.3479128
182	0xbed60a86	-0.41804904
183	0xbe839e3e	-0.25706667
184	0xbf2c6dd6	-0.67355096
185	0xbe839a7b	-0.25703797
186	0xbf8b3369	-1.0875064
187	0xbd6a7622	-0.057241566
188	0x3e8cf81d	0.27533045
189	0xbde5c7e3	-0.11219766
190	0x3f1cc173	0.6123268
191	0xbe40cac4	-0.18827349
192	0xbf3d8d70	-0.7404394
193	0xbc8379fa	-0.016049374
194	0x3e63dd4f	0.22252391
195	0x3e5d8851	0.21634032
196	0xbe88a675	-0.26689497
197	0xbde52993	-0.1118957
198	0xbba90f1a	-0.005159271
199	0xbf8bc46a	-1.0919316
200	0xbf0e51e2	-0.55593693
201	0xbe83bbdd	-0.25729266
202	0xbf082f75	-0.53197414
203	0xbdc38491	-0.095467694
204	0xbe54b595	-0.20772393
205	0xbedc6168	-0.43043065
206	0x3ef02e42	0.46910292
207	0xbe304638	-0.17214286
208	0xbe03b2e2	-0.12861207
209	0x3eade71d	0.33965388
210	0xbe2b7f42	-0.16747764
211	0xbe578f42	-0.21050742
212	0xbf327666	-0.6971191
213	0xbe45c708	-0.19314206
214	0xbea9df27	-0.33178064
215	0x3c9b4100	0.018951893
216	0x3e259367	0.16169511
217	0xbee901e1	-0.45509246
218	0xbf37f888	-0.71863604
219	0xbed7e6d5	-0.42168298
220	0xbe59a11d	-0.21252866
221	0xbe824f05	-0.25450912
222	0x3f0a05ac	0.53914905
223	0x3f0fd01e	0.56176937
224	0xbda62e66	-0.081143185
225	0xbf43e351	-0.7651873
226	0xbd89fbd9	-0.06737489
227	0x3ecc0972	0.39850956
228	0xbe83cc0a	-0.25741607
229	0xbf3aa35c	-0.72905517
230	0xbf69081b	-0.9102799
231	0xbc5bd9db	-0.01341864
232	0xbe4e7459	-0.2016157
233	0xbea04b94	-0.31307662
234	0xbf54ab16	-0.83073556
235	0xbf0377fa	-0.51354945
236	0xbf68ff8d	-0.9101494
237	0x3e68fe42	0.22753242
238	0x3e4c5ea1	0.19957973
239	0x3da44ab1	0.08022059
240	0x3d8821e4	0.06647089
241	0xbe1d2217	-0.15345035
242	0xb9c9eba0	-0.00038513262
243	0xbec003e9	-0.37502983
244	0x3f2dda81	0.67911536
245	0xbef0a2d5	-0.4699923
246	0xbe9db37e	-0.30801004
247	0xbebeb00e	-0.37243694
248	0xbf34a16e	-0.7055882
249	0xbe914646	-0.28373927
250	0xbe4e40fa	-0.20141974
251	0xbf3121b7	-0.6919207
252	0x3c198f7a	0.009372586
253	0x3e69a6ac	0.22817487
254	0xbf0bc766	-0.5460113
255	0x3dd3fc96	0.10350911

l2.weight f4 [300, 400]
0	0xbdd53578	-0.10410589
1	0x3e811b1f	0.25216004
2	0xbc0f7955	-0.008756955
3	0xbf1d59ae	-0.61464965
4	0x3f27d05e	0.6555232
5	0xbed04221	-0.40675452
6	0x3efe7938	0.49701858
7	0xbe8f1eb9	-0.27953127
8	0xbeb33f0f	-0.35009047
9	0xbe698162	-0.22803262
10	0xbf3befe7	-0.73412937
11	0xbfae1227	-1.359929
12	0xbf84caf5	-1.0374438
13	0xbbfc5dde	-0.0077016195
14	0x3ea37ac8	0.31929612
15	0x3ee43e23	0.44578657
16	0x3e21a673	0.15786152
17	0xbf301f3f	-0.6879768
18	0xbf6b662a	-0.91952765
19	0x3f0a0262	0.53909886
20	0xbda6af86	-0.08138947
21	0x3ea69d8e	0.3254208
22	0x3e5bf69a	0.2148079
23	0xbbd42122	-0.0064736763
24	0x3fb339d2	1.400202
25	0x3f1a1815	0.60192996
26	0xbef81cdc	-0.48459518
27	0xbf3fea20	-0.7496662
28	0xbf08271d	-0.5318468
29	0xbee05df3	-0.43821678
30	0xbefbab04	-0.49153912
31	0xbe37acc0	-0.17936993
32	0xbf00ffb4	-0.5039017
33	0xbf12ba26	-0.5731529
34	0xbdae88e6	-0.08522205
35	0xbe4bd740	-0.1990633
36	0xbfa75e86	-1.3075721
37	0x3b272196	0.0025502197
38	0xbfe68bfa	-1.8011467
39	0xbee53372	-0.44765812
40	0xbe612543	-0.2198687
41	0xbc00eb8c	-0.007868659
42	0xbee5533e	-0.4479007
43	0xbfb3e8af	-1.4055384
44	0xbe993265	-0.2992126
45	0x3da73457	0.0816428
46	0xbc4b1e18	-0.012397312
47	0xbf78d6cc	-0.97202754
48	0xbf0820b7	-0.5317492
49	0xbf427101	-0.7595368
50	0x3f84f90c	1.0388503
51	0xbed514e2	-0.41617495
52	0xbfad43a3	-1.3536266
53	0xbe4e22a2	-0.20130399
54	0xbcf8457c	-0.03030657
55	0xbdc4f718	-0.09617442
56	0xbf5210d8	-0.8205695
57	0xbed8b371	-0.42324403
58	0xbf99940e	-1.1998308
59	0xbec5f301	-0.3866196
60	0xbe243ce5	-0.16038854
61	0x3f386c9e	0.72040737
62	0xbe4bc481	-0.19899179
63	0xbdd83b21	-0.10558153
64	0xbeb87ca6	-0.360326
65	0xbe271821	-0.16317798
66	0x3e22bf1f	0.1589322
67	0x3eec32da	0.46132547
68	0x3eafe960	0.34357738
69	0x3dcdc070	0.1004647
70	0xbd9a5696	-0.07536046
71	0xc00b548f	-2.177036
72	0x3ea25a01	0.31709293
73	0x3f66d6c2	0.90171444
74	0xbefaeb9b	-0.49007878
75	0xbe277e8f	-0.16356872
76	0xbef2f3c4	-0.47451603
77	0xbfd126a2	-1.6339915
78	0xbefff241	-0.49989513
79	0xbebbc6bf	-0.3667507
80	0xbf3270e7	-0.69703525
81	0xbfacadee	-1.3490579
82	0x3ed9338c	0.4242214
83	0xbee66a63	-0.45003042
84	0xbf5b9881	-0.8577958
85	0xbcf90f4c	-0.030402802
86	0xbf4e65f1	-0.806243
87	0xbf8bd181	-1.092331
88	0xbecc9130	-0.3995452
89	0xbeb7e438	-0.35916305
90	0x3ea88127	0.32911035
91	0x3f02f3dc	0.5115335
92	0x3e85521c	0.26039207
93	0xbf88c99c	-1.0686526
94	0xbe971d96	-0.2951476
95	0x3e3f3f07	0.18676387
96	0xbe806315	-0.25075594
97	0xbff1328c	-1.8843551
98	0xbebfbc07	-0.3744814
99	0xbe80d675	-0.25163618
100	0xbf0fc455	-0.56158954
101	0xbd40a669	-0.0470337
102	0xbf3a0fe5	-0.72680503
103	0x3de9c90d	0.114153005
104	0xbd8d3c78	-0.06896299
105	0xbf7a4f27	-0.97777027
106	0x3e5f3b51	0.21799971
107	0x3e7dee16	0.24797854
108	0xbe81255c	-0.25223815
109	0x3f969b28	1.17661
110	0x3cf6cc24	0.030126639
111	0xbd37ccc8	-0.04487303
112	0xbf4a2800	-0.78967285
113	0x3cbaa010	0.022781402
114	0x3fcb77cb	1.5895933
115	0x3eb62eb8	0.3558252
116	0xbefb4f9c	-0.49084175
117	0xbdbe88ff	-0.09303474
118	0x3f5efc0a	0.8710333
119	0x3e056377	0.13026224
120	0x3f643ba0	0.8915348
121	0x3ebafb9f	0.36520097
122	0xbfdb929a	-1.7154114
123	0xbf09437c	-0.536186
124	0xbd244d5e	-0.040112846
125	0xbfa574af	-1.2926234
126	0x3f26ab0b	0.6510474
127	0x3d3381f7	0.043825116
128	0xbf294797	-0.6612486
129	0xbf24a4df	-0.64314073
130	0xbf1b628e	-0.6069726
131	0x3e8e55ed	0.2779993
132	0xbf5ea47f	-0.8696975
133	0xbde8b83a	-0.113632634
134	0xbf8c5ae4	-1.0965238
135	0x3e67ba31	0.2262962
136	0xbf9c9596	-1.223315
137	0xbf153eae	-0.58298767
138	0x3e1f69cd	0.15567704
139	0xbf3d56c0	-0.73960495
140	0xbf5f083b	-0.87121934
141	0x3eb13595	0.34611192
142	0x3f48c123	0.78419703
143	0x3fb64a0f	1.4241351
144	0xbd6c233b	-0.057650786
145	0x3e005f00	0.1253624
146	0xbe2e7d2e	-0.1703994
147	0x3d9c0d59	0.07619733
148	0xbea6e3de	-0.32595724
149	0x3f5d7a19	0.8651443
150	0xbf33d397	-0.70244735
151	0x3cd69ea2	0.026198689
152	0x3ed591e1	0.4171286
153	0x3d429429	0.047504578
154	0xbf0e4bc4	-0.5558436
155	0xbf822469	-1.0167361
156	0xbf8c852a	-1.0978138
157	0xbf3a6987	-0.7281727
158	0xbf3e4440	-0.7432289
159	0xbdfb41a1	-0.12268377
160	0xbd7e712b	-0.062119644
161	0xbc975cde	-0.0184769
162	0xbf9f8a01	-1.246399
163	0x3dfa774d	0.12229786
164	0xbe9cdf06	-0.30638903
165	0xbf6886b5	-0.90830547
166	0x3e968011	0.29394582
167	0x3ded0502	0.11573221
168	0x3d37f270	0.04490894
169	0xbea68e89	-0.3253062
170	0xbd263fce	-0.040588193
171	0x3eb2eb8f	0.34945342
172	0x3cfd484b	0.030918261
173	0xbe5b1175	-0.21393378
174	0xbf3a1078	-0.7268138
175	0xbebcf76f	-0.36907527
176	0xbfab8e48	-1.3402796
177	0x3e40ed80	0.18840599
178	0xbf0e707d	-0.55640393
179	0xbd3fd760	-0.046836257
180	0xbec3df78	-0.3825643
181	0xbe502fe9	-0.20330776
182	0xbf0b058d	-0.54305345
183	0x3e865230	0.2623458
184	0x3fc53d68	1.5409365
185	0xc02d1b1b	-2.7047794
186	0xbf426930	-0.75941753
187	0xbfa5011e	-1.2890966
188	0xbe6956d3	-0.22787027
189	0x3d35d0f8	0.04438874
190	0xc00ec7eb	-2.230952
191	0x3d4430a8	0.047897965
192	0xbf33449f	-0.7002658
193	0xbe456516	-0.19276842
194	0x3ea87a1d	0.32905665
195	0xbdf0ac1f	-0.117515795
196	0xbd8c394d	-0.06846867
197	0xbedeeff0	-0.43542433
198	0xbeb73379	-0.35781458
199	0xc0590e2e	-3.3914905
200	0x3f1208ce	0.57044685
201	0x3f4318f9	0.7620998
202	0x3ee80e76	0.45323533
203	0xbf756973	-0.9586403
204	0xc0081c2d	-2.1267197
205	0xbfaa11ef	-1.3286723
206	0xbf81169d	-1.0085026
207	0x3d0eecb5	0.03489371
208	0x3fb84897	1.4397153
209	0x3e3dfb45	0.18552883
210	0xbd931306	-0.07181363
211	0xbd953ead	-0.07287345
212	0x3ebc9f27	0.36840174
213	0x3ee3f81c	0.4452523
214	0xbd63386b	-0.055473726
215	0xbebae4f8	-0.36502814
216	0xc079af33	-3.9013183
217	0xc0384518	-2.8792171
218	0xbf1fe156	-0.6245321
219	0x3e3261f7	0.17420183
220	0xbe678d03	-0.22612385
221	0xbf8e9085	-1.1137854
222	0xbeaf9c71	-0.34299043
223	0xbd3c1cb2	-0.045925803
224	0x3f07aae5	0.5299514
225	0xbdb26b6f	-0.087118976
226	0xbf1a59b6	-0.6029314
227	0xbd991033	-0.07473793
228	0xbdca58f8	-0.09880251
229	0xbf03e544	-0.51521707
230	0xbe9fae8e	-0.31187862
231	0xbf686a1b	-0.90786904
232	0x3db1ca7f	0.08681201
233	0x3c679fb6	0.014137199
234	0xbf5a5e02	-0.85299695
235	0x3f050bcc	0.51971126
236	0x3f05a67c	0.5220716
237	0xbe9afd03	-0.30271158
238	0x3e582604	0.21108252
239	0x3e25042f	0.16114877
240	0xbce613cf	-0.028085617
241	0xbe0df70c	-0.13863772
242	0x3f7f0689	0.99619347
243	0x3e21b54e	0.15791818
244	0xbf33db52	-0.7025653
245	0xbf34e760	-0.7066555
246	0x3fa005c7	1.2501763
247	0xbf867264	-1.0503659
248	0xbfc88861	-1.566662
249	0x3a7ab4eb	0.0009563702
250	0x3f04dd98	0.51900625
251	0xbecd8afd	-0.40145102
252	0x3fc15ae1	1.5105859
253	0xbf974c75	-1.1820208
254	0x3da12c96	0.07869832
255	0xbf04948c	-0.51789165

l2.bias f4 [300]
0	0xbfbdf17a	-1.4839318
1	0xbf0c7e0d	-0.5487984
2	0xbd570c02	-0.052501686
3	0xbd97a19e	-0.07403873
4	0x3f4229c9	0.7584501
5	0xbc0eb53d	-0.008710203
6	0xbd4b89e9	-0.04969207
7	0xbd429041	-0.047500852
8	0xbd1d856e	-0.038457327
9	0xbea0d56d	-0.3141283
10	0x3fa48704	1.2853703
11	0xbf641578	-0.8909526
12	0xbd5c55ea	-0.05379287
13	0xbdce6399	-0.100775905
14	0xbd935346	-0.071936175
15	0xbdd89112	-0.10574545
16	0xbdac284f	-0.08406126
17	0xbc0d6f75	-0.00863253
18	0xbe7840e8	-0.2424351
19	0x3d9a689d	0.07539485
20	0xbd9e7b86	-0.07738404
21	0x3f063bc7	0.52434963
22	0xbde8a7d3	-0.11360135
23	0xbf54c212	-0.8310863
24	0xbf0bda7a	-0.54630244
25	0xbc5518ca	-0.013006398
26	0xbe09d41a	-0.13459817
27	0xbea3ee67	-0.32017824
28	0xbecd28d5	-0.40070215
29	0xbee917d3	-0.4552599
30	0xbda6c02c	-0.081421226
31	0xbf2640bf	-0.64942545
32	0x3ec648c8	0.38727403
33	0xbe5f07c2	-0.21780303
34	0xbc07736d	-0.008267266
35	0xbf57437a	-0.84087336
36	0xbde7c223	-0.113163255
37	0xbf811b6b	-1.0086492
38	0xbde852ab	-0.11343893
39	0xbdacaeaf	-0.08431756
40	0xbecd5350	-0.40102625
41	0xbdb42ca8	-0.0879758
42	0x3c17a7e9	0.0092563415
43	0xbe09919d	-0.13434453
44	0xbc7fb564	-0.015607212
45	0xbd1f70d6	-0.038925968
46	0xbd93ffee	-0.07226549
47	0x3ea4f362	0.32216936
48	0xbe2593ef	-0.16169713
49	0x3f00438c	0.5010307
50	0xbb2dc65f	-0.0026515943
51	0x3e3f3b25	0.18674906
52	0xbda9dfef	-0.08294665
53	0xbd2715df	-0.040792342
54	0x3f5858ef	0.845107
55	0xbdbf1b18	-0.093313396
56	0xbd89405d	-0.067017294
57	0xbefa66cc	-0.48906553
58	0xbd4b5ef1	-0.04965109
59	0xbf562c92	-0.8366176
60	0xbf51dd11	-0.81977946
61	0xbea5a852	-0.3235498
62	0x3e466a11	0.19376399
63	0xbe4e09c1	-0.20120908
64	0x3e586508	0.2113229
65	0xbdd19d62	-0.102350965
66	0xbf0df78a	-0.5545584
67	0xbe697163	-0.2279716
68	0xbe1aec95	-0.15129311
69	0xbe0fb325	-0.14033182
70	0xbdae881f	-0.08522057
71	0xbd94c97e	-0.07264994
72	0xbf1f25d6	-0.6216711
73	0xbe22498d	-0.1584837
74	0xbf3ac855	-0.7296193
75	0xbd44a449	-0.048008237
76	0xbd619f0b	-0.055083316
77	0x3f3a76af	0.72837347
78	0xbd1b15fe	-0.03786277
79	0xbdba08a8	-0.09083682
80	0x3d090ccc	0.03345947
81	0xbdc18da9	-0.09450848
82	0xbebede86	-0.37279147
83	0x3f5124f4	0.8169701
84	0xbdb59660	-0.088665724
85	0xbe4363f9	-0.19081105
86	0xbf21ea9b	-0.63248605
87	0xbfa03ecd	-1.2519165
88	0xbd976256	-0.07391803
89	0x3f795fb6	0.9741167
90	0xbf7d8153	-0.9902546
91	0xbeb74b7a	-0.35799772
92	0xbecc1111	-0.3985677
93	0xbe4e5fb1	-0.20153691
94	0xbf48ddd7	-0.784635
95	0xbe4fd9d1	-0.20297934
96	0x3ed0d880	0.40790176
97	0xbe2844ff	-0.1643257
98	0xbea40187	-0.32032415
99	0xbe7cf25c	-0.24701828
100	0xbe13da6e	-0.14438793
101	0xbe1b6343	-0.15174584
102	0xbd98d636	-0.074627325
103	0x3df35c73	0.11882868
104	0xbd95561e	-0.07291816
105	0xbdd3555c	-0.103190154
106	0xbe3fca18	-0.18729436
107	0x3ec16612	0.37773186
108	0xbd205817	-0.03914651
109	0xbed0cb3a	-0.4078005
110	0x3f32fb82	0.6991502
111	0xbf074a7c	-0.5284803
112	0xbf8263c9	-1.0186702
113	0xbeee6943	-0.46564683
114	0x3edd6cb8	0.43247008
115	0xbd0c394d	-0.034234334
116	0x3eedd72a	0.4645322
117	0xbee25ce3	-0.44211492
118	0x3e60fa30	0.21970439
119	0xbfbcc777	-1.4748372
120	0xbeb865e8	-0.36015248
121	0xbd8f1eb5	-0.06988279
122	0xbea78470	-0.3271823
123	0x3e61e87b	0.2206134
124	0xbdd5ea2a	-0.10445054
125	0xbd8b4a3d	-0.06801269
126	0xbd815375	-0.06314746
127	0xbd03fd7d	-0.032224167
128	0xbd12ca8e	-0.035837702
129	0xbc66b7bb	-0.014081891
130	0xbc586dea	-0.013209799
131	0x3ef172dc	0.47157943
132	0x3f596eaa	0.84934485
133	0xbdbc5298	-0.09195441
134	0xbce227c3	-0.02760685
135	0xbe521a62	-0.20517877
136	0xbd408fc1	-0.047012094
137	0xbdfab294	-0.12241092
138	0x3f3c28c8	0.7349973
139	0xbf86edd5	-1.054133
140	0xbd2ab537	-0.041676726
141	0x3e574cd9	0.21025409
142	0xbd7fc2ac	-0.062441513
143	0xbde345b3	-0.110972784
144	0xbddc1382	-0.10745908
145	0xbd13171e	-0.03591072
146	0xbef21967	-0.47285005
147	0x3f137486	0.57599676
148	0x3f1a74d8	0.6033454
149	0xbf49d211	-0.7883616
150	0xbd778eac	-0.060438797
151	0xbd87c255	-0.06628863
152	0xbd9a4ba6	-0.0753396
153	0xbdb59598	-0.08866423
154	0xbe339c20	-0.17540026
155	0xbde32353	-0.11090722
156	0xbdda7d42	-0.10668422
157	0xbec6e669	-0.38847664
158	0xbea258a6	-0.31708258
159	0xbc6ef903	-0.014585736
160	0xbd9a7f36	-0.07543795
161	0xbe35878c	-0.17727488
162	0xbdd5b1ea	-0.10434325
163	0x3f31b1ba	0.69411814
164	0x3ce9b3ca	0.028528113
165	0xbdc33b59	-0.09532804
166	0xbde0ab4b	-0.109701715
167	0xbddb6f72	-0.10714616
168	0x3da11c47	0.078667216
169	0xbc97e0c1	-0.018539788
170	0xbda53247	-0.0806623
171	0xbe573640	-0.21016788
172	0xbf1982de	-0.5996531
173	0x3e2b631a	0.16737023
174	0xbd8183e5	-0.06323985
175	0x3e96411d	0.29346552
176	0xbeba6fc8	-0.36413407
177	0xbd36e3f8	-0.044651
178	0xbd9e9166	-0.07742576
179	0xbd9c85f6	-0.076427385
180	0x3ddf3120	0.10898042
181	0xbf709ee4	-0.9399245
182	0xbd09900d	-0.033584643
183	0xbd566342	-0.052340753
184	0x3f18fb5e	0.59758556
185	0xbe4644ce	-0.19362184
186	0xbe169d76	-0.14708504
187	0xbfb48094	-1.4101739
188	0x3e1a425f	0.15064381
189	0xbe1ea5b6	-0.15492901
190	0xbc5c897e	-0.013460515
191	0xbda1c1cf	-0.07898294
192	0xbc753774	-0.014966834
193	0xbf25b636	-0.64731157
194	0xbda5a777	-0.08088582
195	0xbd94b9de	-0.07262014
196	0xbf380440	-0.71881485
197	0xbf4ca679	-0.7994152
198	0xbec05399	-0.3756378
199	0xbd822bdd	-0.063560225
200	0xbd82ee65	-0.063931264
201	0x3e8d5737	0.27605602
202	0xbcce1001	-0.025154116
203	0xbdb395e0	-0.08768821
204	0xbdd8b822	-0.105819955
205	0xbd29f8ef	-0.041497167
206	0xbd309458	-0.04311022
207	0xbef8bd6f	-0.48582026
208	0xbeb5be38	-0.35496688
209	0x3d8c8c1c	0.06862661
210	0xbeb140a1	-0.3461962
211	0xbf787c2c	-0.9706447
212	0xbd44b001	-0.048019413
213	0xbdae322f	-0.085056655
214	0xbf08dacd	-0.53458863
215	0x3cf9fc5f	0.030515848
216	0xbd563f52	-0.05230648
217	0xbf556a2b	-0.83365124
218	0x3ea09d4d	0.3137001
219	0xbc30d874	-0.010793794
220	0xbe72f2fc	-0.23725504
221	0xbd17a7de	-0.037025325
222	0xbd7cf0cc	-0.06175308
223	0xbca355b7	-0.019938333
224	0xbf1f10be	-0.6213492
225	0xbd6bba8b	-0.057550948
226	0xbecd0409	-0.4004214
227	0x3f0353c9	0.5129972
228	0xbe5c59d2	-0.21518639
229	0xbd8fb965	-0.07017783
230	0xbd19283e	-0.037391894
231	0xbd815505	-0.06315044
232	0xbcad2459	-0.021135496
233	0xbd9435d6	-0.07236831
234	0xbcb36bb0	-0.021901935
235	0x3f4509d8	0.76968145
236	0xbdb70bd0	-0.089378
237	0xbf334888	-0.7003255
238	0x3e31e138	0.1737107
239	0x3efef533	0.49796447
240	0xbf2b5307	-0.66923565
241	0x3f6740d1	0.90333277
242	0xbe0fc775	-0.1404093
243	0xbd91b2de	-0.07114194
244	0xbf02bd5f	-0.5107021
245	0x3f6773e0	0.90411186
246	0xbf441821	-0.7659932
247	0xbd95309e	-0.072846636
248	0x3e987c2a	0.2978223
249	0xbd37da10	-0.044885695
250	0xbd97a19e	-0.07403873
251	0xbe8552e5	-0.26039806
252	0xbdd22232	-0.102604285
253	0xbf16e236	-0.5893892
254	0xbebef958	-0.3729961
255	0x3eb8e144	0.36109364

l3.weight f4 [4, 300]
0	0x3e9761b7	0.29566738
1	0x3f2100d7	0.62891906
2	0x3ced7afb	0.028989306
3	0xbdb59e30	-0.088680625
4	0x3e4b740c	0.19868487
5	0xbcbc8ad7	-0.023015423
6	0x3d6e3cbb	0.058163386
7	0x3d8738d5	0.06602637
8	0xbd29e887	-0.04148152
9	0x3e95f8d7	0.29291412
10	0x3dd3cde3	0.10342004
11	0xbf375971	-0.7162085
12	0xbd8ce20d	-0.06879053
13	0x3b494251	0.0030709694
14	0xbd403b61	-0.04693163
15	0xbd22838f	-0.039676245
16	0xbcd05092	-0.025429044
17	0x3dc842d8	0.097783744
18	0xbec4199d	-0.3830079
19	0xbe78bbaf	-0.24290346
20	0xbc18fd46	-0.009337729
21	0xbf144fe5	-0.5793441
22	0xbe67b1ba	-0.22626391
23	0x3e182416	0.14857516
24	0xbf00311a	-0.50074923
25	0xbce2bc33	-0.027677631
26	0xbd0f92c9	-0.035052095
27	0x3edc2d6b	0.430034
28	0xbf109a01	-0.5648499
29	0xbf83df47	-1.0302514
30	0xbe3e9c8f	-0.1861441
31	0xbd4ad5ab	-0.049520176
32	0xbf2a5c1b	-0.6654679
33	0xbb9be055	-0.004756967
34	0x3c3e6380	0.011620402
35	0xbe0f9a24	-0.14023644
36	0x3b80dfd4	0.0039329324
37	0x3d2f76f6	0.04283806
38	0xbd1a5f2d	-0.037688423
39	0xbd9eb0a6	-0.07748537
40	0x3da7dcfd	0.08196447
41	0xbab078ff	-0.0013463794
42	0xbdf9f0fa	-0.12204166
43	0xbd9707b5	-0.07374517
44	0x3d47a509	0.048741374
45	0x3da703e6	0.081550404
46	0x3d5699f2	0.052392907
47	0xbcf6a2be	-0.030106898
48	0xbdcf3a71	-0.10118569
49	0xbfec8fae	-1.8481348
50	0xbf398dff	-0.72482294
51	0x3d36f06a	0.04466287
52	0xbc30a650	-0.0107818395
53	0xbc4e54c0	-0.012593448
54	0x3e9b1607	0.30290243
55	0x3c7eb77c	0.015546676
56	0xbcfc192c	-0.030773722
57	0xbf8afc1d	-1.0858189
58	0x3f112ffd	0.5671385
59	0x3e7b6fa3	0.24554305
60	0xbf8c2c7c	-1.0951076
61	0xbeaaee99	-0.3338516
62	0x3ed3f1c3	0.41395387
63	0xbd8691a5	-0.06570748
64	0x3dff1a40	0.12456179
65	0x3ea0f777	0.314388
66	0xbe86fe85	-0.26366058
67	0xbeba320f	-0.36366317
68	0xbf321d50	-0.6957598
69	0xbdd0a361	-0.10187412
70	0x3dc84080	0.097779274
71	0xba95cffd	-0.0011429783
72	0x3ece7338	0.4032228
73	0x3d2746b2	0.040838905
74	0xbe1d219d	-0.15344854
75	0xbcc35779	-0.023845421
76	0xbca8aa8f	-0.020589141
77	0x3f038e1c	0.51388717
78	0x3d05f62c	0.03270547
79	0x3c15f70e	0.009153141
80	0x3dfaef83	0.122527145
81	0xbc707643	-0.014676633
82	0xbe49436e	-0.19654629
83	0x3d9becdf	0.07613539
84	0x3cdb3029	0.026756363
85	0xbeb91997	-0.36152336
86	0x3f1aa1da	0.60403216
87	0xbf00cabe	-0.5030936
88	0x3d1302ce	0.035891347
89	0x3d5d8483	0.05408145
90	0xbefac553	-0.4897867
91	0x3e8dbc05	0.2768251
92	0x3d8682cc	0.06567916
93	0xbd24584f	-0.04012328
94	0x3fbd897f	1.4807585
95	0xbe234eae	-0.15947983
96	0xbf989ad5	-1.1922251
97	0x3e8159b5	0.25263754
98	0x3e8e05ce	0.27738804
99	0xbf592a31	-0.84830004
100	0xbd9a4886	-0.07533364
101	0x3edfa75a	0.43682367
102	0xbd8aa30c	-0.0676938
103	0x3dcdf250	0.10055983
104	0x38cc5699	9.743608e-05
105	0x3f5572f4	0.8337853
106	0xbe2103f7	-0.15724169
107	0x3abc22e5	0.0014353661
108	0xbd455a50	-0.04818183
109	0xbe88226c	-0.26588762
110	0xbed0641e	-0.40701383
111	0x3f2b8bee	0.6701039
112	0x3f412be5	0.754576
113	0x3e629523	0.22127204
114	0x3da3b805	0.07994083
115	0x3eccb070	0.3997836
116	0x3ec92249	0.3928397
117	0xbf08032c	-0.5312984
118	0xbf745f7e	-0.9545821
119	0xbeaa631f	-0.33278748
120	0xbeb225e7	-0.34794542
121	0xbb365e60	-0.0027827248
122	0x3e96ca16	0.29451054
123	0xbfd75aea	-1.682462
124	0x3b3c2930	0.0028711073
125	0xbbc1b8a1	-0.005911902
126	0x3c8fda35	0.017560104
127	0xbc419190	-0.01181449
128	0xbd295b1e	-0.04134666
129	0x3b05c4f4	0.0020411583
130	0xba471c50	-0.00075954664
131	0x3f33f007	0.7028813
132	0xbe3557e1	-0.17709304
133	0x3d48f5c1	0.049062494
134	0x3ccf43d0	0.02530089
135	0x3f69d94b	0.9134719
136	0xbc0fedbd	-0.008784709
137	0xbd6ed6a3	-0.058310162
138	0xbdb51860	-0.0884254
139	0xbccaa8e8	-0.024738744
140	0x3bad2187	0.005283538
141	0x3ea695be	0.3253612
142	0xbda193b7	-0.078895025
143	0xbfc016a8	-1.5006914
144	0x3d738063	0.05944861
145	0x3eb98dff	0.36241147
146	0x3f83fc49	1.0311366
147	0x3ee06829	0.43829468
148	0x3f00f81d	0.5037859
149	0x3d4ad958	0.04952368
150	0x3cfc7df3	0.030821776
151	0x3b65906a	0.0035028704
152	0xbc92956d	-0.017893517
153	0xbc5742b2	-0.01313846
154	0xbd55e70a	-0.05222229
155	0xbe8c187d	-0.27362433
156	0x3bda9fa1	0.0066718613
157	0xbfddb4b2	-1.7320769
158	0x3e968b2f	0.29403064
159	0x3d169f06	0.03677275
160	0x3ca6f82e	0.020382013
161	0xbeda72a0	-0.42665577
162	0x3de238f2	0.11046018
163	0xbf64b1b1	-0.89333636
164	0xbe00a3de	-0.1256251
165	0x3cbb97e0	0.022899568
166	0xbd82f0bc	-0.06393573
167	0xbcf6d8a4	-0.0301326
168	0xbe923f99	-0.28564146
169	0xbc42804d	-0.01187141
170	0xbdb8e157	-0.09027355
171	0xbf0af515	-0.54280216
172	0x3e283947	0.164281
173	0x3d5e5eb6	0.054289542
174	0x3b2fd1cf	0.0026827937
175	0x3e2a01a4	0.16602188
176	0xbea76976	-0.32697648
177	0xba0b9ab4	-0.0005325482
178	0xbc2b2bf6	-0.010447493
179	0xbd047b44	-0.032344118
180	0x3f7512d8	0.9573188
181	0xbf542b49	-0.8287855
182	0x3da71067	0.081574254
183	0xbc7ee65b	-0.015557851
184	0xbe370af1	-0.17875268
185	0x3fa70f18	1.3051481
186	0xbfc4b961	-1.5369073
187	0xbf6035f6	-0.8758234
188	0xbe8c8073	-0.2744175
189	0x3c9d38de	0.019192155
190	0x3f065f22	0.5248891
191	0xba75e41b	-0.00093799987
192	0xbcbd6fc0	-0.023124576
193	0xbf57bbc9	-0.8427091
194	0xbedc7c31	-0.430635
195	0xbcac879f	-0.021060763
196	0xbe93e3cd	-0.28884736
197	0xbd0eb5a4	-0.034841195
198	0xbeb6ac7f	-0.3567848
199	0x3d52cd4a	0.05146531
200	0x3c98202d	0.01857003
201	0xbccd0c5b	-0.025030306
202	0xbc2ae1be	-0.010429798
203	0x3f19bb1d	0.6005114
204	0xbc25236e	-0.010079248
205	0xbd521d82	-0.051297672
206	0x3cb0e8b8	0.021595344
207	0xbf66280f	-0.89904875
208	0xbf3e7ed7	-0.7441229
209	0xbf422e99	-0.7585235
210	0xbeda4c1d	-0.42636195
211	0x3eb583a0	0.35451984
212	0x3cb4c370	0.022065848
213	0x3d9c5715	0.07633797
214	0x3f4f03c0	0.808651
215	0xbf981d06	-1.1883857
216	0xbcc643e8	-0.024202302
217	0xbe668cbc	-0.22514623
218	0x3e63543d	0.22200103
219	0xbf19c740	-0.60069656
220	0x3e7644fb	0.24049751
221	0xbf9e7c4d	-1.2381684
222	0xbd6ebcdb	-0.058285575
223	0x3cbc51cf	0.022988228
224	0xbf4960c9	-0.7866331
225	0xbcc62891	-0.024189265
226	0xbe4c0490	-0.19923615
227	0xbe8cf373	-0.27529487
228	0xbe3b081f	-0.18264817
229	0x3d1a1f1e	0.037627332
230	0x3e08d3c5	0.13362034
231	0x3dada657	0.084789924
232	0x3f051a54	0.519933
233	0xbdc59999	-0.09648437
234	0x3cf1adfb	0.029501906
235	0xbee96a5a	-0.45588952
236	0xba686a1b	-0.00088659086
237	0x3c61ef83	0.013790014
238	0xbd0eae0e	-0.03483396
239	0xbe480138	-0.19531715
240	0x3f0893b5	0.53350383
241	0x3f2200bd	0.63282377
242	0x3e791b8b	0.24326913
243	0x3b890115	0.004181037
244	0xbff33c3a	-1.9002755
245	0x3d04404d	0.032287885
246	0x3e77a5d7	0.24184357
247	0xbd9fa146	-0.07794432
248	0xbe642b51	-0.22282149
249	0x3b5a3629	0.0033296442
250	0x3d14c596	0.036321245
251	0xbba35297	-0.0049842107
252	0xbcc7c5d8	-0.024386331
253	0xbe5dbe11	-0.21654536
254	0xbf070fa8	-0.52758265
255	0xbc6406a2	-0.013917597

l3.bias f4 [4]
0	0xbcdbc521	-0.026827397
1	0xbee3b1e5	-0.4447166
2	0x3d6673bd	0.05626272
3	0x3fcedb18	1.6160612
