BipedalWalker-TwinDelayed-DDPG (TD3)/dir_chk/checkpoint_293_actor.pth (torch_old, 527014 bytes, 6 tensors)

l1.weight f4 [400, 24]
0	0xbf0bc776	-0.5460123
1	0xbfe39194	-1.7778802
2	0x3fd5bb04	1.6697698
3	0xbdca3e83	-0.098752044
4	0xc01a3644	-2.409562
5	0xbcd7105c	-0.026252918
6	0xbf91c976	-1.1389606
7	0xbd52fbeb	-0.05150978
8	0xbdcb7446	-0.09934287
9	0x3ed8ac74	0.4231907
10	0xbf501b5d	-0.81291753
11	0x3e7570d4	0.23968822
12	0xbeaf0010	-0.34179735
13	0xbed3d143	-0.41370592
14	0xbec26c7a	-0.37973386
15	0xbe91fdd4	-0.28513968
16	0xbe57c850	-0.21072507
17	0xbe2da2aa	-0.16956583
18	0xbedbd127	-0.42933008
19	0xbebe5ad7	-0.3717868
20	0xbe49b98e	-0.1969969
21	0xbdb19c35	-0.08672372
22	0xbe1a2f79	-0.15057172
23	0x3ef8c91e	0.4859094
24	0xbe424e3b	-0.18975155
25	0xbfd3cbd9	-1.6546584
26	0x3fe6c886	1.8029945
27	0x3f00accf	0.50263685
28	0xbfac2ce6	-1.3451202
29	0xbf85ee5f	-1.046337
30	0xbfc04307	-1.5020455
31	0xbe32476d	-0.1741006
32	0xbe95b5f4	-0.29240382
33	0xbeedcd20	-0.4644556
34	0xbe519aa5	-0.20469148
35	0x3ff05335	1.8775393
36	0x3f2d4c7e	0.6769484
37	0x3e700a77	0.23441492
38	0x3def44c4	0.11683038
39	0x3e034882	0.12820628
40	0x3d2ed5ec	0.04268448
41	0xbd8da4d3	-0.06916203
42	0x3d99b158	0.07504529
43	0xbe16c828	-0.14724791
44	0xbdd40c79	-0.103539415
45	0xbd6fb2a1	-0.058519963
46	0x3e980703	0.2969285
47	0x3d62672f	0.055274185
48	0xbd3ece3f	-0.04658341
49	0x3f2a4b06	0.66520727
50	0xbf0f6809	-0.5601812
51	0x3e4737e8	0.1945492
52	0x3dea28c7	0.11433559
53	0xbea6508a	-0.3248332
54	0xbd3065e2	-0.043065913
55	0xbdad5142	-0.08462764
56	0xbe9b9e5f	-0.30394265
57	0xbb0502ca	-0.0020295852
58	0xbe9c8b14	-0.30574858
59	0x3eaa8010	0.3330083
60	0xbd9e8d2c	-0.0774177
61	0xbd870b0e	-0.065939054
62	0xbebbde6c	-0.36693132
63	0xbe3cce21	-0.18438007
64	0xbe093ef9	-0.13402928
65	0xbe8b2f32	-0.27184445
66	0xbe740ddf	-0.23833416
67	0xbe4b8d98	-0.19878232
68	0xbdf4559c	-0.11930391
69	0xbd48953e	-0.048970453
70	0xbef0aba5	-0.47005954
71	0xbeeb3836	-0.45941323
72	0x3efe3ef6	0.4965741
73	0xbf25183a	-0.6449009
74	0x3ea78d38	0.3272493
75	0xc029c51c	-2.6526556
76	0x3f822ef4	1.0170579
77	0xbfd6d0e7	-1.6782502
78	0x3f24b24e	0.6433457
79	0xbf174427	-0.5908837
80	0xbf11f6f9	-0.57017475
81	0xbf656548	-0.8960767
82	0x3ee7b747	0.45257017
83	0xbefefd61	-0.49802688
84	0xbf03f0d4	-0.5153935
85	0xbf0a5e4d	-0.5405014
86	0xbee5298f	-0.4475827
87	0xbeef6042	-0.46753126
88	0xbe837fe3	-0.25683507
89	0xbed5f581	-0.41788867
90	0xbe4466d2	-0.19179848
91	0xbe15d423	-0.14631705
92	0xbde4e2f1	-0.11176098
93	0xbe660e06	-0.22466287
94	0xbf38c701	-0.72178656
95	0xbdfca6ec	-0.12336525
96	0xbd2cd7e1	-0.042198066
97	0x3feb7d2f	1.8397578
98	0x3df05af9	0.11736102
99	0xc00b8081	-2.1797183
100	0x3e62daff	0.22153853
101	0x3fc62e55	1.548289
102	0xbf64e6ea	-0.89414847
103	0x3f4ae1d8	0.7925086
104	0xbf8f12be	-1.1177595
105	0xbf2b7f41	-0.6699105
106	0xbfab7870	-1.339613
107	0xbeb08373	-0.34475288
108	0xbf388827	-0.7208275
109	0xbfaad3e6	-1.3345916
110	0xbeb66fdf	-0.35632226
111	0xbe1f01ca	-0.15528026
112	0xbecd7452	-0.40127808
113	0xbdba9f7a	-0.09112449
114	0xbe0f4257	-0.1399015
115	0xbeea069b	-0.45708165
116	0xbeaaa7e3	-0.33331212
117	0xbe858f5f	-0.26085946
118	0xbe6eb6be	-0.23311898
119	0xbc50b0b0	-0.012737438
120	0xbf5d6636	-0.86484087
121	0xc044480c	-3.0668974
122	0x3fea228c	1.8291793
123	0x40a19e09	5.0505414
124	0xbeb46f04	-0.35240948
125	0xbf16f853	-0.5897266
126	0x3e4d06a6	0.20022067
127	0x3f3a4d43	0.7277414
128	0xbe2fe1c0	-0.1717596
129	0xbf82518e	-1.0181139
130	0x3ebd7f44	0.37011158
131	0xbe806ee6	-0.2508461
132	0x3e28fba5	0.16502245
133	0xbed28049	-0.411135
134	0xbd23734f	-0.03990489
135	0xbe579bfb	-0.21055596
136	0xbe42d681	-0.19027139
137	0xbe618c82	-0.22026256
138	0xbe2c49be	-0.16825005
139	0xbdbbb841	-0.09166003
140	0xbd215f28	-0.03939739
141	0xbdf151b9	-0.117831655
142	0xbe01c13f	-0.12671374
143	0xbe38ed87	-0.1805936
144	0xc07e04ab	-3.969035
145	0xc1175104	-9.457279
146	0x3fe84a2c	1.8147635
147	0x3f62db51	0.886159
148	0xbf693491	-0.91095835
149	0xbf986dc2	-1.1908495
150	0xbf4b22fe	-0.7935027
151	0xbeae9c9e	-0.34103864
152	0xbe2351e3	-0.15949206
153	0xbfb4f5d3	-1.413752
154	0xbdc36c70	-0.09542167
155	0xbd85e905	-0.065385856
156	0x3df8ed0c	0.12154588
157	0xbe3d2bc6	-0.1847373
158	0x3d493c77	0.04912993
159	0x3c3c2e8f	0.01148571
160	0x3d60bbd0	0.054866612
161	0x3d3aa29a	0.045565225
162	0xbdf107c1	-0.11769057
163	0xbe1004b6	-0.14064297
164	0xbd494f9b	-0.049148183
165	0xbdb0b5ce	-0.086284265
166	0xbe365486	-0.1780568
167	0x3eac01a0	0.3359499
168	0xbeef6891	-0.46759465
169	0x3ed73d1a	0.42038804
170	0x3ebb6781	0.36602405
171	0x3d844708	0.06458861
172	0xbee35fde	-0.44409078
173	0xbf1eac0b	-0.61981267
174	0xbfbab110	-1.4585285
175	0xbe902ff3	-0.28161582
176	0xbefd16de	-0.4943151
177	0x3feed749	1.865945
178	0x3f5ad0c3	0.85474795
179	0x3fcb3a92	1.5877249
180	0xbcc9e4cc	-0.024645232
181	0x3f6d963a	0.9280735
182	0xbe1cf647	-0.15328322
183	0xbe742759	-0.23843135
184	0xbe47a0cc	-0.19494933
185	0xbe6268cc	-0.2211029
186	0xbeadd223	-0.33949384
187	0xbeaae2c1	-0.33376125
188	0xbeef6bd4	-0.46761954
189	0xbe53f535	-0.20699008
190	0xbdad2a63	-0.0845535
191	0x3d18b2aa	0.037279762
192	0x3e897c2a	0.26852542
193	0x3f9a44df	1.2052268
194	0xbfc95aa3	-1.5730785
195	0x3fbcd452	1.4752295
196	0x3fbdaf10	1.481905
197	0x3f034ce5	0.51289207
198	0xbfc525f9	-1.5402213
199	0xbec3540d	-0.38150063
200	0x3efe7f8f	0.49706694
201	0xbf980d36	-1.1879032
202	0xbe92e4d0	-0.28690195
203	0xbf325428	-0.6965966
204	0xbd8797e8	-0.06620771
205	0x3e865f12	0.26244408
206	0xbf2f1ae9	-0.68400437
207	0xbee222a6	-0.4416706
208	0xbf088c7e	-0.53339374
209	0xbf1234a4	-0.57111573
210	0xbf14cdc5	-0.5812648
211	0xbf18ff34	-0.5976441
212	0xbf039e59	-0.51413494
213	0xbf0fccbb	-0.5617177
214	0xbe817412	-0.25283867
215	0xbdc1cf22	-0.094633356
216	0xbf6d3b92	-0.9266902
217	0xbfd1fa76	-1.640456
218	0xbea45264	-0.3209411
219	0xc05223d4	-3.2834368
220	0xbecb3dcb	-0.39695582
221	0xbe592687	-0.21206103
222	0x3f348ca0	0.70527077
223	0x3d25e834	0.04050465
224	0xbf00e0b5	-0.50342876
225	0x3efb1673	0.49040565
226	0x3dbea0e5	0.09308032
227	0xbee07413	-0.43838558
228	0x3f18bdea	0.59664786
229	0xc01b6d2f	-2.428539
230	0x3e1808b2	0.14847067
231	0x3ea1ae1f	0.31578156
232	0x3e2d0915	0.16897996
233	0x3ea4c785	0.3218347
234	0x3e878131	0.26465753
235	0x3c8c726e	0.017144408
236	0x3e6c6992	0.23087147
237	0xbcdea71e	-0.027179297
238	0x3cd9124b	0.02649798
239	0xbd018348	-0.03161934
240	0x3f7e7ee8	0.99412394
241	0xbfb0aef3	-1.380339
242	0x40620f9e	3.5322032
243	0xbf7b1d93	-0.98092
244	0xbe271c37	-0.16319357
245	0x3d745c1b	0.05965815
246	0xbfb69340	-1.4263687
247	0x3c942674	0.018084742
248	0x3dd4d23d	0.10391662
249	0x3fcc00e9	1.5937778
250	0xbebdb442	-0.37051588
251	0xbebc293b	-0.36750206
252	0x3c51de4a	0.0128093455
253	0x3f0c0320	0.5469227
254	0xbf0f6322	-0.5601064
255	0xbf061c41	-0.5238686

l1.bias f4 [400]
0	0x3f1a6f06	0.6032566
1	0xbcc9f13a	-0.024651159
2	0xbed47db4	-0.41502154
3	0x3e5acc68	0.21367037
4	0xbbba319d	-0.005682184
5	0xbe3a2ad0	-0.18180394
6	0x3e7a6d8c	0.24455851
7	0xbd0e1b1b	-0.03469382
8	0xbe70bf3c	-0.2351045
9	0xbe889b69	-0.2668107
10	0xbea68cd8	-0.3252933
11	0xbf8a1af4	-1.0789475
12	0x3d86fb96	0.06590955
13	0xbe2b4d6d	-0.16728754
14	0x3eb896f0	0.36052656
15	0xbf80598d	-1.0027329
16	0xbdf1e2dd	-0.11810849
17	0xbf83a79f	-1.0285529
18	0xbf02eaf3	-0.51139754
19	0x3bad4f13	0.0052889674
20	0xbf434322	-0.7627431
21	0xbd48affc	-0.048995957
22	0xbefa42b0	-0.48879004
23	0xbe729154	-0.23688251
24	0xbe8f72fc	-0.28017414
25	0xbf7858a3	-0.9701025
26	0xbf0dff32	-0.5546752
27	0xbeb23088	-0.3480265
28	0xbe291a3a	-0.16513911
29	0xbf0a6096	-0.5405363
30	0xbe9f0d0e	-0.31064647
31	0xbe33d10c	-0.17560214
32	0x3d95bd5c	0.07311508
33	0x3dac7fa1	0.08422781
34	0xbd5d9322	-0.054095395
35	0xbe766aa7	-0.24064122
36	0xbe0a5ad6	-0.13511214
37	0xbef29287	-0.47377416
38	0xbe09b518	-0.13447988
39	0xbe2d1143	-0.16901116
40	0x3f5c040b	0.8594367
41	0xbe4d84c1	-0.20070173
42	0x3d0c92d4	0.034319714
43	0xb9f297d0	-0.00046270946
44	0xbf477553	-0.779134
45	0xbbb6da3b	-0.0055802143
46	0xbd80d0cd	-0.062898256
47	0x3e7edb6b	0.24888389
48	0x3f7f4738	0.99718046
49	0xbf1f40c1	-0.6220818
50	0xbe2cab33	-0.16862182
51	0xbec7e487	-0.3904154
52	0xbedeca7c	-0.43513858
53	0x3e8c337e	0.27383035
54	0xbe8c2295	-0.27370134
55	0xbe7adad6	-0.24497542
56	0xbf0a763d	-0.5408667
57	0xbeb34020	-0.3500986
58	0xbd66ac5e	-0.056316726
59	0xbe28a70b	-0.16469972
60	0x3f0e597c	0.5560529
61	0xbc1366e9	-0.008996704
62	0xbf34ae15	-0.7057813
63	0xbe3bf3c8	-0.18354714
64	0xbe28b2a9	-0.16474403
65	0x3e19fed9	0.15038623
66	0x3d1f1804	0.038841262
67	0xbe9efb24	-0.3105098
68	0x3d49e846	0.04929378
69	0xbdc66f2e	-0.096891746
70	0xbf66a43b	-0.90094346
71	0xbed96965	-0.42463222
72	0x3efc281f	0.4924936
73	0xbe8c00bc	-0.2734431
74	0xbf296aa9	-0.66178375
75	0x3c024e28	0.007953204
76	0xbea28b8b	-0.31747088
77	0xbeecce1f	-0.46251008
78	0xbc054b97	-0.008135698
79	0xbe560b78	-0.20902812
80	0x3b7adc7a	0.0038278387
81	0x3ead0dc4	0.33799565
82	0xbdedbda8	-0.1160844
83	0xbe37eeb4	-0.17962152
84	0xbe17a37e	-0.14808461
85	0xbf139edc	-0.57664275
86	0x3e26fc3d	0.16307159
87	0xbf8e120e	-1.109926
88	0xbf9bec7d	-1.2181545
89	0xbe4bc544	-0.1989947
90	0xbeeb56aa	-0.45964557
91	0xbf3a3ef6	-0.7275232
92	0xbebcf823	-0.36908063
93	0xbf2d3ac0	-0.6766777
94	0xbee67ea2	-0.45018488
95	0xbe4d8de2	-0.20073655
96	0x3e2e4762	0.17019418
97	0x3e34b1fb	0.17646019
98	0xbe7ef79e	-0.24899146
99	0xbf300555	-0.68758136
100	0xbec56f5d	-0.38561526
101	0xbf474210	-0.7783518
102	0xbec9cb56	-0.39412946
103	0xbef1eb18	-0.47249675
104	0x3e8af92b	0.27143225
105	0x3db35dc1	0.087581165
106	0xbe959d70	-0.29221678
107	0xbe572af2	-0.21012476
108	0xbe7fee97	-0.24993359
109	0xbeb26cba	-0.34848577
110	0xbedbc90f	-0.42926833
111	0xbe861f66	-0.2619583
112	0xbe6f6cf8	-0.23381412
113	0x3f1c9de8	0.61178446
114	0xbf204422	-0.6260396
115	0xbdaaf3c3	-0.08347275
116	0xbf828bfa	-1.0198967
117	0xbe0412ac	-0.12897748
118	0xbde59596	-0.11210172
119	0x3e6132b3	0.21991996
120	0x3dd6b6ee	0.1048411
121	0xbeb01783	-0.34392938
122	0x3ebb5e24	0.3659526
123	0xbeaa377e	-0.33245462
124	0xbe8fe4e7	-0.28104326
125	0x3e9fac8c	0.3118633
126	0xbe25c672	-0.16188982
127	0xbe9367aa	-0.28790027
128	0xbf11340c	-0.5672004
129	0xbd323ada	-0.043513156
130	0xbe02df67	-0.12780534
131	0xbe6dad18	-0.23210561
132	0xbf93945a	-1.1529648
133	0xbe335e71	-0.17516495
134	0xbe4e92cd	-0.20173188
135	0x3f10d53c	0.5657537
136	0xbd9d3bc8	-0.07677418
137	0xbdb19ce7	-0.08672505
138	0xbf1e637e	-0.61870563
139	0xbf424219	-0.75882107
140	0xbf193a7e	-0.59854877
141	0x3df3eb45	0.119101085
142	0x3e53af83	0.20672421
143	0xbf1b5f54	-0.60692334
144	0xbe8d2258	-0.27565265
145	0x3ea234e4	0.31680977
146	0xbecab5cf	-0.39591834
147	0xbf3692e9	-0.7131792
148	0xbf03a4ac	-0.51423144
149	0x3e268d78	0.16264904
150	0xbe8cd84a	-0.27508765
151	0xbe806c3e	-0.25082582
152	0xbd42925f	-0.04750287
153	0xbe1ddc44	-0.15416056
154	0xbdc112a9	-0.09427387
155	0xbf507c3b	-0.8143956
156	0x3ea3b83c	0.31976497
157	0xbf9fac0a	-1.2474377
158	0xbecbfa8c	-0.3983959
159	0xbe6274d7	-0.22114883
160	0x3e81698f	0.25275847
161	0xbe438995	-0.19095452
162	0x3cff7e99	0.031188296
163	0xbf55dcac	-0.83539844
164	0xbe53d167	-0.2068535
165	0x3c3e7e30	0.011626765
166	0x3f0dbd94	0.553674
167	0x3db088c4	0.08619836
168	0xbe61510f	-0.22003578
169	0x3e9cf8e5	0.3065864
170	0xbea8d527	-0.32975122
171	0xbeda57fe	-0.42645258
172	0xbf215e46	-0.63034475
173	0xbd1f7314	-0.038928106
174	0x3dd25deb	0.1027182
175	0xbd2341ee	-0.039857797
176	0xbe839f2c	-0.25707376
177	0xbe552db1	-0.20818211
178	0xbe5f2cb3	-0.21794395
179	0xbf7ff158	-0.99977636
180	0xbe07d25d	-0.13263841
181	0xbeb6b5cd	-0.35685578
182	0xbed4c6e8	-0.41558003
183	0xbe81e379	-0.2536886
184	0xbf2c6d84	-0.6735461
185	0xbe7cf4d5	-0.24702771
186	0xbf89fa58	-1.0779524
187	0xbd666d9e	-0.056256883
188	0x3e8b8d7c	0.27256382
189	0xbde5c85b	-0.112198554
190	0x3f1f2047	0.62158626
191	0xbe481e4b	-0.19542806
192	0xbf3d8e09	-0.74044853
193	0xbc637701	-0.013883353
194	0x3e637ef3	0.22216396
195	0x3e58f719	0.2118801
196	0xbe88a6d1	-0.2668977
197	0xbdd14208	-0.102176726
198	0xbc6acd93	-0.014331239
199	0xbf899bbe	-1.0750654
200	0xbf0ecead	-0.5578411
201	0xbe83bc48	-0.25729585
202	0xbf03f2fc	-0.5154264
203	0xbdf1ac5a	-0.118004516
204	0xbe5a04e8	-0.21290934
205	0xbed7941b	-0.42105183
206	0x3ef4e2c8	0.4782927
207	0xbe304687	-0.17214404
208	0xbe0ceb0a	-0.13761535
209	0x3eadd2ce	0.33949894
210	0xbe2bd0df	-0.16778897
211	0xbe578fcc	-0.21050948
212	0xbf367840	-0.71277237
213	0xbe3ef05b	-0.18646376
214	0xbea9df20	-0.33178043
215	0x3c212d69	0.009837487
216	0x3e2d495e	0.16922519
217	0xbef016d1	-0.46892408
218	0xbf37f8b6	-0.7186388
219	0xbed6d885	-0.41962066
220	0xbe61110e	-0.21979162
221	0xbe824f85	-0.25451294
222	0x3f088ce1	0.53339964
223	0x3f1459e2	0.5794965
224	0xbda33254	-0.07968584
225	0xbf43e3fe	-0.76519763
226	0xbd9511d0	-0.07278788
227	0x3ec5e0db	0.38648114
228	0xbe829f29	-0.25512055
229	0xbf374628	-0.71591425
230	0xbf6c8f6b	-0.9240634
231	0xbcc05170	-0.023476332
232	0xbe4e5d5b	-0.201528
233	0xbe9fbed5	-0.3120028
234	0xbf56c589	-0.83895165
235	0xbf0092ef	-0.502242
236	0xbf68fe59	-0.91013104
237	0x3e657212	0.22406796
238	0x3e44d062	0.19220117
239	0x3db04c8f	0.086083524
240	0x3d80723d	0.06271789
241	0xbe2402de	-0.16016719
242	0xbb28119f	-0.0025645269
243	0xbec00473	-0.37503394
244	0x3f2c4f28	0.6730828
245	0xbeeba666	-0.4602539
246	0xbe9e0689	-0.3086436
247	0xbebbd0c5	-0.36682716
248	0xbf31a8b8	-0.6939807
249	0xbe9146fd	-0.28374472
250	0xbe54cd34	-0.20781404
251	0xbf34edfc	-0.70675635
252	0x3bbde08b	0.00579459
253	0x3e61787f	0.22018622
254	0xbf096c97	-0.5368132
255	0x3dc544f2	0.09632291

l2.weight f4 [300, 400]
0	0xbdd79169	-0.10525782
1	0x3e81b778	0.25335288
2	0xbc0f79c8	-0.008757062
3	0xbf1d59c0	-0.6146507
4	0x3f280cc7	0.65644497
5	0xbecf45b9	-0.40482882
6	0x3efe351a	0.49649888
7	0xbe9079b0	-0.2821784
8	0xbeb2add9	-0.3489826
9	0xbe6a8901	-0.22903825
10	0xbf3bf4b1	-0.73420244
11	0xbfae12c8	-1.3599482
12	0xbf84cb71	-1.0374585
13	0xbc1254d8	-0.008931361
14	0x3ea3e012	0.3200689
15	0x3ee43e90	0.4457898
16	0x3e21b74e	0.15792581
17	0xbf301df7	-0.6879572
18	0xbf6b65c2	-0.91952145
19	0x3f09e5ff	0.5386657
20	0xbda6aeeb	-0.08138832
21	0x3ea69d6f	0.32541987
22	0x3e5bf6af	0.21480821
23	0xbbd4217f	-0.0064737196
24	0x3fb3486f	1.400648
25	0x3f1a17fc	0.6019285
26	0xbef81d58	-0.48459888
27	0xbf3feacd	-0.7496765
28	0xbf08277c	-0.5318525
29	0xbee05df7	-0.4382169
30	0xbefbab77	-0.49154255
31	0xbe37acc7	-0.17937003
32	0xbf013307	-0.50468487
33	0xbf12ba3d	-0.5731543
34	0xbdae8815	-0.08522049
35	0xbe4bd6fb	-0.19906227
36	0xbfa75dfb	-1.3075556
37	0x3b272125	0.0025501933
38	0xbfe68ba5	-1.8011366
39	0xbee532a2	-0.44765192
40	0xbe604593	-0.2190154
41	0xbc00eb1b	-0.0078685535
42	0xbee50841	-0.4473286
43	0xbfb3e852	-1.4055274
44	0xbe99320b	-0.29920992
45	0x3da73465	0.0816429
46	0xbc4b1d90	-0.012397185
47	0xbf78d6c7	-0.97202724
48	0xbf07f351	-0.53105646
49	0xbf4270ff	-0.7595367
50	0x3f84f843	1.0388263
51	0xbed51566	-0.41617888
52	0xbfad4518	-1.3536711
53	0xbe4deb96	-0.201094
54	0xbcf845b3	-0.030306673
55	0xbdc4f678	-0.09617323
56	0xbf51df0c	-0.8198097
57	0xbed8b31a	-0.42324144
58	0xbf999454	-1.1998391
59	0xbec730e8	-0.389045
60	0xbe24e5d0	-0.16103292
61	0x3f38cd22	0.7218801
62	0xbe4bc47e	-0.19899175
63	0xbdd83a7a	-0.105580285
64	0xbeb8cf2c	-0.3609556
65	0xbe26fe45	-0.16307934
66	0x3e22de54	0.15905124
67	0x3eec324d	0.46132126
68	0x3eaeb3a4	0.3412143
69	0x3dccb423	0.09995296
70	0xbd9a5704	-0.07536128
71	0xc00b3b0f	-2.1754797
72	0x3ea14876	0.31500596
73	0x3f674acc	0.90348506
74	0xbefaeae1	-0.49007323
75	0xbe277ea2	-0.163569
76	0xbef2f3bf	-0.4745159
77	0xbfd126fc	-1.6340022
78	0xbf003a7d	-0.50089246
79	0xbebbc69f	-0.36674973
80	0xbf327043	-0.6970255
81	0xbfac84a0	-1.3477974
82	0x3ed85732	0.42254025
83	0xbee66a66	-0.4500305
84	0xbf5c36de	-0.8602122
85	0xbd068ac4	-0.03284718
86	0xbf4e662b	-0.80624646
87	0xbf8beecc	-1.093225
88	0xbecc9105	-0.3995439
89	0xbeb7e43b	-0.35916314
90	0x3ea8812d	0.32911053
91	0x3f02f38e	0.51152885
92	0x3e855190	0.2603879
93	0xbf88c964	-1.068646
94	0xbe971e12	-0.2951513
95	0x3e3f3ea0	0.18676233
96	0xbe80ea7a	-0.2517889
97	0xbff132d8	-1.8843641
98	0xbebfbb42	-0.37447554
99	0xbe80d6a7	-0.25163767
100	0xbf0fc4b8	-0.56159544
101	0xbd40a662	-0.047033675
102	0xbf3a37d8	-0.7274146
103	0x3de8b6f3	0.1136302
104	0xbd8ba1b9	-0.068179555
105	0xbf7ab517	-0.9793257
106	0x3e5f3aa0	0.21799707
107	0x3e7fa70c	0.24966067
108	0xbe8124d1	-0.252234
109	0x3f969e18	1.1766996
110	0x3cf6cc9f	0.030126868
111	0xbd37ccc2	-0.044873007
112	0xbf4a27c2	-0.78966916
113	0x3cb3800c	0.021911643
114	0x3fcb5631	1.5885679
115	0x3eb62f2f	0.35582873
116	0xbefb4fb7	-0.49084255
117	0xbdbe884c	-0.0930334
118	0x3f5efc4e	0.87103736
119	0x3e02e619	0.12783088
120	0x3f648d1a	0.89277804
121	0x3ebafad5	0.36519495
122	0xbfdb9308	-1.7154245
123	0xbf094347	-0.5361828
124	0xbd244d00	-0.040112495
125	0xbfa574da	-1.2926285
126	0x3f26cdd7	0.65157837
127	0x3d3469c8	0.044046193
128	0xbf294818	-0.6612563
129	0xbf24a521	-0.64314467
130	0xbf1b628e	-0.6069726
131	0x3e8e562d	0.27800122
132	0xbf5ea734	-0.8697388
133	0xbde8b811	-0.11363233
134	0xbf8c5a65	-1.0965086
135	0x3e67373d	0.22579665
136	0xbf9c95cd	-1.2233216
137	0xbf153f03	-0.58299273
138	0x3e1f69b6	0.1556767
139	0xbf3d575f	-0.7396144
140	0xbf5fa717	-0.87364334
141	0x3eb09287	0.34486791
142	0x3f48b53f	0.7840156
143	0x3fb649a4	1.4241223
144	0xbd6c23b6	-0.057651244
145	0x3e005395	0.12531884
146	0xbe2e7cd5	-0.17039807
147	0x3d9b0d62	0.07570912
148	0xbea6e344	-0.32595265
149	0x3f5d79f7	0.8651423
150	0xbf33d342	-0.7024423
151	0x3cd69ea1	0.026198687
152	0x3ed591d2	0.41712815
153	0x3d429456	0.047504745
154	0xbf0e4b47	-0.55583614
155	0xbf81e335	-1.0147463
156	0xbf8c9800	-1.0983887
157	0xbf3a68c3	-0.72816104
158	0xbf3e4493	-0.74323386
159	0xbe01a0b7	-0.12658964
160	0xbd7e709c	-0.06211911
161	0xbc975d31	-0.018477054
162	0xbf9f87e0	-1.2463341
163	0x3df78037	0.12085002
164	0xbe9cdf2e	-0.30639023
165	0xbf68bf2a	-0.90916693
166	0x3e95d06f	0.29260585
167	0x3ded0466	0.115731046
168	0x3d3d56bf	0.046225306
169	0xbea6a6d2	-0.3254915
170	0xbd263efe	-0.040587418
171	0x3eb2eb3c	0.34945095
172	0x3cfd47f9	0.030918108
173	0xbe599b94	-0.21250755
174	0xbf3a1110	-0.72682285
175	0xbebcf71e	-0.36907285
176	0xbfab7138	-1.3393927
177	0x3e40ecd1	0.18840338
178	0xbf0e70f1	-0.55641085
179	0xbd3fd814	-0.046836928
180	0xbec3d6b1	-0.38249734
181	0xbe513746	-0.20431241
182	0xbf0ba464	-0.54547715
183	0x3e85e1dd	0.26148883
184	0x3fc53ce3	1.5409206
185	0xc02d1b6d	-2.704799
186	0xbf4268ad	-0.7594097
187	0xbfa5504d	-1.2915131
188	0xbe69575e	-0.22787234
189	0x3d35d137	0.044388976
190	0xc00ed75e	-2.231895
191	0x3d443007	0.047897365
192	0xbf334409	-0.7002569
193	0xbe4374b5	-0.19087489
194	0x3ea7f412	0.32803398
195	0xbdef3754	-0.11680475
196	0xbd8c3950	-0.06846869
197	0xbee04d96	-0.43809193
198	0xbeb87256	-0.3602473
199	0xc0591e2c	-3.3924665
200	0x3f1208da	0.57044756
201	0x3f431910	0.7621012
202	0x3ee7a972	0.45246464
203	0xbf75692e	-0.95863616
204	0xc0081c2d	-2.1267197
205	0xbfaa1251	-1.328684
206	0xbf8137ab	-1.0095114
207	0x3d0eed3c	0.034894213
208	0x3fb877b4	1.441153
209	0x3e3d17b8	0.18466079
210	0xbd934082	-0.07190038
211	0xbd953e91	-0.07287324
212	0x3ebc9f03	0.36840066
213	0x3ee460fc	0.44605243
214	0xbd6338fd	-0.05547427
215	0xbebae51c	-0.36502922
216	0xc079aed6	-3.9012961
217	0xc0384565	-2.8792355
218	0xbf1fe1ca	-0.624539
219	0x3e316ea1	0.17327358
220	0xbe678d1b	-0.22612421
221	0xbf8e90fa	-1.1137993
222	0xbeb029f3	-0.34407005
223	0xbd37d868	-0.044884115
224	0x3f07ab29	0.52995545
225	0xbdb26b28	-0.08711845
226	0xbf1a5a33	-0.60293883
227	0xbd993e11	-0.07482541
228	0xbdcf3d03	-0.10119059
229	0xbf03e50e	-0.51521385
230	0xbe9faf0b	-0.31188235
231	0xbf686a3c	-0.907871
232	0x3db1c9fe	0.08681105
233	0x3c5c5904	0.013448957
234	0xbf5a5e68	-0.853003
235	0x3f050b42	0.51970303
236	0x3f05a621	0.5220662
237	0xbe9b006c	-0.3027376
238	0x3e583208	0.21112835
239	0x3e250477	0.16114984
240	0xbcfa441a	-0.030550051
241	0xbe104d54	-0.14091998
242	0x3f7eea0f	0.99575895
243	0x3e21b4f5	0.15791686
244	0xbf341cfb	-0.7035672
245	0xbf34e7a0	-0.7066593
246	0x3fa00eba	1.2504494
247	0xbf8671a8	-1.0503435
248	0xbfc888c4	-1.5666738
249	0x3a7ab480	0.000956364
250	0x3f052334	0.5200684
251	0xbece8e15	-0.40342775
252	0x3fc15b1c	1.5105929
253	0xbf974bbb	-1.1819986
254	0x3da12c1c	0.07869741
255	0xbf0429c3	-0.51626223

l2.bias f4 [300]
0	0xbfbe0687	-1.4845742
1	0xbf0c7e59	-0.5488029
2	0xbd570c88	-0.052502185
3	0xbd97a25b	-0.07404014
4	0x3f421414	0.75811887
5	0xbc0eb586	-0.008710271
6	0xbd4b8a20	-0.049692273
7	0xbd4290d8	-0.047501415
8	0xbd1d8576	-0.038457356
9	0xbe9d83bc	-0.30764568
10	0x3fa6399a	1.2986329
11	0xbf663554	-0.8992512
12	0xbd5c56a5	-0.05379357
13	0xbdce642c	-0.100777
14	0xbd9353b5	-0.071937
15	0xbdd8913e	-0.10574578
16	0xbdac289b	-0.084061824
17	0xbc0d6fa7	-0.008632577
18	0xbe7839f2	-0.24240854
19	0x3da5539f	0.0807259
20	0xbd9e7c44	-0.077385455
21	0x3f03d8a4	0.5150244
22	0xbde8a81b	-0.113601886
23	0xbf54c284	-0.8310931
24	0xbf08d50c	-0.53450084
25	0xbc551918	-0.013006471
26	0xbe0aebd6	-0.13566527
27	0xbe9ac64e	-0.3022942
28	0xbecae05d	-0.396243
29	0xbee9cc4a	-0.45663673
30	0xbdaf01f0	-0.085452914
31	0xbf23790c	-0.6385658
32	0x3ec66c1c	0.38754356
33	0xbe5f0855	-0.21780522
34	0xbc0773cf	-0.008267357
35	0xbf574431	-0.84088427
36	0xbde7c23d	-0.11316345
37	0xbf822339	-1.0166999
38	0xbde852d6	-0.11343925
39	0xbdacaeaf	-0.08431756
40	0xbeca54ce	-0.39517826
41	0xbdb42cca	-0.08797605
42	0x3cb3c38f	0.021943836
43	0xbe099234	-0.13434678
44	0xbc7fb5ad	-0.01560728
45	0xbd1f7181	-0.038926605
46	0xbd93ffe5	-0.072265424
47	0x3ea3d106	0.3199541
48	0xbe259431	-0.16169812
49	0x3f018961	0.5060025
50	0xbb2dc6e9	-0.0026516265
51	0x3e41e1e2	0.18933824
52	0xbda9e06e	-0.0829476
53	0xbd271656	-0.040792786
54	0x3f5990ff	0.8498687
55	0xbdbf1b39	-0.09331364
56	0xbd89406c	-0.067017406
57	0xbefa66c6	-0.48906535
58	0xbd2ae6bd	-0.041723955
59	0xbf562cf6	-0.83662355
60	0xbf4e13de	-0.80499065
61	0xbea36f4e	-0.31920856
62	0x3e473c3b	0.1945657
63	0xbe4e0a6f	-0.20121168
64	0x3e5e240a	0.21693435
65	0xbdd19db5	-0.10235158
66	0xbf0d7bdc	-0.5526712
67	0xbe697173	-0.22797184
68	0xbe1aec3b	-0.15129177
69	0xbe0fb35f	-0.14033268
70	0xbdae88c4	-0.0852218
71	0xbd94c9c0	-0.07265043
72	0xbf1f263e	-0.6216773
73	0xbe26b8f6	-0.16281494
74	0xbf3b29d8	-0.73110723
75	0xbd44a4c9	-0.048008714
76	0xbd619f79	-0.055083726
77	0x3f39adb1	0.7253066
78	0xbd1b1673	-0.037863206
79	0xbdba0904	-0.09083751
80	0x3d090caf	0.03345936
81	0xbdc18dc7	-0.0945087
82	0xbebfb2a8	-0.3744099
83	0x3f51c64f	0.8194322
84	0xbdb59709	-0.08866698
85	0xbe43644c	-0.19081229
86	0xbf20c373	-0.6279823
87	0xbfa04680	-1.2521515
88	0xbd976255	-0.07391802
89	0x3f7a7d4a	0.97847426
90	0xbf7d80a0	-0.9902439
91	0xbeb73ff5	-0.35790983
92	0xbecc11b1	-0.39857247
93	0xbe4e5ffc	-0.20153803
94	0xbf498e29	-0.78732544
95	0xbe4fda71	-0.20298173
96	0x3ed0d7ad	0.40789548
97	0xbe284538	-0.16432655
98	0xbea9827e	-0.3310737
99	0xbe7cf285	-0.24701889
100	0xbe13dad2	-0.14438942
101	0xbe1dca64	-0.15409237
102	0xbd98d6f2	-0.074628726
103	0x3df35c29	0.118828125
104	0xbd955689	-0.07291896
105	0xbdc7e943	-0.09761288
106	0xbe3fca7b	-0.18729584
107	0x3eb9c0f0	0.36280012
108	0xbd20586a	-0.03914682
109	0xbed0cbcf	-0.40780494
110	0x3f2e8c3e	0.6818274
111	0xbf065168	-0.52467966
112	0xbf82386e	-1.0173471
113	0xbeee699f	-0.46564957
114	0x3ee4ed81	0.4471245
115	0xbd0c39df	-0.034234878
116	0x3eedd65c	0.46452606
117	0xbee25cf1	-0.44211534
118	0x3e5eb881	0.2175007
119	0xbfbc7c08	-1.4725351
120	0xbeb86696	-0.36015767
121	0xbd8f1f40	-0.06988382
122	0xbea58ee3	-0.32335576
123	0x3e61e8e5	0.22061498
124	0xbdd5ea54	-0.10445085
125	0xbd8b4a46	-0.06801276
126	0xbd8153b0	-0.0631479
127	0xbd03fdb7	-0.032224383
128	0xbd12caaa	-0.035837807
129	0xbc66b860	-0.014082044
130	0xbc586e01	-0.013209821
131	0x3ef7ca7a	0.48396665
132	0x3f59ce75	0.85080653
133	0xbdbc52c4	-0.09195474
134	0xbce22824	-0.027607031
135	0xbe521ada	-0.20518056
136	0xbd409078	-0.047012776
137	0xbdfab2f0	-0.12241161
138	0x3f3afece	0.7304505
139	0xbf86ee59	-1.0541488
140	0xbd2ab573	-0.04167695
141	0x3e574cb7	0.21025358
142	0xbd7fc302	-0.062441833
143	0xbde34632	-0.11097373
144	0xbddc139d	-0.107459284
145	0xbd13173c	-0.03591083
146	0xbeec5402	-0.46157843
147	0x3f1314c9	0.5745359
148	0x3f197e87	0.5995869
149	0xbf49d2af	-0.788371
150	0xbd778f2d	-0.060439277
151	0xbd87c28e	-0.06628905
152	0xbd9a4bbd	-0.07533977
153	0xbdb595a7	-0.088664345
154	0xbe339c7c	-0.17540163
155	0xbde323d4	-0.11090818
156	0xbdda7db4	-0.10668507
157	0xbec6e6ed	-0.38848057
158	0xbea8dd4c	-0.32981336
159	0xbc6ef922	-0.014585765
160	0xbd9a7fed	-0.07543931
161	0xbe3f365a	-0.18673077
162	0xbdd5b227	-0.104343705
163	0x3f2f32ab	0.6843669
164	0x3ce9b329	0.028527813
165	0xbdc33ba3	-0.09532859
166	0xbde0ab85	-0.10970215
167	0xbddb6faf	-0.10714661
168	0x3d9e338f	0.07724678
169	0xbce6caba	-0.02817284
170	0xbda53256	-0.080662414
171	0xbe57339a	-0.21015778
172	0xbf1982df	-0.5996532
173	0x3e2a7419	0.1664585
174	0xbd818427	-0.06324034
175	0x3e9d0057	0.30664322
176	0xbeba7044	-0.36413777
177	0xbd36e4a1	-0.04465163
178	0xbd9e9177	-0.07742589
179	0xbd9c869b	-0.076428615
180	0x3dcd974c	0.10038623
181	0xbf709f3c	-0.9399297
182	0xbd099061	-0.033584956
183	0xbd5663ee	-0.052341394
184	0x3f19e5ef	0.60116476
185	0xbe404831	-0.18777539
186	0xbe169df7	-0.14708696
187	0xbfb58e98	-1.4184141
188	0x3e1f7ed2	0.15575722
189	0xbe1ea632	-0.15493086
190	0xbc169581	-0.009190918
191	0xbda1c22d	-0.07898364
192	0xbc7537dc	-0.014966931
193	0xbf25bedb	-0.6474435
194	0xbda5a7f4	-0.08088675
195	0xbd94b9f2	-0.07262029
196	0xbf3804d8	-0.7188239
197	0xbf4c14d9	-0.7971931
198	0xbec0538f	-0.3756375
199	0xbd822c70	-0.06356132
200	0xbd82ee7a	-0.06393142
201	0x3e8ab253	0.27089176
202	0xbcce109f	-0.02515441
203	0xbdb39603	-0.08768847
204	0xbdd8b87c	-0.105820626
205	0xbd29f9a0	-0.041497827
206	0xbd309481	-0.043110374
207	0xbef944aa	-0.486852
208	0xbeb5bec0	-0.35497093
209	0x3d8c8bc5	0.068625964
210	0xbeb07c1b	-0.34469685
211	0xbf787c35	-0.97064525
212	0xbd44affc	-0.048019394
213	0xbdae32a6	-0.08505754
214	0xbf08db23	-0.53459376
215	0x3ca02b8c	0.019552015
216	0xbd563f9d	-0.05230676
217	0xbf540488	-0.82819414
218	0x3ea4e96f	0.32209346
219	0xbca102b7	-0.019654615
220	0xbe72f3a9	-0.23725761
221	0xbd17a850	-0.03702575
222	0xbd7cf165	-0.06175365
223	0xbca3565c	-0.01993864
224	0xbf1f111b	-0.62135476
225	0xbd6bbaaf	-0.057551082
226	0xbecd04aa	-0.4004262
227	0x3f036bac	0.5133617
228	0xbe5c5a0c	-0.21518725
229	0xbd8fb9b5	-0.07017843
230	0xbd1928d2	-0.037392445
231	0xbd815503	-0.06315043
232	0xbcd1c1f1	-0.025605174
233	0xbd94363f	-0.07236909
234	0xbcb36c4d	-0.021902228
235	0x3f450926	0.76967084
236	0xbdb70c1d	-0.08937857
237	0xbf3348d5	-0.7003301
238	0x3e351e77	0.17687403
239	0x3efef4d2	0.49796158
240	0xbf2b53c1	-0.66924673
241	0x3f6d313d	0.92653257
242	0xbe0fc7d9	-0.1404108
243	0xbd91b398	-0.07114333
244	0xbf00f1ad	-0.5036877
245	0x3f66e733	0.9019653
246	0xbf44c2f9	-0.76860005
247	0xbd953120	-0.072847605
248	0x3e992e33	0.2991806
249	0xbd37da57	-0.04488596
250	0xbd97a224	-0.07403973
251	0xbe855305	-0.260399
252	0xbdd222a4	-0.102605134
253	0xbf16e2aa	-0.5893961
254	0xbebd1f11	-0.36937764
255	0x3eb3278c	0.3499111

l3.weight f4 [4, 300]
0	0x3e96a862	0.2942534
1	0x3f210165	0.6289275
2	0x3ced7b0e	0.028989341
3	0xbdb59e9a	-0.088681415
4	0x3e4353a6	0.19074878
5	0xbcbc8a0f	-0.02301505
6	0x3d6e3d6c	0.058164045
7	0x3d87392a	0.066027
8	0xbd29e907	-0.041481998
9	0x3e934c23	0.28769025
10	0x3dbff13e	0.09372185
11	0xbf37058a	-0.71492827
12	0xbd8ce2b5	-0.068791784
13	0x3b49427b	0.0030709791
14	0xbd403b6d	-0.046931673
15	0xbd2283d9	-0.03967652
16	0xbcd050ed	-0.025429213
17	0x3dc84261	0.09778286
18	0xbec42fd9	-0.38317755
19	0xbe842d89	-0.2581599
20	0xbc18fd63	-0.009337756
21	0xbf112d83	-0.5671007
22	0xbe67b191	-0.2262633
23	0x3e182430	0.14857554
24	0xbf00b086	-0.50269353
25	0xbce2bc9c	-0.027677827
26	0xbcb80197	-0.022461696
27	0x3ee56d9c	0.44810188
28	0xbf0e0e77	-0.5549082
29	0xbf83a9f7	-1.0286244
30	0xbe41063a	-0.18850031
31	0xbd429b19	-0.047511194
32	0xbf2a9f41	-0.6664925
33	0xbb9be024	-0.0047569443
34	0x3c3e63fe	0.01162052
35	0xbe0f9a12	-0.14023617
36	0x3b80dfac	0.0039329138
37	0x3d1e5aaf	0.0386607
38	0xbd1a5e6e	-0.03768771
39	0xbd9eb107	-0.07748609
40	0x3db118c7	0.08647304
41	0xbab07845	-0.0013463577
42	0xbe0c1dba	-0.13683215
43	0xbd970713	-0.07374396
44	0x3d47a5ba	0.048742034
45	0x3da7038c	0.081549734
46	0x3d569aa1	0.05239356
47	0xbcfc465b	-0.030795267
48	0xbdcf3b0d	-0.10118685
49	0xbfecf8a0	-1.8513374
50	0xbf398de6	-0.72482145
51	0x3d09321e	0.03349506
52	0xbc30a707	-0.01078201
53	0xbc4e5425	-0.012593304
54	0x3e9b420b	0.30323824
55	0x3c7eb7f4	0.0155467875
56	0xbcfc1959	-0.030773805
57	0xbf8afc38	-1.0858221
58	0x3f11ed04	0.5700228
59	0x3e7b6f03	0.24554066
60	0xbf8d646e	-1.1046274
61	0xbea6be50	-0.32567072
62	0x3ed409da	0.41413766
63	0xbd8691bb	-0.06570765
64	0x3df9edd4	0.12203565
65	0x3ea0f7f0	0.3143916
66	0xbe8a7a68	-0.27046514
67	0xbeba31a3	-0.36365995
68	0xbf321d78	-0.69576216
69	0xbdd0a2d7	-0.10187309
70	0x3dc84024	0.09777859
71	0xba95cf94	-0.0011429661
72	0x3ece7320	0.40322208
73	0x3d4252e9	0.04744235
74	0xbe022519	-0.12709464
75	0xbcc357ad	-0.023845518
76	0xbca8aafa	-0.02058934
77	0x3f03f8a8	0.51551294
78	0x3d05f5d2	0.032705136
79	0x3c15f7a9	0.009153285
80	0x3dfaeeba	0.12252565
81	0xbc70762c	-0.014676612
82	0xbe4b19e8	-0.19834101
83	0x3d6cf184	0.057847515
84	0x3cdb2fee	0.026756253
85	0xbeb918f5	-0.36151853
86	0x3f1a93f9	0.6038204
87	0xbf0094b0	-0.5022688
88	0x3d130349	0.035891805
89	0x3d6db528	0.058034092
90	0xbefac501	-0.48978427
91	0x3e8dbc1a	0.27682573
92	0x3d8682ae	0.06567894
93	0xbd2458a4	-0.040123597
94	0x3fbd4001	1.4785157
95	0xbe234dfa	-0.15947714
96	0xbf989a78	-1.192214
97	0x3e815a33	0.2526413
98	0x3e8d15ae	0.27555603
99	0xbf5929bb	-0.848293
100	0xbd9a491f	-0.07533478
101	0x3edcac95	0.4310042
102	0xbd8aa26d	-0.067692615
103	0x3dcdf1f8	0.100559175
104	0x38cc56f7	9.7436765e-05
105	0x3f55e5ba	0.8355366
106	0xbe210492	-0.157244
107	0x3beb21aa	0.007175644
108	0xbd455a1f	-0.04818165
109	0xbe882228	-0.2658856
110	0xbed26b4e	-0.41097492
111	0x3f2b94be	0.6702384
112	0x3f3e648b	0.74372166
113	0x3e629529	0.22127213
114	0x3ddae6b6	0.10688536
115	0x3eccafc7	0.39977857
116	0x3ec922f9	0.39284495
117	0xbf080316	-0.5312971
118	0xbf733413	-0.95001334
119	0xbeac0ef0	-0.33605146
120	0xbeb22557	-0.34794113
121	0xbb365f02	-0.0027827625
122	0x3e9b2099	0.30298308
123	0xbfd75b86	-1.6824806
124	0x3b3c2932	0.0028711078
125	0xbbc1b8bd	-0.005911915
126	0x3c8fda4c	0.017560147
127	0xbc419119	-0.011814379
128	0xbd295a7d	-0.041346062
129	0x3b05c456	0.0020411215
130	0xba471c01	-0.00075954205
131	0x3f3985c4	0.72469735
132	0xbe39a05a	-0.18127576
133	0x3d48f5d2	0.049062558
134	0x3ccf43a4	0.025300808
135	0x3f69d953	0.91347235
136	0xbc0fee20	-0.008784801
137	0xbd6ed753	-0.058310818
138	0xbdc86dbe	-0.09786557
139	0xbccaa88b	-0.02473857
140	0x3bad2192	0.005283543
141	0x3ea69587	0.32535955
142	0xbda193d2	-0.078895226
143	0xbfc01662	-1.5006831
144	0x3d737fb5	0.059447963
145	0x3eb98db6	0.3624093
146	0x3f867226	1.0503585
147	0x3edca563	0.4309493
148	0x3efdc5a3	0.49564847
149	0x3d4ad8c1	0.04952312
150	0x3cfc7d2a	0.030821402
151	0x3b658fd2	0.003502835
152	0xbc9294cf	-0.017893223
153	0xbc57436a	-0.013138631
154	0xbd55e6ff	-0.05222225
155	0xbe8c1909	-0.2736285
156	0x3bda9eef	0.0066717784
157	0xbfddb50e	-1.7320879
158	0x3e9468ec	0.289863
159	0x3d169f86	0.036773227
160	0x3ca6f7f6	0.020381909
161	0xbeda7737	-0.4266908
162	0x3de23847	0.1104589
163	0xbf612a00	-0.8795471
164	0xbe00a382	-0.12562373
165	0x3cbb9870	0.022899836
166	0xbd82f000	-0.063934326
167	0xbcf6d89f	-0.03013259
168	0xbe944738	-0.28960586
169	0xbc4281e1	-0.011871786
170	0xbdb8e0bb	-0.09027239
171	0xbf0af525	-0.5428031
172	0x3e283945	0.16428097
173	0x3d11ff34	0.03564377
174	0x3b2fd238	0.002682818
175	0x3e2b80b3	0.16748314
176	0xbea76969	-0.3269761
177	0xba0b99eb	-0.0005325365
178	0xbc2b2bd3	-0.01044746
179	0xbd047a81	-0.03234339
180	0x3f75de92	0.9604274
181	0xbf542abd	-0.82877713
182	0x3da71085	0.08157448
183	0xbc7ee638	-0.015557818
184	0xbe41c771	-0.18923737
185	0x3fa78f7e	1.3090665
186	0xbfc4b9e0	-1.5369225
187	0xbf60233f	-0.8755378
188	0xbe8c8405	-0.27444473
189	0x3c9d393b	0.019192329
190	0x3f048f0b	0.51780766
191	0xba75e3bb	-0.0009379943
192	0xbcbd7042	-0.023124818
193	0xbf57bb47	-0.8427014
194	0xbedc7c1f	-0.43063447
195	0xbcac881b	-0.021060994
196	0xbe93e34a	-0.28884345
197	0xbce6e21d	-0.028183991
198	0xbeb6abef	-0.3567805
199	0x3d52cd79	0.051465485
200	0x3c981fb7	0.01856981
201	0xbcc116bd	-0.023570413
202	0xbc2ae132	-0.010429667
203	0x3f19bad8	0.60050726
204	0xbc2522cb	-0.010079096
205	0xbd521e00	-0.05129814
206	0x3cb0e91b	0.021595528
207	0xbf65e217	-0.8979811
208	0xbf3e7ea6	-0.74412
209	0xbf422e8d	-0.7585228
210	0xbed9cbf2	-0.4253841
211	0x3eb583ea	0.35452205
212	0x3cb4c3d6	0.022066038
213	0x3d9c5702	0.07633783
214	0x3f4f032f	0.8086423
215	0xbf97427f	-1.1817168
216	0xbcc6434d	-0.024202013
217	0xbe6f15a0	-0.23348093
218	0x3e656580	0.22402
219	0xbf1a1602	-0.6018983
220	0x3e764439	0.24049462
221	0xbf9e7c28	-1.238164
222	0xbd6ebce1	-0.058285598
223	0x3cbc5175	0.02298806
224	0xbf496115	-0.7866376
225	0xbcc628ab	-0.024189314
226	0xbe4c03d1	-0.19923331
227	0xbe8ecb00	-0.27889252
228	0xbe3b07aa	-0.18264642
229	0x3d1a1f97	0.037627783
230	0x3e08d3f1	0.13362099
231	0x3dada65a	0.08478995
232	0x3f07f62b	0.5311
233	0xbdc599af	-0.096484534
234	0x3cf1ad6f	0.029501645
235	0xbee96a43	-0.45588884
236	0xba686aac	-0.0008865993
237	0x3c61efc5	0.013790076
238	0xbd372940	-0.044717073
239	0xbe48009c	-0.19531482
240	0x3f0893d6	0.5335058
241	0x3f22f144	0.6364939
242	0x3e791b13	0.24326734
243	0x3b89013b	0.004181055
244	0xbff3a459	-1.903453
245	0x3d33c99a	0.043893434
246	0x3e7861d1	0.24256064
247	0xbd9fa1e9	-0.07794554
248	0xbe60521d	-0.21906324
249	0x3b5a35cd	0.0033296228
250	0x3d14c60b	0.03632168
251	0xbba35350	-0.004984297
252	0xbcc7c528	-0.024386004
253	0xbe5dbde4	-0.21654469
254	0xbf07be15	-0.5302442
255	0xbbff5132	-0.0077916617

l3.bias f4 [4]
0	0xbcbfc97d	-0.023411507
1	0xbee2ef23	-0.44323072
2	0x3d559178	0.052140683
3	0x3fcf847d	1.6212307
