BipedalWalker-TwinDelayed-DDPG (TD3)/dir_chk/chpnt_88seed_300-5sc_9h44m_actor_t.pth (torch_old, 527024 bytes, 6 tensors)

l1.weight f4 [400, 24]
-0.054333247 0.29454407 0.4233611 -2.6417565 0.5969517 -0.38976368 -1.272922 0.29426932
-2.440449 0.60069686 0.71003973 1.9709567 0.6459463 0.17623073 -0.40192223 -0.049151193
-0.07996102 -0.2712174 -0.04101497 -0.059943825 -0.15341492 -0.078493394 -0.38204938 -0.50351006
-2.2584414 -2.4404726 0.6667621 -3.4280682 0.43586582 -0.47752798 -0.5605974 -0.60603577
0.34548953 -2.3772068 0.24472278 0.33898264 1.0633633 0.7237193 -0.6068957 -0.5202634
-0.41682172 -0.38306051 -0.65292364 -0.5283767 -0.53010815 -0.66130656 -0.24063344 0.85789746
-0.78739595 3.237179 -2.0067594 1.4581814 -1.0297904 0.30220476 -0.6505197 -0.037188493
-1.3035429 -0.55145675 -0.54969245 0.5913323 -0.0935533 0.4871045 -0.40071943 -0.29405683
-0.27712312 -0.40744883 -0.5953258 -0.58760107 -0.35285687 -0.31818482 -0.7182307 -0.84176743
-0.03139138 -0.024207147 -0.07795475 -0.0956648 0.012678758 -0.08481525 -0.051491383 -0.030998727
-0.18756351 0.019832535 0.09518349 -0.073579766 0.04119914 -0.10192032 -0.14538631 -0.11568453
-0.15660392 -0.08408212 -0.27408925 -0.09536529 -0.19206275 -0.09364569 -0.2635869 -0.06735853
-1.3532805 0.32657716 0.6644855 -3.819332 -0.60589314 0.21160999 -0.56365967 -0.7462085
-1.3921616 -0.82004464 -0.5740969 0.12588015 0.56145674 0.80299795 -0.19953655 -0.41969943
-0.40251675 -0.28655353 -0.38674957 -0.5438561 -0.55071926 -0.59782565 -0.16508245 0.36128467
-0.20600642 -2.1876593 -0.122075155 -1.8088163 -0.29141653 -0.3360727 -1.6446916 0.90487295
-2.9983788 0.65416026 0.10541084 0.113082774 0.39572746 -1.0618614 -0.008608363 0.12092448
0.03896454 -0.06231797 -0.015809743 0.12726447 -0.17784725 -0.13540772 -0.300606 -0.08808035
0.0030577446 -0.25207126 0.16701683 0.4223619 -0.033338025 0.06020187 -0.030634768 -0.08150868
-0.4257117 -0.0589159 -0.17127559 0.0010586237 -0.0035599605 0.0051645143 -0.16683803 -0.23610169
-0.28167695 -0.070404336 -0.24618083 -0.3476355 -0.2843234 0.03059565 -0.2543005 -0.12382057
-0.23457879 0.7787056 -1.8810886 0.8732506 0.33627483 -0.47055233 1.2564075 -0.48931584
0.0350457 -1.0669122 0.8589931 -0.24679177 0.7514902 0.8270927 -0.67725843 -0.7082529
-0.5253857 -0.5014395 -0.60951173 -0.5893177 -0.52639896 -0.6030148 -0.48632967 -0.6704039
-1.9064903 -0.1506284 -1.6703296 0.6460642 -0.61168605 0.81091523 1.5641375 0.10701048
0.53770226 0.4528219 -0.11415006 1.7609942 0.33415025 0.31076068 0.1216673 0.15917392
0.10727756 -0.10362625 -0.11513059 -0.04800262 0.17440398 0.22689556 -0.34811187 -0.78905404
-0.3486726 -0.08121662 -1.6801493 0.8641192 0.20182301 -0.14198884 0.82549536 -0.25492036
-0.42075256 -0.12957318 -0.4188452 -0.16776787 -0.3295812 0.019845946 -0.652451 -0.5833453
-0.6667442 -0.41513187 -0.537402 -0.75449425 -0.4756664 -0.41575772 -0.65642065 -0.7003255
0.27510846 0.24931604 -3.0551226 0.35101506 1.277889 -0.29546347 0.5390947 -0.16014145
-1.8819231 -1.6693727 0.58450156 0.46853167 -0.99371165 0.25043365 -0.70725155 -0.4288171
00000000: 8a8c 5ebd 7bce 963e c9c2 d83e 8a12 29c0
00000010: d4d1 183f 1b8f c7be 1cef a2bf 78aa 963e
00000020: 5130 1cc0 45c7 193f 2ac5 353f 4f48 fc3f
00000030: bd5c 253f d475 343e c0c8 cdbe c352 49bd
00000040: 9ac2 a3bd 02dd 8abe 50ff 27bd a887 75bd
00000050: cd18 1dbe 25c1 a0bd fa9b c3be 09e6 00bf
00000060: 4e8a 10c0 b430 1cc0 ecb0 2a3f 7865 5bc0
00000070: ce29 df3e 8c7e f4be 5083 0fbf 2925 1bbf
00000080: 01e4 b03e 2824 18c0 9c98 7a3e 228f ad3e
00000090: 4a1c 883f ab45 393f 845d 1bbf fb2f 05bf
000000a0: a869 d5be 8220 c4be 0126 27bf b243 07bf
000000b0: 2bb5 07bf 634b 29bf 9d68 76be 2b9f 5b3f
000000c0: c892 49bf f12d 4f40 bf6e 00c0 b0a5 ba3f
000000d0: 2cd0 83bf 95ba 9a3e 7688 26bf f652 18bd
000000e0: 7eda a6bf 452c 0dbf a5b8 0cbf 8e61 173f
000000f0: df98 bfbd c365 f93e 192b cdbe 9e8e 96be
00000100: 15e3 8dbe 229d d0be 4667 18bf 066d 16bf
00000110: a8a9 b4be 1fe9 a2be f8dd 37bf 127e 57bf
00000120: 3f94 00bd 114e c6bc bda6 9fbd e8eb c3bd
00000130: 91ba 4f3c 9eb3 adbd a1e8 52bd 0bf1 fdbc
00000140: a610 40be d777 a23c 90ef c23d fdb0 96bd
00000150: 6ec0 283d 9abb d0bd 26e0 14be 03ec ecbd
00000160: c75c 20be 3f33 acbd 6d55 8cbe e14e c3bd
00000170: 19ac 44be 50c9 bfbd ddf4 86be 45f3 89bd
00000180: 4c38 adbf 1f35 a73e b91b 2a3f ef6f 74c0
00000190: d01b 1bbf 4ab0 583e 004c 10bf 8507 3fbf
000001a0: 5a32 b2bf 72ee 51bf 04f8 12bf bae6 003e
000001b0: a1bb 0f3f 4691 4d3f 4f53 4cbe d8e2 d6be
000001c0: ad16 cebe 25b7 92be 0a04 c6be 273a 0bbf
000001d0: f0fb 0cbf 1a0b 19bf 600b 29be 4efa b83e
000001e0: 59f3 52be 9c02 0cc0 8a02 fabd 4b87 e7bf
000001f0: 8c34 95be b911 acbe 4185 d2bf c1a5 673f
00000200: 70e5 3fc0 0c77 273f a3e1 d73d f197 e73d
00000210: ca9c ca3e 13eb 87bf 170a 0dbc 41a7 f73d
00000220: 4899 1f3d 2141 7fbd 6f83 81bc 9e51 023e
00000230: 971d 36be 52a8 0abe 08e9 99be 7863 b4bd
00000240: 7164 483b 7c0f 81be 7606 2b3e d23f d83e
00000250: 748d 08bd 3c96 763d c4f5 fabc 06ee a6bd
00000260: e2f6 d9be cc51 71bd de62 2fbe 84c1 8a3a
00000270: 3a4e 69bb 163b a93b 97d7 2abe a4c4 71be
00000280: f637 90be 2630 90bd d416 7cbe 48fd b1be
00000290: d692 91be bba3 fa3c ad33 82be a495 fdbd
000002a0: 6c35 70be 4059 473f 83c7 f0bf 5a8d 5f3f
000002b0: 372c ac3e 3cec f0be f6d1 a03f 9b87 fabe
000002c0: 148c 0f3d 9490 88bf f9e6 5b3f fbb6 7cbe
000002d0: a961 403f 59bc 533f cf60 2dbf 1050 35bf
000002e0: ad7f 06bf 575e 00bf f608 1cbf 86dd 16bf
000002f0: 15c2 06bf 2e5f 1abf 3400 f9be 979f 2bbf
00000300: e007 f4bf 553e 1abe 5ccd d5bf 7764 253f
00000310: 7597 1cbf 2498 4f3f a835 c83f 4f28 db3d
00000320: dba6 093f 46d8 e73e 82c7 e9bd 4268 e13f
00000330: be15 ab3e 061c 9f3e b52c f93d 7dfe 223e
00000340: 56b4 db3d 003a d4bd 96c9 ebbd 659e 44bd
00000350: f596 323e 4f57 683e b83b b2be 72ff 49bf
00000360: 3785 b2be e654 a6bd 220f d7bf ea36 5d3f
00000370: b1aa 4e3e 8665 11be aa53 533f ec84 82be
00000380: e16c d7be d5ae 04be e172 d6be 57cb 2bbe
00000390: debe a8be f793 a23c 0707 27bf 1e56 15bf
000003a0: bfaf 2abf 2a8c d4be 2d93 09bf 8926 41bf
000003b0: 8c8a f3be 32de d4be 2f0b 28bf 8848 33bf
000003c0: 04db 8c3e b44c 7f3e 2187 43c0 3fb8 b33e
000003d0: de91 a33f fd46 97be 1c02 0a3f 1ffc 23be
000003e0: dbe2 f0bf 01ae d5bf e5a1 153f 62e3 ef3e
000003f0: e363 7ebf d738 803e 700e 35bf ea8d dbbe

l1.bias f4 [400]
-0.54258066 0.68870527 -1.0269533 -0.090732515 0.43405768 -0.16712244 -0.08608186 -0.64149565
-0.73138905 -0.49477565 0.14922781 -0.08993176 0.21871357 1.003034 -0.76366955 -0.090230346
-0.2754096 0.12345809 -0.22791526 -0.15982166 0.16382836 -0.29566017 -0.6075686 0.64408433
-0.1720922 -0.1388566 -0.6892748 -0.2222406 -0.06518445 0.51686037 -0.7313676 0.09828675
0.07406832 -0.051692553 -0.114842616 -0.5613103 -0.32095 -0.13504489 -0.51955634 -0.009868893
0.31660262 -0.54289263 0.023580635 -0.38575867 -0.38154173 -0.3514025 -0.21837226 -0.4409526
-0.4079674 0.60736597 -0.93724215 -0.3999823 0.14322308 -0.0033529273 -0.012778525 -0.5059307
-0.103238285 0.19815804 -0.30734867 -0.2768549 -0.041412044 -0.3567252 -0.5818137 -0.31253284
-0.7099127 -0.3856494 -0.20385852 0.12685683 -0.24316484 -0.46046442 -0.19311139 -0.45314237
-0.68747467 -0.504376 -0.6786813 0.25417987 -0.95559853 -0.037257783 -0.50520885 -0.46887144
-0.31206128 0.9461011 -0.04534614 0.15988843 -0.4674767 0.28256825 0.35709745 -0.49219477
-0.51699334 -0.43576103 0.038000524 -0.81140476 -0.07372715 -0.67744917 -0.6911106 -0.21842292
0.071829624 0.506679 -0.4269634 -0.34533924 -0.7152624 0.2155031 -0.2731996 -0.43824843
0.33787766 -0.1474218 -0.5807066 -0.038439445 -0.12822016 0.023028105 1.0471618 0.51016515
-0.13011855 -0.043514486 0.06638846 -0.54222995 -0.23241512 0.7932923 -0.69939893 -0.1408951
-0.74781877 -0.9624908 -0.21512505 -1.0631014 -0.43011233 -1.0558258 -1.0587822 -0.57035536
0.39370418 -0.78558403 -0.20735732 -0.43745664 -0.41421396 0.02750254 0.17681646 -0.564093
-0.6794711 0.03138467 -0.23000437 -1.0740887 -0.27287507 -0.6452269 -0.20095874 0.18647319
-0.83770144 -0.10765749 0.4813835 -0.37279463 -0.36854008 -0.49372134 -0.9385774 0.06518324
0.047217403 0.4370108 -0.6562223 -0.03705665 0.598649 -0.28610843 -0.5044525 -0.5033442
-0.45834526 0.29324493 -0.2267646 -0.26534516 -0.95850915 -0.37651995 -0.24640137 -0.9808567
0.035875473 0.10127993 0.14895144 0.9391976 -0.12190623 -0.09716684 0.54171383 -0.67892736
-0.103102736 -0.5935496 -0.87440914 0.21263145 -0.3579029 -0.55310184 0.078944966 -0.66564745
0.4870175 -0.6174433 -0.41779882 -0.19332339 -0.8412906 0.11306178 0.3035464 -0.46884882
-0.15904014 -0.31420305 -0.22911565 -0.19447376 -0.6243652 0.2927913 -0.5510504 -0.58788717
0.13064003 -0.8401581 -0.6709761 -0.51075745 0.16085486 -0.39674112 -0.04518946 0.04017871
-0.3611466 -0.41422853 -0.047348116 0.13861422 -0.387877 -0.18024874 -0.20848086 -0.2083143
-0.5345528 0.11598512 -0.6653256 -0.3254089 -0.09405417 -0.02086729 -0.23532683 -0.58819985
0.16127242 -0.4728562 -0.74798536 -0.5663735 -0.41999117 -0.46632344 -0.4247373 0.31191435
-0.6178206 -0.6072582 -0.35144785 -0.39227346 -0.13317904 -0.09766901 -0.5641406 -0.8265563
0.30100456 -0.57858884 -0.80302435 -0.24080397 -0.5027716 -0.13634427 -0.34597325 -0.13670652
-0.29760927 -0.16706114 -0.0795015 -1.1223923 0.04550126 -0.85932696 -0.43462962 -0.20211507
00000000: 91e6 0abf fd4e 303f 3573 83bf f8d1 b9bd
00000010: cf3c de3e 2522 2bbe b04b b0bd 0f39 24bf
00000020: 503c 3bbf 3c53 fdbe 2dcf 183e 252e b8bd
00000030: 73f6 5f3e 6b63 803f d97f 43bf b0ca b8bd
00000040: 7d02 8dbe 98d7 fc3d 9e62 69be 4aa8 23be
00000050: 9fc2 273e c560 97be 9e89 1bbf b6e2 243f
00000060: f038 30be 6d30 0ebe 5074 30bf 0a93 63be
00000070: 6d7f 85bd f650 043f e83a 3bbf 904a c93d
00000080: 22b1 973d 92bb 53bd 9b32 ebbd 08b2 0fbf
00000090: 8f53 a4be 3549 0abe a501 05bf 23b1 21bc
000000a0: bd19 a23e 03fb 0abf 2d2c c13c 2982 c5be
000000b0: 7059 c3be 07eb b3be fa9c 5fbe 8ac4 e1be
000000c0: 1ae1 d0be 567c 1b3f 1aef 6fbf 7bca ccbe
000000d0: 12a9 123e c9bc 5bbb 055d 51bc ad84 01bf
000000e0: 986e d3bd f1e9 4a3e ce5c 9dbe edbf 8dbe
000000f0: ad9f 29bd afa4 b6be bef1 14bf 4e04 a0be
00000100: d7bc 35bf d773 c5be 4ac0 50be c2e6 013e
00000110: 3400 79be fec1 ebbe febe 45be 4702 e8be
00000120: 57fe 2fbf c91e 01bf 0fbe 2dbf dd23 823e
00000130: 1ba2 74bf 9e9b 18bd 5e55 01bf eb0f f0be
00000140: 7fc6 9fbe af33 723f e0bc 39bd cbb9 233e
00000150: 1b59 efbe c9ac 903e 7ad5 b63e f400 fcbe
00000160: ad59 04bf 121c dfbe 70a6 1b3d 39b8 4fbf
00000170: 43fe 96bd 4f6d 2dbf a0ec 30bf 42aa 5fbe
00000180: 691b 933d b7b5 013f f29a dabe 4ed0 b0be
00000190: 701b 37bf d8ac 5c3e d1e0 8bbe 1962 e0be
000001a0: 4dfe ac3e bef5 16be 30a9 14bf ae72 1dbd
000001b0: 254c 03be 70a5 bc3c 6609 863f 2f9a 023f
000001c0: cc3d 05be 3f3c 32bd acf6 873d 95cf 0abf
000001d0: 3bfe 6dbe 3415 4b3f cf0b 33bf ce46 10be
000001e0: 0d71 3fbf cc65 76bf be49 5cbe b513 88bf
000001f0: af37 dcbe 4d25 87bf 2d86 87bf cf02 12bf
00000200: 9893 c93e 091c 49bf 7a55 54be 51fa dfbe
00000210: da13 d4be 024d e13c 600f 353e 6668 10bf
00000220: d1f1 2dbf 368d 003d 4486 6bbe bd7b 89bf
00000230: 48b6 8bbe 972d 25bf 21c8 4dbe d4f2 3e3e
00000240: 9a73 56bf 887b dcbd e677 f63e f0de bebe
00000250: 49b1 bcbe 0bc9 fcbe 9c46 70bf ca7e 853d
00000260: 0967 413d e1bf df3e 2ffe 27bf b7c8 17bd
00000270: 1041 193f ce7c 92be cd23 01bf 2adb 00bf
00000280: 3bac eabe 3324 963e fb34 68be 52db 87be
00000290: db60 75bf 39c7 c0be a450 7cbe 6d19 7bbf
000002a0: 29f2 123d da6b cf3d ba86 183e 416f 703f
000002b0: f9a9 f9bd 69ff c6bd c2ad 0a3f 2fce 2dbf
000002c0: 8727 d3bd def2 17bf 47d9 5fbf 0fbc 593e
000002d0: 0d3f b7be 1598 0dbf e6ad a13d df67 2abf
000002e0: 5c5a f93e c410 1ebf bae9 d5be 91f6 45be
000002f0: d25e 57bf ef8c e73d 6f6a 9b3e f40c f0be
00000300: 6bdb 22be 39df a0be 4b9d 6abe 2124 47be
00000310: 66d6 1fbf bee8 953e a411 0dbf c67f 16bf
00000320: 80c6 053e 9a14 57bf 17c5 2bbf 00c1 02bf
00000330: 23b7 243e a721 cbbe 9518 39bd 6e92 243d
00000340: 35e8 b8be c315 d4be 19f0 41bd e3f0 0d3e
00000350: d097 c6be 2093 38be 027c 55be 5850 55be
00000360: 74d8 08bf 9b89 ed3d c752 2abf ff9b a6be
00000370: 799f c0bd e1f1 aabc 84f9 70be 4494 16bf
00000380: 9924 253e 351a f2be f87b 3fbf dbfd 10bf
00000390: 1509 d7be f2c1 eebe 2b77 d9be 3db3 9f3e
000003a0: 7e29 1ebf 4675 1bbf f9f0 b3be 11d8 c8be
000003b0: 1660 08be b106 c8bd 856b 10bf 3299 53bf
000003c0: 451d 9a3e 661e 14bf 0193 4dbf 5195 76be
000003d0: a4b5 00bf d59d 0bbe 6823 b1be cbfc 0bbe
000003e0: 3e60 98be 1312 2bbe afd1 a2bd 8daa 8fbf
000003f0: 875f 3a3d dafc 5bbf c687 debe 41f7 4ebe

l2.weight f4 [300, 400]
0.5715435 -0.34925675 -0.64075655 -0.0113153085 -0.55487806 0.53235936 0.02137145 -0.24540596
-0.67656696 0.028921504 -0.9596298 -0.36971307 0.6823486 0.2148049 0.15072985 -0.14961524
-0.030770741 -0.16880201 -0.42291623 -0.61917955 -0.20288695 -0.43869957 -0.79440546 -1.173414
0.0030642636 -0.0048379973 0.20160842 -0.27557933 -0.11955288 -0.31471583 0.6835526 -1.4141216
0.3013286 -0.0026055404 -0.041272156 0.5308573 0.61858356 -0.0213408 -0.55801326 -0.23245685
-0.72900724 0.7030315 -1.2709988 -1.1536491 0.6032294 0.5664652 -0.32681555 -0.76378065
0.33168525 -0.2439993 0.6655282 -0.62561697 0.1076677 -0.9231517 -0.24334663 -0.5402391
-0.92755044 0.96437424 0.031348534 0.91525996 0.21846165 -0.037178062 -0.5196517 -0.7941552
-0.06951323 -0.7697053 0.027708363 0.03871884 -0.7306046 -0.49189672 -0.70963573 -0.51156926
-0.09898031 -0.106585875 1.0614524 -1.3302459 0.5486672 -0.30534595 0.87359625 -0.4196618
-1.613368 -0.91049165 0.46400172 -0.38221815 -0.5062049 -0.29301375 0.7599183 -1.4561309
-0.30304518 -0.6270475 -1.1454237 0.30661553 -0.5875772 0.031903043 -0.9653995 -0.033935525
-0.80091435 -0.13551575 -0.053181924 -0.7414408 0.2184378 -0.10429258 0.7370896 -0.08026891
-0.63425964 -0.20916036 -0.5258387 -0.5111521 -0.0014866834 -0.80781657 -0.36356783 -0.3198776
0.54516244 -0.49661744 -0.13366503 -0.09730095 -0.009752167 -0.70657206 0.83492476 -0.045539856
-0.13402563 0.52381206 -1.1246573 -0.20654967 -0.31357738 -0.49557433 0.509507 1.1386049
-1.0238539 -0.24732822 -0.2900335 0.34075707 -0.025305735 -0.16546713 -1.4973536 -0.65237945
0.60698444 -0.05234448 0.21099319 -0.8435198 -0.2427625 0.014636213 -0.1244047 0.2766224
0.33964843 -1.1413467 -0.67817634 -0.88600606 0.06273432 -0.015063133 0.94625443 -0.7806607
-0.8477755 -0.27005997 -0.8062311 0.86985314 -0.83794075 0.92191184 -0.14493926 -0.8443543
-0.5424326 -0.46581966 -0.21203628 0.0892409 -0.2921793 0.15719697 -0.08844816 0.6041592
-1.250471 -0.08342051 -0.40235856 -0.042969406 -1.4235629 -0.16595289 0.16597973 0.16204582
-1.1941086 -0.14635785 -0.04197624 -1.5829698 -0.24565928 0.75329024 0.0720062 -0.24238698
-0.5706495 0.19219685 0.19624698 -0.027122188 1.0923992 -1.1220345 -1.0824573 -0.8178183
0.652141 0.465468 -1.3394727 -0.047523204 0.6665415 -0.088401966 -0.031149602 0.029720208
-1.0554919 0.7480688 -1.0168443 0.3588948 0.26924932 -0.7667132 -0.33097 0.24946801
0.38420296 -0.026387189 1.0574946 -0.21616688 -0.68014324 -0.288454 -0.16393527 0.29920664
-1.4594926 -0.38518646 -0.820119 0.37796235 -0.08383029 0.648982 0.2496349 0.15077753
-0.6990142 -0.43834192 -0.30883878 -0.049926016 -0.11427935 -0.335798 -0.27096596 0.49662337
-0.9789774 -0.077954754 0.05185721 0.20514001 0.30086365 -0.091763675 -0.60675794 0.069811255
0.0918203 0.31316015 0.53071433 0.18186438 -1.4977112 -0.04479755 -0.8549043 -0.27034605
-0.6026095 -0.62313735 -0.07446788 0.4865681 0.13015133 -0.87862694 0.1456128 -0.48687804
00000000: ad50 123f c8d1 b2be 9f08 24bf d863 39bc
00000010: 7d0c 0ebf b448 083f 2e13 af3c b34b 7bbe
00000020: 7e33 2dbf caec ec3c 4caa 75bf 084b bdbe
00000030: 66ae 2e3f d1f5 5b3e ed58 1a3e bd34 19be
00000040: ec12 fcbc 6fda 2cbe 7a88 d8be 8d82 1ebf
00000050: 99c1 4fbe 3b9d e0be 285e 4bbf 6e32 96bf
00000060: d0d1 483b 1088 9ebb 7072 4e3e bc18 8dbe
00000070: 24d8 f4bd 6f22 a1be 4efd 2e3f f001 b5bf
00000080: be47 9a3e b7c1 2abb fe0c 29bd 44e6 073f
00000090: 7e5b 1e3f e7d2 aebc f5d9 0ebf 2b09 6ebe
000000a0: 38a0 3abf dff9 333f 17b0 a2bf c6aa 93bf
000000b0: 3e6d 1a3f dd03 113f 5e54 a7be 2187 43bf
000000c0: a6d2 a93e f4da 79be 0e60 2a3f 6f28 20bf
000000d0: e280 dc3d ab53 6cbf dc2f 79be 1c4d 0abf
000000e0: f273 6dbf 3be1 763f 5267 003d 7a4e 6a3f
000000f0: 69b4 5f3e 0648 18bd e507 05bf c14d 4bbf
00000100: f45c 8ebd 680b 45bf a6fc e23c a597 1e3d
00000110: e708 3bbf e3d9 fbbe b0aa 35bf 34f6 02bf
00000120: 30b6 cabd b249 dabd acdd 873f 7f45 aabf
00000130: 7475 0c3f 4e56 9cbe 01a4 5f3f e9dd d6be
00000140: d882 cebf fb15 69bf a291 ed3e 19b2 c3be
00000150: a596 01bf e605 96be 018a 423f 7f62 babf
00000160: bd28 9bbe 2f86 20bf 3e9d 92bf b6fc 9c3e
00000170: 766b 16bf c4ac 023d 6c24 77bf faff 0abd
00000180: b908 4dbf a4c4 0abe 4ad5 59bd 10cf 3dbf
00000190: 29ae 5f3e 5997 d5bd e7b1 3c3f 0764 a4bd
000001a0: d75e 22bf 222e 56be 5d9d 06bf ddda 02bf
000001b0: d1dc c2ba 11cd 4ebf 9025 babe ffc6 a3be
000001c0: c48f 0b3f a444 febe 7cdf 08be b845 c7bd
000001d0: 8ec7 1fbc e8e1 34bf a1bd 553f 0088 3abd
000001e0: 043e 09be 8c18 063f c5f4 8fbf c281 53be
000001f0: 378d a0be ebbb fdbe 0d6f 023f cebd 913f
00000200: a50d 83bf 9c43 7dbe 457f 94be b677 ae3e
00000210: f94d cfbc 3770 29be 48a9 bfbf 5702 27bf
00000220: 5563 1b3f 2a67 56bd 990e 583e eaf0 57bf
00000230: bc96 78be bacc 6f3c e4c7 febd 74a1 8d3e
00000240: 66e6 ad3e a617 92bf f79c 2dbf 4bd1 62bf
00000250: da7a 803d 5ccb 76bc bb3d 723f 61d9 47bf
00000260: d107 59bf 4d45 8abe 2965 4ebf b2ae 5e3f
00000270: 4983 56bf 6a02 6c3f f56a 14be 9a27 58bf
00000280: dddc 0abf ea7f eebe 0a20 59be efc3 b63d
00000290: 8698 95be 3ef8 203e 4f24 b5bd 2daa 1a3f
000002a0: 6f0f a0bf 5fd8 aabd f101 cebe b000 30bd
000002b0: 4f37 b6bf 8eef 29be 97f6 293e 57ef 253e
000002c0: 8dd8 98bf d5de 15be 47ef 2bbd c19e cabf
000002d0: 1b8e 7bbe a1d7 403f fd77 933d 4b34 78be
000002e0: 1616 12bf 40cf 443e f8f4 483e 5a2f debc
000002f0: bdd3 8b3f d49e 8fbf f68d 8abf 8a5c 51bf
00000300: b6f2 263f d251 ee3e d773 abbf b1a7 42bd
00000310: 77a2 2a3f 170c b5bd 732d ffbc cb77 f33c
00000320: 5c1a 87bf 7081 3f3f f427 82bf 0fc1 b73e
00000330: 0cdb 893e 5147 44bf e674 a9be 8b74 7f3e
00000340: 40b6 c43e f229 d8bc fc5b 873f da5a 5dbe
00000350: de1d 2ebf 3eb0 93be a6de 27be 9d31 993e
00000360: a7d0 babf 2937 c5be 52f3 51bf 4884 c13e
00000370: 37af abbd af23 263f 4ba0 7f3e 6d65 1a3e
00000380: 98f2 32bf 5a6e e0be 1e20 9ebe 397f 4cbd
00000390: 4b0b eabd b7ed abbe 0dbc 8abe 6b45 fe3e
000003a0: 439e 7abf bea6 9fbd 3a68 543d 3910 523e
000003b0: cd0a 9a3e 98ee bbbd 7d54 1bbf 34f9 8e3d
000003c0: 480c bc3d 8756 a03e e5dc 073f a83a 3a3e
000003d0: 00b5 bfbf a37d 37bd 02db 5abf cc6a 8abe
000003e0: 9e44 1abf ee85 1fbf 9e82 98bd 741f f93e
000003f0: 6446 053e b2ed 60bf 861b 153e 1448 f9be

l2.bias f4 [300]
-0.34426785 0.2381172 -0.061661776 -0.08216583 -0.68879795 -0.3151569 -0.121673316 -0.39159992
-0.011456117 0.5571151 -0.26231733 -0.2036517 -0.0235433 -0.0020409257 -0.0265552 -0.06900958
-0.90419734 -0.26293126 0.10773058 0.6466952 -0.74979734 -0.04267436 -0.09830976 -0.62975353
-0.07778786 -0.20093192 -0.007524116 -0.25194016 -0.21807721 -0.08566164 -0.10134215 -0.35471204
-0.55744106 -1.4837707 -0.08659148 -0.006102823 -0.118587285 -0.06112127 -1.2172353 -0.8496233
1.9994725 -0.3109011 0.32510382 1.2239715 -0.027654907 0.3225152 -0.04820226 -0.07177971
-0.088311076 -0.22537285 -0.02841412 -0.06897382 -0.09502406 -0.07177673 -0.09443695 -0.47210205
-0.28194386 -0.048498817 -0.06645403 0.015597499 -0.0535701 -0.14106734 -0.41559082 -0.008543869
-0.012238429 -0.7369852 0.352802 -0.6198591 -0.085937314 0.5851811 -0.3732655 -0.010112414
-0.52081996 -0.039236236 0.0031678379 -0.5238598 -1.0371157 -0.15279815 -0.40231684 -0.037448518
-0.69431734 -0.6448454 -0.09263539 -0.094863124 -0.057451855 -0.6858889 0.18705593 -0.027230222
-0.6655759 -0.9228298 -0.13619526 -0.059505984 -0.09662891 -0.21549633 -0.46502098 -1.0423223
0.047094077 -0.12806518 -0.09108865 -0.14579758 -0.036997758 -0.012100407 -0.26973215 -0.08100354
-0.010244093 0.94001484 -0.037447773 -0.42148766 -1.1405361 0.18288063 -0.054738786 -0.31537148
-0.1018026 -0.23405425 1.7552264 -0.19589831 -0.06643615 -0.18768479 -0.034053285 -0.30601948
0.8070808 -0.13550682 -1.1342895 -0.039931055 -0.26837355 -1.3389004 -0.10081614 -0.4804085
0.8658537 -0.045205325 -0.04471582 -1.3744291 -0.522477 -0.04880247 -0.07887714 -0.59209526
-0.60029685 -1.1131655 -0.0695639 -0.535669 -0.60417116 0.96106213 -0.41318876 -1.4108315
0.89658695 -0.06273284 -0.028538918 -0.07976525 -0.11318114 -0.034882534 -0.24280423 -0.06378523
-1.427783 -0.2845201 -1.2976192 -0.44675812 0.31174374 -0.14804468 -0.09930367 -0.059177414
-0.34783816 -0.60707986 -0.050135378 -0.04884121 0.2715195 -0.061048254 -0.05274681 -0.85909927
-0.38568118 -0.4209016 0.14348677 -0.049956564 -0.35699776 -0.60399234 -1.283635 -0.26806918
0.15360823 -0.019413065 -0.075651035 -0.101027735 -0.034518946 -0.031583417 -0.022981152 -0.4319415
-0.88356227 -0.46660647 -0.3819082 -0.24172643 -0.18198657 -0.049573604 -1.1474502 -0.07305972
-0.09371573 -0.74631417 -0.072567984 -0.6978492 -0.23888522 -0.08834684 -0.056799185 -0.6607122
-0.10204786 -0.20762852 -0.076421425 -0.5141681 -1.723017 -0.796616 -0.57938755 -0.6099647
0.35484764 -0.29102892 -0.08141183 -0.4695331 -0.7891126 -0.030798681 -0.06034641 -0.0045364304
-0.016926432 -0.0464302 -0.02350786 -0.10355647 -0.5843228 -0.036817454 -0.026704956 -0.07229976
0.22288775 -0.21717139 0.30307475 -0.09866441 -0.0332218 0.0663458 -0.07508759 -0.047809307
-0.7436804 -0.4363094 -3.933787e-05 -0.04273918 -0.06350062 -0.16088949 -0.9434054 -0.63249534
-0.28485388 0.22078195 0.37634665 -0.5910268 -0.09319866 -1.6067401 -0.1846807 -0.062751465
-0.1390086 -0.046678305 -0.82576954 -0.06515018 -0.3665421 0.20205249 -1.0831059 -0.032813508
00000000: e043 b0be ffd4 733e 0f91 7cbd 8f46 a8bd
00000010: 1055 30bf 3f5c a1be dc2f f9bd c97f c8be
00000020: 70b2 3bbc 189f 0e3f 754e 86be 128a 50be
00000030: e1dd c0bc 0dc1 05bb 4a8a d9bc e554 8dbd
00000040: 7a79 67bf ed9e 86be daa1 dc3d d18d 253f
00000050: b8f2 3fbf 4fcb 2ebd a156 c9bd 8737 21bf
00000060: 3e4f 9fbd 19c1 4dbe dc8c f6bb 4dfe 80be
00000070: a24f 5fbe 5f6f afbd 798c cfbd d19c b5be
00000080: 75b4 0ebf 33ec bdbf e056 b1bd 31fa c7bb
00000090: e4dd f2bd 4c5a 7abd 5ece 9bbf ea80 59bf
000000a0: b7ee ff3f 6e2e 9fbe 0274 a63e 19ab 9c3f
000000b0: 8b8c e2bc b620 a53e bc6f 45bd 3e01 93bd
000000c0: 70dc b4bd 24c8 66be bbc4 e8bc 2542 8dbd
000000d0: f99b c2bd aeff 92bd 2968 c1bd 5cb7 f1be
000000e0: f25a 90be b2a6 46bd 0d19 88bd a78c 7f3c
000000f0: 526c 5bbd f573 10be 52c8 d4be 95fb 0bbc
00000100: b183 48bc 10ab 3cbf 77a2 b43e 16af 1ebf
00000110: e7ff afbd 6ece 153f a81c bfbe 8aae 25bc
00000120: 7554 05bf 2db6 20bd 809b 4f3b ad1b 06bf
00000130: 35c0 84bf 1e77 1cbe 79fc cdbe 9e63 19bd
00000140: c8be 31bf 9714 25bf a0b7 bdbd 9947 c2bd
00000150: a352 6bbd 6a96 2fbf 978b 3f3e ea11 dfbc
00000160: 2f63 2abf 933e 6cbf c576 0bbe 8cbc 73bd
00000170: 61e5 c5bd 12ab 5cbe 3b17 eebe d16a 85bf
00000180: b8e5 403d 8523 03be b08c babd f64b 15be
00000190: f68a 17bd c940 46bc 551a 8abe 2fe5 a5bd
000001a0: d7d6 27bc d0a4 703f d662 19bd 3bcd d7be
000001b0: 16fd 91bf 0f45 3b3e c735 60bd 5f78 a1be
000001c0: e27d d0bd ebab 6fbe 42ab e03f 9199 48be
000001d0: ad0f 88bd 7130 40be 757b 0bbd 96ae 9cbe
000001e0: d99c 4e3f 4dc2 0abe 6630 91bf bf8e 23bd
000001f0: 4268 89be 1761 abbf b178 cebd 1af8 f5be
00000200: 97a8 5d3f 3829 39bd f027 37bd 4bed afbf
00000210: 0dc1 05bf 19e5 47bd 578a a1bd 8e93 17bf
00000220: 0ead 19bf 357c 8ebf 8577 8ebd 9b21 09bf
00000230: f6aa 1abf 2b08 763f 7a8d d3be 2096 b4bf
00000240: b986 653f 137a 80bd 73ca e9bc f75b a3bd
00000250: 83cb e7bd fde0 0ebd aca1 78be d5a1 82bd
00000260: 98c1 b6bf 9eac 91be 6318 a6bf 7bbd e4be
00000270: e09c 9f3e 0699 17be b95f cbbd 0464 72bd
00000280: d817 b2be 9669 1bbf c15a 4dbd b80d 48bd
00000290: 9b04 8b3e bc0d 7abd 0a0d 58bd eeed 5bbf
000002a0: 0178 c5be 6a80 d7be 32ee 123e 419f 4cbd
000002b0: 69c8 b6be 3e9f 1abf 274e a4bf 5d40 89be
000002c0: 7a4b 1d3e 2608 9fbc eeee 9abd a1e7 cebd
000002d0: bd63 0dbd 9d5d 01bd f842 bcbc 7027 ddbe
000002e0: 2331 62bf 0be7 eebe 7989 c3be 2287 77be
000002f0: b05a 3abe b10d 4bbd a6df 92bf 56a0 95bd
00000300: 08ee bfbd 720e 3fbf 869e 94bd 3fa6 32bf
00000310: 549e 74be 30ef b4bd 43a6 68bd 6f24 29bf
00000320: 78fe d0bd 929c 54be d682 9cbd 85a0 03bf
00000330: d28b dcbf 07ef 4bbf be52 14bf a626 1cbf
00000340: 97ae b53e be01 95be 3fbb a6bd a466 f0be
00000350: 4903 4abf 844d fcbc cc2d 77bd 56a6 94bb
00000360: 4da9 8abc 982d 3ebd 8e93 c0bc 6a15 d4bd
00000370: 2e96 15bf e6cd 16bd 5ac4 dabc e611 94bd
00000380: b03c 643e 2d62 5ebe 9d2c 9b3e 9110 cabd
00000390: 9513 08bd 4fe0 873d 86c7 99bd b1d3 43bd
000003a0: d761 3ebf f263 dfbe b7fe 24b8 470f 2fbd
000003b0: 9d0c 82bd 37c0 24be 0483 71bf 37eb 21bf
000003c0: 5ed8 91be aa14 623e 82b0 c03e 884d 17bf
000003d0: f0de bebd a9a9 cdbf f01c 3dbe d783 80bd
000003e0: 4558 0ebe c031 3fbd a265 53bf 756d 85bd
000003f0: 68ab bbbe d9e6 4e3e 37a3 8abf 7567 06bd

l3.weight f4 [4, 300]
-0.058145504 0.28614596 1.1248678 0.040401187 0.39090252 0.044610765 0.112369016 -0.6737894
-0.040827356 -0.11320225 -0.33266276 -0.30002865 0.035712533 -0.026000503 0.013509312 -0.010372056
-0.77802616 0.039688163 -0.4186473 0.4542544 0.53754497 -0.021786077 0.012585253 0.51510984
0.04251268 -0.25760257 -0.0076687504 -0.90018 0.7581539 -0.03315251 0.036095493 0.031123694
1.4352454 0.20420183 0.019759146 -0.1933204 -0.023277683 -0.03942143 -0.32740566 -0.6924219
-0.18654831 0.0623305 0.05878035 -0.29406247 -0.007801743 0.14971872 0.4320853 -0.04411083
0.06493858 -0.04370233 0.014292556 -0.0013922076 -0.07263503 0.06151764 0.05854485 -0.39487222
-0.19327338 -0.51098514 -0.004634126 -0.4305716 -0.041782524 0.4760053 0.11875715 -0.0063120914
0.02592637 -0.24726321 0.4030979 -0.11708524 0.11503335 0.6773895 0.42491895 -0.08436039
1.4992131 -0.3269774 -0.42408103 0.0572343 0.2233279 0.12205329 1.4562979 -0.012778597
0.343636 0.51483566 -0.012035773 -0.04824367 0.01761226 -0.5523126 -0.093818545 -0.0076857004
0.28135508 0.96762866 0.19786526 -0.081683025 -0.030410131 -0.0826963 1.656665 0.4788244
-0.42153195 -0.040129982 0.40657264 0.53133416 0.04673791 -0.11790183 -0.27845824 -0.038390268
-0.04378673 -0.68930125 -0.036294423 -0.4200882 -0.01575371 0.6831354 -0.8143261 -0.50491744
0.033773888 -0.16147658 0.026841655 -0.9414622 0.035123933 0.07783405 -0.037423182 0.27514422
-0.44088012 0.048597574 1.7099992 0.02388789 -0.21858269 -0.46571833 -0.03541823 0.13215402
-0.042902034 0.11188175 0.008653577 0.45849034 0.075624205 0.8694836 0.0017652886 -0.7754154
-0.25965893 -0.17153189 0.0064720926 -0.29442808 -0.2822432 1.0697331 0.6576723 -0.4918133
-0.35979512 0.30072656 -0.010096013 -0.028402945 0.009300662 -0.03522079 0.5018269 0.045235123
0.42208773 0.57054216 -0.32384416 -0.07424734 0.050812215 0.027816212 -0.0087508075 0.008451481
0.304881 0.84177935 -0.023086203 -0.18987226 0.2909807 -0.027932812 -0.088933945 -0.5351397
-0.09500617 -1.0046195 0.10057161 -0.085317425 -0.0754394 0.5698984 0.96027344 -0.007967007
0.046237748 -0.24444634 -0.0019873746 1.542963 0.026091399 -0.013209799 -0.048122976 -0.0034633009
0.22821894 -0.1666294 0.76834637 -0.0338917 0.7551379 0.013108844 1.1170278 0.044192046
-0.0117705325 3.531102 0.034431025 0.21434228 8.792931e-05 -0.010258434 0.003514093 1.148666
0.16373245 0.023961648 -0.0063313697 -0.57645494 -0.11021878 -1.3233707 0.4684721 0.36297774
-0.4983221 -0.29913512 -0.06699047 -1.9421953 0.06771615 0.017366014 0.038227104 -0.048496246
-0.015834175 0.043763638 -0.17764479 -0.0109388605 -0.02572334 0.071296915 0.01768304 0.05229903
-0.029164381 1.8330975 -0.5742193 0.2086686 -0.055994518 0.3723764 -0.014930144 -0.023504185
-0.101619706 0.7883735 0.44246656 -0.037062574 0.034683604 -0.08876109 0.7121749 0.26437366
-2.8229501 0.37429664 0.0007411201 0.33960748 0.033591345 0.7617064 -0.30483332 0.05179686
0.358412 -0.0032379092 0.12966853 -0.0147472285 -0.79441744 -0.27937618 -0.05813184 -0.00044767844
00000000: fb29 6ebd b981 923e abfb 8f3f b77b 253d
00000010: 6024 c83e c7b9 363d ba21 e63d 767d 2cbf
00000020: 963a 27bd 95d6 e7bd c652 aabe 5b9d 99be
00000030: 4e47 123d 02ff d4bc 2956 5d3c 8eef 29bc
00000040: b92c 47bf 0e90 223d f058 d6be 0894 e83e
00000050: 8c9c 093f b778 b2bc 6132 4e3c 3dde 033f
00000060: c721 2e3d 7ce4 83be 244a fbbb 3272 66bf
00000070: 6016 423f edca 07bd ded8 133d 1ef7 fe3c
00000080: 1fb6 b73f 491a 513e efdd a13c c8f5 45be
00000090: d7b0 bebc 5e78 21bd b7a1 a7be 9042 31bf
000000a0: 8506 3fbe 444e 7f3d aac3 703d 5b8f 96be
000000b0: c4a5 ffbb dd4f 193e 493a dd3e 8fad 34bd
000000c0: 85fe 843d 3701 33bd 532b 6a3c bc7a b6ba
000000d0: adc1 94bd ecf9 7b3d bacc 6f3d b12c cabe
000000e0: 75e9 45be eccf 02bf ded9 97bb e173 dcbe
000000f0: 2724 2bbd f7b6 f33e f336 f33d a9d5 cebb
00000100: 8a63 d43c 9132 7dbe d962 ce3e 63ca efbd
00000110: 9b96 eb3d 6669 2d3f fa8e d93e 24c5 acbd
00000120: 37e6 bf3f 9569 a7be 2621 d9be 836e 6a3d
00000130: 12b0 643e 13f7 f93d f867 ba3f 525d 51bc
00000140: 0ff1 af3e 45cc 033f b131 45bc 289b 45bd
00000150: 9647 903c 5c64 0dbf f023 c0bd 54d8 fbbb
00000160: c60d 903e 83b6 773f 319d 4a3e 6e49 a7bd
00000170: ab1e f9bc ae5c a9bd 990d d43f 7928 f53e
00000180: 09d3 d7be 565f 24bd 4a2a d03e 8405 083f
00000190: 4070 3f3d 8476 f1bd 1492 8ebe 1d3f 1dbd
000001a0: b759 33bd 0c76 30bf 76a9 14bd cd15 d7be
000001b0: ed0d 81bc f6e1 2e3f ad77 50bf 4542 01bf
000001c0: 7d56 0a3d 1e5a 25be 08e3 db3c ab03 71bf
000001d0: 1dde 0f3d 7567 9f3d 0d49 19bd b4df 8c3e
000001e0: 0abb e1be 400e 473d 41e1 da3f 89b0 c33c
000001f0: 24d4 5fbe a272 eebe b512 11bd 6253 073e
00000200: 0bba 2fbd 4222 e53d bcc7 0d3c 3fbf ea3e
00000210: dde0 9a3d 7a96 5e3f 4261 e73a a081 46bf
00000220: 04f2 84be 0ea6 2fbe d913 d43b 47bf 96be
00000230: 2e82 90be 04ed 883f 365d 283f f4ce fbbe
00000240: 1137 b8be d5f8 993e bf69 25bc 4bad e8bc
00000250: ce61 183c ad43 10bd ba77 003f 7748 393d
00000260: e21b d83e 0d0f 123f e7ce a5be fd0e 98bd
00000270: 7820 503d d3de e33c 8c5f 0fbc 1578 0a3c
00000280: 5d19 9c3e da7e 573f 471f bdbc e06d 42be
00000290: 6cfb 943e 5ad3 e4bc 0023 b6bd eafe 08bf
000002a0: 9892 c2bd 5f97 80bf 7df8 cd3d e7ba aebd
000002b0: f97f 9abd dde4 113f 7bd4 753f 0d88 02bc
000002c0: cb63 3d3d 2450 7abe 9d3e 02bb d07f c53f
000002d0: a1bd d53c ea6d 58bc 991c 45bd 8cf8 62bb
000002e0: 3ab2 693e e6a0 2abe 59b2 443f 06d2 0abd
000002f0: b850 413f 7ac6 563c c4fa 8e3f b802 353d
00000300: 31d9 40bc 93fd 6140 8c07 0d3d 8b7c 5b3e
00000310: b066 b838 fe12 28bc b34c 663b 7d07 933f
00000320: 7ba9 273e 384b c43c 6177 cfbb 8d92 13bf
00000330: 62ba e1bd 3664 a9bf 93db ef3e 38d8 b93e
00000340: 1324 ffbe 3d28 99be 4d32 89bd db99 f8bf
00000350: c4ae 8a3d 2c43 8e3c 0694 1c3d 00a4 46bd
00000360: acb6 81bc 8041 333d 84e8 35be e838 33bc
00000370: c1b9 d2bc 1e04 923d 06dc 903c 8237 563d
00000380: 24ea eebc f0a2 ea3f 0900 13bf 39ad 553e
00000390: 825a 65bd 1fa8 be3e 909d 74bc d98b c0bc
000003a0: fe1d d0bd d8d2 493f fa8a e23e edce 17bd
000003b0: 6510 0e3d 60c8 b5bd 1851 363f fc5b 873e
000003c0: 37ab 34c0 cfa3 bf3e ba47 423a 08e1 ad3e
000003d0: 1497 093d 31ff 423f 1d13 9cbe f228 543d
000003e0: c781 b73e 1a33 54bb d4c7 043e 5c9e 71bc
000003f0: f15e 4bbf 650a 8fbe a71b 6ebd 62b6 eab9

l3.bias f4 [4]
0.08955813 0.4690382 0.53590333 0.24781774
00000000: 416a b73d c625 f03e f630 093f efc3 7d3e
