BipedalWalkerHardcore-TD3-FORK/dir_bpw_td3_fork_upd/weights_sysmodel_final_313.63.pth (torch_old, 557526 bytes, 6 tensors)

l1.weight f4 [400, 28]
00000000: 9d76 b4be a8b3 95be 8fec adbe cd7b b1be
00000010: 11b5 33be b5b1 87bd c6e4 9abe 27bb 93bc
00000020: a707 bdbd dfc2 22be 72cc 823d be7a 49bd
00000030: 99ac 303d 6dd6 8d3c 092d c33f bfcb fe3a
00000040: 8ba8 d53e 2777 cfbe 1697 85bf b376 a8bd
00000050: ca0d 17be b02e 423b 94bc 483d 2c53 7b3e
00000060: 91e0 e33c 7f9b 2ebc a301 803c 34ec 463b
00000070: 2692 143f 0930 d93d 6be9 7abf d0c3 e8be
00000080: 0ebb 6c3e 719e 933e 4192 95be abaa 30bf
00000090: 1d33 723f 5d83 cd3e 422a 50be 8663 a03e
000000a0: a78d 6abd 89ff 0dbe 318a 03bf ff1e 6fbf
000000b0: 2ac5 d4bd 3e1b 883e 3d1b 3fbc fda7 4ebe
000000c0: 977f 22be 2c88 84bc abc8 e5bc 2cd8 cdbd
000000d0: 8751 8bbb c2fa a4bc 7990 4abc 4e7a 723d
000000e0: e623 0abe 9d61 4b40 81d1 a6be 29cd 5dbf
000000f0: 3691 38be 937c d93e a7fc 3f3d 85ca cf3e
00000100: dee0 cdbe 20bd 693d ebee 87bd be8f 603b
00000110: 3fe5 2bbd 49ba e6bc 5e87 abbe ffa8 37bd
00000120: bf13 153e 2316 b4bd 7c59 543e b3f6 903e
00000130: b25d b8bc ffbd 7dbe 0060 8bbe df78 3dbd
00000140: d23c debd 3f3f 06bd 738e 7c3d d491 37be
00000150: 514f 40bf 2ab8 79bf 1ba9 61bf f507 2340
00000160: 084a c13e fa5a 71bc eda0 d8be 86d0 a03d
00000170: e821 0b3c e131 c23e af02 d93d 4ff8 f43e
00000180: 8fb2 c13d 511f 51bf d244 e03d 025f a7be
00000190: 9780 53be 923c 603d 1e6e 1bbb 12b1 c63e
000001a0: c72d c8bc 8be0 db3d 95c7 15be 55c3 7bbd
000001b0: 2fb5 4cbd 81ac c6bd 7790 3a3d 8d87 31bb
000001c0: 98a1 8ebe 7d5d 66c0 7f3f f0bd 87d0 a83f
000001d0: a7a6 83bd c56e 053d 23aa 81bd 5f67 f33c
000001e0: 5e2d 003d 88db b3be 656a 52bf 8659 30be
000001f0: 55c2 24bf 5abb 5bbe 0f01 20be f90a 043e
00000200: ca74 4e3d b769 913d cf6d 403c c2f6 83bc
00000210: e556 01be f0a0 de3a b99f 593d 8908 d13d
00000220: 943c 6bbd 98cd 73bd 14fc d53b 1d72 c4bf
00000230: 93c1 82bf c1dd 27bf 0a29 a3bd cd3b 0fbe
00000240: 9680 eebe 377c 893c cac0 b5bd 8ed9 3cbc
00000250: 91f8 643e bffa 57be b289 3b3d 6457 fcbe
00000260: bbc4 87bc 7bf6 373d e727 e43b db5f 3d3f
00000270: bc82 bf3e 86f2 523e 5f0b 28bd f394 a83e
00000280: edea 98bc 1200 a83d 7e08 3abe 8b5e eabe
00000290: 2241 92bb aa31 7eba 81d9 2cbd 7741 873c
000002a0: 2fa5 533f 58fb 8b3f 36d1 0a3f 54c6 463e
000002b0: dfa2 77bd 26b1 1c3d 6aab e7be 7e4e be3c
000002c0: a2e6 f43d 1733 f93e fa8d 453e b563 d33e
000002d0: b717 a23d b0cf 92be 9087 853f fbad 253c
000002e0: b4d5 2fbf 48c6 93bf 8fe7 b0bf f95c 37be
000002f0: f444 d93e f23f 813d 5210 313d 63e7 2ebe
00000300: 1259 80bd d07f 203d 8168 b93c 26b9 b93d
00000310: 258b b93e 4dd1 3a3f 4578 993d a8ed f6bf
00000320: 0576 e23e be26 a7bd e677 1f3e 4374 8e3d
00000330: 3789 eabd 9c1c 25bf a862 75ba 8187 0c3d
00000340: c1f1 f83c 760c b2be 895d 6d3c 992b 893d
00000350: 819a 50bf c74b b1bd c59a 84bc aaa3 13bb
00000360: 7337 09bc 16fe 88bd 7a8a bfbe 5bb0 8c3c
00000370: 14d3 803d 7c9b a53d c7f9 a03d 5da2 2f3d
00000380: 4918 fbbe 1d16 e2be 93c4 f5bd 67da c43f
00000390: 372e 743d d646 b1bc 0757 403d fc76 36ba
000003a0: 2da0 f1bc 92a3 39bf 50a1 49bc f550 06bf
000003b0: 16b3 73bb ae2f ebbd 3e26 d13f caf8 fd3b
000003c0: f319 233f 7c89 2e3b 43f7 173e 8f3b 143e
000003d0: a25f ee3a 6121 28be c771 13bd f37f 4f3d
000003e0: ac2f d3bb 8d06 f4bb 4f5e a7bc b018 8d3c
000003f0: 50b9 dbbd 9c0c e9be a63b 4bbf 2525 41bf
-0.35246745 -0.2923863 -0.33969542 -0.34664765 -0.1754954 -0.06625692 -0.30252665 -0.018033577
-0.09229975 -0.1589465 0.06386651 -0.04918932 0.043133352 0.01731416 1.5248119 0.0019439383
0.4173015 -0.40520594 -1.0436733 -0.08225765 -0.14751354 0.0029629879 0.049007967 0.24543446
0.027817043 -0.01065719 0.01562578 0.003035319 0.58035505 0.10604865 -0.9801242 -0.45461893
0.2311823 0.2883182 -0.29213145 -0.6901042 0.9460924 0.40139285 -0.2032862 0.3132593
-0.057263996 -0.1386701 -0.5138274 -0.9340667 -0.103891686 0.26583284 -0.011664209 -0.2018127
-0.15868984 -0.016178213 -0.028049788 -0.10050997 -0.004251662 -0.020139102 -0.0123635465 0.05919867
-0.13490257 3.1778328 -0.32581714 -0.86641175 -0.18024144 0.42477855 0.046871807 0.40584198
-0.40210623 0.05706513 -0.06637367 0.0034265365 -0.041966673 -0.028165 -0.33501714 -0.0448389
0.14558314 -0.08793285 0.2073726 0.28313217 -0.022505615 -0.24779509 -0.2722168 -0.04625785
-0.10851444 -0.03277516 0.061659288 -0.17926723 -0.7512103 -0.9754664 -0.8814866 2.5473607
0.37751794 -0.014731163 -0.42310277 0.07852273 0.008491971 0.3792868 0.10596215 0.47845694
0.094578855 -0.8168841 0.109506264 -0.32689673 -0.20654522 0.054745264 -0.0023716758 0.3880697
-0.02443589 0.107361875 -0.14626916 -0.06146558 -0.049977478 -0.09700871 0.04554793 -0.0027088851
-0.2785766 -3.599456 -0.11730861 1.3188637 -0.06428271 0.03257634 -0.06331279 0.029712377
0.031293266 -0.35128427 -0.82193595 -0.1722165 -0.6435903 -0.21458188 -0.15625404 0.1289481
0.050404347 0.07100242 0.01174493 -0.016108874 -0.12630804 0.0016985219 0.05313084 0.10206706
-0.05743082 -0.05952224 0.006530294 -1.5347325 -1.0215324 -0.65572745 -0.07966812 -0.13987656
-0.46582478 0.016782863 -0.08874662 -0.011526478 0.22360446 -0.21091746 0.045785613 -0.49285424
-0.0165733 0.044912796 0.0069627645 0.7397439 0.3740443 0.20600328 -0.04102647 0.3292614
-0.018666709 0.082031384 -0.18167302 -0.45775256 -0.004463331 -0.00096967316 -0.042199615 0.016510708
0.82673925 1.0936079 0.5422548 0.19411594 -0.06045806 0.03825488 -0.45247966 0.023230787
0.11958052 0.4867179 0.19292441 0.41287008 0.079146795 -0.28674078 1.0431995 0.010112281
-0.6868546 -1.1544886 -1.3820666 -0.1790656 0.4243542 0.06311025 0.043228455 -0.17080455
-0.06266989 0.03918439 0.02263284 0.090685174 0.3623897 0.7297562 0.07493643 -1.9291277
0.44230667 -0.08161686 0.15573081 0.06955769 -0.11451953 -0.6449678 -0.0009360709 0.034308914
0.030388715 -0.34775132 0.014487633 0.06697769 -0.81485754 -0.086570315 -0.016187081 -0.0022527971
-0.0083750365 -0.06689088 -0.37410337 0.017173937 0.0629026 0.08086297 0.07860141 0.04287945
-0.49041966 -0.44157496 -0.12000384 1.5379151 0.059614386 -0.021640223 0.046957996 -0.0006960479
-0.029495323 -0.72515213 -0.012306526 -0.5246728 -0.00371856 -0.114837036 1.6339796 0.0077506052
0.6371147 0.002663224 0.14840417 0.14475845 0.001818646 -0.16418983 -0.03599718 0.05065913
-0.006444892 -0.00744707 -0.020430712 0.017223686 -0.10728705 -0.45517433 -0.7938789 -0.75447303

l1.bias f4 [400]
00000000: 90cb 39be 35e4 0ebf 0794 de3e 96ae e7bd
00000010: fd57 643d efbd 643d 0b5f 5a3e 80da a9be
00000020: ab75 47bf 11ee 633e c285 92be 922a ddbb
00000030: 2f7f 08bf 1e4d f83e 01a8 f9bb 8866 f6be
00000040: 3d9e bcbd 8abf 99be cfe4 b73e ff24 83bd
00000050: 21ee 17bf 8518 49be 2fb9 08be ae97 31bd
00000060: 2755 be3e b750 0e3f 3a91 afbd 4d8d b3bd
00000070: 9311 5b3f c6df d7bd f702 4f3d 9f8d 1ebf
00000080: 78f2 4bbe 0685 533e 6964 84be a5b0 86bc
00000090: 4899 b7bb 691d e7bf 136f f8be b5a7 383f
000000a0: c027 60be 1468 3c3c af69 b03d c2f3 febd
000000b0: 457b 2a3d f619 80bf 97bc 193f e5f3 1c3e
000000c0: 6d65 073f 2ea5 48bf ee6d c43c 7335 b5be
000000d0: 6756 5c3e 504a 55bf 2f73 09bf 7972 aa3e
000000e0: ad16 0dbf 7bec 573e 8687 33bf 472a 27bf
000000f0: 6d8d f1be 4fb3 603f 8ab4 71bd 07d1 033e
00000100: 5697 e83c 4f05 523f 6e68 8fbc 8e19 bbbf
00000110: 47b0 38bf de28 e8be 377c cebe 8126 843f
00000120: a909 bebf ba9d 093e 826e 9fbe 1c55 27be
00000130: f937 cc3e e43c bbbe eadb 7ebe 016d b33e
00000140: bb49 0e3c 24dc 09bf 94c1 6e3e 1920 cebe
00000150: ca89 203f 4c77 9abf 8c41 83bf ca52 37be
00000160: 1855 e1be d272 0c3e dd4f b13c 70e3 0bbf
00000170: 5310 96be b64b f83e f99b 2a3f 7c94 cb3e
00000180: 6dcf 2dbf 068f dbbe 3f8b 19bd 19b9 42be
00000190: 7af8 83be 5c35 4d3e 9756 fdbe e23b 4cbd
000001a0: 0f0b 11bf 29ec 82bd c8b1 e6be 27c6 273e
000001b0: e067 e3bd c81a a8be 3a2f d9be 4276 013f
000001c0: c255 39be 6cff ed3e 16cb 7fbf 2cdd 94bd
000001d0: c5b5 9dbe 0ecf 153f bdba 723d 5c05 ccbe
000001e0: 27ec aabe 2dd1 f5be 41f1 c13e 4937 f23e
000001f0: 2cf5 22bf 1e38 c7be d204 433f 5deb a2bd
00000200: 09c4 1f3e 80f3 debe 9c49 cf3c cffb 9fbf
00000210: 64f3 43bf 59fe e9be 70c7 c7be 2e15 24bd
00000220: 4a42 43bf dba7 e23e a02d 81bf 4ef5 013f
00000230: deb8 ab3d 3111 a4be 722e 80bf f78e e93e
00000240: 23bc f9be 4f2f 51bf 3227 bf3e d26a bbbe
00000250: c8b4 48be f250 b53e f503 fabe 1720 273e
00000260: 3c8e 733c c9dd 033e a37e c23e 0f1e abbe
00000270: 08ec 9abe 9cf8 993d 524f 1dbe 9784 863d
00000280: a3a2 2dbf f266 3ebf 0606 20bf e13e 4f3e
00000290: e1df 1dbf 83c2 dbbe 72c5 c73e c8ae 403e
000002a0: 6642 0d3f 8f8d 06bf f235 61bd 2f67 453e
000002b0: 873f 43be d3f8 163f 0410 bfbd d1f7 36be
000002c0: 80be d3be 9b57 b1bd cc0d 2a3f f962 39bf
000002d0: 82f6 b0bf a55f 9dbe 3bf4 fbbd 8e41 7bbf
000002e0: 2644 06bf 8126 9b3e 97ca 893f b34d 83bd
000002f0: 9c34 c4be 7330 76bf f133 953e 2f85 c2be
00000300: ec84 f13e 60e8 ad3d 06f1 78be a036 4cbf
00000310: cbf1 7fbe f4d8 8abe ba69 303f 0adb 103f
00000320: d55a 893e cbe8 353e 5d15 2abe e8e9 2cbd
00000330: 9c85 c33d ee0e c43e 19b5 b3be b2d1 31bf
00000340: 5bbd 38bd a340 d4be d824 afbe fb84 68bf
00000350: 0fcb 9dbf 4d59 24bf 83e0 f93c c21f 99bf
00000360: 20fa 82bf e2c1 2c3e a902 443f 8315 28be
00000370: 3ae5 293e 1ce5 12bf 2c9e 82bd d1f5 fcbe
00000380: 27f3 9cbc e0d1 c6be 05dc 9abe fbe7 7fbd
00000390: 855f fbbd 9951 f1be 4b89 13bf 8d9d a13e
000003a0: 3723 4bbf 82c2 d9bd f05a 843e 6b3e fcbe
000003b0: 3b3a 43be 275d 66be 0f7e 593e a715 563c
000003c0: 85df b53c 593f 00bf d503 f33e 4457 8abf
000003d0: 8997 59bf fc91 02bf aec4 c5be b1bd 663f
000003e0: 0be3 68bd 7b60 6fbe f7e9 dabe bf80 273d
000003f0: cf45 79be 8a15 5cbf b405 9cbf 7563 c1be
-0.18144059 -0.55816966 0.4347231 -0.113125965 0.055747975 0.055845197 0.21325319 -0.33174515
-0.7791392 0.22258784 -0.28617674 -0.0067494595 -0.53319067 0.48496336 -0.0076189046 -0.481251
-0.09209869 -0.30028945 0.35916755 -0.06403541 -0.5934773 -0.1963826 -0.13351892 -0.043357544
0.3717434 0.5559191 -0.08572622 -0.08767185 0.8557369 -0.10540728 0.050539937 -0.61934847
-0.19916713 0.20656213 -0.25857857 -0.016441653 -0.0056029893 -1.805585 -0.48522243 0.721309
-0.21890163 0.0114994235 0.086139075 -0.12448837 0.041621465 -1.0007923 0.6005339 0.15327413
0.5288914 -0.78377044 0.0239782 -0.3539234 0.21517335 -0.83316517 -0.5369138 0.3329046
-0.55112725 0.21086304 -0.7012867 -0.65298885 -0.47178212 0.87773603 -0.059010066 0.12872706
0.028392475 0.8203935 -0.01750585 -1.4617174 -0.7214398 -0.4534368 -0.40329143 1.032425
-1.4846698 0.13439074 -0.31138998 -0.1634106 0.39886454 -0.36569893 -0.24888578 0.350441
0.008684571 -0.5385153 0.23316032 -0.40258864 0.6271025 -1.2067657 -1.0254378 -0.17902675
-0.44010234 0.13715675 0.021644527 -0.5464392 -0.2930933 0.48495263 0.66644245 0.39761722
-0.6789463 -0.42882556 -0.03748631 -0.19015922 -0.2577551 0.20039886 -0.49480125 -0.049861796
-0.566575 -0.063927 -0.4505751 0.16384183 -0.11103797 -0.32832932 -0.42418844 0.5057107
-0.1809912 0.46483934 -0.9991926 -0.07268748 -0.30802742 0.58519065 0.05926012 -0.3984784
-0.33383295 -0.4801115 0.37879375 0.47307804 -0.6365535 -0.38910002 0.7617923 -0.07955048
0.15602125 -0.4354515 0.025303654 -1.2498721 -0.7654326 -0.45701864 -0.39019346 -0.04005926
-0.76273024 0.4426869 -1.0092049 0.5076493 0.0838487 -0.32044366 -1.0014174 0.45616886
-0.4877635 -0.8171281 0.3733459 -0.36604935 -0.19600213 0.3541332 -0.48831144 0.16320835
0.014865454 0.12877573 0.3798724 -0.3342137 -0.30258203 0.075181216 -0.1536229 0.06568258
-0.6782629 -0.7437583 -0.6250919 0.2023883 -0.6166974 -0.42921838 0.39017826 0.18816674
0.5517944 -0.5255975 -0.054983087 0.19277643 -0.19067203 0.58973426 -0.093292266 -0.17867972
-0.41356277 -0.086592875 0.664273 -0.72416645 -1.3825228 -0.30737033 -0.12302443 -0.98146904
-0.52447736 0.30302814 1.076495 -0.06411304 -0.38321388 -0.9616768 0.2914119 -0.37992236
0.47171724 0.08491588 -0.24310693 -0.7977085 -0.2499458 -0.27118647 0.68911326 0.5658423
0.26827112 0.17764585 -0.16609712 -0.042215258 0.09546968 0.3829264 -0.35099104 -0.69460595
-0.04510246 -0.41455564 -0.34207797 -0.9082791 -1.2327594 -0.6419876 0.030502563 -1.1962817
-1.0232582 0.16870835 0.7656656 -0.16414456 0.16591349 -0.57380843 -0.06377825 -0.49406293
-0.019158913 -0.38831997 -0.30245987 -0.062477093 -0.12274078 -0.47132567 -0.5763137 0.31565514
-0.7935061 -0.106328025 0.2585063 -0.4926637 -0.19065182 -0.22496472 0.21239494 0.013066686
0.022201309 -0.5009666 0.4746386 -1.0807881 -0.8499685 -0.51004004 -0.38626617 0.90133196
-0.05685715 -0.23376648 -0.42756626 0.040894266 -0.24343036 -0.85970366 -1.218924 -0.37771192

l2.weight f4 [300, 400]
00000000: fc62 c63c b310 c43c a0cc c83c e594 babb
00000010: 8514 a53c a79b 41bc ef9d 50bc 48a5 4ebc
00000020: 3d61 43bc 22bc ddbc 6d96 f53c 5569 afbc
00000030: 4daf 343d fde6 9c3c c1c4 3ebd 3828 46bd
00000040: f668 65bd a0fd 31bd 78c4 3dbc 46e8 85bc
00000050: 7980 c1bc 112d 063d 4c31 013d 1838 a0bc
00000060: a0d9 403c f054 e03c 5b29 f2bc 5f57 a23c
00000070: d2fd 3b3c 1229 173d 7333 6bbd 378e 283c
00000080: 704e d9bc 7b63 1a3c f7fa 063c c19b 1ebd
00000090: 8956 923c b590 1ebd 6096 0d3c c930 fc3c
000000a0: 7d53 92bc 949c 6cbc 01a2 b93c 6811 3d3d
000000b0: 9d99 e03c 94db 02bd 7e49 0cbd 3f48 b23c
000000c0: b7b0 39bd 1172 e4bc 87e3 223d 1bf8 0abc
000000d0: 0208 8bbc 4565 ffbb 8b18 0fbd 6da7 943c
000000e0: 66c7 1abd 08f0 e23b 97b4 21bd 0d9d a53c
000000f0: 3947 7ebb c615 3dbd c9bd 4ebd a1c3 0cbd
00000100: c787 1d3d 90f7 273c 6f6a 43bc 4d47 32bd
00000110: 7a4f d4ba fa87 1fbd 81c1 22bc 16ce fdbc
00000120: 8b2c c8bc 0422 573b 0c1f e73c 42f4 3bbd
00000130: 6c96 593c d536 eebc 1c94 5a3c 12b2 de3c
00000140: 9ca7 dbbc c18d 9c3c 42d8 4ebd a8e9 eb3b
00000150: fd18 003d 679c b33c 649d 413c d4c6 06bd
00000160: 3cae 0fbd 71a7 9a3c 6614 f73c b560 0a3d
00000170: 98d8 49bd 9e4c 1cbd cd5a 32bd c08e 2dbd
00000180: 4327 5ebd 3218 49bd 4fef 79bb ea78 d93c
00000190: 2d41 3cbd 6d4d 813a f211 56bd 4f4b 6abc
000001a0: 9cb0 37bc 9f23 13bd bbf4 52b9 4122 a2bc
000001b0: ee86 9b3c 176c 59bd 7930 3fbd ca3e 4dbd
000001c0: 8406 753c 3cf5 f7bb 0101 ce3c 36ec fcbb
000001d0: 7c1c 6dbc bbad 2fbc d37c 59bd 8a4b b43c
000001e0: 33a4 55bd ad00 ddbc ece0 19bd 0e57 913c
000001f0: d969 0fbd c586 03bd 77f8 5bbd 668a 30bd
00000200: 9220 ac3c efbe 0cbd e1a6 8abd fbe7 0f3d
00000210: 1de8 0eba 7b16 43bd 3353 8a3c 90a7 ff3c
00000220: 1233 d73b 3e8c c2bb 9ffb 1f3c 3864 213c
00000230: 1ff2 0abd e2c9 25bd f13c fc3c 7a06 a1bc
00000240: bfc9 23bd 941c 993c f036 2ebd 5bde 31bc
00000250: 56f5 b2bb 0087 163c 50f3 aebc c600 063b
00000260: 71dc dcb9 e5e3 62bd 4e95 ee3c a4b7 0e3d
00000270: ad5a cabb 71dd a03c 5fa8 8fbb 0997 083d
00000280: d80e 28bc fafe 6dbd 0744 353d ad82 dd3c
00000290: 069d e7bc 5c7e 9fb9 6e2e 22bd f336 b4bc
000002a0: 4445 13bd f0f2 49bd 44d5 35bd d166 3e3d
000002b0: 4aeb d7bc 68c6 bc3a b03a 7cbc 31a3 903c
000002c0: e781 abba 65ae ba3b 12a7 59bd 8ae3 d7bc
000002d0: d3e1 4c3b 1264 ef3c c65d f6bc aef8 b53c
000002e0: 92f6 14bd f09d 793c b707 e6bb d686 36bd
000002f0: a616 7c3c 3cc2 f7bb a27f bb3c a53b 4fbb
00000300: 4af0 de3c 2453 103c 7aec 9cbc 1c39 6b3c
00000310: 3520 66bb a1f7 a9bb e080 a43c ae06 3dbd
00000320: 5100 b0ba 5883 873b 8575 1e3d 8adb e73c
00000330: e1aa 67bd 131d d7ba d03c 69bd 8dcf adbc
00000340: 7aa1 83bc 93b8 b6bc c070 013d c26e 26bc
00000350: e150 11bd dd4b 77bd 91d8 043d 6d90 5dbb
00000360: a8cf 09bd 4497 aa3c e932 29bd 0686 573c
00000370: a4c6 d5bc 5eb4 0ebd 8c2f 1ebc 726a 15bd
00000380: f9d2 92bc bd1d 323c cca9 29bc 7491 18bd
00000390: 123d 743c c697 5dbd db8c 1b3d 3ea0 9dbc
000003a0: 266a 81bd 89de 8dbc 899d 75bb a977 debc
000003b0: c402 b63c 7364 e8bc 434c e1bb 8c66 e2bc
000003c0: 8b9d 85bb 3091 ec3b 512c 59bd 8ca4 08bc
000003d0: e5cd a1bc ad0b c139 c91a 0d3d 691e 6c3c
000003e0: 5dd5 41bc a274 523c af00 083c 6bac 3fbc
000003f0: 2567 06bd 77cc e03b 6a72 64bd dfa9 793c
0.024217121 0.023933744 0.024511635 -0.005694019 0.020151386 -0.011816896 -0.012732967 -0.012612648
-0.011925039 -0.027067248 0.029978955 -0.02141253 0.044112492 0.019153113 -0.046574358 -0.0483782
-0.0560083 -0.043454766 -0.011582486 -0.016346108 -0.02362083 0.032757822 0.031541154 -0.019557998
0.011770636 0.027384251 -0.029560735 0.019817052 0.01147409 0.036904402 -0.057422113 0.010287813
-0.02652666 0.009423132 0.008238546 -0.038722757 0.017863529 -0.038712222 0.008641809 0.030784981
-0.017862076 -0.014441628 0.022660257 0.046159178 0.027416999 -0.031947687 -0.034249775 0.021762965
-0.045334544 -0.027886422 0.03976777 -0.0084820045 -0.016971592 -0.0077940547 -0.034935515 0.018146241
-0.037787817 0.0069255866 -0.039478865 0.02021649 -0.0038799776 -0.046163343 -0.050473962 -0.034366254
0.038459565 0.010251895 -0.011927231 -0.04352503 -0.0016198002 -0.038948037 -0.00993383 -0.030982058
-0.024435302 0.0032826671 0.028213046 -0.04588724 0.013280492 -0.02907888 0.013340976 0.02718452
-0.02681332 0.019110562 -0.05049921 0.007199485 0.03127383 0.021925164 0.01181731 -0.03290446
-0.035078272 0.01887867 0.030161094 0.033783633 -0.049278826 -0.038159005 -0.043543626 -0.042372465
-0.05423666 -0.04909534 -0.0038137024 0.026546914 -0.045960594 0.0009864994 -0.052263208 -0.0143001815
-0.011211541 -0.035922643 -0.0002011833 -0.019791724 0.018985238 -0.053081598 -0.046677087 -0.05010871
0.014955167 -0.007567076 0.025146963 -0.007718588 -0.014472123 -0.010722573 -0.053097557 0.022008676
-0.052158546 -0.026977861 -0.037568018 0.017741706 -0.035013054 -0.032110948 -0.05370375 -0.043100737
0.021011624 -0.034361776 -0.06770111 0.035133343 -0.00054514577 -0.04762886 0.016885376 0.03120783
0.0065673674 -0.0059371283 0.009764581 0.009850554 -0.03392231 -0.040475734 0.030790778 -0.019656409
-0.039987322 0.018690385 -0.04253286 -0.010856236 -0.005461375 0.00918746 -0.021356255 0.0020447238
-0.00042125912 -0.05539312 0.029123928 0.034843102 -0.00617536 0.019636841 -0.004384085 0.033347163
-0.010257445 -0.058104493 0.04425433 0.02703985 -0.028273117 -0.00030420988 -0.03959506 -0.021998858
-0.03595473 -0.04930395 -0.04439284 0.046484772 -0.026357312 0.0014402391 -0.015394852 0.01765594
-0.0013084979 0.005697059 -0.053137846 -0.026353616 0.0031262531 0.029222522 -0.030074012 0.022213306
-0.03636796 0.015235409 -0.0070199626 -0.044562183 0.015386259 -0.0075609963 0.022888009 -0.0031621244
0.027214188 0.008808885 -0.01915573 0.014356878 -0.0035114412 -0.0051869904 0.020080984 -0.04614895
-0.0013427829 0.0041355304 0.038686294 0.028302927 -0.056559447 -0.0016411863 -0.05694276 -0.021217132
-0.016068209 -0.022304809 0.031601667 -0.010158243 -0.035477523 -0.060375083 0.032433096 -0.0033808008
-0.033645302 0.020824082 -0.041308317 0.013154512 -0.026095696 -0.03483998 -0.009654891 -0.036478467
-0.017922865 0.010871348 -0.010355424 -0.03724809 0.014907138 -0.05409982 0.037976127 -0.019241448
-0.06319074 -0.017318027 -0.0037477931 -0.027156668 0.022218116 -0.02836821 -0.006875546 -0.027636789
-0.0040776185 0.007219456 -0.05302078 -0.008340012 -0.019751498 0.00036820528 0.034449372 0.014411547
-0.011830655 0.01284519 0.008300944 -0.0116988225 -0.03281321 0.0068603116 -0.055773176 0.015238254

l2.bias f4 [300]
00000000: 4358 13bd 7cb4 063d 2a48 ad3d 0720 61be
00000010: 997c 3fbe be91 e0bd 6439 95bd e910 133c
00000020: b542 7f3c 2f78 933e c47f dfbd 42f5 233e
00000030: 4f5c 553e 3245 b4bd c9f2 f6bd 4f85 49bd
00000040: 0265 ffbb 8466 3ebe 4b8c 44be 316f 2bbe
00000050: 3f6c 1e3e a6b0 d2bd a6c1 0b3d 2b2e 3b3f
00000060: b0bc 553e 6f6a be3c 7e8e efbe d886 833e
00000070: c187 8b3e 1a55 953e 94cf eabd 2f66 133b
00000080: bcde cd3e 14ae 4c3c 6b53 fabd 7ad0 a6be
00000090: c3b8 583d d89b 173f 0a2e 153f 640b 02be
000000a0: 29c8 063f ef6c 82be bec9 0b3b 7dbf f93c
000000b0: 45a9 6a3d 4ce4 8ebe 6497 5abe 27d7 93bd
000000c0: 1052 ba3e 6859 043c 849e 59bd 25c9 983c
000000d0: ef4a 473f 90ec 17bf 987d d2be 3f5a e93e
000000e0: c110 f23d 61e2 a33e 1aec 7c3d 9b9a 7b3e
000000f0: 6b11 0ebf df02 293e 71ca 0abe ffce a43d
00000100: 733f a13e 46bd 413e bb0f 42bd 0f40 1ebd
00000110: d239 44bd 0cbf 10bd fc28 fabe 5bae 9cbe
00000120: 4655 813e 8246 663c e676 bcbd 1024 2d3b
00000130: ac21 223f 9712 f3bc 6e3a adbe 7e90 12bf
00000140: 7225 87bd 85f8 05be 129b b83e cb0d 39be
00000150: fced 1abc f572 6fbf e6aa 68bf 3f42 27bd
00000160: 0736 833c 1c78 ddbc 0fc4 a83c 57a3 50be
00000170: 42bd 003f 9214 f73e 5db6 64be 1151 b1be
00000180: 7e5c a8be 020f c33d ca55 23bd de15 bfbc
00000190: ddca 12bd c3e0 03bd 215b 1cbe 4297 fabd
000001a0: 24fb b33e 2e09 a8be 536d 70be c81d bcbe
000001b0: df0d 80bd 949d 7f3d 1146 84be adbf 8a3e
000001c0: bc2a d4bd ff92 dabd bd48 92bd e3c2 133e
000001d0: 3f54 17be 9d9a 86ba 8526 2b3e 5e65 d43d
000001e0: 5167 173e fbd0 c8bc 8cf3 fd3d 1ee9 b93e
000001f0: 3b7c 6d3e 0d69 dd3e a6c7 bfbd 363e 213d
00000200: 3ef6 d53d 5342 fe3d c409 bc3d 8ad8 173f
00000210: 12d6 6b3e 9007 67bd d440 103c 0a85 803e
00000220: be49 8a3c fbdf c23e fe17 463e 99fc 51bd
00000230: 266b 26be 8f0b e1bd 0ab0 55be 0951 6abe
00000240: 2553 eb3c 02c7 46bd 3788 953d 560a 583e
00000250: 3d57 dd3e 5679 343c 30dc cabc 620d 1cbf
00000260: 3d61 64be 6d77 02bd 0af7 213e 4bb1 9ebc
00000270: 091e b63d a4f8 cb3d 7db4 1d3e db2f 1d3d
00000280: 8339 173e e3b9 d4bd 1b80 3ebe 3ae3 0c3f
00000290: 2ad5 07bc 121c 033b defd 9f3d 8f27 b8be
000002a0: 1369 9c3c 531f fdbc 4cd3 24be 33f8 24bd
000002b0: 4178 3dbe 6709 433f 457a cebd 0a3d f5bd
000002c0: c196 873d 00de 133e 757e 88be bb0c d4bd
000002d0: bbc9 ed3e c2fa 21bd a643 ed3e 9d09 a1be
000002e0: 2f08 3ebe 17be 25be 5282 c13d a540 65bc
000002f0: 5b9b 10be 30cd 833d 93f3 fa3c 5ca0 b83d
00000300: 890c 94be aeee 91be 3220 92be abf1 783e
00000310: aa48 2abe 7d5d 61be 9556 3f3e 8e41 853e
00000320: b6fc 7bbd 7469 e8bd 4a1a 8d3e 58d7 8bbc
00000330: c4d1 00bf 5e50 023f 7dfe 27bd 0789 0f3d
00000340: a3f3 9abe e8eb 93be f0c1 253e 0a39 ac3e
00000350: 3518 183f 3f19 b4be 799e 8cbd 4225 a63e
00000360: 496c 8d3e d1af b23e 9fee 1bbe 949b 053f
00000370: beee 3f3e 94dc 3dbd e311 b53b 8b39 b63e
00000380: 312a 94bc b51e 74bd baf6 403e ad04 cc3c
00000390: e653 50be 1487 42bb 3117 6fbf a71a f2bd
000003a0: 0472 83bd 4e3d 963e f7dc cabd e0dc cbbd
000003b0: 7137 803d 96d1 d03e 3d10 2f3e 18fc c83d
000003c0: b562 86be 158f 24bd 11bb b93e b079 1fbe
000003d0: 0105 603e 1720 e53d b4e0 b03e 1904 3cbe
000003e0: 19e0 4a3e 5b5e 90be df94 ae3d f692 3a3d
000003f0: 82b1 c93e e1ad b23e 0009 79bd 40fa 913e
-0.035972845 0.032886967 0.0846103 -0.21984874 -0.18699874 -0.10965298 -0.07286337 0.0089762
0.015579869 0.2880263 -0.10913041 0.16011527 0.20835994 -0.088022605 -0.12058026 -0.0491994
-0.0077940235 -0.18593794 -0.19194143 -0.16741635 0.1547098 -0.10287599 0.034120224 0.7311732
0.2087276 0.02324411 -0.467884 0.25688815 0.2725201 0.2916649 -0.11465374 0.0022491326
0.40208995 0.012492675 -0.12222942 -0.3258093 0.052910578 0.59222174 0.58273375 -0.12699658
0.5264917 -0.25473735 0.0021329965 0.030486817 0.057290334 -0.27908552 -0.21346813 -0.072187714
0.36390734 0.008077957 -0.053129688 0.0186506 0.77848715 -0.5934534 -0.41111445 0.45576665
0.11819602 0.3200865 0.0617486 0.24570696 -0.5549533 0.16505001 -0.13553788 0.08047294
0.3149372 0.18919858 -0.047378283 -0.03863531 -0.047906704 -0.035338446 -0.48859394 -0.30601773
0.2526037 0.014054896 -0.092023656 0.00264192 0.6333263 -0.02967195 -0.3383364 -0.5725173
-0.06598939 -0.13083084 0.3605581 -0.18071668 -0.009456154 -0.93534786 -0.9088577 -0.04083466
0.016016973 -0.027034812 0.0206013 -0.20374809 0.50288785 0.4825788 -0.22335191 -0.3463216
-0.32883066 0.09524347 -0.039876737 -0.023325857 -0.035837997 -0.03219677 -0.15269138 -0.122358814
0.35152543 -0.32819504 -0.23479204 -0.3674147 -0.06252646 0.062406138 -0.25834706 0.27099362
-0.103597134 -0.106725685 -0.0714278 0.14429812 -0.14778231 -0.0010269467 0.16713913 0.10370897
0.14785506 -0.024513712 0.123999685 0.36310667 0.23191921 0.4324421 -0.09364252 0.03936597
0.104473576 0.12414994 0.0918155 0.5931479 0.2303088 -0.056403697 0.008804519 0.251015
0.016880866 0.3806151 0.1934509 -0.051266287 -0.16251811 -0.10988533 -0.20867935 -0.22882475
0.02872617 -0.048529632 0.073013715 0.21097693 0.4323062 0.011015257 -0.024763197 -0.6095792
-0.22302718 -0.031852175 0.15816894 -0.01937165 0.088924475 0.09959534 0.15400882 0.038375717
0.14768033 -0.103870176 -0.18603556 0.5503422 -0.008290568 0.0020005745 0.07812093 -0.3596768
0.019093072 -0.030898726 -0.16096228 -0.040275764 -0.18502904 0.7618622 -0.10081915 -0.11974533
0.06620551 0.14440155 -0.2665898 -0.10353991 0.4644297 -0.039545782 0.46340674 -0.31452647
-0.1855781 -0.16185795 0.09448685 -0.013992463 -0.14121763 0.06435621 0.030633723 0.09014961
-0.28915814 -0.2850241 -0.28540188 0.24310939 -0.16629282 -0.22008319 0.18685372 0.26026577
-0.0615203 -0.113482386 0.2755912 -0.017070457 -0.50320077 0.5090388 -0.041014183 0.03504279
-0.30264005 -0.2889092 0.16187263 0.33637267 0.59411937 -0.3517551 -0.06866164 0.324503
0.27621678 0.34899762 -0.15227745 0.5219052 0.18743417 -0.046352938 0.005525814 0.35590777
-0.018086525 -0.059599597 0.18844119 0.024904573 -0.20344505 -0.0029682564 -0.9339476 -0.1182149
-0.06418231 0.29343647 -0.09905427 -0.09954238 0.062605746 0.407849 0.17096038 0.09813708
-0.26247182 -0.040175516 0.36275533 -0.15573764 0.21876909 0.11187761 0.34546435 -0.18360938
0.19812049 -0.28196988 0.08524489 0.04555031 0.3939324 0.34898284 -0.0607996 0.28511238

l3.weight f4 [24, 300]
00000000: 7c96 b439 30cc 55ba 68df 4e3a 8d5f 9f39
00000010: cff7 893b 917d d1bb b739 b8bb 84e8 d33c
00000020: b308 b43a a70c cc39 403a 2c39 5885 a83a
00000030: 6247 09bc e746 b5ba 3eed ebbb 0434 e4bc
00000040: 417b 5dbd b15a f5b8 51a4 e3b8 d107 453a
00000050: bef4 2039 d4af c539 bb1c 37ba a18d 98ba
00000060: b032 d539 8c6d 03bc 773d 64bb 5e48 c2bb
00000070: 2a47 c33e cc03 0539 de67 a23e 46a8 9c39
00000080: bdf2 a1bb 2486 ca39 98d7 14ba 3d6a f03a
00000090: 71d9 0b3b 3e83 f8b7 5ac0 093c a9e0 7f3b
000000a0: 85ab 863c b805 c43a 2bf3 3d39 334d 813a
000000b0: 66e0 e539 8153 f1bd fa07 90bb b6fa 223b
000000c0: d1d8 51b9 9869 653a 3c6d 36bd b1e9 8d3c
000000d0: 6786 10bb 57c5 abbb d1d8 c6bb 0c7e aa3a
000000e0: 5230 133b b62c 08ba c2d6 4938 e031 a0bb
000000f0: bd6e e439 7eee 1aba cfdd 1939 2862 7fbb
00000100: f357 1d3b 7f02 cebe 951f 28ba c0a7 52bb
00000110: de00 203b 8d7a 30b9 e23d 90b8 489f 4b3a
00000120: 468b 593a 0cfa c4bb a8cc 6cbb 5dff aebb
00000130: e11e dd3a fd9f fc39 bed7 693b 532b 933b
00000140: 75ba 13bc 36ce b73a 34b9 a63a 5411 c0bb
00000150: ef76 a23d 2713 9cba 9070 9fbb 668c 873b
00000160: 5ac0 c539 c35a 803d 7f2b f73c 8ecb 0e3a
00000170: 78cb c93d 3e7f 6eba 3dac f2ba 6149 c83b
00000180: 98ed 26ba 614c e83a ce14 6539 7264 d3ba
00000190: e077 3fbb d4f5 95ba de4c 403a cfa0 feba
000001a0: 19b7 24bb f240 923d f500 81bb 2a0c 4eba
000001b0: 576e eebd 35e4 ac39 d774 2439 bcd6 1437
000001c0: a11d 60bb 9060 183a e7dc 42bc 5156 8cbb
000001d0: 3326 18ba a909 b4bb 5954 26ba 9b7b cf3a
000001e0: a115 493a 4f5d f73c 298a 263c 8e33 30b9
000001f0: 6ef7 edb9 00f9 c63a c639 373e 5cde 2cba
00000200: a56a 06ba 9575 e2be 21e9 403d eee5 caba
00000210: c230 9db9 edd5 c5ba 306f f23b 4a18 2bbb
00000220: 5278 d2bb 6605 a73a 9bdb 8fba af71 9aba
00000230: 70bc a83b 09ae 4eb9 c73e eabb dc10 91ba
00000240: aa4b 86bb 3ab9 a6ba 20d7 a936 d841 b639
00000250: 29c0 c9ba c93e 69bc c47e 48bc 9108 b7bb
00000260: a6e2 2dba 2607 9a3c 48bf e13a fdbc c539
00000270: 7def 64b8 f074 043b 19a1 02bb 571d 8339
00000280: d7b8 1fbb 8205 59ba d6da 81ba 1792 9a3a
00000290: baa9 c43c 9b99 da3a 2e5d ccb8 3687 c63a
000002a0: 7f69 24ba 0035 863b d20b 92ba c1f6 ca3a
000002b0: 1dcf a23a 19c0 ba3b 673a 973b fa97 ab3a
000002c0: cb71 2d3a 32ee a2ba cf26 ff38 de67 fbba
000002d0: 0e79 a43a a928 acba 58e8 2aba f931 46bc
000002e0: 1a0d 603a 2e13 adb9 4c02 3239 c23e 0ebb
000002f0: 5cda b83b f9c5 fcba b817 ccb6 a8f8 86ba
00000300: aa49 fcb8 4a9a 0c3b 4257 28bb a153 433a
00000310: 2270 d8b6 3f67 c6ba e911 76bd 5e89 6bba
00000320: db15 6ebb 2b49 7a3e 2504 6aba ac58 66bb
00000330: c016 d1ba 2368 9f3b fb07 85bb 31e1 b8ba
00000340: db4a df3a a023 873b 543a bf39 84ca c639
00000350: bdc8 0e3b 7346 df39 cb39 00b9 aa15 41ba
00000360: 168d 1bb7 d088 cb3d b596 9dba 136c e939
00000370: f7e9 fdb8 987b fd3a 5de1 203b ad2f 76ba
00000380: e549 80bc b602 3e3b 1639 da3b b201 c33a
00000390: 3b3e 363b 55a7 023b 27b3 0b3c b3ff 39ba
000003a0: 9336 1a3a 2d9a 4ebe e0a5 073b bdc2 c4ba
000003b0: 0d4f 9339 5370 453b b33e 51ba 1936 bb39
000003c0: dc24 94bb 9e34 20bb 13d9 e4b9 e03f cebe
000003d0: fdcc dfbd bd79 deba 2dad 0139 ab8d 6eba
000003e0: a015 8aba c252 0a3a b7c1 8eba 2c77 a93a
000003f0: 1668 223c b93a 89ba b89c 3fbd 7f1d f2bc
0.00034444395 -0.00081557315 0.00078915665 0.00030398034 0.0042104493 -0.0063931425 -0.0056221145 0.025867708
0.0013735503 0.0003891934 0.00016424898 0.0012857122 -0.008378835 -0.0013830335 -0.0071999123 -0.027856834
-0.054072622 -0.00011699403 -0.0001085481 0.00075161183 0.00015349963 0.0003770577 -0.0006985177 -0.0011638888
0.0004066429 -0.0080217235 -0.0034826675 -0.005929037 0.3814023 0.00012685283 0.3171987 0.00029880012
-0.0049422667 0.00038628385 -0.0005677878 0.0018342208 0.0021339322 -2.9625018e-05 0.008407677 0.003904382
0.016439209 0.0014955318 0.00018115032 0.0009864926 0.00043845474 -0.11783505 -0.004395482 0.0024868674
-0.00020012564 0.00087513914 -0.044537768 0.017323347 -0.0022052766 -0.0052420306 -0.006068327 0.0013007536
0.002245922 -0.0005194651 4.8122143e-05 -0.004888758 0.00043570055 -0.0005910172 0.00014673847 -0.0038968418
0.002400872 -0.4023628 -0.00064133975 -0.0032143444 0.002441458 -0.00016830322 -6.877982e-05 0.000776757
0.00082986464 -0.006011253 -0.0036132727 -0.0053405003 0.0016870165 0.00048184386 0.003568157 0.0044912486
-0.009016623 0.0014023248 0.001271999 -0.0058614407 0.07932841 -0.0011907563 -0.0048657134 0.00413661
0.0003771808 0.062673114 0.030172108 0.0005447202 0.09853262 -0.000909794 -0.0018514466 0.006112263
-0.00063678017 0.0017722958 0.00021846892 -0.0016127957 -0.0029215738 -0.001144106 0.0007335673 -0.0019426587
-0.0025133549 0.071412936 -0.0039368817 -0.0007860089 -0.116421394 0.00032976424 0.00015683785 8.871484e-06
-0.0034197348 0.0005812729 -0.011893488 -0.0042827507 -0.0005804032 -0.0054943156 -0.0006344966 0.0015829684
0.00076707645 0.03019586 0.010164776 -0.00016803874 -0.00045388512 0.0015180409 0.17893133 -0.00065944134
-0.00051275856 -0.44230333 0.04709733 -0.0015479901 -0.000299817 -0.0015093662 0.0073985085 -0.0026107007
-0.0064230347 0.0012742698 -0.0010975482 -0.0011783148 0.0051494166 -0.00019710524 -0.007148597 -0.0011067647
-0.0040983753 -0.0012719997 5.0616363e-06 0.00034762803 -0.0015392351 -0.014236161 -0.0122372545 -0.005585738
-0.00066331995 0.018802237 0.0017223144 0.00037715575 -5.4582477e-05 0.0020211302 -0.0019932447 0.00025008127
-0.0024371648 -0.0008278714 -0.0009907137 0.0011792806 0.024006713 0.0016677858 -9.744834e-05 0.0015146497
-0.00062718237 0.0040956736 -0.0011142439 0.0015484915 0.0012421344 0.0056991694 0.0046151164 0.0013091557
0.0006616383 -0.0012430607 0.00012166576 -0.0019180735 0.0012548284 -0.0013134676 -0.0006519607 -0.012096875
0.0008546874 -0.0003301142 0.00016976258 -0.0021704887 0.005641265 -0.0019285075 -6.082435e-06 -0.0010297494
-0.000120300174 0.0021454268 -0.0025686775 0.00074511213 -6.4503556e-06 -0.0015136971 -0.060075674 -0.0008985008
-0.0036328945 0.24441974 -0.0008927009 -0.0035148067 -0.0015952215 0.004864709 -0.0040597892 -0.0014105198
0.0017035858 0.00412412 0.00036473817 0.0003791639 0.002178713 0.00042586363 -0.00012228561 -0.0007365594
-9.271569e-06 0.09938204 -0.0012023064 0.00044521745 -0.000121075595 0.0019339202 0.002454839 -0.00093912595
-0.015660236 0.0028993315 0.006659637 0.0014877825 0.0027808088 0.0019936163 0.0085266 -0.0007095292
0.0005882766 -0.20176001 0.0020698234 -0.001501165 0.00028096922 0.0030126765 -0.000798206 0.00035707725
-0.0045209955 -0.0024445425 -0.00043649282 -0.40283108 -0.1092777 -0.0016973537 0.00012366912 -0.00091000897
-0.0010535009 0.0005276614 -0.0010891472 0.0012929193 0.009912511 -0.0010469771 -0.046780318 -0.02955508

l3.bias f4 [24]
00000000: a33d 8f3e 17f3 453d 20a5 7e3e 1505 403e
00000010: 6023 d83e 1bd0 92bd b4dd 93be 1ba9 4c3e
00000020: 2b40 d53d 7470 50bf f79e f83d 20ca 143f
00000030: 3565 4fbe d663 3a3e f878 8d3e 32f5 9f3e
00000040: fc2b a73e a44c a43e a902 a83e 989f d73e
00000050: 4a4f 063f 72af 313f d4da 123f 2851 653f
0.27976713 0.04832753 0.24867678 0.18751939 0.4221449 -0.07168599 -0.28880084 0.19986384
0.1041263 -0.8142159 0.12139695 0.5812092 -0.20253451 0.18202147 0.27631354 0.31241757
0.32650745 0.32089722 0.3281453 0.42113948 0.52464736 0.69408333 0.57365155 0.8957696
