BipedalWalker-PPO-VectorizedEnv/dir_save/we0_critic_linear_final.pth (torch_old, 775 bytes, 1 tensors)

weight f4 [1, 64]
0	0x400d977a	2.2123704
1	0xc00640e3	-2.0977104
2	0xc00bf8f2	-2.1870694
3	0xc010cc15	-2.2624562
4	0xc008bf15	-2.1366627
5	0x4008afdb	2.1357334
6	0x40037b9f	2.0544202
7	0x40064c13	2.0983932
8	0x400c3cd0	2.1912117
9	0x3feb2234	1.8369813
10	0xbfe2ce5a	-1.7719223
11	0x400b8f01	2.1806033
12	0xc00b0f91	-2.172825
13	0x40017e8f	2.0233495
14	0xc00f7a72	-2.2418485
15	0x3fff1574	1.9928422
16	0x4010f66a	2.26504
17	0xc0125156	-2.2862144
18	0x400ce1f2	2.2012906
19	0xc008083b	-2.1255023
20	0xc01b27f3	-2.4243133
21	0xc004348f	-2.065708
22	0xbfcc62d5	-1.5967661
23	0xbff5a23b	-1.9190134
24	0x40156b6c	2.3346815
25	0x3faa44c1	1.3302232
26	0xc0085ef3	-2.1307952
27	0xbfc317b0	-1.5241604
28	0xc01db492	-2.4641461
29	0xc003fae6	-2.0621886
30	0xc007c8ae	-2.1216235
31	0xc006eeae	-2.1083179
32	0xc02e2d49	-2.721514
33	0xc0210af8	-2.5162945
34	0x3ff8a74a	1.9426053
35	0xbff0a9fc	-1.8801875
36	0xc004e216	-2.0762992
37	0x40a764b7	5.2310443
38	0xbfd6b436	-1.6773746
39	0x3ff25525	1.8932234
40	0xbfebae24	-1.8412519
41	0xc006d022	-2.1064534
42	0x401c7aea	2.445002
43	0x40258bce	2.586658
44	0xc05d7b3b	-3.4606464
45	0x4007ea55	2.1236775
46	0x401dd955	2.46639
47	0xc00be492	-2.1858258
48	0x4004b3b9	2.0734694
49	0xc00bd53b	-2.1848896
50	0xc005001a	-2.0781312
51	0xc00cfe10	-2.2030067
52	0xc00852df	-2.130058
53	0xc0661759	-3.595175
54	0xc009308f	-2.1435888
55	0xc0095313	-2.1456954
56	0xbffdd49c	-1.9830508
57	0x402bae98	2.6825314
58	0xc00e8f8c	-2.2275114
59	0x4001c008	2.0273457
60	0x401c2274	2.4396029
61	0xc002e4ff	-2.0452268
62	0xc00ea3f4	-2.228757
63	0xc01350f9	-2.3018172
