MountainCarContinuous_PPO/dir_save_test/we0_model_dist_final.pth (torch_old, 5294 bytes, 1 tensors)

weight f4 [1, 64]
000000 03 13 0a ba 52 b7 65 3a 5f 5b a5 bc e8 e6 af 3a
       -0.0005267115 0.00087629736 -0.02018517 0.0013420256
000010 1f 51 f1 ba b4 be 1b bb 60 96 a1 b9 c4 3a 12 3c
       -0.0018411017 -0.002376479 -0.0003082035 0.008925144
000020 c5 a3 81 3a c1 3f 06 bc 7e 4c 1b 38 72 e7 44 39
       0.0009890726 -0.008193911 3.702612e-05 0.00018778237
000030 f4 dd a7 bb a4 dd 96 38 f1 68 a8 3a 22 61 db 3a
       -0.0051228944 7.193841e-05 0.0012848658 0.0016737322
000040 cc 88 31 3a 58 e2 c9 3a e6 cc cf 3a a2 9a 22 3a
       0.00067723985 0.0015402539 0.0015853911 0.00062028517
000050 4a 0c 6d 3b 7d 6b 9a b9 b7 0b 67 be 0b 42 32 3a
       0.0036170655 -0.00029453254 -0.22563063 0.00068000023
000060 b8 72 dc 3a 1e 25 c1 3a 8a b4 9a bd 8a c1 69 3a
       0.0016818857 0.0014735793 -0.07553966 0.0008917084
000070 50 21 df b9 01 8d ae 3a 46 99 09 3b 40 01 5c 3a
       -0.00042558694 0.0013317169 0.00209959 0.000839252
000080 6e 5a 5f b9 cd d3 86 ba 7b 01 a5 39 02 a3 a5 ba
       -0.00021300625 -0.001028651 0.00031472355 -0.0012637081
000090 dc 4c b9 b8 d1 10 cd be 8d 67 34 3e ea 60 ec 39
       -8.8358036e-05 -0.40051892 0.17617626 0.00045085634
0000a0 b8 c9 87 38 92 a9 0b 3a 28 16 25 38 b5 45 d9 3a
       6.474875e-05 0.0005327697 3.93597e-05 0.001657656
0000b0 61 91 c9 39 e5 ac 01 39 a6 bf e2 ba 00 59 4b 37
       0.00038446023 0.00012366807 -0.0017299547 1.2120465e-05
0000c0 9e 4d ff 39 60 72 ec 39 2e e1 95 bb 59 bd 85 bc
       0.0004869522 0.00045098644 -0.0045739627 -0.01632564
0000d0 63 6f 48 b9 35 c5 1d ba 83 d7 d2 3a 94 58 3b 39
       -0.00019114981 -0.0006018461 0.0016085956 0.00017866708
0000e0 9a e1 f1 ba fb bb 7c 3a f3 d9 e9 3b 00 e3 ca 39
       -0.0018454075 0.00096410484 0.0071365773 0.0003869757
0000f0 16 7d b0 ba c7 79 b7 3d 5a f4 99 b9 87 38 e6 bb
       -0.0013465013 0.08958774 -0.0002936449 -0.0070257816
