MountainCarContinuous_PPO/dir_save_test/we0_actor_final.pth (torch_old, 18175 bytes, 4 tensors)

0.weight f4 [64, 2]
0	0xbecd8fc0	-0.40148735
1	0x403b6a02	2.9283452
2	0x3e75b16f	0.23993467
3	0x3fed2726	1.8527572
4	0x3cf32123	0.029678887
5	0x404b40e8	3.1758366
6	0x3d0b17d1	0.03395826
7	0x408057fc	4.0107403
8	0x3cc1f7d3	0.023677742
9	0xc036085e	-2.8442607
10	0x3df0719c	0.11740419
11	0x401d5045	2.4580243
12	0x3c2813a8	0.010258593
13	0xc0662ffe	-3.5966792
14	0x3ea272c1	0.31728175
15	0xc044900f	-3.0712926
16	0x3f0611a3	0.5237066
17	0xbf48caca	-0.7843443
18	0x3e344e2d	0.17607947
19	0x3ed194ba	0.40933782
20	0xbe829552	-0.25504547
21	0x4029e57e	2.654632
22	0x3d4110cc	0.04713516
23	0xc002290e	-2.0337558
24	0x3e81d6cc	0.2535919
25	0x402d0869	2.7036383
26	0xbef181a1	-0.47169212
27	0x40227065	2.53811
28	0x3efca4ce	0.49344486
29	0xbfd8f644	-1.6950154
30	0xbec43d1c	-0.38327873
31	0x3f2be69c	0.67148757
32	0x3ce0dc29	0.02744873
33	0x4022ab9e	2.5417247
34	0x3e42fc61	0.19041587
35	0x40292452	2.6428418
36	0x3d58756d	0.05284636
37	0x402b2551	2.6741526
38	0xbd89cfd2	-0.06729092
39	0xc05c0c3a	-3.4382463
40	0x3a4bf306	0.0007780049
41	0xc01c3289	-2.4405844
42	0x3b6043d2	0.0034220112
43	0x40305b73	2.7555816
44	0xbec6573b	-0.38738427
45	0x404e9602	3.2279058
46	0x3d86404d	0.06555233
47	0xc0123194	-2.284276
48	0xbe90654b	-0.2820228
49	0xbf25d48f	-0.64777464
50	0xbc700674	-0.014649976
51	0xc04939f8	-3.1441631
52	0x3eb3c91c	0.35114372
53	0xbee239f5	-0.44184843
54	0x3e9ff5d6	0.31242245
55	0xc002144d	-2.032489
56	0x3c9b8059	0.0189821
57	0x408a6dc9	4.3259015
58	0x3f22ee00	0.6364441
59	0xbfe10f1b	-1.7582735
60	0xbe4ed42a	-0.20198122
61	0x3e87ec9d	0.2654771
62	0x3ec446e0	0.38335323
63	0xbebd1f1e	-0.36937803
64	0xbd57668f	-0.052588042
65	0xc06b6124	-3.677804
66	0xbec76a0f	-0.38948104
67	0xbf842eaa	-1.0326741
68	0x3e08c559	0.13356532
69	0xc0512db8	-3.2684155
70	0xbe2501d1	-0.16113974
71	0xbf83f1d7	-1.0308179
72	0x3cfb0ac8	0.03064479
73	0x408370b9	4.10751
74	0x3e5f3a07	0.2179948
75	0xc04bef2f	-3.1864736
76	0xbd540b4b	-0.051768582
77	0xc05e463c	-3.4730368
78	0x3df62274	0.1201829
79	0x400295d2	2.0403943
80	0x3d2f410f	0.042786654
81	0x407a9c51	3.9157908
82	0x3f18d075	0.5969308
83	0xbf9451db	-1.158748
84	0xbe895e73	-0.26829872
85	0x3faa95f9	1.3327018
86	0xbd9f206e	-0.07769857
87	0xc02bcaee	-2.6842608
88	0x3c83ade0	0.016074121
89	0x405cacc3	3.4480445
90	0x3f139075	0.576423
91	0xc029f94e	-2.6558414
92	0xbe5e95a0	-0.21736765
93	0x3e45786c	0.19284219
94	0x3e5c876f	0.21536039
95	0xc05c3100	-3.4404907
96	0x3e361807	0.17782603
97	0x4004751b	2.0696476
98	0xbdade314	-0.08490577
99	0xc008dd42	-2.1385045
100	0xbd652a7d	-0.055948723
101	0xc036f2d7	-2.8585718
102	0xbc1b5e68	-0.009482957
103	0xc02ce6f4	-2.7015963
104	0xbef3a97e	-0.4759025
105	0x404d179f	3.2045667
106	0x3bdec95c	0.0067989063
107	0x406b0f5e	3.672813
108	0x3d8765de	0.066112265
109	0xbfd01685	-1.6256872
110	0x3f22afc9	0.63549477
111	0xc0082f6e	-2.1278949
112	0xbf1e160a	-0.6175238
113	0x3f48c2ff	0.7842254
114	0x3d202ed5	0.039107163
115	0x4030f69c	2.7650518
116	0xbcea7a3f	-0.028622745
117	0xc04bda38	-3.185194
118	0xbd5d8d36	-0.054089747
119	0xc07e4bbc	-3.9733725
120	0xbed1a62c	-0.40947092
121	0x3fbd7efe	1.480438
122	0xbe4099c9	-0.18808664
123	0xbfeb4ab3	-1.8382171
124	0x3ea24117	0.31690285
125	0xbe605281	-0.21906473
126	0xbe009a6b	-0.12558906
127	0xbf5e8360	-0.8691921

0.bias f4 [64]
0	0xbe4fa0f1	-0.20276238
1	0x3e0160bf	0.12634562
2	0x3cc9c8d4	0.024631895
3	0x3c40a56e	0.0117581915
4	0xbb44277e	-0.0029930766
5	0x3d58d6c1	0.05293918
6	0x3b3a51d3	0.0028430119
7	0x3e29fc6b	0.16600196
8	0x3e85266e	0.26005882
9	0x3db159ac	0.08659682
10	0xbe05be5d	-0.13060899
11	0x3c69b53d	0.014264402
12	0x3dd59722	0.10429217
13	0xbe802749	-0.25029972
14	0x3e8060b7	0.25073788
15	0xbe3c0166	-0.18359908
16	0x3cd14a85	0.025548229
17	0x3dd87491	0.10569108
18	0x3cfd66c3	0.03093279
19	0xbd307fee	-0.043090753
20	0xbc3ce992	-0.011530297
21	0x3ad8473c	0.0016500722
22	0xbe560886	-0.20901689
23	0x3d00c496	0.03143748
24	0xbe047dda	-0.12938634
25	0xbca9997c	-0.02070307
26	0x3e34cf94	0.1765731
27	0x3e202e59	0.1564268
28	0x3ca7a5aa	0.020464737
29	0x3e9b6fde	0.30358785
30	0xbdbd3a7e	-0.09239672
31	0x3e41e176	0.18933663
32	0xbd3b7f04	-0.04577543
33	0xbe4064d5	-0.18788464
34	0x3d99f53f	0.0751748
35	0xbda82b79	-0.08211417
36	0x3c8a4606	0.016879093
37	0x3de5cd92	0.1122085
38	0xbcec8716	-0.028873008
39	0x3d7c4fc2	0.0615995
40	0x3cae617e	0.021286722
41	0x3e9ad102	0.30237585
42	0xbe18f27f	-0.14936255
43	0xbd3f229d	-0.04666387
44	0x3c8df8a0	0.017330468
45	0x3e979abf	0.2961025
46	0xbddfcdff	-0.109279625
47	0x3df65cd7	0.120294265
48	0x3da626b9	0.081128545
49	0xbd52d318	-0.051470846
50	0xbd210cfb	-0.03931902
51	0xbbff9857	-0.0078001427
52	0xbe6c6073	-0.23083667
53	0x39b9da28	0.0003544849
54	0x3cff029e	0.031129178
55	0x3ea23f6f	0.3168902
56	0xbe9ac67b	-0.30229554
57	0x3ccce5b9	0.025011884
58	0xbce8205c	-0.028335743
59	0xbcdd5f08	-0.027022853
60	0xbe5c7b9a	-0.21531525
61	0xbdc3d85b	-0.09562751
62	0x3e0fd7d1	0.14047171
63	0xbd7e6c29	-0.06211487

2.weight f4 [64, 64]
0	0xbd0cf0e0	-0.034409404
1	0x3d400a4f	0.04688483
2	0xba5cf953	-0.0008429486
3	0xbde8ac3f	-0.11360978
4	0x3d46461f	0.048406716
5	0x3da271ef	0.07931887
6	0xbdc8b95a	-0.09800978
7	0xbd74f59f	-0.059804555
8	0xbe16510a	-0.14679351
9	0xbd41b8d7	-0.047295418
10	0xbdc19503	-0.0945225
11	0x3c4193ef	0.011815055
12	0xbe11b2a3	-0.14228301
13	0xbe0e0da0	-0.13872385
14	0xbcee8490	-0.029115945
15	0xbdfb6a2b	-0.12276109
16	0xbbdc1afb	-0.0067170835
17	0x3e57c015	0.21069367
18	0x3e1a746c	0.15083474
19	0xbd89613f	-0.06708001
20	0x3dd634ad	0.10459266
21	0xbd02bae1	-0.031916503
22	0x3e0e7cf3	0.13914852
23	0x3e11ab77	0.14225565
24	0xbd0943ef	-0.033512052
25	0xbbfedf91	-0.007778116
26	0xbc3daad9	-0.011576378
27	0xbde90bcf	-0.113792054
28	0xbe186709	-0.14883055
29	0xbdbb167e	-0.091351494
30	0xbe92b16f	-0.28650996
31	0xba6870bd	-0.0008866897
32	0xbe379534	-0.1792801
33	0xbc89a835	-0.01680384
34	0x3ec01025	0.37512317
35	0x3d7a7f47	0.061156537
36	0x3d107e69	0.035276804
37	0x3e0b623e	0.13611695
38	0xbc1c34a8	-0.009534039
39	0xbe016f18	-0.12640035
40	0x3cc13299	0.023583697
41	0x3d465c08	0.04842761
42	0xbdbc73b8	-0.09201759
43	0xbdb6c6a1	-0.08924604
44	0xbd1d5dd4	-0.03841956
45	0xbe54bd56	-0.20775351
46	0x3e5f82a2	0.21827176
47	0xbd8bd19d	-0.0682709
48	0xbcd4b47b	-0.025964966
49	0xbd968c9c	-0.07351038
50	0x3d3dcd03	0.046338093
51	0xbd457898	-0.04821071
52	0xbc395d2d	-0.011313719
53	0x3e03104a	0.12799183
54	0xbcf87303	-0.03032828
55	0x3dfe9c79	0.124321885
56	0xbc982de9	-0.01857658
57	0x3e367bac	0.17820615
58	0x3c4748af	0.012163325
59	0x3d24c79a	0.040229417
60	0x3c78b140	0.015178978
61	0x3e21611d	0.15759702
62	0x3c029900	0.007971048
63	0xbdda935e	-0.10672639
64	0x3c0004e2	0.007813664
65	0xbe09b67b	-0.13448517
66	0x3db4f368	0.088354886
67	0xbc1167ea	-0.008874873
68	0x3c609c50	0.013709143
69	0xbd921c1a	-0.07134266
70	0xbe102d8d	-0.14079876
71	0x3c997400	0.01873207
72	0x3d482a85	0.048868675
73	0x3e3bfecf	0.1835892
74	0x3ccdb331	0.02510986
75	0x3daaf4f5	0.08347503
76	0x3d8d6eb9	0.06905884
77	0x3e31160c	0.17293566
78	0xbd10e5fc	-0.03537558
79	0x3e15fd42	0.14647391
80	0xbd4eec3c	-0.05051826
81	0x3e22f724	0.15914589
82	0xbd121d6d	-0.035672594
83	0x3cc68b2e	0.024236288
84	0x3d98f918	0.07469386
85	0xbcb5397e	-0.022122141
86	0x3d30e9d8	0.04319176
87	0xbdbf3e51	-0.09338058
88	0x3d967ba4	0.07347801
89	0x3dd6ad23	0.10482242
90	0x3df40186	0.11914353
91	0x3d4a606d	0.049408365
92	0xbcba2dc1	-0.022726895
93	0x3db8a4af	0.09015786
94	0xbdc80268	-0.09766084
95	0xbdb1fc1b	-0.086906634
96	0x3e0a3e18	0.1350025
97	0xbd0807e4	-0.03321065
98	0xbe7544d6	-0.2395204
99	0x3ced83eb	0.028993567
100	0x3dd47978	0.10374731
101	0xbd3b5730	-0.045737445
102	0x3e24dbea	0.16099516
103	0xbd96b516	-0.07358758
104	0x3d2f125a	0.04274211
105	0x3d4655f6	0.048421822
106	0x3e2aefb5	0.16693003
107	0x3af32bcf	0.0018552485
108	0xbc80c3f5	-0.01571844
109	0xbdd0df50	-0.101988435
110	0xbd808390	-0.062750936
111	0x3cbb609b	0.022873214
112	0x3c900cdd	0.017584259
113	0x3dbd5bb1	0.092460044
114	0x3da44c45	0.0802236
115	0xbe050397	-0.1298965
116	0x3dbdc841	0.09266711
117	0x3c3f8d44	0.011691395
118	0x3e0b462e	0.1360099
119	0x3bb2f652	0.0054614926
120	0xbd998659	-0.07496328
121	0x3d7b0851	0.061287228
122	0x3d5274a3	0.051380765
123	0x3c55bd7e	0.013045667
124	0xbd9f7948	-0.077868044
125	0x3ba8c85a	0.005150837
126	0xbcbd60b8	-0.023117408
127	0x3ca11a51	0.019665869
128	0x3e4d8733	0.20071106
129	0xbe10ce12	-0.1414111
130	0x3e1ff2f4	0.15620023
131	0xbd03ed5f	-0.032208797
132	0x3d91d983	0.07121565
133	0xbd63ac31	-0.055584136
134	0x3cf1cf23	0.029517716
135	0x3d7baf37	0.061446395
136	0x3e29ef65	0.16595228
137	0x3e560ed5	0.20904095
138	0xbd78ba0f	-0.060724314
139	0xbe9a964e	-0.30192798
140	0xbde91d22	-0.1138251
141	0x3cc75a31	0.024334999
142	0x3c6410e9	0.013920047
143	0xbd798b23	-0.060923707
144	0x3e1a6150	0.15076184
145	0x3d64346c	0.055714056
146	0xbd4c9816	-0.049949728
147	0x3e37b060	0.17938375
148	0xbd4305d8	-0.047612995
149	0x3ddeacf5	0.10872833
150	0xbe61999f	-0.22031258
151	0xbe5e690e	-0.21719763
152	0xbd8fda57	-0.07024067
153	0xbe1b0f55	-0.15142567
154	0x3d4d1641	0.05007005
155	0x3d21a627	0.039465096
156	0xbd06537a	-0.032794453
157	0xbe87ea61	-0.26546004
158	0x3e168575	0.14699347
159	0xbdd85975	-0.105639376
160	0x3de8e51c	0.11371824
161	0x3e5573d0	0.2084496
162	0xbdccae3f	-0.09994172
163	0xbde2d877	-0.11076444
164	0xbd88b13e	-0.06674431
165	0x3d9084dc	0.07056591
166	0xbdca4a79	-0.09877486
167	0x3d605004	0.05476381
168	0xbe77ffd4	-0.24218684
169	0xbdbd62f8	-0.092473924
170	0xbe4000a9	-0.18750252
171	0xbca7ed10	-0.020498782
172	0x3df63248	0.12021309
173	0xbc978932	-0.018498037
174	0x3df0427a	0.117314294
175	0x3cb966d2	0.022632036
176	0xbcef38d2	-0.029201899
177	0xbe2ca21e	-0.16858718
178	0xbda27531	-0.07932509
179	0xbe2f90f2	-0.17145136
180	0xbd50c120	-0.05096543
181	0xbe28322d	-0.1642539
182	0xbd9687af	-0.07350098
183	0xbde6458c	-0.11243734
184	0x3dbf1dea	0.093318775
185	0x3d47f837	0.0488207
186	0xbe06be67	-0.1315857
187	0x3dbc56e0	0.091962576
188	0x3c365984	0.011129741
189	0x3e3a73aa	0.18208185
190	0xbb828833	-0.0039835214
191	0x3d88758a	0.06663044
192	0xbe0a885e	-0.13528582
193	0xbd82db09	-0.06389434
194	0x3da8a257	0.08234089
195	0x3e84288c	0.25812185
196	0xbcb9c405	-0.022676477
197	0xbe11293c	-0.14175886
198	0xbd57f285	-0.05272152
199	0x3dd8ebe0	0.105918646
200	0xbdfeb95c	-0.12437698
201	0xb9ff83b7	-0.00048735525
202	0x3d558c0f	0.052135523
203	0xbde85db4	-0.113459975
204	0x3de217fc	0.11039731
205	0x3d8bb509	0.06821639
206	0x3d3c5be8	0.045986086
207	0xbddcb83b	-0.10777327
208	0xbdae1827	-0.085007004
209	0x3d8257e2	0.063644186
210	0x3da4dfde	0.08050512
211	0x3cfa23e8	0.0305347
212	0x3d7bd88b	0.06148581
213	0x3df560ee	0.119813785
214	0x3dd4fbbe	0.103995785
215	0xbb6576d2	-0.003501345
216	0x3da54cf4	0.08071318
217	0xbb08289a	-0.0020776154
218	0x3d35bb01	0.044367794
219	0x3e2b0e3c	0.16704649
220	0xbdb043b0	-0.0860666
221	0x3d36b022	0.044601567
222	0x3c9572cb	0.018243214
223	0xbd83cc8d	-0.06435499
224	0x3d617a16	0.05504807
225	0xbdcfb44d	-0.101418115
226	0xbd1da702	-0.03848935
227	0xbd16b411	-0.03679282
228	0x3d0ef5fb	0.034902554
229	0x3df1773b	0.117903195
230	0x3de81549	0.11332185
231	0xbe2d22e0	-0.16907835
232	0xbdd95ab1	-0.10613001
233	0x3e9a7255	0.30165353
234	0xbd1abc4d	-0.037777234
235	0x3cbe67f7	0.023242934
236	0x3d54312c	0.051804706
237	0xbe072fb2	-0.13201788
238	0xbc8571ee	-0.016289677
239	0x3c2396f1	0.009984718
240	0xbe06fa7e	-0.13181493
241	0x3d33827e	0.04382562
242	0x3d72d69b	0.059286695
243	0x3d819eaa	0.06329091
244	0x3eb3caec	0.35115755
245	0x3dbaf65b	0.0912902
246	0xbdf909b0	-0.12160051
247	0x3d8bee53	0.06832566
248	0xbce85be1	-0.028364124
249	0xbdc049d7	-0.09389084
250	0x3dac1467	0.08402329
251	0xbc71258a	-0.014718423
252	0xbc28002d	-0.010253948
253	0x3c8a1e1e	0.016860064
254	0x3c07610d	0.008262885
255	0x3d2b962a	0.041891254

2.bias f4 [64]
0	0xbc45acc6	-0.012065118
1	0x3c31aa1a	0.010843778
2	0xbd3c7ef7	-0.04601952
3	0x3c079731	0.008275793
4	0xbbfc49e0	-0.0076992363
5	0xbb445f6a	-0.0029964098
6	0xbc857987	-0.0162933
7	0x3b809d3f	0.003924995
8	0x3c1bc867	0.009508229
9	0xbcdeb9f3	-0.027188277
10	0x39c94a15	0.00038392903
11	0xbbaea23c	-0.0053293984
12	0xbc5aa89c	-0.013345864
13	0xbb130d9e	-0.0022438536
14	0xbb9bf2de	-0.0047591766
15	0x3ccfbfba	0.025359977
16	0xbb25e44a	-0.0025313073
17	0xbb511626	-0.003190407
18	0xbbcde6c2	-0.006283612
19	0xbc354431	-0.011063621
20	0x3c704b60	0.014666408
21	0xbc60d4ab	-0.013722579
22	0x3bafdf1c	0.005367173
23	0x3b58455e	0.003300033
24	0xbbee70e6	-0.007276642
25	0xbbe97ef8	-0.0071257316
26	0xbcde1802	-0.027111057
27	0xbc5d9525	-0.013524328
28	0xbbf5d944	-0.0075027067
29	0x3c112f6a	0.008861402
30	0xbc069168	-0.0082133785
31	0x3a5f8762	0.00085269485
32	0xbc50bd3a	-0.012740428
33	0x3c21011f	0.009826927
34	0xbb955edf	-0.0045584287
35	0xbb068c8f	-0.0020530557
36	0xbc81587c	-0.015789263
37	0xbe83e551	-0.25760892
38	0x3c99df96	0.018783372
39	0x3c6f2e6f	0.014598473
40	0xbbe2e5b6	-0.0069243563
41	0xbc846f9b	-0.016166499
42	0x3b15e96d	0.0022874728
43	0xba4c1a74	-0.0007785924
44	0xbc00ffd0	-0.00787349
45	0xbacf26f1	-0.0015804452
46	0xbaac526e	-0.0013147125
47	0x3b8f8c0b	0.004380708
48	0x3bd9f4c5	0.0066514933
49	0x3c8b68f9	0.017017828
50	0xbcf18b46	-0.029485356
51	0xbd477198	-0.048692316
52	0x3b7723d5	0.0037710567
53	0xbbec2189	-0.007206146
54	0xbb755526	-0.0037434786
55	0x3c102140	0.00879699
56	0xbb8c2b27	-0.004277605
57	0x3b5e9278	0.0033961814
58	0x3cf9be69	0.030486302
59	0x3c6e087e	0.014528392
60	0x3abf6cc4	0.0014604558
61	0x3d83638d	0.06415472
62	0xbc5499d2	-0.012976127
63	0xba7fcf74	-0.0009758391
