MountainCarContinuous_PPO/dir_save_test/we0_critic_linear_final.pth (torch_old, 761 bytes, 1 tensors)

weight f4 [1, 64]
00000000: 4233 40c0 af24 f13f 2fd9 f5bf c977 2740
00000010: 93fe 3140 cbea 2740 9086 f0bf a20a 36c0
00000020: 6fd0 27c0 d367 c3bf 927c 933f 7344 0240
00000030: 726c 3040 f9aa 3540 a291 2740 3d1b 17c0
00000040: adfe 3140 82e6 3ec0 ca83 11c0 e3c9 d83f
00000050: fe69 1fc0 2518 f63f 209d c63f bdee 2840
00000060: 0d8d 6e3f d729 2c40 539d b83f cb9c 0e40
00000070: 4f26 43c0 b6f9 b23f 14cc f53f 6cfe e23f
00000080: dc53 26c0 8828 1b40 e438 c93f f51c 0cc0
00000090: 8123 3c40 57de 29c0 efbf 0e40 91ea 633f
000000a0: f0d3 31c0 3565 50bf 0069 45c0 1ea5 40c0
000000b0: 93ac 23c0 37f8 3240 c346 c0bf 92e6 db3f
000000c0: 10f9 4440 23c2 2d40 0739 5640 40a2 4b40
000000d0: 2c7a fa3f 124f 2840 e206 2ac0 86ac d7bf
000000e0: ecee 3d40 f44e 2a40 ef35 2840 a8f1 31c0
000000f0: 8360 29c0 6f43 f63f 2a6e 1840 b840 48c0
-3.0031285 1.883932 -1.9206904 2.616686 2.781163 2.6237056 -1.8791065 -2.844399
-2.6220968 -1.526606 1.1522391 2.0354278 2.756619 2.8385603 2.6182637 -2.3610375
2.7811692 -2.982819 -2.2736688 1.6936611 -2.4908442 1.9226118 1.5516701 2.6395714
0.93183976 2.6900537 1.4423012 2.22832 -3.0492132 1.3982456 1.9202905 1.7733893
-2.5988684 2.4243488 1.5720487 -2.1892674 2.939667 -2.6541955 2.2304647 0.89029795
-2.7785606 -0.8140443 -3.0845337 -3.010078 -2.557408 2.7963998 -1.5021595 1.717974
3.0777016 2.7149742 3.3472307 3.181778 1.9568534 2.629826 -2.65667 -1.6849525
2.9677076 2.661069 2.6282918 -2.7803745 -2.6465156 1.9239329 2.3817239 -3.12895
