Walker2DBulletEnv-v0_TD3/dir_Walker2D_002/chpnt_ts2500_actor.pth (torch_old, 526252 bytes, 6 tensors)

l1.weight f4 [400, 22]
-0.24274676 0.16186479 -0.5284825 1.111462 -0.17771731 -4.913743 -0.05652739 1.8479439
0.8789849 -1.0696791 -0.63427216 -0.072383165 -0.59062546 -0.3331747 -3.6437476 0.107415326
-0.38885733 2.4591682 -0.1131169 0.102234215 -1.1267304 0.08844474 -0.16300395 0.1527243
-1.4652746 0.3128113 -0.1067024 0.2340751 -0.013581082 2.2239163 -4.1022196 1.0664369
0.5295054 0.2396185 -0.92741835 0.846967 -0.5816538 -0.021272456 -1.5551682 -2.096178
-1.6330159 -0.7672366 -0.215692 -1.258478 0.029631497 -0.13151336 -1.0428461 -0.24908239
0.020902097 0.66393477 0.1280928 -0.16331455 -1.961616 0.06823344 -0.95589894 -0.5914943
-0.42391035 1.0425555 -1.2593169 0.06257244 -0.7529126 1.1748686 -0.9778878 -0.32593265
-0.18990435 -0.93693876 3.4665744 -0.100942716 -1.285552 -2.8478274 0.09437233 4.9315205
0.07235956 -3.1147301 1.0141132 2.1568744 -1.5220475 1.239776 0.31781217 0.4535189
1.5993959 -2.6252058 1.0043805 -0.5084164 -0.14851616 -0.16495977 -0.9011902 -0.10610321
0.2459556 -0.0866057 -0.32851514 0.33834863 0.14287543 1.1722802 0.04244417 2.1636937
-0.5094428 1.0543133 -2.3904114 0.7491072 -1.1765894 -0.3067829 -3.4593747 0.056583866
2.5536666 0.2078396 -1.470861 -1.7408394 -0.0072529884 0.58049923 -0.76503474 -0.20693193
0.10712091 -1.3770881 0.04277146 1.3015189 -0.11002764 0.43121555 -2.8092515 0.58755267
0.233102 -0.2091798 1.0525819 0.5425838 0.8181224 0.23662534 -3.100839 1.6102936
-3.957755 -2.3348517 0.591996 0.0041409708 0.15764873 0.19951427 0.34581533 1.1361899
-0.1505732 -0.827059 -0.077638984 1.9549845 -0.6364599 0.050049614 0.7973599 0.9944029
-1.1024889 0.04949027 0.03666924 1.2093054 0.9002365 1.2952652 -1.1296327 -0.7479932
0.28974122 1.2499629 -1.1030933 0.07299128 -0.33068278 0.6890901 -0.10063971 -1.6386229
-0.20672399 -0.19292513 -1.2806222 -0.026351148 -2.881457 -1.3534515 0.17677996 -0.2576822
-2.029441 -0.12382435 0.0220021 1.1296148 0.32724842 1.3971834 -1.1287786 -1.5490544
1.1792364 0.093257934 -0.83235645 -3.0797 0.12633204 1.1255888 -0.14911336 1.8691684
-1.7448214 -0.34221667 -1.5215386 2.4825654 0.43208927 -0.60271573 -0.30940974 0.04554768
-1.2402575 -1.3015155 -0.05852027 0.014088102 -0.99573356 -1.1800028 0.332538 -0.08276321
-0.9456748 -0.65324265 -0.04590656 -0.11518339 0.005104065 -0.48983324 -3.8253314 -0.8460712
0.5441705 1.6182903 -2.105826 -1.4690982 -0.10228873 -0.42889822 0.73701096 1.290156
0.378037 0.00865357 0.41954017 -1.7682438 0.7878598 -0.002766505 -1.4584898 -1.6951169
-0.025209546 0.39335942 -0.11632855 0.13894539 -0.62784 0.2268678 -0.59074515 1.5655943
-0.258489 -1.3090767 -2.248861 0.30521357 -1.6987879 0.22691928 -0.47871703 0.19659269
-0.75306576 -0.63566077 2.0190628 -0.18835093 -0.997774 -0.99557793 -0.0929027 2.8173404
0.0009613186 -0.84868234 -1.1009021 -1.6454775 -1.1138715 -0.949228 -0.55922633 -0.17947318
00000000: 9b92 78be e2bf 253e a14a 07bf 6344 8e3f
00000010: 87fb 35be 623d 9dc0 4489 67bd 6d89 ec3f
00000020: 2805 613f 3feb 88bf a95f 22bf a03d 94bd
00000030: 3b33 17bf e095 aabe 2933 69c0 91fc db3d
00000040: 4f18 c7be 0363 1d40 d5a9 e7bd 2c60 d13d
00000050: b438 90bf 8422 b53d 82ea 26be c263 1c3e
00000060: 1e8e bbbf cd28 a03e ca86 dabd 62b1 6f3e
00000070: 3083 5ebc a554 0e40 6245 83c0 0181 883f
00000080: aa8d 073f 8d5e 753e 4a6b 6dbf d4d2 583f
00000090: 43e7 14bf 9343 aebc c00f c7bf c827 06c0
000000a0: aa06 d1bf 9e69 44bf 5dde 5cbe cf15 a1bf
000000b0: c1bd f23c 70ab 06be fb7b 85bf 740f 7fbe
000000c0: e03a ab3c a1f7 293f c22a 033e ee3b 27be
000000d0: 3c16 fbbf f9bd 8b3d cbb5 74bf 2c6c 17bf
000000e0: c70a d9be 7572 853f 4c31 a1bf fb25 803d
000000f0: e1be 40bf 1862 963f db56 7abf a5e0 a6be
00000100: 4976 42be 38db 6fbf 5bdc 5d40 0ebb cebd
00000110: f88c a4bf ce42 36c0 4846 c13d 04cf 9d40
00000120: 4031 943d bd57 47c0 76ce 813f 3b0a 0a40
00000130: 74d2 c2bf fbb0 9e3f 47b8 a23e a133 e83e
00000140: 01b9 cc3f 5f03 28c0 8a8f 803f 9427 02bf
00000150: 9f14 18be 37eb 28be 67b4 66bf a44c d9bd
00000160: c9db 7b3e 545e b1bd 2333 a8be 083c ad3e
00000170: f04d 123e 470d 963f f0d9 2d3d f579 0a40
00000180: d86a 02bf bdf3 863f 80fc 18c0 7dc5 3f3f
00000190: 7b9a 96bf a612 9dbe 6566 5dc0 7cc4 673d
000001a0: 466f 2340 e7d3 543e 2c45 bcbf d3d3 debf
000001b0: 7aaa edbb 999b 143f 51d9 43bf f7e5 53be
000001c0: 3562 db3d 6c44 b0bf 2031 2f3d 2c98 a63f
000001d0: 2c56 e1bd 49c8 dc3e c7ca 33c0 da69 163f
000001e0: 4ab2 6e3e 3b33 56be 01bb 863f c6e6 0a3f
000001f0: 7870 513f ea4d 723e 2574 46c0 1a1e ce3f
00000200: dc4b 7dc0 366e 15c0 0d8d 173f fbb0 873b
00000210: ab6e 213e 784d 4c3e b50e b13e ac6e 913f
00000220: dc2f 1abe 23ba 53bf 3001 9fbd ef3c fa3f
00000230: 09ef 22bf d300 4d3d c71f 4c3f 3091 7e3f
00000240: 5b1e 8dbf 4fb6 4a3d 7c32 163d 85ca 9a3f
00000250: e675 663f 40cb a53f ce97 90bf 7b7c 3fbf
00000260: f658 943e c9fe 9f3f 2932 8dbf 747c 953d
00000270: 414f a9be 3568 303f 311c cebd 65be d1bf
00000280: 74af 53be 2a8e 45be 6eeb a3bf 5dde d7bc
00000290: cb69 38c0 e63d adbf ce05 353e ecee 83be
000002a0: 5de2 01c0 9f97 fdbd bf3d b43c 3897 903f
000002b0: 1b8d a73e e8d6 b23f d17b 90bf 6a47 c6bf
000002c0: 38f1 963f 04fe be3d 5015 55bf ce19 45c0
000002d0: 305d 013e 4b13 903f 2cb1 18be e940 ef3f
000002e0: 4f56 dfbf 0637 afbe c7c1 c2bf 5ae2 1e40
000002f0: ce3a dd3e 944b 1abf f46a 9ebe 3490 3a3d
00000300: c2c0 9ebf 0f98 a6bf f3b2 6fbd c8d1 663c
00000310: 65e8 7ebf 550a 97bf 6c42 aa3e c27f a9bd
00000320: be17 72bf e93a 27bf 8408 3cbd 45e5 ebbd
00000330: 0040 a73b 6ccb fabe 3bd2 74c0 1f98 58bf
00000340: c24e 0b3f 2324 cf3f dac5 06c0 690b bcbf
00000350: c17c d1bd 8c98 dbbe c0ac 3c3f d523 a53f
00000360: 118e c13e b4c7 0d3c f8cd d63e d055 e2bf
00000370: 2eb1 493f 404e 35bb cbaf babf 97f9 d8bf
00000380: 4084 cebc 6866 c93e aa3d eebd b347 0e3e
00000390: 1fba 20bf 0850 683e 133b 17bf 6565 c83f
000003a0: ac58 84be d38f a7bf 57ed 0fc0 f444 9c3e
000003b0: e271 d9bf 875d 683e 661a f5be 984f 493e
000003c0: ebc8 40bf aaba 22bf 5338 0140 11df 40be
000003d0: 1e6e 7fbf 32de 7ebf c543 bebd 4e4f 3440
000003e0: 0001 7c3a 3f43 59bf 5cea 8cbf 029f d2bf
000003f0: 5793 8ebf 9b00 73bf 7529 0fbf d1c7 37be

l1.bias f4 [400]
-0.7967758 -1.1802616 -0.97772944 -1.2712128 -0.4114449 -0.038015857 0.18555328 -0.45456123
-0.5937775 -0.771187 -1.3944992 -1.0517107 -1.7465694 -0.4938685 0.4686552 -1.0621603
-0.19495986 -0.68933827 -0.53880835 -0.38895017 -0.07519057 -0.28756762 -0.73366284 -1.19085
-0.3632838 -0.6098397 -0.7672457 -0.22727437 -0.4292693 -0.92897177 -0.68700516 -1.315674
-0.16871303 -1.5362679 -0.30668554 -0.77107567 -1.7388005 0.19997142 -1.3368078 -1.3038583
0.6649954 -1.5949917 -1.3818512 -0.7191401 -1.0676268 -0.5299515 -0.6777951 -1.7985733
-0.19972016 -1.2474788 -0.047599293 -0.6048769 -1.2085985 -1.9650615 -0.8184657 -1.2103509
-1.6039246 -1.542721 -0.6761959 -0.9931604 -0.67782044 -0.23235226 0.3983234 -0.72765404
-0.34703475 -1.8753517 -0.84102327 -1.134931 -1.653861 -0.86046404 -0.7922973 -0.6224864
-1.5579349 -1.2651268 -1.0600725 -0.8376305 -1.2642404 -0.023519957 -0.68626755 -0.21160546
-0.632391 -0.77812445 -0.1503051 -0.5379716 -1.3116806 -0.8117332 -1.0515205 2.488226
-0.6290325 0.5709865 -0.6166694 -0.88738465 -0.6810173 -1.0416785 -0.13170621 -0.54467
-0.49621424 0.3671664 -1.0590112 -0.08889775 -0.0941005 -0.78648597 -0.80495757 0.95886135
-1.07968 -1.5068545 -0.5322014 0.039134305 -0.089491986 -0.56917554 1.4644823 1.042795
-0.9528231 -1.565547 -0.122938685 -0.92582643 -0.5852176 -0.13414912 0.05774148 -1.7209771
-0.7051746 -1.277341 -0.22236083 -1.2221351 0.43738294 -0.7847179 -0.95028585 -0.7279253
-1.2786071 -0.23867469 2.5106602 2.3555958 -0.86254144 -0.276743 -0.19595201 -0.81889886
-0.5412877 -0.80169094 -0.46178398 -0.9731519 -0.80817896 -0.18955466 -0.68743706 -1.2662804
-0.4637733 -1.0499383 -0.80078906 -0.38812608 -0.81151253 -0.9046966 1.2676135 -0.85838455
-1.0350894 -1.456533 -1.1355009 -1.1375712 -0.48857155 -0.49957824 -0.6302108 -0.29468557
-1.5450791 -0.6234144 -0.74011654 -0.2422768 0.6648442 -1.9466711 -1.3908411 -0.78980887
-1.2192001 -1.1811655 -0.1613417 -0.8606192 -1.2036698 -1.8599751 -1.4119393 -1.1712064
-0.62889826 0.16019353 0.0724891 -1.0191455 -0.17859146 -0.16877194 -0.8289759 -0.823045
0.19997168 2.8149467 -0.6774488 -0.39047256 -0.7197926 1.5449759 -0.059484415 -1.2005256
-1.3391172 -0.9880659 -2.1451097 -1.7123443 1.1595067 -0.13603534 -0.1427982 -0.94358027
-0.2936006 -1.2807701 -0.36569202 -1.4193794 -0.083084084 -1.1164153 -0.8331294 -1.2431017
-0.99583566 -0.27694902 -0.21213536 -0.3089131 -0.58736086 0.27767682 0.3422394 -0.7006165
0.15638165 -0.15533006 -0.15561499 -1.3314714 0.57263064 -0.44176072 -0.76739126 -1.0693016
0.14316866 -0.22993614 -0.89748836 -1.1252848 -1.1039412 -0.54203176 -1.3297368 -1.0325364
-0.85269946 -0.3173565 -0.19610363 -1.351232 0.16869755 -0.30300272 -0.548808 -1.2556864
-0.97497195 -0.3316832 -0.7696874 -0.24032457 0.16276765 -1.3374432 -0.24023362 -0.82663256
0.20236175 -0.7576711 -1.3205793 -0.46868813 0.47267738 0.50291735 -1.8782408 -0.50895524
00000000: 80f9 4bbf d012 97bf 7a4c 7abf 1ab7 a2bf
00000010: e8a8 d2be 84b6 1bbd ae01 3e3e 40bc e8be
00000020: cd01 18bf 836c 45bf f37e b2bf 759e 86bf
00000030: 968f dfbf 55dc fcbe 93f3 ef3e def4 87bf
00000040: 8fa3 47be 7978 30bf 58ef 09bf 7a24 c7be
00000050: 83fd 99bd 103c 93be 54d1 3bbf c66d 98bf
00000060: 5600 babe 741e 1cbf 376a 44bf 9dba 68be
00000070: 30c9 dbbe 18d1 6dbf 92df 2fbf 0168 a8bf
00000080: 1cc3 2cbe 6da4 c4bf e305 9dbe 3765 45bf
00000090: 0491 debf 4fc5 4c3e 851c abbf d4e4 a6bf
000000a0: 233d 2a3f b028 ccbf 80e0 b0bf 9119 38bf
000000b0: ffa7 88bf e7aa 07bf fb83 2dbf a637 e6bf
000000c0: 7183 4cbe 63ad 9fbf 7af7 42bd 36d9 1abf
000000d0: 5bb3 9abf 2387 fbbf f886 51bf c7ec 9abf
000000e0: 674d cdbf e277 c5bf 2d1b 2dbf c33f 7ebf
000000f0: a485 2dbf c0ed 6dbe 0bf1 cb3e 8947 3abf
00000100: 8aae b1be 860b f0bf 4d4d 57bf 6b45 91bf
00000110: b8b1 d3bf 5f47 5cbf ffd3 4abf 455b 1fbf
00000120: 696a c7bf adef a1bf 75b0 87bf f46e 56bf
00000130: a1d2 a1bf edac c0bc 3baf 2fbf 1aaf 58be
00000140: 60e4 21bf 2a33 47bf 95e9 19be 82b8 09bf
00000150: 26e5 a7bf bfcd 4fbf 3998 86bf 183f 1f40
00000160: 4608 21bf 2c2c 123f 0cde 1dbf a42b 63bf
00000170: 2657 2ebf b955 85bf fedd 06be 7e6f 0bbf
00000180: cb0f febe 3cfd bb3e ae8d 87bf 0610 b6bd
00000190: c3b7 c0bd 2557 49bf b311 4ebf f077 753f
000001a0: f432 8abf 9ce0 c0bf 5a3e 08bf 4b4b 203d
000001b0: 9347 b7bd 7db5 11bf 2874 bb3f 4e7a 853f
000001c0: 37ec 73bf d863 c8bf 47c7 fbbd f602 6dbf
000001d0: d2d0 15bf 635e 09be 5582 6c3d fa48 dcbf
000001e0: 5386 34bf e97f a3bf 8fb2 63be ec6e 9cbf
000001f0: a8f0 df3e 46e3 48bf ef45 73bf 5059 3abf
00000200: 66a9 a3bf 2367 74be a8ae 2040 15c2 1640
00000210: 84cf 5cbf 42b1 8dbe a5a7 48be 5ba3 51bf
00000220: d591 0abf 9e3b 4dbf f36e ecbe 7c20 79bf
00000230: d1e4 4ebf 9e1a 42be e0fb 2fbf 7a15 a2bf
00000240: b273 edbe 6164 86bf 8300 4dbf 76b8 c6be
00000250: 49bf 4fbf 329a 67bf 2941 a23f 17bf 5bbf
00000260: cf7d 84bf ac6f babf 1858 91bf ef9b 91bf
00000270: 0d26 fabe b8c8 ffbe 7f55 21bf 07e1 96be
00000280: 27c5 c5bf 1698 1fbf 4778 3dbf 6917 78be
00000290: 3b33 2a3f 852c f9bf 1507 b2bf ea30 4abf
000002a0: c00e 9cbf 6e30 97bf c236 25be 8a51 5cbf
000002b0: da11 9abf aa13 eebf 6dba b4bf 17ea 95bf
000002c0: 7aff 20bf c609 243e 2a75 943d 5c73 82bf
000002d0: aee0 36be 8dd2 2cbe c437 54bf 14b3 52bf
000002e0: 60c5 4c3e 1628 3440 496d 2dbf 05ec c7be
000002f0: 5444 38bf c5c1 c53f eea5 73bd d3aa 99bf
00000300: 3168 abbf e3f1 7cbf 7a49 09c0 192e dbbf
00000310: b76a 943f d94c 0bbe b139 12be 7a8e 71bf
00000320: d152 96be 46f0 a3bf fc3b bbbe 39ae b5bf
00000330: fd27 aabd b2e6 8ebf f847 55bf f51d 9fbf
00000340: 16ef 7ebf 43cc 8dbe 033a 59be dc29 9ebe
00000350: 485d 16bf a82b 8e3e 013a af3e 9a5b 33bf
00000360: 8322 203e d80e 1fbe 8959 1fbe a86d aabf
00000370: ec97 123f 762e e2be c173 44bf e0de 88bf
00000380: ce9a 123e 6174 6bbe ccc1 65bf 5509 90bf
00000390: f24d 8dbf 98c2 0abf d134 aabf 272a 84bf
000003a0: 834a 5abf 8d7c a2be 64cf 48be 2cf5 acbf
000003b0: 0dbf 2c3e 2c23 9bbe ae7e 0cbf 55ba a0bf
000003c0: c397 79bf 61d2 a9be 3c0a 45bf a517 76be
000003d0: 90ac 263e 5731 abbf cdff 75be 319e 53bf
000003e0: eb37 4f3e bcf6 41bf be08 a9bf e4f7 efbe
000003f0: c502 f23e 31bf 003f 326a f0bf e44a 02bf

l2.weight f4 [300, 400]
-0.07135171 -0.030596126 -0.043452546 -0.027164381 0.014696281 -0.045331508 0.009586288 0.011612205
0.018311132 -0.008554138 0.030049853 -0.045223687 -0.10623563 0.018912373 0.024972867 -0.013418726
-0.042755954 0.042315226 -0.017050954 -0.013755814 -0.005662687 -0.029349761 -0.054212317 0.03420885
-0.007897004 -0.015877044 0.0412652 -0.051747583 -0.041528374 -0.0028769195 -0.03313264 -0.047795292
-0.05121975 -0.035524976 -0.02966054 -0.038647022 0.0010318533 0.002684388 -0.03033627 0.0015231855
-0.05074168 0.01124458 -0.080492675 0.00741917 -0.03388694 -0.057267044 0.047820214 -0.07830122
-0.010719831 -0.0024007494 -0.051042914 -0.03510927 -0.10831081 -0.011707269 0.037679724 -0.01758226
-0.041160885 0.0060026483 0.024302017 -0.06910967 -0.033465732 0.016995225 0.021999579 -0.03629945
0.022370148 0.048853498 -0.050154224 0.0033613243 -0.018656887 0.030987574 0.006656028 0.03599422
0.033093873 -0.04948836 0.004292195 -0.017391771 -0.053214274 0.0016354705 0.034387533 0.009557162
-0.02628444 -0.07589299 0.00050884485 -0.069225185 -0.03203685 -0.030738326 0.011906885 -0.010400385
-0.11460569 -0.066721626 0.037969653 0.033065893 -0.08082477 -0.0129337525 -0.03845664 -0.04522676
-0.021854058 -0.030945754 0.031968784 -0.0149266 0.018597726 0.06717337 0.015221674 -0.058716435
-0.07198612 -0.020084787 -0.026924891 -0.010308377 -0.030210841 0.019972716 0.0152708 -0.038090944
-0.017790081 -0.065947935 -0.019273741 -0.014784336 0.01592579 -0.027516525 -0.02203045 -0.016813232
-0.058734342 0.023587272 -0.039863512 0.004355299 -0.047903225 -0.007759658 -0.018630512 0.012515928
-0.04557761 -0.015379049 -0.031152561 -0.03306039 -0.015869426 -0.07785106 0.037982065 -0.005918394
-0.025675284 -0.052730158 -0.046179533 -0.044175517 0.017095855 -0.038744934 0.026229726 0.016686244
0.043027475 0.025058378 0.04936746 -0.033638973 0.004545831 -0.051521108 -0.052366007 0.01396167
-0.012436861 -0.058913734 0.0068788775 0.024821803 -0.027002351 0.0056847804 -0.006976504 -0.059860837
-0.056449763 -0.015563361 -0.031016143 -0.023155957 -0.025497098 -0.013157115 -0.002825033 -0.038122177
-0.03696576 -0.0065977047 -0.04384728 0.0070502628 -0.0452652 -0.0097439345 0.011316704 -0.040851258
0.025617283 -0.029201223 -0.039469525 0.025781207 -0.0010859668 -0.060871266 -0.01765235 -0.0021412247
-0.018597864 -0.054532003 -0.0063127223 -0.07703662 -0.034636203 -0.0028854483 -0.069380276 -0.023268664
0.0013364038 -0.062496867 -0.032050904 -0.055827167 -0.044516474 -0.019026218 -0.0035590145 -0.01113093
0.030589025 0.023548994 -0.028940463 -0.062349092 -0.049461562 -0.054457452 -0.026381243 -0.020949973
0.016084168 -0.025856411 -0.03970155 0.013638398 -0.03418597 -0.034697164 -0.08625072 0.027002499
-0.011423535 -0.035240173 -0.021372546 0.0020118763 0.013528214 0.03583878 0.047270488 -0.02267914
-0.011077283 0.02541584 -0.05806067 -0.016466117 -0.12433903 0.0027270755 -0.009265774 -0.005842563
-0.057300188 -0.01270638 0.035391945 0.038225073 -0.0657844 -0.057200946 0.017687727 -0.031063827
0.010068298 -0.010356682 0.009778595 -0.013177823 -0.063627966 -0.06502497 -0.056292456 -0.045256983
-0.036099568 -0.055506464 -0.03545621 -0.028247863 0.014567703 0.01933801 -0.015569127 -0.012186295
00000000: d820 92bd baa4 fabc 4cfb 31bd d687 debc
00000010: acc8 703c 88ad 39bd ce0f 1d3c 1e41 3e3c
00000020: 3a01 963c a826 0cbc 1c2b f63c 793c 39bd
00000030: 1192 d9bd 1fee 9a3c e693 cc3c 37da 5bbc
00000040: de20 2fbd bb52 2d3d 71ae 8bbc 1160 61bc
00000050: 108e b9bb e96e f0bc bc0d 5ebd 941e 0c3d
00000060: 6f62 01bc 9310 82bc b305 293d 46f5 53bd
00000070: a819 2abd b38a 3cbb 17b6 07bd ffc4 43bd
00000080: cdcb 51bd a382 11bd a9fa f2bc 574c 1ebd
00000090: 403f 873a 8fec 2f3b c583 f8bc a0a5 c73a
000000a0: 82d6 4fbd 303b 383c 58d9 a4bd 821c f33b
000000b0: 08cd 0abd d990 6abd 21df 433d 645c a0bd
000000c0: 3ba2 2fbc e455 1dbb 6012 51bd bdce 0fbd
000000d0: 0fd2 ddbd d8cf 3fbc 0e56 1a3d ac08 90bc
000000e0: 5198 28bd ddb1 c43b 0615 c73c 5f89 8dbd
000000f0: 5d13 09bd 9239 8b3c 7638 b43c bbae 14bd
00000100: 9a41 b73c 9b1a 483d 846e 4dbd aa49 5c3b
00000110: 54d6 98bc a7d9 fd3c cf1a da3b ad6e 133d
00000120: 718d 073d 4eb4 4abd 8ba5 8c3b 3079 8ebc
00000130: 36f7 59bd 495d d63a f1d9 0c3d a595 1c3c
00000140: 7752 d7bc c96d 9bbd 0064 053a efc5 8dbd
00000150: 1239 03bd f1ce fbbc 1815 433c 6066 2abc
00000160: 63b6 eabd 59a5 88bd 1186 1b3d 1a70 073d
00000170: 7587 a5bd 17e8 53bc b684 1dbd b23f 39bd
00000180: 4807 b3bc f381 fdbc b3f1 023d b38e 74bc
00000190: 425a 983c 3192 893d 5464 793c a580 70bd
000001a0: 756d 93bd da88 a4bc 9791 dcbc 78e4 28bc
000001b0: ba7c f7bc d29d a33c 6132 7a3c 4005 1cbd
000001c0: 81bc 91bc b60f 87bd f7e3 9dbc 003a 72bc
000001d0: cd76 823c 566a e1bc 3479 b4bc e7bb 89bc
000001e0: 6c93 70bd 183a c13c ec47 23bd e5b6 8e3b
000001f0: 2c36 44bd bb44 febb 049f 98bc 9b0f 4d3c
00000200: 97af 3abd 68f8 7bbc a833 ffbc 556a 07bd
00000210: 9900 82bc 6070 9fbd 1593 1b3d 16ef c1bb
00000220: f954 d2bc 94fb 57bd c026 3dbd 63f1 34bd
00000230: 9b0c 8c3c 02b3 1ebd b9df d63c 97b1 883c
00000240: 943d 303d 3a47 cd3c 8935 4a3d 05c9 09bd
00000250: 32f5 943b cc07 53bd bd7d 56bd 7dbf 643c
00000260: fac3 4bbc 874f 71bd 3568 e13b 1857 cb3c
00000270: 0934 ddbc 6547 ba3b 289b e4bb a330 75bd
00000280: de37 67bd 78fd 7ebc 9115 febc 90b1 bdbc
00000290: 4adf d0bc f190 57bc 3024 39bb 0026 1cbd
000002a0: 6969 17bd 8f31 d8bb 3599 33bd e405 e73b
000002b0: 0168 39bd 06a5 1fbc b269 393c a653 27bd
000002c0: 56db d13c 6737 efbc ccaa 21bd 1c33 d33c
000002d0: 0057 8eba 2654 79bd a99b 90bc ca53 0cbb
000002e0: 8c5a 98bc f35c 5fbd f4da cebb 60c5 9dbd
000002f0: b1de 0dbd ca19 3dbb 3f17 8ebd ed9d bebc
00000300: 452a af3a b7fc 7fbd cf47 03bd 07ab 64bd
00000310: e856 36bd dfdc 9bbc 5b3e 69bb 815e 36bc
00000320: d695 fa3c d2e9 c03c 8d14 edbc c361 7fbd
00000330: 3598 4abd c70e 5fbd 7a1d d8bc 479f abbc
00000340: f2c2 833c d3d0 d3bc 189e 22bd 9673 5f3c
00000350: 9606 0cbd 9d1e 0ebd 38a4 b0bd 5834 dd3c
00000360: c729 3bbc 0058 10bd 7a15 afbc afd9 033b
00000370: 71a5 5d3c afcb 123d b39e 413d 9bc9 b9bc
00000380: 7e7d 35bc e134 d03c 06d1 6dbd f3e3 86bc
00000390: 76a5 febd bcb8 323b 79cf 17bc f972 bfbb
000003a0: 9ab3 6abd 6c2e 50bc 25f7 103d e591 1c3d
000003b0: f9b9 86bd 8a4b 6abd dae5 903c 9179 febc
000003c0: 81f5 243c 13af 29bc 6636 203c cce7 57bc
000003d0: 614f 82bd d02b 85bd eb92 66bd 635f 39bd
000003e0: 24dd 13bd bf5a 63bd 883a 11bd 1068 e7bc
000003f0: 60ad 6e3c bf6a 9e3c a715 7fbc 07a9 47bc

l2.bias f4 [300]
-0.13768709 -0.28540978 -3.6556785 -3.0089257 -0.05664786 -1.0033705 0.77818966 -1.5814095
-0.011768043 -0.59163916 3.7433197 -0.03940673 1.3829683 -0.018224636 -0.11981037 -0.6006873
-0.7252563 -0.09667536 -0.055419046 -0.15700349 -0.102854185 -0.90228343 -0.60907197 0.00366292
-1.2138257 -1.7299147 -1.4034988 -0.9130306 -0.0962744 -0.2638202 -0.07476617 -0.11266221
-2.1577077 -0.9414867 -0.06954467 -1.8560554 1.5606116 -0.8265502 -0.052928895 -1.8842522
-1.6164235 -0.4706586 -0.85258293 -0.553122 0.32082152 -0.93078387 -0.040150374 -0.041155837
-0.2585883 0.08453909 -0.70277303 1.1821688 -0.9298931 -0.2930859 -0.0784838 -0.084781066
-0.07860155 0.9758456 -0.8270575 -0.67094076 -0.25402796 -0.47702172 -0.9880959 -0.060233943
-0.5724805 -3.5880773 -0.1348785 -0.026602045 -0.024127088 -0.07973531 -0.10028551 -0.08792177
0.13259372 -0.1561996 -1.1592704 -0.11831826 0.18669048 0.84068865 -0.9222291 -0.7762944
-0.40365967 1.2333031 -3.2123997 -0.7640019 -0.06685376 1.7957119 -0.6459905 -0.47322932
0.20622315 -0.90636605 0.5222467 0.03647067 -0.6019426 -0.5934157 -0.028541045 -2.1421847
-0.06737879 -2.0102236 0.24074626 -0.20670518 -0.050096728 0.22144224 -0.09075447 0.21057497
-0.26440766 -0.74471456 -0.11194426 -0.5118273 -0.8255174 -0.06649883 -0.060570247 -0.09089527
-0.20310554 -0.14496061 0.39129376 -0.5864219 -0.21810502 -0.78820807 -0.12957877 -0.001311866
-0.4267613 -0.63328755 -0.122664206 -0.09531897 -0.15735126 0.5265997 -0.3196201 -0.33326665
-0.572753 -0.46307433 0.21293893 -0.09030881 -0.08601139 -0.35660422 -0.836754 -0.0066872435
-0.066962376 0.019426242 -0.11152323 -0.7008837 -1.1103466 -0.45581833 0.05635898 1.879359
-0.10965465 -0.09475709 -0.14094731 -1.0519778 -0.022216428 -1.205926 -0.061482493 -0.84782547
-0.82428515 -0.10918519 -2.3291168 -0.2670627 -0.96449184 -0.10863779 -1.494234 -0.23295853
-2.0454643 -0.45989063 -0.06885899 -0.08572777 -1.2366241 -2.2352827 -0.11613618 -0.8509354
-0.18224472 -0.30572605 0.9386738 -0.3713652 0.040832598 -0.7342028 -0.34704095 -0.8132662
-0.30124214 -0.08843158 0.10914843 0.25449738 -1.3729653 -2.664073 -0.08739556 2.1430638
-0.12730436 -0.079245105 0.3406662 -1.451762 -0.6623016 -0.5359308 -0.5519827 -1.3093884
-1.0299544 -0.3949691 -0.5630268 -1.0717463 -0.06433953 -0.24357657 -0.1399162 -0.23707432
0.52418506 -0.092728555 -0.012114811 -0.25602382 0.094216205 -0.667855 -0.5980912 -0.6153982
-0.06155786 0.049725097 -0.031229516 -2.04683 -0.32959378 -0.009594431 -0.13718547 0.38497734
-0.42459726 -0.10223665 2.0559368 -0.9761395 -0.09703365 -0.26336443 -0.021288496 -0.07620638
-0.20039879 -0.5626698 4.1538258 -0.6414129 0.5836617 -0.88280195 -0.13819367 -0.08007107
-1.6768125 -0.19386499 -0.0012470863 -0.02670558 -0.061507545 -0.061319556 -1.4647268 -0.55734485
-0.055893548 -0.14298365 0.31046098 -0.5867803 -1.3029034 -1.5270681 -0.83995223 -0.020953197
-0.16928613 -1.818955 -1.4601805 -0.11638215 -0.13472188 -0.33311516 -0.20245701 -3.0288506
00000000: d8fd 0cbe 3b21 92be a3f6 69c0 3d92 40c0
00000010: 9607 68bd 726e 80bf 7037 473f a06b cabf
00000020: c0ce 40bc aa75 17bf 8d92 6f40 f468 21bd
00000030: 1b05 b13f d54b 95bc 245f f5bd a5c6 19bf
00000040: 66aa 39bf bbfd c5bd 15ff 62bd 86c5 20be
00000050: 37a5 d2bd 0cfc 66bf 24ec 1bbf 9a0d 703b
00000060: a45e 9bbf d86d ddbf d9a5 b3bf 60bc 69bf
00000070: 832b c5bd 7113 87be 011f 99bd 72bb e6bd
00000080: e217 0ac0 4605 71bf 706d 8ebd 3993 edbf
00000090: 1fc2 c73f cb98 53bf f8cb 58bd 2d2f f1bf
000000a0: f7e6 cebf 2afa f0be e042 5abf 6799 0dbf
000000b0: b842 a43e da47 6ebf b874 24bd 0693 28bd
000000c0: b065 84be d522 ad3d efe8 33bf 4f51 973f
000000d0: 790d 6ebf 5b0f 96be 1dbc a0bd b2a1 adbd
000000e0: d9f9 a0bd 04d1 793f 0aba 53bf c6c2 2bbf
000000f0: f40f 82be 313c f4be daf3 7cbf deb7 76bd
00000100: 158e 12bf 0fa3 65c0 971d 0abe 88ec d9bc
00000110: 2ca6 c5bc 444c a3bd 7d62 cdbd 5410 b4bd
00000120: a6c6 073e caf2 1fbe f962 94bf d850 f2bd
00000130: ca2b 3f3e 5f37 573f 3517 6cbf 3bbb 46bf
00000140: 7bac cebe e0dc 9d3f f597 4dc0 a195 43bf
00000150: a0ea 88bd e3d9 e53f a25f 25bf 1d4b f2be
00000160: 292c 533e 9b07 68bf f6b1 053f 4562 153d
00000170: e918 1abf 17ea 17bf e9ce e9bc 8e19 09c0
00000180: e4fd 89bd 81a7 00c0 3086 763e 86aa 53be
00000190: 3a32 4dbd c1c1 623e 7bdd b9bd f7a0 573e
000001a0: 7160 87be 9da5 3ebf 0843 e5bd 1d07 03bf
000001b0: 1c55 53bf 8a30 88bd 8218 78bd 4d27 babd
000001c0: e6fa 4fbe 8e70 14be a857 c83e bf1f 16bf
000001d0: ec56 5fbe 01c8 49bf 4cb0 04be ebf2 abba
000001e0: 7580 dabe 221f 22bf 5f37 fbbd 9836 c3bd
000001f0: b020 21be 3dcf 063f 3fa5 a3be eda1 aabe
00000200: f19f 12bf 1418 edbe aa0c 5a3e d3f3 b8bd
00000210: bd26 b0bd d494 b6be 8335 56bf aa20 dbbb
00000220: 9223 89bd c823 9f3c 4b66 e4bd 1d6d 33bf
00000230: d61f 8ebf 0561 e9be acd8 663d d68e f03f
00000240: 9e92 e0bd 0110 c2bd 7e54 10be 35a7 86bf
00000250: 3aff b5bc c85b 9abf 11d5 7bbd 170b 59bf
00000260: 5a04 53bf 7c9c dfbd 4010 15c0 71bc 88be
00000270: f0e8 76bf 7d7d debd 0f43 bfbf ae8c 6ebe
00000280: e3e8 02c0 c976 ebbe f105 8dbd 0b92 afbd
00000290: b349 9ebf df0e 0fc0 ced8 edbd e7d6 59bf
000002a0: 5c9e 3abe 2088 9cbe ed4c 703f 9423 bebe
000002b0: 1540 273d b7f4 3bbf 5aaf b1be 3732 50bf
000002c0: 693c 9abe 9e1b b5bd 3689 df3d 7b4d 823e
000002d0: 54bd afbf 2c80 2ac0 72fc b2bd f527 0940
000002e0: 135c 02be 424b a2bd cd6b ae3e 56d3 b9bf
000002f0: 998c 29bf c332 09bf bd4e 0dbf 0a9a a7bf
00000300: 8cd5 83bf 6439 cabe 8622 10bf fc2e 89bf
00000310: 72c4 83bd 236c 79be 3146 0fbe 9cc3 72be
00000320: fe30 063f 78e8 bdbd 337d 46bc 8e15 83be
00000330: 6df4 c03d 8cf8 2abf 811c 19bf bd8a 1dbf
00000340: 1824 7cbd 8bac 4b3d 0bd5 ffbc 43ff 02c0
00000350: 84c0 a8be f631 1dbc 597a 0cbe c01b c53e
00000360: d064 d9be 7361 d1bd 7894 0340 47e4 79bf
00000370: 94b9 c6bd b4d7 86be 3665 aebc 1712 9cbd
00000380: 5735 4dbe 210b 10bf 24ec 8440 a333 24bf
00000390: da6a 153f 4fff 61bf a482 0dbe 4dfc a3bd
000003a0: cba1 d6bf 8b84 46be 4675 a3ba a9c5 dabc
000003b0: 56ef 7bbd 372a 7bbd 2b7c bbbf 27ae 0ebf
000003c0: a2f0 64bd 4e6a 12be bef4 9e3e 3c37 16bf
000003d0: 8ac5 a6bf f876 c3bf 1c07 57bf 0aa6 abbc
000003e0: 5859 2dbe 84d3 e8bf 32e7 babf c459 eebd
000003f0: 88f4 09be 128e aabe e450 4fbe b0d8 41c0

l3.weight f4 [6, 300]
-0.08863081 0.8775711 -1.2234362 0.16346903 0.0021356575 -0.07809616 -0.032689165 -1.5713928
-1.528695 -0.5975128 -0.16289775 -0.008698363 -0.0024830082 -0.38464776 1.0983666 0.19940014
0.269604 0.005395244 0.08183973 0.0025771307 0.6637749 0.4131866 -0.13575591 1.7102641
0.16175807 6.158829 -1.3877788 2.7118773 -0.031802334 -0.07898718 0.025995793 -0.07898455
-1.0930351 0.0031834024 -0.046501346 -0.9736058 0.00020534315 -0.13884425 0.043792345 -0.166964
0.119722135 0.6276622 -0.7295162 0.39114946 -0.10162147 -0.9726651 0.44267473 -0.0020328807
-0.5845298 0.2845526 0.28326085 0.27904087 0.6646787 0.8024352 0.049156204 0.025676243
-0.040334586 -0.12433496 -0.7019082 0.7090022 0.45580295 0.083086684 -0.032863867 0.34211135
-0.141011 1.1330829 -0.18168351 -0.06871727 -0.03216602 -0.028356174 0.02098252 0.059961166
0.62846524 -0.04979668 0.58695585 -0.017249547 0.32844803 0.085619465 -1.7824353 0.5671219
0.57203656 -0.032823645 -1.2902313 0.8074779 0.021222591 0.8212228 1.2471218 -0.054766644
0.45299214 0.5281536 0.384587 0.14194655 0.5795143 0.69227135 0.011887888 -0.81286013
-0.028804723 0.45454803 1.1497691 -0.01733009 -0.4649648 0.99135965 -0.025043264 0.42855203
0.57934564 1.81884 0.021280829 -0.42155468 -0.24293621 0.004063258 0.010054404 0.032509748
0.023909284 -0.010075598 0.92903477 -0.49038145 -0.28943482 0.0035064155 0.077635676 -0.037710067
0.43331382 0.36717418 -0.0026421088 0.006645399 0.11060754 0.109716885 0.27136314 0.3081052
-0.10806988 0.4418326 0.015902026 0.00461238 0.023621285 1.7391745 1.0845948 0.47824174
0.025347268 0.19226667 -0.071571805 0.91201556 0.4092344 0.44495365 0.6961864 0.013841878
0.021189352 -0.0032718072 -0.04745593 0.6395797 0.012100908 -0.0783206 -0.017821137 0.41720483
-0.17892128 -0.006442943 0.16345337 -0.003688161 1.6499561 -0.07356782 -0.522766 -0.041840024
0.44416708 -0.9391029 0.006315439 -0.015965452 0.91333586 0.41561437 -0.036703352 -0.44509074
-0.086217634 1.5088687 0.06120949 -0.28810948 -0.015651083 3.548619 1.0212549 1.7703438
1.2076346 0.041395567 -0.2795088 0.96697545 0.7445932 -0.44397196 -0.021470318 -0.18716663
-2.5972755 -0.039245505 -0.72824293 -1.6556311 -0.026899727 0.011980095 0.05566647 -0.5088896
0.19177856 1.7769142 -0.32066548 1.7850356 -0.0237559 0.0052949167 0.026681812 0.10279217
0.4632774 0.04615585 -0.010980335 0.686838 -0.518962 -1.4666258 0.4776857 0.17306216
0.027041918 0.48789284 0.039129876 -0.096025206 0.18267868 -0.06303701 -0.038285892 0.26599413
0.9973169 -0.029285448 0.17733085 -0.033009764 0.011278401 -0.5749284 -0.06530524 0.027028872
-0.14145195 -0.21751288 -0.14275156 -0.58690333 0.586576 0.40163428 -0.033955436 -0.018296672
0.16015208 0.75359786 0.08448179 0.004434158 -0.031815555 0.075261265 0.011713962 0.11685033
0.041629005 -0.03674482 0.021025157 2.837997 -1.087646 -0.51434165 0.05704209 0.0036240355
1.3999764 -0.5787686 -1.0204399 -0.010465312 0.02163209 -0.053819653 0.5109056 -0.5074571
00000000: 1284 b5bd 80a8 603f 8f99 9cbf 6d64 273e
00000010: 63f6 0b3b e1f0 9fbd 13e5 05bd 6623 c9bf
00000020: 47ac c3bf 99f6 18bf abce 26be 9483 0ebc
00000030: f7b9 22bb 8df0 c4be 4797 8c3f 8d2f 4c3e
00000040: 8909 8a3e 96ca b03b 979b a73d 14e5 283b
00000050: 27ed 293f 328d d33e 9903 0bbe efe9 da3f
00000060: e8a3 253e 2115 c540 bca2 b1bf 668f 2d40
00000070: 2a43 02bd 08c4 a1bd 21f5 d43c a7c2 a1bd
00000080: 93e8 8bbf a1a0 503b 3278 3ebd 3b3e 79bf
00000090: 6251 5739 302d 0ebe 9a5f 333d 9cf8 2abe
000000a0: e130 f53d 78ae 203f 93c1 3abf be44 c83e
000000b0: eb1e d0bd 9400 79bf 43a6 e23e 143a 05bb
000000c0: bfa3 15bf e1b0 913e 9107 913e 72de 8e3e
000000d0: 6228 2a3f 656c 4d3f 0458 493d fc56 d23c
000000e0: e135 25bd 54a3 febd 41b0 33bf 2b81 353f
000000f0: 015f e93e 5a29 aa3d 439c 06bd 3829 af3e
00000100: 3065 10be dc08 913f 3e0b 3abe a4bb 8cbd
00000110: 84c0 03bd 354b e8bc 89e3 ab3c d799 753d
00000120: 19e3 203f 9bf7 4bbd bd42 163f ec4e 8dbc
00000130: 572a a83e 4259 af3d d726 e4bf e72e 113f
00000140: fd70 123f 1672 06bd 4d26 a5bf dfb6 4e3f
00000150: 00db ad3c a83b 523f b0a1 9f3f fd52 60bd
00000160: 96ee e73e 1335 073f 96e8 c43e 705a 113e
00000170: 0d5b 143f b238 313f 6bc5 423c 9a17 50bf
00000180: e2f7 ebbc 85ba e83e a22b 933f d5f7 8dbc
00000190: de0f eebe bfc9 7d3f 8827 cdbc 2c6b db3e
000001a0: ff4f 143f c0cf e83f 2255 ae3c 04d6 d7be
000001b0: 45c4 78be 1425 853b 3abb 243c f128 053d
000001c0: 67dd c33c 1f14 25bc 39d5 6d3f 4713 fbbe
000001d0: cd30 94be e4cb 653b 74ff 9e3d df75 1abd
000001e0: 4fdb dd3e 41fe bb3e 3b27 2dbb a6c1 d93b
000001f0: 3586 e23d 3fb3 e03d 1cf0 8a3e f7bf 9d3e
00000200: be53 ddbd e237 e23e f744 823c 7323 973b
00000210: 6d81 c13c 459d de3f 01d4 8a3f 1adc f43e
00000220: 13a5 cf3c 8ee1 443e 3d94 92bd da79 693f
00000230: 2c87 d13e f7d0 e33e 4639 323f 0bc9 623c
00000240: 4b95 ad3c d16b 56bb 2661 42bd 7fbb 233f
00000250: e342 463c 8d66 a0bd a2fd 91bc df9b d53e
00000260: 2437 37be 531f d3bb 5260 273e 13b5 71bb
00000270: c331 d33f baaa 96bd fed3 05bf 7260 2bbd
00000280: de69 e33e 0c69 70bf bef1 ce3b fbc9 82bc
00000290: 61d0 693f 68cb d43e 4156 16bd efe2 e3be
000002a0: df92 b0bd 9c22 c13f cdb6 7a3d 1683 93be
000002b0: b336 80bc 931c 6340 7bb8 823f a09a e23f
000002c0: c593 9a3f 668e 293d c71b 8fbe b48b 773f
000002d0: a99d 3e3f 4b50 e3be 85e2 afbc 9ca8 3fbe
000002e0: c339 26c0 e5bf 20bd 216e 3abf b8eb d3bf
000002f0: d15c dcbc 2948 443c 8602 643d 9746 02bf
00000300: 9961 443e ed71 e33f 442e a4be 0c7c e43f
00000310: bc9b c2bc fb80 ad3b d193 da3c b484 d23d
00000320: b232 ed3e eb0d 3d3d dde6 33bc 9dd4 2f3f
00000330: b2da 04bf 65ba bbbf 3893 f43e 3537 313e
00000340: 0387 dd3c 17cd f93e a646 203d dda8 c4bd
00000350: 1f10 3b3e 8c19 81bd abd1 1cbd 6230 883e
00000360: 2950 7f3f 09e8 efbc 3896 353e 3f35 07bd
00000370: 0bc9 383c 822e 13bf c1be 85bd a76b dd3c
00000380: c8d8 10be b2bb 5ebe 772d 12be 4c3f 16bf
00000390: d829 163f 02a3 cd3e db14 0bbd e7e2 95bc
000003a0: e8fe 233e caeb 403f ca04 ad3d 6a4c 913b
000003b0: 0751 02bd 9422 9a3d ebeb 3f3c 3a4f ef3d
000003c0: 2d83 2a3d bd81 16bd f33c ac3c bea1 3540
000003d0: fc37 8bbf e5ab 03bf f7a4 693d 3a81 6d3b
000003e0: 6d32 b33f 2e2a 14bf c69d 82bf b376 2bbc
000003f0: c835 b13c ff71 5cbd b6ca 023f b5e8 01bf

l3.bias f4 [6]
1.3871005 0.6114793 -0.488246 -0.14053586 0.81225437 0.6164573
00000000: 828c b13f e889 1c3f 61fb f9be a2e8 0fbe
00000010: e7ef 4f3f 25d0 1d3f
