Ant-PyBulletEnv-Soft-Actor-Critic/dir_ant_lr0001-sc2500/weights_critic_final_2658.44.pth (torch_old, 606014 bytes, 10 tensors)

linear1.weight f4 [256, 36]
0.45920956 -0.15002708 0.36979008 0.14627881 -0.027035803 0.13449012 -0.12314712 -0.24290809
-0.053867918 -0.19371863 0.0259545 0.054287497 0.028381014 0.0319498 -0.17428336 0.041482095
0.07288498 0.058110125 -0.008780087 -0.09874596 0.013827093 0.023290439 0.06787115 -0.110675775
0.11359004 -0.040597804 -0.08524651 -0.10855848 0.00593579 0.0016564506 0.01285683 -0.019946741
0.0071154586 -0.0059823203 0.019012254 -0.018668843 0.6198441 -0.045882523 0.28944886 0.04201527
0.801383 -0.24753845 0.14947696 -1.4370307 0.05301353 -0.26599494 -0.1349361 0.6871717
0.40311873 -0.2488613 -0.3506952 -0.5540228 0.37848386 0.022688078 0.17244487 -0.2817369
0.10892033 -0.065057166 0.33540323 0.9303493 -0.07283382 0.12790531 -0.023318153 0.038612384
-0.029350879 0.032239333 -0.113754265 0.02234104 -0.12833746 -0.049795136 -0.10716393 -0.021558058
-0.16385482 0.5331192 -0.30516204 0.40318045 -1.0991595 -1.8230668 -0.34001267 -0.02450741
0.013859115 -0.010653809 0.094668426 -0.06343951 -0.33480248 0.23081689 -0.13537122 0.2551381
0.20671846 -1.0680889 -0.5804979 0.9616584 -0.04931745 0.10297205 0.036815364 -0.12203841
-1.8147775 -0.051427953 0.13972737 -1.3012779 0.005362903 0.052836154 -0.077743694 0.07907322
-0.17142048 0.031059442 -0.008474863 -0.08964017 0.4561295 -0.028976223 0.031086477 -0.6332801
-0.10372283 0.59612477 0.35570744 0.122022055 0.031476185 0.33096594 -0.14424865 0.4197224
-0.30119753 -0.1582544 0.15621036 0.60159427 0.18887426 -0.69989294 -0.09113559 -0.3063571
-0.27857834 1.235686 0.13585342 -0.0036964256 -0.06967757 0.25486448 -0.26523948 0.39820564
-0.41917825 0.13739261 0.05522624 -0.2756788 -0.10482417 -0.14055055 -0.08205366 -0.21960405
0.007782821 0.40964133 0.063115485 1.0910392 -0.43669346 0.30920747 0.24309999 0.7520735
0.20990923 -0.11163997 0.013717578 0.20525509 0.34650323 -0.17632534 -0.23829974 0.033777434
-0.20134601 0.30045715 -0.028615506 0.19067717 0.11046564 0.034822833 0.081094496 -0.1872561
0.021850184 0.09284617 -0.005656929 -0.03936507 0.041272696 0.018746259 -0.0056625274 -0.02666751
0.037414983 0.006495813 -0.029743826 -0.0054869656 0.14350744 -0.7111477 0.20412314 -0.10913538
-0.1331993 -0.5932451 0.40869507 0.14021343 -0.45322013 0.36866212 0.21114568 -0.0620547
0.19556375 -1.2433764 -0.5601506 -0.5419254 0.07306152 -1.1112449 -0.4331171 -0.29784155
-0.1505935 0.3403161 -0.38109434 0.5825384 -0.19602458 -0.08242717 0.035977643 -0.020632276
0.17240435 0.07629442 -0.13263734 0.060271636 0.029964937 -0.10283808 -0.0400502 -0.19839853
1.3304904 -0.11000143 -0.018345784 0.6595721 0.81271803 0.48409396 -0.65410715 0.85085374
-0.014735096 -0.011384229 -0.042647347 0.2049926 0.1675047 0.23790169 0.18752821 -0.024692427
0.14677195 0.14511746 0.3313368 -0.20201147 -0.2027712 -0.36830437 -0.2217408 0.004388106
-0.83419263 -0.015273316 -0.010951924 -0.057353616 0.028530708 0.031319793 -0.024519581 -0.04758352
0.028467933 -0.03879371 -0.058031842 0.0036990256 0.26659256 0.076892756 0.03538468 0.5704423
00000000: 841d eb3e b3a0 19be 2055 bd3e 1dca 153e
00000010: 307a ddbc c7b7 093e 8f34 fcbd e6bc 78be
00000020: 9ba4 5cbd 2d5e 46be 889e d43c 915c 5e3d
00000030: 4d7f e83c cbdd 023d 5677 32be 21e9 293d
00000040: b844 953d e204 6e3d 5bda 0fbc 523b cabd
00000050: 088b 623c 97cb be3c 0800 8b3d fba9 e2bd
00000060: e5a1 e83d e249 26bd b995 aebd e953 debd
00000070: 0481 c23b 421d d93a 74a5 523c 5967 a3bc
00000080: cb28 e93b 5707 c4bb 96bf 9b3c 67ef 98bc
00000090: 1aae 1e3f 50ef 3bbd a432 943e 3418 2c3d
000000a0: 7027 4d3f b87a 7dbe 7d10 193e 9ff0 b7bf
000000b0: b724 593d 7d30 88be b02c 0abe 7cea 2f3f
000000c0: 9465 ce3e 7fd5 7ebe 528e b3be 70d4 0dbf
000000d0: a3c8 c13e 59dc b93c 6395 303e d23f 90be
000000e0: 9f11 df3d b13c 85bd f9b9 ab3e 5f2b 6e3f
000000f0: e629 95bd 9cf9 023e b605 bfbc 0528 1e3d
00000100: 4171 f0bc 640d 043d fff7 e8bd 8f04 b73c
00000110: e56a 03be fcf5 4bbd c378 dbbd 869a b0bc
00000120: 8fc9 27be 807a 083f 333e 9cbe ab6d ce3e
00000130: 42b1 8cbf 415a e9bf 2416 aebe c4c3 c8bc
00000140: 5711 633c 508d 2ebc 85e1 c13d 93ec 81bd
00000150: 3b6b abbe 435b 6c3e c19e 0abe 76a1 823e
00000160: 01ae 533e 23b7 88bf 839b 14bf 3f2f 763f
00000170: 1801 4abd 03e3 d23d b5cb 163d 46ef f9bd
00000180: a14a e8bf 1ea6 52bd b114 0f3e 4690 a6bf
00000190: 4abb af3b b96a 583d 1638 9fbd 24f1 a13d
000001a0: da88 2fbe 5f70 fe3c 27da 0abc 4495 b7bd
000001b0: ce89 e93e 8b5f edbc 11a9 fe3c a51e 22bf
000001c0: a36c d4bd a29b 183f 491f b63e b3e6 f93d
000001d0: 2ced 003d 5e74 a93e ebb5 13be dbe5 d63e
000001e0: 9036 9abe 710d 22be 9cf5 1f3e 1502 1a3f
000001f0: 4168 413e 2f2c 33bf 4ca5 babd d6da 9cbe
00000200: d2a1 8ebe f52a 9e3f 291d 0b3e bb3f 72bb
00000210: 1db3 8ebd 997d 823e 78cd 87be 9ce1 cb3e
00000220: 889e d6be a6b0 0c3e e934 623d c625 8dbe
00000230: 0eae d6bd 7cec 0fbe c00b a8bd e2df 60be
00000240: 0907 ff3b 82bc d13e b142 813d 2ca7 8b3f
00000250: 4996 dfbe 7150 9e3e 34ef 783e e487 403f
00000260: 72f2 563e 7fa3 e4bd b1bf 603c 642e 523e
00000270: df68 b13e a18e 34be d904 74be 355a 0a3d
00000280: a62d 4ebe 85d5 993e 116b eabc e040 433e
00000290: cf3b e23d 63a2 0e3d df14 a63d 10c0 3fbe
000002a0: 28ff b23c 2226 be3d c35d b9bb 453d 21bd
000002b0: 8f0d 293d c191 993c b98c b9bb d275 dabc
000002c0: 7440 193d d4da d43b 53a9 f3bc 01cc b3bb
000002d0: 9df3 123e c70d 36bf a805 513e 5f82 dfbd
000002e0: 6665 08be e9de 17bf 7b40 d13e 1c94 0f3e
000002f0: 780c e8be 48c1 bc3e 9336 583e 122d 7ebd
00000300: dd41 483e f526 9fbf 0866 0fbf 9fbb 0abf
00000310: 47a1 953d 463d 8ebf 86c1 ddbe b07e 98be
00000320: 2f35 1abe e93d ae3e cc1e c3be 3d21 153f
00000330: abba 48be 93cf a8bd 4b5d 133d 0505 a9bc
00000340: c48a 303e 4040 9c3d 15d2 07be 64df 763d
00000350: 0779 f53c c59c d2bd ae0b 24bd fc28 4bbe
00000360: 824d aa3f 6e48 e1bd e649 96bc b8d9 283f
00000370: 4a0e 503f 2adb f73e 9173 27bf 8dd1 593f
00000380: 796b 71bc eb84 3abc fcae 2ebd 95e9 513e
00000390: 5a86 2b3e 809c 733e 6507 403e c647 cabc
000003a0: 634b 163e ac99 143e faa4 a93e 18dc 4ebe
000003b0: 41a3 4fbe 6492 bcbe 0510 63be 1aca 8f3b
000003c0: a68d 55bf ee3c 7abc b36f 33bc a0eb 6abd
000003d0: 3bb9 e93c 2f49 003d 4add c8bc f0e6 42bd
000003e0: 9535 e93c 27e6 1ebd ccb2 6dbd 5a6b 723b
000003f0: d27e 883e f379 9d3d 87ef 103d 8208 123f

linear1.bias f4 [256]
0.45565736 0.14513583 -0.18448898 0.12200889 0.31614536 0.1648723 0.062308848 -0.049436897
-0.25022388 0.59888643 0.25478324 0.09343627 0.020872809 0.011457928 0.077101186 0.2199482
-0.084843814 -0.14959468 0.31870583 0.12767185 0.26486272 0.1390882 -0.07711448 0.1670378
0.20250684 -0.079878055 0.1258539 0.13120005 0.23792925 0.07062231 0.20131665 0.49387002
0.13827837 0.118201524 0.42664775 -0.118214376 0.4238082 0.0064263027 -0.11578112 0.19788094
0.100626476 0.3187873 0.20719478 0.19971262 0.09677795 0.28126234 0.21220692 0.21818747
0.22920845 0.4682447 0.4212615 -0.0052263355 0.1453796 0.32557353 -0.08318462 0.066062815
0.16275384 0.35544655 -0.09312409 0.42070293 0.08256866 0.2481548 0.5528187 0.26387647
0.13891585 0.43080518 0.14933366 0.24907148 0.092100844 0.41648284 0.06131829 0.5692729
0.26848018 0.28023034 -0.25382227 -0.305688 0.19503938 0.4433523 0.096654505 0.17781429
0.0043744873 0.18872105 0.466578 -0.1507482 0.1710354 0.10375799 0.012251425 0.13988191
0.09220309 0.29146352 0.06468235 0.37279287 0.3112147 0.39375645 0.3178852 0.17184804
0.16870701 0.379338 0.2377496 -0.1977006 0.47717097 0.26272362 -0.048338372 0.15603268
0.45801887 0.4020705 0.40105203 -0.048615854 0.14201501 0.008258379 0.12389803 0.31041068
0.17335811 0.5645587 0.4293613 0.3621267 0.1658496 -0.06933607 0.38922426 0.41214427
0.073171005 0.13200538 -0.09852918 -0.072921894 0.024464361 0.10591922 0.19493666 0.46850613
0.16837162 0.21848743 0.259385 0.33318758 0.14938283 0.106645145 0.038902238 0.27757356
0.32760754 0.044087324 0.11667178 0.16887887 0.36036935 0.12414793 0.3407251 0.19321808
0.31594503 0.26081988 0.23361799 0.09249123 0.284794 0.076224424 0.053286057 0.16278246
0.19958073 0.1299207 0.46154487 0.15557095 -0.047381327 0.5138099 0.19934493 0.074815184
0.05868597 0.16673513 0.38875574 0.31436843 0.27360415 0.09602825 0.24523918 0.18812831
0.49435866 0.39530843 -0.08866824 -0.25595608 -0.12717506 0.064297095 0.42272106 -0.29122478
0.06092068 0.28232348 0.45694944 0.27059925 0.09910236 0.18803953 0.39046788 0.23603506
-0.048189394 0.01773539 0.20140609 0.30474 0.06275527 0.37769803 -0.39639613 0.6326154
-0.10476948 -0.14797275 0.4424446 0.39110774 0.17866895 -0.045913454 -0.11259338 0.23615184
0.4244125 0.35046133 0.13180149 0.12304333 0.061952423 0.060909186 0.36649537 0.1576128
0.57238454 0.32002357 0.056521762 0.044218384 -0.016093826 0.16622642 0.46258453 0.19033684
0.10365584 -0.07242011 0.30077654 0.5294394 0.5706835 0.12261064 0.27576777 0.2568145
0.10555179 0.16294642 0.3114742 0.1444355 0.5096754 0.3054935 -0.27888903 0.26076746
0.36452916 0.09170892 0.29927552 -0.28226793 0.13016152 0.17797619 0.30289254 0.050408754
0.0006328716 0.46306378 0.35077846 0.10630864 0.31749627 0.15358533 0.03709479 0.3216025
0.356348 0.34941527 0.28986284 0.1218053 0.15781239 0.28224334 0.020385386 -0.016040225
00000000: ec4b e93e 7d9e 143e aeea 3cbe ccdf f93d
00000010: cedd a13e 49d4 283e 9037 7f3d 587e 4abd
00000020: 581d 80be 9f50 193f f372 823e 845b bf3d
00000030: 74fd aa3c 09ba 3b3c 3ae7 9d3d 1a3a 613e
00000040: 98c2 adbd 592f 19be 692d a33e 69bc 023e
00000050: 169c 873e 236d 0e3e 32ee 9dbd f50b 2b3e
00000060: f45d 4f3e 1b97 a3bd d8df 003e 4e59 063e
00000070: baa3 733e 6ea2 903d f425 4e3e 88dc fc3e
00000080: d898 0d3e a413 f23d 9371 da3e 611a f2bd
00000090: 63fd d83e bc93 d23b a71e edbd 4da1 4a3e
000000a0: 4115 ce3d 1738 a33e de2a 543e 7781 4c3e
000000b0: 8533 c63d 9e01 903e c54c 593e 896c 5f3e
000000c0: 9fb5 6a3e c5bd ef3e 96af d73e ae41 abbb
000000d0: 64de 143e 93b1 a63e b35c aabd f14b 873d
000000e0: f1a8 263e 17fd b53e d8b7 bebd 6066 d73e
000000f0: c219 a93d 4b1c 7e3e 8785 0d3f d11a 873e
00000100: f53f 0e3e 7f92 dc3e ecea 183e 980c 7f3e
00000110: 5e9f bc3d 3d3d d53e e328 7b3d debb 113f
00000120: 3c76 893e 5a7a 8f3e fef4 81be 2383 9cbe
00000130: 67b8 473e 13ff e23e ccf2 c53d f314 363e
00000140: dc57 8f3b 1740 413e 50e3 ee3e bc5d 1abe
00000150: e723 2f3e 127f d43d 33ba 483c 343d 0f3e
00000160: f9d4 bc3d b53a 953e 2e78 843d b5de be3e
00000170: 8857 9f3e 729a c93e d9c1 a23e eff8 2f3e
00000180: 88c1 2c3e 9738 c23e a274 733e 0772 4abe
00000190: c14f f43e b683 863e 75fe 45bd 08c7 1f3e
000001a0: 7381 ea3e 2fdc cd3e b156 cd3e 6b21 47bd
000001b0: 626c 113e 274e 073c 40be fd3d 26ee 9e3e
000001c0: ca84 313e eb86 103f 3fd5 db3e ac68 b93e
000001d0: 7ad4 293e 1200 8ebd 6748 c73e 9304 d33e
000001e0: aeda 953d 6b2c 073e abc9 c9bd 1358 95bd
000001f0: 7c69 c83c 2dec d83d 7a9d 473e 09e0 ef3e
00000200: 9c69 2c3e 2bbb 5f3e 1cce 843e 9097 aa3e
00000210: d0f7 183e c568 da3d f457 1f3d 1f1e 8e3e
00000220: 2dbc a73e e994 343d 9df1 ee3d 95ee 2c3e
00000230: 5582 b83e 4541 fe3d 8573 ae3e f6da 453e
00000240: 8cc3 a13e 2f8a 853e 8e39 6f3e 0b6c bd3d
00000250: 85d0 913e 8d1b 9c3d 7b42 5a3d 72b0 263e
00000260: e45e 4c3e ef09 053e 9c4f ec3e fe4d 1f3e
00000270: ec12 42bd 0c89 033f 1421 4c3e b438 993d
00000280: b360 703d 9dbc 2a3e fe0a c73e e6f4 a03e
00000290: d815 8c3e 76aa c43d fb1f 7b3e b5a4 403e
000002a0: 941c fd3e de65 ca3e b297 b5bd ad0c 83be
000002b0: 2e3a 02be 32ae 833d e56e d83e 6a1b 95be
000002c0: f787 793d b48c 903e 47f5 e93e fc8b 8a3e
000002d0: 2ef6 ca3d 6f8d 403e 68eb c73e 2db3 713e
000002e0: 3e62 45bd cf49 913c 663d 4e3e e206 9c3e
000002f0: d685 803d a361 c13e 6ff4 cabe 15f3 213f
00000300: 6291 d6bd 2b86 17be 1988 e23e 463f c83e
00000310: fef4 363e bf0f 3cbd 5c97 e6bd cad1 713e
00000320: 984c d93e ab6f b33e f8f6 063e 24fe fb3d
00000330: d3c1 7d3d e97b 793d 48a5 bb3e 4065 213e
00000340: cb87 123f 21da a33e 5d83 673d 561e 353d
00000350: 33d7 83bc 4237 2a3e e1d7 ec3e a9e7 423e
00000360: 8349 d43d ff50 94bd 62ff 993e 5789 073f
00000370: 5018 123f 4a1b fb3d 6f31 8d3e 317d 833e
00000380: 892b d83d 6ddb 263e 8c79 9f3e e6e6 133e
00000390: 167a 023f a569 9c3e 8bca 8ebe 5083 853e
000003a0: 91a3 ba3e e3d1 bb3d a43a 993e 6c85 90be
000003b0: 1049 053e 643f 363e bb14 9b3e 6979 4e3d
000003c0: 4be7 253a b216 ed3e 3c99 b33e 58b8 d93d
000003d0: df8e a23e 7945 1d3e b5f0 173d 15a9 a43e
000003e0: 3f73 b63e 8fe6 b23e e768 943e 0f75 f93d
000003f0: 9299 213e 3382 903e 41ff a63c ca66 83bc

linear2.weight f4 [256, 256]
-0.26451355 -0.8411907 0.68195796 -0.005384448 0.11334815 -0.73165965 -0.39670423 -1.6483967
0.32677397 -0.8871721 -0.0798462 -0.45257354 0.10791806 -1.3078058 -0.08679616 0.22522983
-0.05838288 -0.17986247 -0.34949416 -0.23497154 -0.28842238 -0.80023503 0.1823678 -1.282535
0.09046701 -0.20614187 -2.4705577 -0.37301257 0.13945393 -0.27486444 -0.27215573 -0.05335771
-0.11101628 -1.0363666 0.09231786 -0.5402614 -0.15846023 -1.4738975 -1.065618 -0.70304096
-0.118925944 -0.015750635 -0.24254188 -0.05067193 -0.8943195 -0.07852222 -0.22901104 -0.65963167
-0.14288148 0.02926835 0.1506519 0.007949236 -0.33704087 0.033667002 0.22808579 0.13014807
0.12206231 -0.24875265 -0.24045184 0.083688304 -1.0735089 -0.081862845 -0.40515432 -0.44748995
-1.1618357 -0.08781616 0.05600103 0.11240218 -0.23476563 -0.1887244 -1.428033 0.015745992
0.048716385 -0.27449128 0.29080093 -1.0042559 -0.5076441 -0.07275473 -0.07549987 -0.84368664
-0.1346743 -0.24001147 0.09842417 -0.871598 -0.041742407 -2.2477646 -0.14360727 -0.6664211
-1.1369892 -0.83529603 -2.1605132 0.010997766 -0.506735 0.01589247 -0.24039274 -0.016816258
-0.35425156 0.0269547 -1.1475326 0.3845227 0.13617723 0.07295146 -0.091174275 -0.29549322
0.076042406 -0.24631304 -0.37862897 -0.71008337 -0.55492866 -1.3226058 -0.55371094 0.07731415
-0.4045749 0.16596797 -0.04093049 -0.39318562 -0.43541512 -0.41664737 -0.33726653 -0.20163484
-0.7036158 -0.10913145 -0.32826826 -0.24418165 -0.11713303 -0.41288418 -0.283712 -0.19914025
-1.3953547 -0.19661874 -0.51339144 -0.2721417 0.16443245 -0.12030016 -1.7672188 0.052953802
0.0480101 -0.636893 -0.36795777 0.12296202 -0.046960827 -0.11122098 0.12514953 -0.25314692
0.18082388 -0.49103537 0.11416052 -1.7872472 -0.14923188 -0.15727647 -0.48623484 -0.32833982
-1.2442156 -0.943983 -0.046256825 0.17562748 -2.4699063 -0.12468321 -1.3851908 -0.36148873
-0.1464636 -0.067760855 -0.033940904 -0.2941077 0.18415835 -0.41592085 -0.062135037 -0.825989
-0.00878928 -0.48105568 -0.23328538 -0.0056263073 0.36462507 -0.7067444 -0.31566802 -0.38863134
-0.10377871 -0.074180596 -0.009843519 -0.3087242 -1.0985775 -1.4156165 0.115494 -0.2105867
0.0639325 -0.26308432 -0.1889181 -0.016325265 -0.6277223 -0.41796094 -0.66880876 -0.29591414
-1.0088891 -0.03199981 -0.36631736 -0.33150503 -1.4714191 0.08145288 0.41514146 -0.31984094
-0.057043556 0.049346987 -0.24404833 -0.40163594 -0.35492387 -0.9056865 -0.43158558 -0.106464714
-0.043051407 -0.18631928 0.07174566 -1.6112131 -0.006484843 -0.7112883 0.028562102 -0.61250865
-0.20845611 0.103517525 -0.17536208 0.08237971 -0.07555641 -0.4130656 -0.15028664 0.17114297
-0.76206404 -0.040946987 -0.4210345 -0.6737547 0.08815888 -0.31708544 0.25538114 -0.40764254
0.033666655 -0.06361505 -0.015320867 0.38539138 -0.7083106 -0.09109619 0.009509944 -1.1176121
-1.4389154 -0.08015627 -0.4773755 -0.089431584 -0.2079408 -0.34950492 -0.51745605 -1.1255294
-0.044907823 -0.24763243 -0.09884773 0.19604018 0.023284432 -0.16344017 -1.9225519 0.050790466
00000000: 526e 87be 4658 57bf cc94 2e3f 0670 b0bb
00000010: 1323 e83d 0c4e 3bbf d11c cbbe aafe d2bf
00000020: eb4e a73e b61d 63bf 6886 a3bd b8b7 e7be
00000030: 2504 dd3d 2e66 a7bf 2fc2 b1bd a6a2 663e
00000040: e322 6fbd de2d 38be e6f0 b2be 619c 70be
00000050: 19ac 93be 34dc 4cbf a0be 3a3e 1b2a a4bf
00000060: c546 b93d db16 53be 9e1d 1ec0 81fb bebe
00000070: 03cd 0e3e 08bb 8cbe ff57 8bbe 9d8d 5abd
00000080: 815c e3bd a9a7 84bf 2511 bd3d 924e 0abf
00000090: 6643 22be aca8 bcbf 2c66 88bf 7efa 33bf
000000a0: 728f f3bd 7a07 81bc e65c 78be 5f8d 4fbd
000000b0: 1ff2 64bf 42d0 a0bd df81 6abe 9fdd 28bf
000000c0: 864f 12be 2ec4 ef3c 7e44 1a3e 833d 023c
000000d0: 9f90 acbe 69e6 093d 528f 693e 8945 053e
000000e0: cefb f93d 04b9 7ebe 0239 76be c664 ab3d
000000f0: bd68 89bf b5a7 a7bd 6370 cfbe 671d e5be
00000100: 08b7 94bf f5d8 b3bd 5661 653d 1d33 e63d
00000110: 6766 70be f840 41be c9c9 b6bf bdfd 803c
00000120: d58a 473d 1f8a 8cbe dce3 943e 758b 80bf
00000130: f7f4 01bf 6f00 95bd ad9f 9abd d9fb 57bf
00000140: 0fe8 09be 91c5 75be 9c92 c93d 0c21 5fbf
00000150: 16fa 2abd 60db 0fc0 c90d 13be 939a 2abf
00000160: dd88 91bf f6d5 55bf d945 0ac0 f92f 343c
00000170: 63b9 01bf ed30 823c 8429 76be 40c2 89bc
00000180: 7660 b5be 1ad0 dc3c 59e2 92bf 29e0 c43e
00000190: 0b72 0b3e 9367 953d 94b9 babd e34a 97be
000001a0: 1fbc 9b3d 7c39 7cbe a8db c1be 06c8 35bf
000001b0: ce0f 0ebf 264b a9bf 00c0 0dbf e256 9e3d
000001c0: 7124 cfbe 82f3 293e bba6 27bd a04f c9be
000001d0: bbee debe ce52 d5be 33ae acbe 5d79 4ebe
000001e0: 2a20 34bf 4f80 dfbd c712 a8be c10a 7abe
000001f0: 71e3 efbd 8e65 d3be b342 91be 6ceb 4bbe
00000200: fc9a b2bf 6c56 49be 9f6d 03bf 2856 8bbe
00000210: fb60 283e ee5f f6bd 3a34 e2bf 16e6 583d
00000220: 3da6 443d 6b0b 23bf f664 bcbe 83d3 fb3d
00000230: ff59 40bd d3c7 e3bd 3327 003e 799c 81be
00000240: e529 393e fd68 fbbe fecc e93d 84c4 e4bf
00000250: 3ed0 18be 150d 21be c6f3 f8be 281c a8be
00000260: 7542 9fbf dfa8 71bf cc77 3dbd b1d7 333e
00000270: f212 1ec0 e959 ffbd ef4d b1bf 0d15 b9be
00000280: 8efa 15be 34c6 8abd 9e05 0bbd 4995 96be
00000290: 0294 3c3e 94f3 d4be 4f81 7ebd 0474 53bf
000002a0: ea00 10bc ee4c f6be 5de2 6ebe e35c b8bb
000002b0: 23b0 ba3e 33ed 34bf 3d9f a1be b0fa c6be
000002c0: ef89 d4bd ffeb 97bd b646 21bc 1911 9ebe
000002d0: 309e 8cbf ec32 b5bf 1e88 ec3d 0aa4 57be
000002e0: 0bef 823d fdb2 86be bf73 41be 90bc 85bc
000002f0: 69b2 20bf fafe d5be 0d37 2bbf 0f82 97be
00000300: 4723 81bf 3c12 03bd f38d bbbe 07bb a9be
00000310: 7657 bcbf c4d0 a63d 6c8d d43e 31c2 a3be
00000320: 81a6 69bd 1120 4a3d cee7 79be 3aa3 cdbe
00000330: 95b8 b5be 12db 67bf c9f8 dcbe 2c0a dabd
00000340: ac56 30bd 7bca 3ebe 63ef 923d 3b3c cebf
00000350: ce7e d4bb fd16 36bf 12fb e93c 5ecd 1cbf
00000360: 8575 55be ff00 d43d 1e92 33be b2b6 a83d
00000370: 52bd 9abd 567d d3be bee4 19be 1a40 2f3e
00000380: a116 43bf 07b8 27bd d591 d7be 307b 2cbf
00000390: a58c b43d 0659 a2be 51c1 823e 86b6 d0be
000003a0: 0ce6 093d 9b48 82bd 6004 7bbc 0552 c53e
000003b0: d853 35bf a490 babd 99cf 1b3c ea0d 8fbf
000003c0: 612e b8bf f828 a4bd 906a f4be e827 b7bd
000003d0: 6fee 54be 4ff2 b2be 0078 04bf 5911 90bf
000003e0: 44f1 37bd 5b93 7dbe ae70 cabd c2be 483e
000003f0: febe be3c dc5c 27be 2e16 f6bf aa09 503d

linear2.bias f4 [256]
-0.059858482 -0.31293544 -0.10927949 0.4089652 0.42033824 0.015365896 -0.060142048 0.41662163
-0.0146993 0.444433 0.41390705 0.4212584 0.43932047 0.46768025 -0.07822391 -0.070393845
0.42396653 0.41453883 -0.29659697 -0.02787122 0.42296863 -0.1349991 0.39918143 0.4216588
0.41648167 -0.29039776 -0.34707233 -0.05220408 0.4315246 0.43090212 -0.077911474 -0.17569163
0.0119075095 0.40810543 -0.04873166 -0.026447782 0.41759437 0.41762766 -0.21836782 0.41469932
0.4145829 -0.020650199 -0.021960994 -0.02123002 0.41263047 0.41792315 -0.22161129 0.41728354
-0.31771275 0.42136917 -0.25413248 -0.0026423377 -0.034721743 -0.006926443 0.46574903 0.012283494
-0.19435243 0.4278185 0.4095432 0.41375193 0.39646026 0.41033283 0.4173038 -0.38649338
-0.211625 -0.06325099 0.4078137 0.44250128 0.408329 -0.04935355 0.41282558 0.41768688
0.44435138 -0.050284844 0.41943762 -0.08303784 0.43810076 0.42122713 -0.051130414 -0.1976084
0.4257213 -0.027145358 -0.040198285 -0.20623016 -0.17381053 -0.030605553 0.41322556 -0.28617328
0.40377596 0.3994488 0.4559217 0.00089698925 0.21053788 0.40505242 0.4104892 -0.24389985
0.43579605 -0.29190683 -0.32250154 -0.3098567 -0.15359145 -0.040304225 0.3565252 0.43908995
0.41804478 0.45642647 -0.33050513 0.404374 0.41438252 0.23383753 0.41099972 0.4290279
0.4203704 -0.008556569 -0.25139788 -0.10223867 0.44531414 -0.26166824 0.41479057 -0.07644667
-0.009932728 -0.29965904 0.024284443 0.42439878 0.45601866 0.4038618 -0.2415839 -0.0597726
0.42147362 0.08037477 0.4180599 -0.30730024 0.39520556 0.409773 0.41937184 0.41789103
-0.012433246 -0.05017611 0.4062153 -0.30270547 -0.0021940495 0.41967046 -0.3089918 -0.17742893
-0.2989328 -0.2292104 -0.23236933 0.4141873 -0.14784686 0.40597042 0.0068790345 0.40466458
0.3735845 -0.1371876 -0.28983694 0.42034516 0.43737587 -0.030955581 -0.013974141 -0.041781012
0.41730735 0.43430394 0.42039064 -0.05786524 0.45140395 0.379453 0.41876388 0.41872397
0.43682057 -0.08941829 -0.018685553 -0.014292078 0.42920482 0.40982845 0.41162077 -0.028770126
0.40768772 0.42548075 0.39426124 0.12212294 -0.05924306 0.3911895 0.416745 -0.035858203
0.33719632 -0.022514898 0.06392627 0.036618613 0.39487675 -0.05919698 -0.0017729398 -0.04441312
-0.2918278 0.42396286 -0.03919771 -0.0121102715 0.4230103 0.04799148 0.41547215 0.42010757
0.41831103 -0.01801127 -0.119148314 0.43246597 0.5205616 -0.05876341 -0.3153529 0.418597
0.4265923 -0.31255355 -0.025822895 0.41595015 0.41657785 0.4329663 0.4686338 -0.057296015
0.4284167 0.48218706 0.38667834 -0.058726326 -0.29012954 -0.051601592 -0.088986576 -0.20299228
0.4569743 -0.077599876 0.4420311 0.42515796 -0.016120244 -0.19808136 0.41212535 -0.056928508
-0.10282105 -0.06547261 -0.068898946 -0.0070089777 -0.026535785 0.15637869 -0.045184005 -0.07230102
-0.04092922 0.4202323 0.41420314 -0.0016765719 -0.057826206 0.41697785 -0.10269057 0.42984396
-0.09488189 0.417834 0.4096205 -0.033995274 -0.0078271115 0.4350457 -0.054672755 0.432554
00000000: 2b2e 75bd 1339 a0be edcd dfbd e363 d13e
00000010: 9336 d73e 3dc1 7b3c 8257 76bd 6e4f d53e
00000020: 55d5 70bc b98c e33e a0eb d33e 2eaf d73e
00000030: 9dee e03e c973 ef3e db33 a0bd a62a 90bd
00000040: 2412 d93e 6f3e d43e 8fdb 97be 2f52 e4bc
00000050: 588f d83e 343d 0abe 8261 cc3e aae3 d73e
00000060: 163d d53e 04af 94be 77b3 b1be f2d3 55bd
00000070: cbf0 dc3e 349f dc3e 0d90 9fbd 82e8 33be
00000080: b717 433c 32f3 d03e d99a 47bd 05a9 d8bc
00000090: eece d53e 4bd3 d53e d09b 5fbe 7853 d43e
000000a0: 3644 d43e 9b2a a9bc 8be7 b3bc 94ea adbc
000000b0: 4d44 d33e 06fa d53e 12ee 62be 30a6 d53e
000000c0: 3fab a2be b3bd d73e a71d 82be 122b 2dbb
000000d0: 6338 0ebd 37f7 e2bb a876 ee3e b540 493c
000000e0: 5304 47be 070b db3e a5af d13e 4bd7 d33e
000000f0: d7fc ca3e 2517 d23e d8a8 d53e 76e2 c5be
00000100: 39b4 58be bc89 81bd f5cc d03e 878f e23e
00000110: 8010 d13e f326 4abd e05d d33e 0edb d53e
00000120: 0682 e33e 7bf7 4dbd 87c0 d63e be0f aabd
00000130: be4e e03e 15ab d73e 206e 51bd db59 4abe
00000140: 24f8 d93e f15f debc f5a6 24bd 002e 53be
00000150: 63fb 31be 7fb8 fabc 4d92 d33e 4e85 92be
00000160: b9bb ce3e 8e84 cc3e 926e e93e ee23 6b3a
00000170: 3e97 573e 0863 cf3e a42b d23e e2c0 79be
00000180: a920 df3e d074 95be ec1e a5be 8aa5 9ebe
00000190: 1447 1dbe 0b16 25bd 798a b63e 66d0 e03e
000001a0: f709 d63e bbb0 e93e f837 a9be 1c0a cf3e
000001b0: f229 d43e 1b73 6f3e 8e6e d23e 8ba9 db3e
000001c0: ca3a d73e da30 0cbc 39b7 80be 8262 d1bd
000001d0: 3700 e43e 61f9 85be 6e5f d43e 1290 9cbd
000001e0: e1bc 22bc e96c 99be 2bf0 c63c cc4a d93e
000001f0: 477b e93e f9c6 ce3e c561 77be 1dd4 74bd
00000200: 64cb d73e 879b a43d f20b d63e 7556 9dbe
00000210: 6258 ca3e c4cd d13e e8b7 d63e d0f5 d53e
00000220: d0b4 4bbc 7785 4dbd 74fb cf3e 36fc 9abe
00000230: 0bca 0fbb 0cdf d63e 2c34 9ebe eeaf 35be
00000240: b80d 99be 22b6 6abe 3af2 6dbe 5c10 d43e
00000250: 2b65 17be 5bdb cf3e 8669 e13b 3230 cf3e
00000260: 7846 bf3e e87a 0cbe 8265 94be 7b37 d73e
00000270: bbef df3e 8f96 fdbc ccf3 64bc 9122 2bbd
00000280: 4fa9 d53e 165d de3e 713d d73e 1a04 6dbd
00000290: 6b1e e73e aa47 c23e 3868 d63e fd62 d63e
000002a0: f2a6 df3e f020 b7bd 7212 99bc 5229 6abc
000002b0: bcc0 db3e 09d5 d13e f5bf d23e 54af ebbc
000002c0: 72bc d03e 9dd8 d93e 9cdc c93e 981b fa3d
000002d0: daa8 72bd fd49 c83e 9a5f d53e 0de0 12bd
000002e0: ffa4 ac3e 2a71 b8bc c7eb 823d 66fd 153d
000002f0: 492d ca3e 8878 72bd fd61 e8ba 88ea 35bd
00000300: 746a 95be a911 d93e c78d 20bd 296a 46bc
00000310: ce94 d83e b792 443d c4b8 d43e 5718 d73e
00000320: dd2c d63e 5f8c 93bc 0804 f4bd 2e6c dd3e
00000330: 8643 053f e7b1 70bd ef75 a1be 5952 d63e
00000340: 4e6a da3e 0507 a0be 898a d3bc 6bf7 d43e
00000350: b149 d53e c2ad dd3e c5f0 ef3e 3aaf 6abd
00000360: 6f59 db3e 39e1 f63e b4fa c53e 048b 70bd
00000370: dc8b 94be 315c 53bd 983e b6bd 35dd 4fbe
00000380: 89f8 e93e afec 9ebd e651 e23e 4eae d93e
00000390: 9a0e 84bc d7d5 4abe 1802 d33e de2d 69bd
000003a0: d893 d2bd 8116 86bd e41a 8dbd 91ab e5bb
000003b0: 9361 d9bc bc21 203e dd12 39bd 8f12 94bd
000003c0: 66a5 27bd b028 d73e 6f12 d43e 6bc0 dbba
000003d0: 2cdb 6cbd 1f7e d53e 6f4f d2bd 8214 dc3e
000003e0: 7051 c2bd 57ee d53e c7b9 d13e a13e 0bbd
000003f0: 493d 00bc 4fbe de3e 8af0 5fbd b877 dd3e

linear3.weight f4 [1, 256]
-2.1287012 -0.32693183 -2.2045434 0.12481364 0.18783067 -1.7692199 -5.1984334 0.17026761
-4.125374 0.21569073 0.1210218 0.1535959 0.23249991 0.10812796 -2.3719175 -2.6373827
0.19073682 0.14293498 -1.9842814 -4.222475 0.15274584 -1.528345 0.07272689 0.19313443
0.090771824 -0.48836935 -1.4926518 -3.2017007 0.20317887 0.20522487 -4.190186 -1.2941223
-3.3296669 0.08568965 -3.0806036 -3.2576053 0.14490727 0.16647074 -1.9014331 0.14892623
0.12607393 -2.0913842 -4.4201107 -2.2014966 0.13175875 0.17363924 -0.90398 0.13406582
-0.5647326 0.1211531 -0.60916644 -1.6085721 -3.002299 -0.08570889 0.15488969 -2.6031678
-1.4425623 0.14602408 0.119402595 0.08853688 0.06966382 0.12926199 0.18208894 -1.4296418
-1.2224859 -4.783683 0.10765086 0.20296322 0.10592224 -1.8813612 0.10021138 0.17605706
0.13077445 -3.0434136 0.16929469 -3.0146058 0.21795683 0.19189593 -2.7165596 -0.6395675
0.2060995 -0.94454515 -1.384556 -2.211937 -1.4354013 -3.1267493 0.13230278 -1.7954267
0.099497676 0.07879187 0.1825108 -1.9147112 1.8040547 0.100918435 0.099125266 -0.9314596
0.22652487 -0.6672884 -0.6558796 -0.68862706 -1.2206658 -5.100157 0.04177651 0.18790343
0.15374619 0.25907505 -0.83819985 0.07287703 0.06970892 1.1798996 0.12245075 0.123734385
0.19234112 -1.7804414 -0.75370485 -0.5886893 0.2421731 -1.3595488 0.14112869 -4.9855337
-2.219949 -0.8131972 -2.358292 0.20540458 0.23117298 0.06397195 -1.1409258 -2.1959732
0.09943417 -4.454283 0.18096219 -0.82817703 0.071856715 0.104298495 0.18925442 0.14840347
-0.05118416 -2.7312624 0.09461594 -0.6968272 -0.6892154 0.10117049 -0.68600833 -2.053391
-0.43057486 -1.3037895 -0.82022357 0.13911279 -1.7395695 0.0965139 -1.4643756 0.082439534
0.6992131 -4.8389955 -1.1574136 0.19031626 0.22261626 -2.3391683 -2.0249836 -2.159152
0.12635507 0.18291654 0.189677 -3.0747395 0.11337094 0.037007023 0.17999072 0.14900962
0.1818595 -2.2479134 -0.08715821 -0.029600693 0.20800084 0.076402284 0.08505144 -3.519096
0.115821354 0.19080976 0.06878805 -0.88956857 -1.2998108 0.06182386 0.13988455 -1.7418323
0.7998459 -1.7856815 1.9077749 -1.7743394 0.071040444 -3.4840093 -1.6824713 -1.8994199
-1.2470735 0.14979178 -3.7094498 -2.3520973 0.17523254 -3.1897502 0.12863407 0.16847366
0.12540235 -2.2447414 -4.9525084 0.10971673 0.26527524 -3.407962 -0.37148508 0.18235627
0.18188319 -0.7328443 -2.3152874 0.15921624 0.14485349 0.20788808 0.11899235 -4.129067
0.20805126 0.13282442 0.041791517 -3.5507522 -0.41346744 -3.67766 -4.7571855 -1.421362
0.21470489 -2.472265 0.19962192 0.16151154 -2.5457659 -0.6300484 0.10132993 -5.3315535
-5.5937896 -2.569977 -3.1660662 -2.8067951 -3.1421924 -1.5190717 -5.0920463 -4.0685277
-3.238446 0.12727009 0.12942752 -0.010840672 -3.2056105 0.17441347 -2.0005176 0.12700428
-1.3732321 0.17745557 0.11872733 -2.3975194 0.00047057625 0.1553293 -1.8563945 0.21651842
00000000: a43c 08c0 9c63 a7be 3d17 0dc0 4b9e ff3d
00000010: af56 403e cc75 e2bf 9159 a6c0 a25a 2e3e
00000020: 1003 84c0 08de 5c3e 47da f73d 3e48 1d3e
00000030: 7514 6e3e 3172 dd3d 7fcd 17c0 e1ca 28c0
00000040: 8350 433e 8c5d 123e effc fdbf 841e 87c0
00000050: 6869 1c3e cfa0 c3bf d6f1 943d 08c5 453e
00000060: 94e6 b93d 8c0b fabe 370f bfbf aae8 4cc0
00000070: 1f0e 503e 7826 523e 0116 86c0 cda5 a5bf
00000080: 4319 55c0 0e7e af3d 9c28 45c0 9b7c 50c0
00000090: 9262 143e 4e77 2a3e 2962 f3bf 1e80 183e
000000a0: 8619 013e 3dd9 05c0 8c71 8dc0 52e5 0cc0
000000b0: c4eb 063e 7cce 313e 3c6b 67bf 8d48 093e
000000c0: 5192 10bf 1e1f f83d 55f2 1bbf b1e5 cdbf
000000d0: ab25 40c0 2488 afbd 679b 1e3e 4d9a 26c0
000000e0: e2a5 b8bf 5687 153e 5989 f43d d352 b53d
000000f0: e8ab 8e3d 415d 043e 8675 3a3e 81fe b6bf
00000100: 6b7a 9cbf ee13 99c0 0e78 dc3d 97d5 4f3e
00000110: c2ed d83d 72d0 f0bf a03b cd3d 4d48 343e
00000120: bde9 053e 4ac7 42c0 965b 2d3e 4def 40c0
00000130: 1330 5f3e 5e80 443e 1ddc 2dc0 b2ba 23bf
00000140: bf0b 533e b6cd 71bf 2239 b1bf 6090 0dc0
00000150: 3bbb b7bf a91c 48c0 617a 073e 8bd0 e5bf
00000160: 70c5 cb3d a25d a13d 1ce4 3a3e 4215 f5bf
00000170: 44eb e63f 53ae ce3d 3002 cb3d 2374 6ebf
00000180: 23f6 673e 6ad3 2abf bae7 27bf dd49 30bf
00000190: c73e 9cbf 7c34 a3c0 d91d 2b3d c269 403e
000001a0: a46f 1d3e 7ca5 843e 4494 56bf 8d40 953d
000001b0: 8dc3 8e3d f306 973f 75c7 fa3d 7468 fd3d
000001c0: 12f5 443e 81e5 e3bf cdf2 40bf 58b4 16bf
000001d0: 3afc 773e b205 aebf 0a84 103e 7e89 9fc0
000001e0: a513 0ec0 b12d 50bf 42ee 16c0 9455 523e
000001f0: 9cb8 6c3e ba03 833d db09 92bf d38a 0cc0
00000200: 24a4 cb3d 7d89 8ec0 274e 393e 6903 54bf
00000210: 9d29 933d 739a d53d e9cb 413e 14f7 173e
00000220: 7ba6 51bd 01cd 2ec0 00c6 c13d 4463 32bf
00000230: 6c70 30bf 7932 cf3d 3e9e 2fbf c26a 03c0
00000240: 4f74 dcbe 93e2 a6bf 2cfa 51bf 9573 0e3e
00000250: 37aa debf 14a9 c53d a970 bbbf 0fd6 a83d
00000260: a1ff 323f 0dd9 9ac0 2126 94bf 44e2 423e
00000270: 84f5 633e efb4 15c0 5599 01c0 8c2f 0ac0
00000280: 3963 013e 794e 3b3e b03a 423e 88c8 44c0
00000290: 062f e83d ad94 173d 7d4f 383e fa95 183e
000002a0: 6039 3a3e d0dd 0fc0 0180 b2bd 277d f2bc
000002b0: 2cfe 543e cd78 9c3d 732f ae3d de38 61c0
000002c0: bf33 ed3d a263 433e c0e0 8c3d c4ba 63bf
000002d0: 3360 a6bf 043b 7d3d e53d 0f3e 5cf4 debf
000002e0: b3c2 4c3f 3691 e4bf f831 f43f 8e1d e3bf
000002f0: a77d 913d 02fa 5ec0 385b d7bf 3120 f3bf
00000300: 1ba0 9fbf 0463 193e a067 6dc0 c388 16c0
00000310: 2970 333e de24 4cc0 a6b8 033e 5c84 2c3e
00000320: 7969 003e d8a9 0fc0 f37a 9ec0 2ab3 e03d
00000330: 28d2 873e 0d1c 5ac0 4b33 bebe 9abb 3a3e
00000340: 963f 3a3e af9b 3bbf ab2d 14c0 9509 233e
00000350: 7954 143e 9de0 543e 43b2 f33d 5121 84c0
00000360: 640b 553e 2003 083e 952d 2b3d 863f 63c0
00000370: 01b2 d3be c85e 6bc0 dd3a 98c0 31ef b5bf
00000380: 99db 5b3e 9739 1ec0 b069 4c3e 4863 253e
00000390: d4ed 22c0 da4a 21bf 1186 cf3d 169c aac0
000003a0: 5300 b3c0 817a 24c0 d4a0 4ac0 88a2 33c0
000003b0: ae19 49c0 f170 c2bf 0bf2 a2c0 6131 82c0
000003c0: b342 4fc0 1753 023e a688 043e 139d 31bc
000003d0: b928 4dc0 7299 323e 7b08 00c0 690d 023e
000003e0: 12c6 afbf eab6 353e 5027 f33d f570 19c0
000003f0: adb7 f639 a50e 1f3e 569e edbf 01b7 5d3e

linear4.weight f4 [256, 36]
0.3028622 0.17009954 0.28947762 -0.044274226 0.23440248 0.024330499 -0.04989899 -0.28199142
-0.000548833 0.050483372 -0.0008232549 -0.050856996 -0.06323561 0.06643438 -0.001417083 -0.14504954
-0.058211207 -0.11437469 -0.010180431 -0.033330325 0.046692748 -0.05936181 -0.037100423 0.07784723
-0.015125707 -1.1582805 0.042921316 0.1258007 -4.4819946e-05 0.004983959 0.005058644 0.0007168848
-0.002486329 -0.002964609 0.0024055862 -0.003742521 0.8366115 -0.35198796 -0.15821314 -0.28313878
1.0540354 1.1676637 0.11166285 -0.53472775 0.21053432 0.6465574 -0.30271932 -0.23277123
-0.156664 0.15166591 0.028859854 -0.12583502 0.12099109 -0.20653716 0.068133205 -0.35483512
-0.374646 -0.62265843 -0.066938676 -0.026738789 0.068658724 -0.1690413 0.05319335 0.10180341
0.11219272 0.033511855 -0.020502377 -0.07704984 -0.08078524 -0.030808372 -0.08506083 0.039028127
-0.5362658 0.5964101 -0.028295908 1.0369499 0.55566865 -0.54527897 1.33636 0.18061718
-0.2784127 -0.1192214 -0.23419185 0.6017675 -0.4707757 0.43351746 -0.076068535 0.28232542
-0.36798373 0.47873312 -0.10778972 -0.102205195 0.7653984 -0.57451344 -0.22929715 0.14250946
-0.1526742 0.018411972 0.14032534 0.2182519 0.12814595 0.18478575 -0.07299931 -0.045221876
0.00085354986 0.014474815 -0.10666694 -0.058973633 0.91328603 1.0882647 0.111727364 -0.046616435
0.49568522 0.23391838 0.43735164 -0.33616555 0.10272075 -0.14027722 -0.20543611 -0.034147974
-0.17981726 0.015224779 -0.089436434 0.03275217 0.055974104 0.037074372 0.055520564 -0.14589384
-0.15890485 0.10065948 0.0031905272 0.007810436 0.18441428 -0.1733628 -0.10383485 0.0023158325
-0.0031993259 0.066401646 0.019492613 0.028135072 -0.0065305103 0.03554161 -0.05003276 0.03483353
0.42731467 -0.6247562 0.3270866 0.59917295 -0.57624304 -0.059611686 0.14915887 0.3569649
0.28311437 -0.20392066 -0.00063658855 0.62101305 0.046438735 -0.08725834 -0.32505032 -0.2593644
0.2506787 0.44984972 0.08277573 -0.27787402 -0.1601883 -0.04495171 0.2143375 0.0435778
0.09468413 -0.06535386 -0.088207595 0.01629221 0.031271733 0.0443322 0.007642843 -0.0059544602
0.05249997 0.016086208 -0.02342521 0.026995393 0.68226653 -0.59079516 0.4164987 -0.094381995
0.5868295 0.06821832 -0.088288404 0.09905814 -0.121837266 0.2693923 0.06688128 0.0037353232
-0.17057528 -0.28096893 0.10573253 0.14189647 -0.5645711 -0.50125027 -0.2606759 0.3527499
-0.00071480894 0.29826784 -0.28420195 0.043448005 -0.13177261 -0.1594016 -0.06097245 0.0010111299
-0.0021411034 0.0026341723 -0.054042492 -0.025023116 -0.034269765 0.006700011 -0.01160392 -0.0134735955
-1.2486025 -0.5619287 0.24856131 0.22991164 0.46123758 -0.50413144 -0.32817668 -0.075860985
-0.21618918 0.05997728 -0.31912753 -0.02171148 -0.14285053 0.06567464 0.6425607 0.20117705
0.054005217 -0.10055999 0.7023845 -0.35996762 0.044750135 -0.21181001 -0.67075217 0.02586441
0.29159817 0.40563998 0.19273353 0.25925633 0.021167781 0.05347464 -0.1011628 0.063966736
0.14733799 0.034611557 -0.28063715 0.077722445 -0.8644207 -0.45816976 0.4289116 0.36643872
00000000: c110 9b3e 932e 2e3e 6936 943e e458 35bd
00000010: 3407 703e c150 c73c e262 4cbd 2e61 90be
00000020: 8fdf 0fba a7c7 4e3d b3cf 57ba 6d4f 50bd
00000030: ac81 81bd c00e 883d 6abd b9ba de87 14be
00000040: e06e 6ebd 473d eabd d3cb 26bc 6185 08bd
00000050: e540 3f3d 5f25 73bd 9df6 17bd 5e6e 9f3d
00000060: d0d1 77bc 8942 94bf 43ce 2f3d e6d1 003e
00000070: 0dfd 3bb8 7a50 a33b fbc2 a53b 53ed 3b3a
00000080: aef1 22bb e349 42bb 0aa7 1d3b 1545 75bb
00000090: 2c2c 563f c437 b4be a002 22be 91f7 90be
000000a0: a2ea 863f 0176 953f 7eaf e43d ebe3 08bf
000000b0: 4f96 573e c984 253f 07fe 9abe 955b 6ebe
000000c0: 876c 20be 4f4e 1b3e 806b ec3c e5da 00be
000000d0: 2dca f73d 7a7e 53be 6c89 8b3d f3ac b5be
000000e0: 9ad1 bfbe 8b66 1fbf 2517 89bd 4e0b dbbc
000000f0: f29c 8c3d 2a19 2dbe 45e1 593d 4e7e d03d
00000100: 4cc5 e53d ba43 093d 9af4 a7bc 4ecc 9dbd
00000110: bb72 a5bd d761 fcbc 5f34 aebd f5db 1f3d
00000120: b748 09bf 55ae 183f d2cc e7bc c6ba 843f
00000130: 4d40 0e3f 6797 0bbf d80d ab3f b6f3 383e
00000140: 1c8c 8ebe 592a f4bd fdcf 6fbe 6f0d 1a3f
00000150: 8309 f1be 00f6 dd3e d2c9 9bbd f58c 903e
00000160: 5d68 bcbe 821c f53e dbc0 dcbd f550 d1bd
00000170: 26f1 433f 5013 13bf dfcc 6abe 00ee 113e
00000180: a056 1cbe b4d4 963c 72b1 0f3e 6d7d 5f3e
00000190: b138 033e 7a38 3d3e aa80 95bd 933a 39bd
000001a0: c3c0 5f3a c627 6d3c 3274 dabd 568e 71bd
000001b0: 1dcd 693f 424c 8b3f 51d1 e43d e0f0 3ebd
000001c0: 74ca fd3e 4d88 6f3e 8eec df3e e41d acbe
000001d0: 425f d23d d5a4 0fbe d85d 52be bfde 0bbd
000001e0: 0422 38be 5a71 793c 732a b7bd 2427 063d
000001f0: 1a45 653d 4cdb 173d 8869 633d 3265 15be
00000200: f4b7 22be 8f26 ce3d 2a18 513b b0ee ff3b
00000210: 19d7 3c3e 0586 31be 5ea7 d4bd 39c5 173b
00000220: c8ab 51bb 96fd 873d f9ae 9f3c 867b e63c
00000230: e4fd d5bb 1494 113d 27ef 4cbd 9bad 0e3d
00000240: fdc8 da3e 06f0 1fbf e577 a73e 6663 193f
00000250: aa84 13bf 622b 74bd 1abd 183e 1ac4 b63e
00000260: 5ef4 903e 94d0 50be bce0 26ba b6fa 1e3f
00000270: 8b36 3e3d 80b4 b2bd ff6c a6be 69cb 84be
00000280: f558 803e b452 e63e 5286 a93d 8145 8ebe
00000290: 6708 24be 491f 38bd 4a7b 5b3e a37e 323d
000002a0: c1e9 c13d 3fd8 85bd 2fa6 b4bd 3e77 853c
000002b0: ca16 003d ae95 353d d070 fa3b a21d c3bb
000002c0: 350a 573d 39c7 833c 3ae6 bfbc 7125 dd3c
000002d0: 05a9 2e3f 5a3e 17bf 513f d53e 594b c1bd
000002e0: 753a 163f 0cb6 8b3d 8dd0 b4bd fede ca3d
000002f0: d185 f9bd caed 893e 0df9 883d 53cc 743b
00000300: 49ab 2ebe 29db 8fbe 4c8a d83d 4f4d 113e
00000310: bb87 10bf f051 00bf 5077 85be a39b b43e
00000320: 0462 3bba 90b6 983e eb82 91be 89f6 313d
00000330: 66ef 06be 2c3a 23be 3fbe 79bd e487 843a
00000340: c151 0cbb 14a2 2c3b a95b 5dbd 47fd ccbc
00000350: 745e 0cbd c48b db3b 5e1e 3ebc 5bc0 5cbc
00000360: 35d2 9fbf 8fda 0fbf db86 7e3e f56d 6b3e
00000370: 5527 ec3e c20e 01bf c606 a8be 015d 9bbd
00000380: b260 5dbe bdaa 753d af64 a3be 46dc b1bc
00000390: 6947 12be 6d80 863d dc7e 243f 5b01 4e3e
000003a0: 9334 5d3d 65f2 cdbd 78cf 333f ad4d b8be
000003b0: eb4b 373d b9e4 58be 6ab6 2bbf 99e1 d33c
000003c0: 5b4c 953e 0bb0 cf3e f05b 453e 3fbd 843e
000003d0: 0e68 ad3c 3908 5b3d 712e cfbd fe00 833d
000003e0: c5df 163e d9c4 0d3d acaf 8fbe f22c 9f3d
000003f0: ad4a 5dbf 3a95 eabe 4d9a db3e db9d bb3e

linear4.bias f4 [256]
0.65973014 -0.16664942 -0.039929777 0.12919661 0.23612739 0.2828729 0.44441706 0.46794856
-0.027501728 0.31323978 0.46237794 0.07851421 0.20215963 0.10197275 0.25005722 0.054833133
0.08521073 0.05923284 0.4026449 -0.08201891 -0.24289997 -0.31530425 0.37178707 0.438913
0.28161612 -0.13854575 0.38698432 0.12625383 0.098711 0.15470988 0.5016007 0.26624483
-0.23916866 0.35766324 -0.10938692 0.032621756 0.1935585 0.047716845 -0.043465655 0.24143057
0.2628795 0.08042914 0.27266285 -0.25235575 0.29407027 0.017169159 0.15025224 0.32266268
0.35662374 0.08417501 0.38900697 -0.040733255 0.07203196 -0.11943334 -0.10394387 0.2036882
0.3808425 -0.04008095 0.40199083 -0.19881168 0.18984738 0.26828623 0.23417564 -0.090970166
0.33387926 -0.03053208 0.357148 0.030579994 0.07845415 0.07709225 0.29883435 0.3142999
0.08206171 0.31121516 0.1256697 0.00882426 -0.12608002 0.26660305 -0.0097144395 0.29993463
0.35168785 0.3522683 0.09351928 0.29339987 0.04350875 -0.07478059 0.15916634 0.012462898
0.023268417 -0.002647521 0.3447511 0.24236771 0.19521704 0.21276277 0.18103456 0.037471827
0.38991085 -0.08150714 0.089108944 0.1687735 0.08495821 0.10199558 0.41946095 0.05966774
-0.2694662 0.3724758 0.0011587136 0.19413604 0.33765575 0.09765748 0.3690548 -0.034788113
-0.37218356 0.22296473 0.06346108 0.24895722 0.21840511 -0.0972851 0.1600349 0.12421965
0.28829524 0.42263287 0.122449525 -0.16542132 0.0004953007 0.23765284 0.41105133 -0.05850519
0.1307055 0.2790055 -0.065392405 0.2870915 0.36903462 0.12905893 0.28396878 -0.010245978
0.39215884 0.32699743 0.19319867 0.38195828 0.379149 0.12678434 0.3921648 -0.14255203
0.23728442 -0.11269951 0.17094988 0.064454466 0.2567202 0.22937463 0.33549383 0.108998135
0.13465278 0.054753803 0.024340006 0.22788642 0.18143307 -0.06670215 0.37408906 0.2173905
0.09988814 -0.22222348 0.269416 -0.24779946 0.35840943 0.0047856136 0.14199692 0.4653644
0.28801447 0.34147194 -0.05532881 0.22123897 0.2740724 -0.13832197 0.34665525 0.36946452
0.36447257 0.045100477 -0.1301259 0.42292884 0.32063815 0.074127845 0.47033966 -0.14285097
0.30796358 0.020993212 0.23791097 0.36654833 0.15542452 0.009022196 0.2126201 -0.07663048
-0.092601806 -0.3307765 0.30229336 0.06058259 0.558446 0.5159646 0.17710094 0.22017016
0.32397062 0.27919546 0.4276834 0.09274171 0.07720002 -0.110323615 0.33649465 0.24608515
0.23795436 0.2897578 0.33759093 0.4037877 0.07403344 -0.21524337 -0.099627934 0.29927492
0.18966797 0.5911655 0.1885362 -0.21154028 0.21444626 0.13326745 0.42064974 0.46899438
-0.06874357 -0.09326822 0.0610848 0.30583352 0.39531994 0.26895574 0.6381598 0.3660581
0.38348132 0.2990592 -0.15449297 0.11459963 0.08723864 0.38631535 0.47027862 0.39422604
0.14094725 0.44793382 0.07417935 0.044182375 0.19265307 0.398889 0.34176338 0.2701198
-0.07445704 0.023627605 0.46376613 0.40185243 0.043645322 0.09431859 -0.19434859 0.039962
00000000: 13e4 283f 25a6 2abe 688d 23bd 1e4c 043e
00000010: 61cb 713e b7d4 903e a28a e33e f496 ef3e
00000020: 4e4b e1bc f760 a03e cdbc ec3e 0fcc a03d
00000030: ef02 4f3e 17d7 d03d 8007 803e b598 603d
00000040: f782 ae3d 229e 723d 7927 ce3e 88f9 a7bd
00000050: c5ba 78be 8f6f a1be e05a be3e 34b9 e03e
00000060: fd2f 903e f0de 0dbe cf22 c63e af48 013e
00000070: fe28 ca3d 446c 1e3e e768 003f 3e51 883e
00000080: a1e8 74be a31f b73e 4006 e0bd 649e 053d
00000090: 3334 463e bd72 433d 0b09 32bd 9339 773e
000000a0: 2498 863e 08b8 a43d 779a 8b3e c634 81be
000000b0: 6190 963e 56a6 8c3c b9db 193e 0b34 a53e
000000c0: 6397 b63e f363 ac3d ec2b c73e ead7 26bd
000000d0: 7e85 933d 7899 f4bd 86e0 d4bd a493 503e
000000e0: cafd c23e ec2b 24bd bed1 cd3e 4a95 4bbe
000000f0: 5a67 423e d05c 893e bdcb 6f3e 914e babd
00000100: 39f2 aa3e 6a1e fabc 1adc b63e e582 fa3c
00000110: 92ac a03d 8be2 9d3d d100 993e ebeb a03e
00000120: f80f a83d 9857 9f3e 8faf 003e a193 103c
00000130: 1f1b 01be 3280 883e 5029 1fbc 0891 993e
00000140: 6e10 b43e 835c b43e 0987 bf3d 8238 963e
00000150: 3b36 323d 9126 99bd 80fc 223e 2f31 4c3c
00000160: 689d be3c 0882 2dbb 3783 b03e 3e2f 783e
00000170: fae6 473e 7cde 593e 2061 393e 0f7c 193d
00000180: 65a2 c73e 37ed a6bd c07e b63d f6d2 2c3e
00000190: 92fe ad3d 0fe3 d03d 96c3 d63e 2966 743d
000001a0: 79f7 89be 26b5 be3e fadf 973a 99cb 463e
000001b0: 37e1 ac3e a500 c83d c0f4 bc3e fb7d 0ebd
000001c0: d88e bebe de50 643e e2f7 813d a4ee 7e3e
000001d0: 97a5 5f3e 693d c7bd 30e0 233e df66 fe3d
000001e0: 6f9b 933e 5663 d83e d1c6 fa3d 3564 29be
000001f0: 11d7 013a 445b 733e 5275 d23e 23a3 6fbd
00000200: aad7 053e cfd9 8e3e 74ec 85bd a8fd 923e
00000210: 1bf2 bc3e 0628 043e 5b64 913e bfde 27bc
00000220: 0bc9 c83e 356c a73e dfd5 453e 0990 c33e
00000230: d11f c23e c1d3 013e d3c9 c83e 29f9 11be
00000240: b0fa 723e 00cf e6bd 7c0d 2f3e b400 843d
00000250: d470 833e 2fe1 6a3e d9c5 ab3e 6a3a df3d
00000260: 6be2 093e 8645 603d b164 c73c 0f5b 693e
00000270: 97c9 393e 239b 88bd 9a88 bf3e 9d9b 5e3e
00000280: 2792 cc3d 8d8e 63be e5f0 893e 24bf 7dbe
00000290: 7181 b73e a3d0 9c3b a467 113e 3e44 ee3e
000002a0: a276 933e 69d5 ae3e 76a0 62bd 788c 623e
000002b0: 3853 8c3e 46a4 0dbe cc7c b13e 742a bd3e
000002c0: 269c ba3e 47bb 383d b93f 05be 218a d83e
000002d0: af2a a43e 57d0 973d 5cd0 f03e 8647 12be
000002e0: 67ad 9d3e f5f9 ab3c ef9e 733e 39ac bb3e
000002f0: 9b27 1f3e d5d1 133c 15b9 593e 71f0 9cbd
00000300: 04a6 bdbd 8a5b a9be 32c6 9a3e 7325 783d
00000310: 51f6 0e3f 4216 043f f359 353e 4974 613e
00000320: 7adf a53e b5f2 8e3e 52f9 da3e 5eef bd3d
00000330: 0b1b 9e3d 59f1 e1bd 0749 ac3e bffd 7b3e
00000340: 4faa 733e 225b 943e b8d8 ac3e 43bd ce3e
00000350: d89e 973d c268 5cbe bb09 ccbd 903a 993e
00000360: 5238 423e 9f56 173f a20f 413e 049e 58be
00000370: cd97 5b3e 4377 083e 675f d73e 0820 f03e
00000380: 6ec9 8cbd 6903 bfbd 0e34 7a3d 3696 9c3e
00000390: 6067 ca3e 91b4 893e 715e 233f f86b bb3e
000003a0: aa57 c43e 4a1e 993e 6833 1ebe 36b3 ea3d
000003b0: 2caa b23d 20cb c53e 5cc8 f03e ffd7 c93e
000003c0: 7a54 103e 9557 e53e 58eb 973d 94f8 343d
000003d0: d946 453e 2e3b cc3e 9cfb ae3e 244d 8a3e
000003e0: ef7c 98bd ae8e c13c c172 ed3e 9abf cd3e
000003f0: 70c5 323d 1b2a c13d 5103 47be 32af 233d

linear5.weight f4 [256, 256]
1.0853221 0.15447864 -0.05800084 -0.0025792723 0.22016062 0.2620755 0.04276173 0.1798695
0.03578908 0.09358326 0.2539009 0.024123676 0.1812431 0.16738294 0.021860007 0.08176659
0.06836032 0.0059311637 0.26741618 0.009591237 -0.17604922 -0.12892202 0.16032922 0.26425338
0.01517558 -0.20091873 0.12312793 0.014598988 -0.020208314 0.15749651 0.41588765 0.10885238
-0.16512991 0.32787755 0.06992081 0.074689955 0.050635092 0.058197256 0.04296227 0.04594157
0.14980039 -0.058270752 0.08039321 -0.053606942 0.13219002 -0.007678855 0.073306814 0.15646428
0.09358419 0.13877171 0.18648523 -0.41263777 0.045045856 -0.13244578 -0.20256224 0.020104624
0.27884907 0.058154233 0.17817591 0.12682429 0.096611395 -0.027547952 0.12002901 0.021133784
0.09941646 0.071525246 0.22341204 0.033551544 0.057513032 0.076896735 0.19374254 0.23487413
-0.005656613 0.2583105 0.1022502 0.084213205 0.04033773 0.052058313 0.11028513 0.26521045
0.16087328 0.41576988 -0.039992206 0.03681779 0.023720732 0.06114148 0.071413115 -0.028685784
0.04401518 0.052593194 0.06700864 0.084112726 0.13783437 0.15907578 -0.045841146 -0.17489222
0.13236728 0.025593635 0.18592475 0.15557688 0.06240893 0.05827026 0.26366073 0.007962259
0.039133184 0.08821624 0.023319826 0.029464079 0.20768987 0.0041178376 0.1780105 0.09258047
-0.20553249 0.04351968 0.12936328 -0.007693584 0.13909684 0.004407944 0.09982987 0.08298561
0.1230585 0.024482539 0.12713209 -0.09508439 0.045144968 0.042890467 0.3409546 -0.069657214
-0.009291095 0.08602694 0.07578575 0.14405003 0.15110743 0.012624744 0.1764397 -0.024935458
0.22935797 0.18485145 0.07895808 0.94961447 0.0993994 0.110942535 0.31027323 -0.028551683
0.038005564 -0.11124463 -0.23278868 0.03903878 0.06589828 0.055640075 0.17794234 -0.040261593
0.06789784 0.10137934 0.13554105 0.09759828 -0.10305481 0.14608687 0.25648123 0.011753232
0.12919866 -0.110556416 0.1758974 -0.09013402 0.2125408 0.07608852 0.14199434 0.16868679
0.084033266 0.022417964 -0.1669298 0.16166149 0.068214685 0.068732806 0.14140567 0.2838157
0.27401972 0.053397287 -0.050824873 0.18610467 0.18361054 -0.07927279 0.16230255 -0.19267452
0.25488743 -0.05840472 0.07235384 0.107661046 -0.13251726 0.06826876 0.014038033 0.18039632
0.10281536 -0.03735057 0.10875309 0.03619426 0.52965695 0.49766737 -0.022181205 0.17250223
0.22541395 0.08169266 0.35775 0.025312299 0.08661831 0.08865323 0.33845782 0.123146735
0.21538639 0.39672154 0.3060869 0.09090699 0.0008948817 0.0539815 0.14155169 0.09330953
0.016823212 0.5273529 0.18185116 -0.115830734 0.21365462 -0.01888547 0.08476588 0.3157199
0.023154605 -0.016611207 0.007145665 0.35472384 0.24113002 0.011909411 0.8326504 0.13347255
0.23285559 0.05322361 -0.18403903 0.0146011915 0.005827387 0.25028569 0.7757956 0.21130784
0.0717984 -0.0029834511 0.017072229 0.043837294 0.20656165 0.20099238 0.16184546 0.12211626
0.074764036 0.07638842 0.07676604 0.22648863 0.04677589 0.14582926 -0.27967295 0.02466442
00000000: d6eb 8a3f a62f 1e3e 4a92 6dbd 0209 29bb
00000010: c971 613e c32e 863e ec26 2f3d b62f 383e
00000020: 9297 123d 95a8 bf3d 4cff 813e 049f c53c
00000030: cb97 393e 6f66 2b3e c213 b33c 3e75 a73d
00000040: 7f00 8c3d 355a c23b c6ea 883e 9024 1d3c
00000050: 3f46 34be 2204 04be 582d 243e 384c 873e
00000060: ffa2 783c a4bd 4dbe 7f2a fc3d 9830 6f3c
00000070: e88b a5bc c446 213e 3aef d43e ffed de3d
00000080: d117 29be 91df a73e a432 8f3d 0cf7 983d
00000090: be66 4f3d 3f60 6e3d 35f9 2f3d 3a2d 3c3d
000000a0: 4665 193e 50ad 6ebd 32a5 a43d f492 5bbd
000000b0: d25c 073e e89e fbbb e221 963d 2c38 203e
000000c0: 11a9 bf3d 2c1a 0e3e fcf5 3e3e 4245 d3be
000000d0: 0182 383d de9f 07be 7a6c 4fbe 74b2 a43c
000000e0: 4ec5 8e3e 2233 6e3d bf73 363e 3ade 013e
000000f0: 32dc c53d 3eac e1bc c5d1 f53d c220 ad3c
00000100: db9a cb3d d47b 923d 20c6 643e 586d 093d
00000110: c992 6b3d 097c 9d3d 7264 463e d882 703e
00000120: 1c5b b9bb 4641 843e 8e68 d13d f977 ac3d
00000130: 2d39 253d 193b 553d 2cdd e13d aac9 873e
00000140: f7bb 243e cadf d43e dece 23bd 40ce 163d
00000150: fb51 c23c 7d6f 7a3d 0a41 923d 73fe eabc
00000160: 4349 343d f66b 573d d33b 893d 4b43 ac3d
00000170: 7424 0d3e c3e4 223e edc3 3bbd f216 33be
00000180: 4a8b 073e bea9 d13c 0f63 3e3e 8c4f 1f3e
00000190: 82a0 7f3d ccac 6e3d 8afe 863e 2374 023c
000001a0: 1e4a 203d b7aa b43d 3809 bf3c a75e f13c
000001b0: a7ac 543e edee 863b 6248 363e d49a bd3d
000001c0: 1c77 52be b141 323d cf77 043e 761a fcbb
000001d0: 676f 0e3e 8470 903b 9a73 cc3d 5cf4 a93d
000001e0: 1806 fc3d 9b8f c83c ea2e 023e 9bbb c2bd
000001f0: eee9 383d eaad 2f3d 9a91 ae3e 71a8 8ebd
00000200: ad39 18bc e42e b03d 8f35 9b3d da81 133e
00000210: e8bb 1a3e 04d8 4e3c 9cac 343e 7245 ccbc
00000220: d1dc 6a3e b349 3d3e c6b4 a13d ef19 733f
00000230: ea91 cb3d d735 e33d 22dc 9e3e 38e5 e9bc
00000240: b9ab 1b3d 39d4 e3bd 2860 6ebe 21e7 1f3d
00000250: adf5 863d d9e6 633d 8436 363e 57e9 24bd
00000260: 060e 8b3d f99f cf3d 46cb 0a3e 9be1 c73d
00000270: 660e d3bd cc97 153e 8251 833e a190 403c
00000280: a74c 043e 676b e2bd 731e 343e 2f98 b8bd
00000290: 4ca4 593e 4cd4 9b3d f766 113e 3bbc 2c3e
000002a0: a219 ac3d e1a5 b73c a5ef 2abe 978a 253e
000002b0: 24b4 8b3d c9c3 8c3d a6cc 103e 4b50 913e
000002c0: 504c 8c3e 1db7 5a3d be2d 50bd 3992 3e3e
000002d0: 6704 3c3e c659 a2bd a432 263e 784c 45be
000002e0: 9b80 823e ca39 6fbd 402e 943d 657d dc3d
000002f0: 9bb2 07be 7ed0 8b3d c7ff 653c d0b9 383e
00000300: dc90 d23d e9fc 18bd f1b9 de3d 6f40 143d
00000310: 9997 073f 42ce fe3e 5cb5 b5bc 6da4 303e
00000320: ead2 663e 7b4e a73d 022b b73e bd5b cf3c
00000330: f164 b13d d38f b53d 584a ad3e 5b34 fc3d
00000340: 408e 5c3e 161f cb3e 6cb7 9c3e 722d ba3d
00000350: 7f96 6a3a b51b 5d3d edf2 103e 1119 bf3d
00000360: d5d0 893c 9a00 073f 3137 3a3e aa38 edbd
00000370: 47c8 5a3e b4b5 9abc bc99 ad3d 0aa6 a13e
00000380: baae bd3c 3a14 88bc 2f26 ea3b 5d9e b53e
00000390: caea 763e b11f 433c 9428 553f 07ad 083e
000003a0: b271 6e3e 0001 5a3d ba74 3cbe d639 6f3c
000003b0: aaf3 be3b 7225 803e 8a9a 463f 1561 583e
000003c0: 0a0b 933d 0186 43bb 0fdb 8b3c bc8e 333d
000003d0: e684 533e f2d0 4d3e d1ba 253e 1718 fa3d
000003e0: e31d 993d 8871 9c3d 8337 9d3d a3ec 673e
000003f0: 1398 3f3d 4454 153e 4b31 8fbe 0a0d ca3c
