Minitaur-Soft-Actor-Critic/dir_lr0.0001/weights_critic_final_22.51.pth (torch_old, 606008 bytes, 10 tensors)

linear1.weight f4 [256, 36]
0	0x3cd6f96b	0.026241979
1	0xbe15f211	-0.14643122
2	0x3da51615	0.080608524
3	0xbe2ce073	-0.16882496
4	0xbe99f14e	-0.30066913
5	0x3df88d68	0.12136346
6	0xbd44821a	-0.047975637
7	0xbdcc92d7	-0.09988945
8	0x3c73e36a	0.014885763
9	0xbc48ac6c	-0.01224814
10	0x3ba0b7f0	0.0049047396
11	0xbb9f0b20	-0.004853621
12	0xbc5ac0bd	-0.013351616
13	0x3d83ca8f	0.06435119
14	0xbc513d65	-0.012770985
15	0xbbefa144	-0.0073129255
16	0x3cd12f56	0.025535267
17	0x3da2b702	0.07945062
18	0x3d2478c7	0.040154245
19	0xbd98c9e0	-0.074603796
20	0x3d92fddf	0.07177328
21	0xbd8df1e7	-0.06930905
22	0x3e2374d8	0.15962541
23	0xbd8edd70	-0.069758296
24	0xbf92a1ee	-1.1455667
25	0xbddf0eab	-0.108914696
26	0x3f8991c8	1.0747614
27	0x3e7f22f6	0.2491568
28	0xbeb86f98	-0.3602264
29	0xbd8b1c0d	-0.0679246
30	0xbd9ec87f	-0.07753085
31	0xbd08fb7f	-0.03344297
32	0x3db27d75	0.08715335
33	0xbdc0f818	-0.0942232
34	0x3cacd05f	0.021095453
35	0xbefaf37f	-0.49013898
36	0xbf5a1822	-0.85193074
37	0x3e2f7fcc	0.17138594
38	0xbe5ea41d	-0.21742292
39	0xbcb9520a	-0.022622127
40	0xbe4d1734	-0.20028383
41	0xbe31f751	-0.173795
42	0x3e125390	0.14289689
43	0xbe768a8e	-0.24076292
44	0xbd5f1e3b	-0.05447219
45	0x3c8bd691	0.017070087
46	0xbcaa8e53	-0.020819819
47	0x3c102cd2	0.0087997485
48	0xbb6ae535	-0.0035842184
49	0x3bc3673f	0.0059632356
50	0x3c532ef2	0.012889611
51	0xbcb28e28	-0.021796301
52	0x3e442af2	0.19157007
53	0xb990d0d9	-0.00027621424
54	0x3c3cf232	0.011532353
55	0x3d442599	0.04788742
56	0x3bfe5377	0.0077614146
57	0xbd6b7d26	-0.057492398
58	0xbdfd9b68	-0.12383157
59	0x3d11d502	0.03560353
60	0x3b4f9bf8	0.0031678658
61	0x3fa929ca	1.3215878
62	0xbef8f673	-0.48625526
63	0xbe421401	-0.18952943
64	0x3ded8feb	0.11599716
65	0x3ed0a281	0.4074898
66	0x3e6c9dca	0.23107067
67	0xbe01e7f6	-0.12686142
68	0xbdfae27d	-0.122502305
69	0xbe79ff8e	-0.24413893
70	0x3bc04e16	0.0058686836
71	0x3da68d36	0.081324026
72	0xbee345d1	-0.44389203
73	0x3df0fe25	0.11767224
74	0xbeab1d26	-0.33420676
75	0xbb071295	-0.002061044
76	0x3d274ec8	0.040846616
77	0xbe80ba49	-0.25142124
78	0x3d50aeba	0.050947882
79	0xbe552e52	-0.20818451
80	0xbc667b0a	-0.014067421
81	0x3d80309f	0.06259274
82	0x3cde7d01	0.027159216
83	0xbd02707e	-0.031845562
84	0xbcded2a4	-0.02720005
85	0x3c8adc46	0.016950738
86	0xbd03f331	-0.032214347
87	0x3da0f193	0.078585766
88	0x3d7fda87	0.062464263
89	0xbd51d4e2	-0.05122841
90	0x3cd1d65f	0.025614915
91	0x3cce118f	0.025154857
92	0x3d939307	0.072057776
93	0x3de0de7a	0.10979934
94	0x3e1b6cd8	0.1517824
95	0xbe076b85	-0.13224609
96	0xbf6337b8	-0.88756895
97	0x3f887dd5	1.0663401
98	0x3e06ba2b	0.13156955
99	0xbec4a2aa	-0.38405353
100	0xbe01844e	-0.12648126
101	0x3e1f9156	0.15582785
102	0x3f0bdd88	0.54634905
103	0xbe83ed48	-0.2576697
104	0xbd6f08d7	-0.05835804
105	0x3ef19f75	0.4719197
106	0x3e114f07	0.14190303
107	0x3e06e602	0.13173679
108	0xbeb78e75	-0.35850874
109	0xbd89bcf2	-0.067254916
110	0xbdb8ccc0	-0.09023428
111	0xbe195f41	-0.14977743
112	0xbd78d818	-0.060752958
113	0x3e031022	0.12799123
114	0xbd9455a2	-0.07242896
115	0x3e3d60ac	0.18493909
116	0xbc954af3	-0.018224215
117	0x3b9feb4a	0.0048803436
118	0x3c8f2e66	0.01747818
119	0x3ad87629	0.0016514707
120	0x3d29a621	0.0414182
121	0x3d502e6a	0.050825514
122	0x3d01cfbb	0.031692248
123	0x3c9ac5f0	0.018893212
124	0x3b521b24	0.0032059634
125	0xbba45858	-0.005015414
126	0xbdcbb41d	-0.09946463
127	0xbc103148	-0.008800812
128	0xbdfc13ad	-0.1230844
129	0x3d8dfee0	0.06933379
130	0xbd7f24e0	-0.062291026
131	0xbe3f579b	-0.18685763
132	0x3cfecae5	0.031102607
133	0xbea90cd5	-0.33017603
134	0x3e9e409c	0.30908668
135	0x3ecbae40	0.3978138
136	0xbee5e0e5	-0.44898143
137	0x3db3ba7b	0.08775803
138	0x3e96ccd3	0.29453143
139	0x3cc6e5ed	0.024279559
140	0xbef2060b	-0.47270235
141	0x3dc5c68e	0.09657012
142	0xbed390b4	-0.41321337
143	0x3e47ea83	0.19523053
144	0x3eb7a109	0.35865048
145	0x3df04d8f	0.11733543
146	0xbe6de294	-0.23230964
147	0xbe013e54	-0.12621433
148	0x3dc956c3	0.098310016
149	0xbe964fba	-0.29357702
150	0xbd9786b1	-0.07398737
151	0x3cd1f605	0.025630007
152	0xbbf0cf89	-0.007348959
153	0xbcf4452b	-0.029818138
154	0xbb159c0b	-0.0022828605
155	0xbb2dbf59	-0.0026511757
156	0x3b3c085f	0.0028691513
157	0x3bb2ab7d	0.005452572
158	0x3ce8c658	0.02841489
159	0xbc8b4815	-0.017002145
160	0xbd9f464a	-0.077770784
161	0x3ded95fc	0.11600873
162	0xbd44ec38	-0.04807684
163	0x3a488a15	0.00076499704
164	0xbcb8a670	-0.022540301
165	0xbc7d5afc	-0.015463587
166	0xbd79a8c4	-0.060951963
167	0xbd065565	-0.032796282
168	0xbf4b26b2	-0.7935592
169	0x3ec974dd	0.39346972
170	0xbe3ca60f	-0.18422721
171	0x3e76610b	0.24060456
172	0xbe37b72a	-0.17940965
173	0xbe3359f9	-0.1751479
174	0xbcea9d5b	-0.028639486
175	0xbd2fb452	-0.042896576
176	0x3e20df2d	0.15710135
177	0x3d696959	0.056985233
178	0x3c4838a8	0.012220539
179	0x3e98a081	0.29809955
180	0xbd3cebe5	-0.046123404
181	0xbd9bf9be	-0.07615994
182	0xbe0abbad	-0.13548155
183	0xbc84d5c5	-0.016215215
184	0x3bb6c096	0.0055771573
185	0x3dfeacd4	0.12435308
186	0x3e55e12b	0.20886676
187	0xbe1c4df3	-0.1526411
188	0xbd0ebae6	-0.03484621
189	0x3bc1cb9b	0.0059141642
190	0x3dac0288	0.0839892
191	0xbd2ea39c	-0.0426365
192	0xbd0f63e8	-0.035007387
193	0x3d7af02d	0.061264206
194	0xbb3b9236	-0.0028621084
195	0xbc76cfe3	-0.0150642125
196	0xbe5ba476	-0.21449456
197	0xbd5b75c7	-0.053579118
198	0xbdeb0142	-0.11474849
199	0x3dae2b00	0.08504295
200	0x3e2ab039	0.16668786
201	0x3d7875fe	0.0606594
202	0xbe4c5894	-0.19955665
203	0x3e1a06fb	0.15041725
204	0xbea883c5	-0.32913032
205	0xbee17488	-0.4403422
206	0xbd8ba862	-0.06819226
207	0xbeba5713	-0.36394557
208	0x3ec15d44	0.3776647
209	0x3e22788e	0.158663
210	0xbe90eb7b	-0.28304657
211	0x3e915f9b	0.28393254
212	0x3c936776	0.01799367
213	0xbdb59d96	-0.08867948
214	0xbe6c8435	-0.23097308
215	0x3e6a7bec	0.22898835
216	0xbde2bbe0	-0.110709906
217	0x3dc76460	0.09735942
218	0xbd635609	-0.05550197
219	0xbcb8fa16	-0.022580188
220	0x3de6091d	0.11232207
221	0xbe837bb1	-0.25680307
222	0xbd3092dd	-0.04310881
223	0x3dd55da0	0.10418248
224	0x3dc1ca46	0.09462409
225	0x3c113d25	0.008864676
226	0x3cdcf384	0.026971586
227	0x3d0160f6	0.03158661
228	0x3b07ee31	0.0020741338
229	0x3d32119c	0.043473825
230	0x3c19d736	0.009389689
231	0xbcb097cf	-0.021556763
232	0x3c4ff0a2	0.012691649
233	0x3dea7f28	0.114500344
234	0x3d603418	0.05473718
235	0x3c09ff10	0.008422628
236	0x3d0063a0	0.03134501
237	0xbe31de31	-0.17369916
238	0xbd82133a	-0.063513234
239	0x3d7a329b	0.061083417
240	0xbef1e481	-0.47244647
241	0x3fcb57c3	1.5886158
242	0xbeb64d15	-0.35605684
243	0xbee75cd0	-0.45187998
244	0x3e48efa0	0.1962266
245	0x3d56edc8	0.05247286
246	0x3e61cb06	0.22050104
247	0x3dfff6bb	0.12498232
248	0x3ea8a747	0.32940122
249	0xbcbed34e	-0.023294117
250	0xbd79a404	-0.060947433
251	0xbe1e317b	-0.15448563
252	0x3d8405fd	0.06446455
253	0xbe17f47c	-0.14839357
254	0x3d72765f	0.05919492
255	0xbd44c3bf	-0.04803824

linear1.bias f4 [256]
0	0x3e8285d0	0.25492716
1	0xbe499b74	-0.19688207
2	0xbe435df9	-0.19078816
3	0x3e1e7f66	0.15478286
4	0x3e95d5c9	0.29264668
5	0xbe600720	-0.21877718
6	0xbe4774c3	-0.19478135
7	0x3dbc1aba	0.09184785
8	0x3e60e2ce	0.21961519
9	0xbeb41b74	-0.35177195
10	0xbe7f17a2	-0.24911359
11	0x3e751079	0.23932065
12	0x3e75ecad	0.24016066
13	0x3e1cbf70	0.15307403
14	0xbe559734	-0.2085846
15	0x3de6a665	0.11262206
16	0xbea271e6	-0.31727523
17	0xbe91f52c	-0.28507364
18	0x3de96890	0.11396897
19	0x3e4005f8	0.18752277
20	0x3eaf1674	0.34196818
21	0x3e0653c3	0.1311789
22	0xbd86d2cd	-0.06583176
23	0xbdda9034	-0.10672036
24	0xbe6a84b3	-0.22902183
25	0x3eba0b82	0.36336905
26	0xbe993f8d	-0.29931298
27	0x3eaaee3b	0.3338488
28	0x3efa65b8	0.4890573
29	0x3e4c8bc8	0.19975197
30	0x3e506943	0.20352654
31	0x3f08af31	0.5339232
32	0xbe57ebf7	-0.21086107
33	0xbe717b42	-0.23582175
34	0x3ea27762	0.31731707
35	0xbe4fc80d	-0.20291157
36	0x3db08390	0.086188436
37	0xbde9780c	-0.1139985
38	0x3e3c0700	0.18362045
39	0xbe88fc79	-0.2675512
40	0x3e875a2f	0.26435992
41	0x3ea8aa5b	0.3294247
42	0x3e410324	0.18848854
43	0x3e4d0148	0.2002002
44	0xbe7e1579	-0.24812879
45	0x3e268b2d	0.16264029
46	0x3e382bb1	0.17985417
47	0x3e47cadb	0.19510977
48	0x3cfcb336	0.030847173
49	0xbe7a458a	-0.2444059
50	0x3e935676	0.28776902
51	0xbe31f463	-0.17378382
52	0xbe912e85	-0.28355804
53	0x3db6de24	0.08929089
54	0xbe99583f	-0.2995014
55	0xbe870536	-0.26371163
56	0x3e0c70cd	0.13714905
57	0x3e5dc47e	0.21656987
58	0xbe8ceed1	-0.27525952
59	0xbdfc3791	-0.12315286
60	0x3e6a6d65	0.22893293
61	0x3e968564	0.29398644
62	0xbe982c11	-0.2972112
63	0xbe851f33	-0.26000366
64	0xbe6ccc25	-0.2312475
65	0xbe87a555	-0.26493326
66	0x3ed0d8cc	0.40790403
67	0x3e72fd62	0.2372947
68	0x3dddec58	0.108360946
69	0x3e6cd18f	0.23126815
70	0xbeaa9b5c	-0.33321655
71	0xbe991c65	-0.29904476
72	0xbe9f074a	-0.3106025
73	0x3e4f36bb	0.20235722
74	0xbe6f633e	-0.23377702
75	0xbe81acdc	-0.25327194
76	0x3e6d634b	0.23182409
77	0xbe6a88c1	-0.2290373
78	0xbe705ef1	-0.23473717
79	0xbde4ca5a	-0.11171408
80	0x3e2bef60	0.16790533
81	0xbe9b25d4	-0.30302298
82	0x3e421c85	0.18956192
83	0x3e25b7b7	0.16183363
84	0xba34d8fa	-0.0006898787
85	0x3ea67631	0.32512048
86	0x3f05cb49	0.52263314
87	0x3e0017ec	0.12509125
88	0xbec81821	-0.3908091
89	0x3e9ac7fe	0.30230707
90	0x3e8b3641	0.2718983
91	0x3e7c3723	0.24630408
92	0x3db182a2	0.08667494
93	0x3dcf7ce4	0.10131243
94	0xbe203cdb	-0.15648215
95	0xbe3fb9cf	-0.18723224
96	0xbe914e3d	-0.28380004
97	0xbea260d8	-0.3171451
98	0xbe8d8c3a	-0.27646047
99	0xbe9cdc65	-0.30636898
100	0xbe2d99e0	-0.1695323
101	0xbe9a3a4a	-0.30122596
102	0xbe076bbd	-0.13224693
103	0x3dbed5b5	0.09318105
104	0x3e4b9625	0.19881494
105	0x3e85ac5e	0.26108068
106	0x3d674c51	0.056469265
107	0x3e4dc017	0.20092808
108	0xbe3da436	-0.18519673
109	0xbeabd6e4	-0.33562386
110	0xbe89ece1	-0.26938537
111	0xbeb4d6a9	-0.35320023
112	0x3e385ef6	0.18004975
113	0xbe7455ae	-0.23860809
114	0xbe9744fa	-0.29544812
115	0x3e496d6d	0.19670649
116	0xbeb702a8	-0.35744214
117	0x3e47fc51	0.19529845
118	0x3ef88865	0.4854156
119	0x3e00195f	0.12509678
120	0xbe895731	-0.26824334
121	0x3e04c85f	0.1296706
122	0xbe875194	-0.26429427
123	0xbdcf756d	-0.10129819
124	0x3e31fc5c	0.17381424
125	0x3e7dfa87	0.248026
126	0x3e79f408	0.24409497
127	0x3e55577f	0.20834158
128	0xbe4a6dca	-0.19768444
129	0x3e906c40	0.28207588
130	0xbe59cc55	-0.21269353
131	0xbe9cfa75	-0.30659834
132	0xbe7a811e	-0.24463317
133	0x3dea9ac4	0.114553005
134	0xbe22cd6d	-0.15898676
135	0x3e8b4c3f	0.2720661
136	0xbe9f3fd8	-0.31103396
137	0x3eab37b1	0.33440927
138	0xbe817363	-0.25283346
139	0x3eaca596	0.33720082
140	0x3e77be94	0.24193794
141	0x3dde72d9	0.10861749
142	0x3e862a98	0.2620437
143	0x3e309e32	0.17247847
144	0x3e52efca	0.20599285
145	0x3e094c49	0.13408007
146	0x3e29c101	0.16577531
147	0x3e95e28e	0.2927441
148	0x3e5d30b5	0.21600612
149	0xbe90b6fb	-0.28264603
150	0x3e19d569	0.15022816
151	0xbe805818	-0.2506721
152	0x3dfa1045	0.122101344
153	0x3d96e683	0.07368185
154	0xbe9b1ece	-0.3029694
155	0x3e6102ad	0.21973677
156	0xbe9f4945	-0.31110588
157	0xbe44ef68	-0.19231951
158	0xbec87190	-0.3914914
159	0x3c4dd9a3	0.012564096
160	0x3e2f7b4c	0.17136878
161	0x3e87b9c7	0.26508924
162	0xbe991cf3	-0.299049
163	0x3d925730	0.07145536
164	0x3e89a993	0.26887187
165	0x3c1681b9	0.009186202
166	0x3e0246b8	0.1272229
167	0xbe8de34f	-0.27712485
168	0xbe85b606	-0.26115435
169	0x3ee58bac	0.44833124
170	0x3e73f9d8	0.23825777
171	0xbe835924	-0.25653946
172	0xbe2a8602	-0.16652682
173	0xbe7a9449	-0.24470629
174	0x3e6fdd59	0.23424281
175	0xbeaa7144	-0.3328954
176	0x3e3a5e79	0.18200101
177	0xbe6cdfe9	-0.2313229
178	0xbe72b9dd	-0.23703714
179	0xbe7e1680	-0.2481327
180	0x3e721346	0.23640165
181	0xbe56b91b	-0.2096905
182	0x3ee0538f	0.4381375
183	0x3eb89b7d	0.36056128
184	0xbe923d7e	-0.2856254
185	0x3ed43aca	0.41451102
186	0xbeaaf9fb	-0.33393845
187	0xbebb3e26	-0.36570853
188	0x3dc2407e	0.09484957
189	0x3e54ac30	0.2076881
190	0xbdc17b3c	-0.09447333
191	0x3e3a11e5	0.18170889
192	0xbeb6b0f5	-0.35681883
193	0x3e5c63d0	0.2152245
194	0xbdb26d07	-0.087122016
195	0xbe42441e	-0.18971297
196	0x3e6806d6	0.22658858
197	0xbe68b0f9	-0.2272376
198	0x3de65990	0.112475514
199	0x3f0b8a42	0.5450784
200	0xbe317988	-0.17331517
201	0x3df5afe4	0.11996439
202	0xbe2cc342	-0.1687136
203	0xbe980bf8	-0.2969663
204	0x3e807480	0.25088882
205	0x3e90f200	0.2830963
206	0xbe46fd6f	-0.19432615
207	0x3e8438da	0.25824624
208	0x3e8ba137	0.27271435
209	0x3ec34d83	0.38145074
210	0xbec1019f	-0.3769655
211	0xbeb75728	-0.35808682
212	0xbe8f1364	-0.2794448
213	0x3e9614ed	0.2931284
214	0xbe4cd3e8	-0.20002711
215	0x3ed125d1	0.40849164
216	0xbe5ece54	-0.21758395
217	0xbebd2669	-0.36943367
218	0x3e7a0ae4	0.24418217
219	0xbe83fe06	-0.25779742
220	0x3dc79321	0.097448595
221	0xbe68d586	-0.22737703
222	0x3f0f7426	0.56036603
223	0xbdc2aa10	-0.09505093
224	0x3eb49a4b	0.35273966
225	0x3dd83994	0.10557857
226	0xbe2548e0	-0.16141081
227	0xbed50251	-0.4160333
228	0x3db73b17	0.08946817
229	0x3e498d73	0.19682865
230	0xbe91b581	-0.2845879
231	0x3e8c2609	0.2737277
232	0x3eb4cc55	0.35312143
233	0x3e74c879	0.23904599
234	0x3e881f2a	0.26586276
235	0xbcc2e46a	-0.023790557
236	0xbee9de33	-0.45677337
237	0x3df963b4	0.1217722
238	0xbeba8db7	-0.36436245
239	0xbe930a7e	-0.28718942
240	0xbeb65e0d	-0.3561863
241	0x3d5d3880	0.05400896
242	0x3de2f064	0.11081007
243	0x3e96fcf2	0.29489857
244	0x3dbd9f95	0.092589535
245	0x3e484792	0.19558552
246	0x3e5ca5ce	0.21547624
247	0xbe9cae65	-0.30601802
248	0x3e8a5434	0.27017367
249	0x3e4ad975	0.19809516
250	0xbec0af9e	-0.37633985
251	0xbe2b2554	-0.16713458
252	0x3d7b8d8f	0.061414298
253	0x3eaeb2f3	0.34120902
254	0xbd8d881c	-0.069107264
255	0xbe8cc679	-0.27495173

linear2.weight f4 [256, 256]
0	0x3d9ba330	0.07599485
1	0x3b9dd5a1	0.0048167263
2	0xbd9ad714	-0.07560554
3	0xbdbbef3d	-0.091764905
4	0xbee37f07	-0.44432852
5	0x3e94f1d4	0.2909075
6	0xbc1d1811	-0.009588257
7	0xbef28a8c	-0.47371328
8	0x3b9b2d43	0.00473562
9	0xbd7575f3	-0.05992694
10	0x3e018dd4	0.1265176
11	0xbf05403e	-0.5205115
12	0xbe84cbb0	-0.2593665
13	0x3d9b83d0	0.075935006
14	0xbd394aed	-0.04523747
15	0xbe5b32dd	-0.21406122
16	0x3d80db07	0.06291776
17	0x3b2ce68d	0.0026382536
18	0xbf2c9fc8	-0.67431307
19	0x3d49ae6e	0.049238615
20	0xbe911ab7	-0.28340694
21	0xbf065bb2	-0.52483666
22	0xbd966069	-0.073426075
23	0xbb8c6f72	-0.0042857463
24	0xbebaba18	-0.36470103
25	0xbdbe2eea	-0.09286292
26	0x3de9921a	0.1140482
27	0x3dbae627	0.09125929
28	0x3b3f7a00	0.0029217005
29	0xbdea0278	-0.11426252
30	0xbed7049d	-0.41995707
31	0xbf1d51a3	-0.6145269
32	0xbd67799e	-0.056512468
33	0x3d6d5228	0.05793968
34	0x3db69cdc	0.08916637
35	0xbe3ba335	-0.18323977
36	0xbed7daa7	-0.42159006
37	0x3b1b04e6	0.0023654043
38	0xbebbee1a	-0.36705095
39	0xbee61005	-0.44934097
40	0x3c447234	0.011990119
41	0xbf11b459	-0.56915814
42	0xbef82c1a	-0.48471147
43	0xb7e16c88	-2.6872629e-05
44	0xbdf138b7	-0.117783956
45	0xbe27f5d2	-0.16402367
46	0xbec9963f	-0.3937244
47	0xbeeb3eb1	-0.45946267
48	0xbe9dbac1	-0.30806544
49	0xbe34c6c8	-0.17653954
50	0x3d5a92e5	0.053362746
51	0x3e434933	0.19070892
52	0x3df4a2ff	0.119451515
53	0xbebd0795	-0.36919847
54	0xbd5bf3e9	-0.053699408
55	0x3e036c5f	0.12834309
56	0x3d679f28	0.056548268
57	0xbe1f8219	-0.15576972
58	0x3da98396	0.08277051
59	0xbee6e87a	-0.4509924
60	0xbd3015a8	-0.042989403
61	0xbdc823bc	-0.09772441
62	0xbdc0402f	-0.09387242
63	0xbdcdc9ad	-0.10048232
64	0x3e1d0830	0.15335155
65	0x3c97e08d	0.018539691
66	0xbd445b5b	-0.047938686
67	0xbd9d8274	-0.076908976
68	0xbe40f1ef	-0.1884229
69	0x3d4356ec	0.047690317
70	0xbea5597c	-0.32294834
71	0x3dc01201	0.09378434
72	0x3e2360c7	0.15954886
73	0xbf267025	-0.6501487
74	0x3da02467	0.07819443
75	0xbe775cad	-0.24156447
76	0xbec4b5ba	-0.38419896
77	0xbe03024d	-0.12793846
78	0x3df2c07a	0.11853118
79	0xbe46dd43	-0.19420342
80	0xbe8cd648	-0.27507234
81	0xbeb63a40	-0.35591316
82	0xbd3a3e15	-0.045469362
83	0x3c9cda24	0.019146986
84	0xbe0b80cd	-0.13623352
85	0xbbb2d8d9	-0.005457979
86	0xbe37e9a8	-0.17960227
87	0x3d8998a6	0.067185685
88	0x3dc449cc	0.09584388
89	0xbebd8da1	-0.37022117
90	0xbf209c37	-0.62738365
91	0xbe940536	-0.28910226
92	0xbf28b989	-0.65908104
93	0xbe834ab7	-0.2564294
94	0xbec2cfbb	-0.3804911
95	0xbde6e594	-0.11274257
96	0xbcf0ecd4	-0.029409803
97	0x3b9f7fb9	0.0048675206
98	0xbed9dc76	-0.4255101
99	0x3b9fe544	0.0048796255
100	0x3e1ddc28	0.15416014
101	0x3d750806	0.059822105
102	0x3e0fd821	0.1404729
103	0xbed431d5	-0.4144427
104	0xbddff748	-0.10935837
105	0xbe513925	-0.20431955
106	0xbf3c0d15	-0.7345746
107	0x3e0688f0	0.13138175
108	0xbd86c590	-0.06580651
109	0x3d0cc56f	0.034367975
110	0xbe08a5af	-0.13344453
111	0xbe8652c4	-0.2623502
112	0xbf2630bd	-0.6491812
113	0x3da62e33	0.081142806
114	0x3cb8230f	0.022477655
115	0x3d811337	0.06302493
116	0x3db9e5c9	0.09077031
117	0xbec1c691	-0.37846807
118	0xbdacb20b	-0.084323965
119	0xbd8353bd	-0.06412456
120	0x3cdeaad7	0.027181072
121	0xbdfc7991	-0.123278745
122	0xbbe1c4b0	-0.006889902
123	0x3d4a56d7	0.049399223
124	0x3e2596d1	0.16170813
125	0xbdcc0400	-0.099617004
126	0x3b5b584c	0.0033469377
127	0xbf2ddcb6	-0.67914903
128	0x3c28b04d	0.01029594
129	0x3d4d2c02	0.050090797
130	0xbda9b928	-0.08287269
131	0x3d864efa	0.06558032
132	0x3e92617b	0.28589997
133	0x3d45962c	0.04823892
134	0xbd01f151	-0.031724278
135	0x3e0fdcbd	0.14049049
136	0xbe3ab440	-0.18232822
137	0xbe791086	-0.2432271
138	0xbd9640e3	-0.07336595
139	0x39c791ae	0.00038064778
140	0x3d0b364a	0.03398732
141	0xbec07577	-0.3758962
142	0xbdfad9ce	-0.12248574
143	0x3d4d1602	0.050069816
144	0x3d8b827c	0.06811997
145	0x3ccd43bc	0.025056712
146	0xbf201382	-0.62529767
147	0x3e133716	0.14376482
148	0xbf27ccd5	-0.65546924
149	0xbba1b68d	-0.004935092
150	0xbd98c992	-0.074603215
151	0xbe925aca	-0.28584892
152	0xbe9b83a4	-0.3037387
153	0xbf11d43e	-0.5696448
154	0x3c5e4bf7	0.013567916
155	0xbec0862c	-0.37602365
156	0x3e3cdfd0	0.18444753
157	0xbdac44b5	-0.08411542
158	0xbedc7909	-0.43061092
159	0xbea7909b	-0.32727513
160	0xbe357c1a	-0.17723122
161	0xbe44199a	-0.19150391
162	0xbdb548ca	-0.08851774
163	0xbd8f50ac	-0.06997809
164	0xbe70457c	-0.23464006
165	0xbe619d9f	-0.22032784
166	0xbf088a7a	-0.533363
167	0x3d94517b	0.07242104
168	0x3dec7e9a	0.11547585
169	0xbe3e486d	-0.18582316
170	0xbeb6be3a	-0.35692006
171	0x3d897dd3	0.06713452
172	0xbe9eb20a	-0.30995208
173	0x3e2a5bfd	0.16636653
174	0xbf157583	-0.58382434
175	0xbc50f919	-0.012754702
176	0xbdaae526	-0.08344488
177	0x3dadc496	0.084847614
178	0xbddde282	-0.108342186
179	0xbdf5c0b7	-0.11999648
180	0xbe8e5796	-0.27801198
181	0x3e2dd1b8	0.16974533
182	0x3d936ed3	0.071988724
183	0xbdd733d9	-0.10507936
184	0x3e929889	0.28632
185	0x3ce951f2	0.028481457
186	0x3dc7ba10	0.097522855
187	0xbdd6c0b8	-0.10485977
188	0xbeb4da99	-0.35323027
189	0xbda84c90	-0.08217728
190	0x3a145bf8	0.00056594564
191	0x3d808b96	0.06276624
192	0xbd12583e	-0.035728686
193	0xbf159ab7	-0.584392
194	0xbde40d59	-0.11135358
195	0xbf05f452	-0.5232593
196	0xbc68799a	-0.014189148
197	0x3dbb5c3f	0.09148454
198	0x3d9df786	0.07713227
199	0xbf26bd33	-0.65132445
200	0xbe120879	-0.14261045
201	0xbe4cd509	-0.20003141
202	0x3d08f06a	0.0334324
203	0xbea11e20	-0.31468296
204	0x3d8da845	0.069168605
205	0x3d77d66f	0.060507234
206	0x3ca42a9c	0.020039849
207	0xbf067fd4	-0.525388
208	0xbf18b25b	-0.5964715
209	0xbf0470de	-0.5173472
210	0x3e41857d	0.18898578
211	0xbea10da1	-0.3145571
212	0xbf1afee8	-0.60545206
213	0xbce935c7	-0.028468026
214	0xbde830ad	-0.11337409
215	0xbc9c63d6	-0.019090574
216	0xbc9f8bd5	-0.019475857
217	0xbd8f37e0	-0.06993079
218	0xbd45b60d	-0.04826932
219	0xbcd2db17	-0.025739236
220	0xbe8ef88c	-0.27924
221	0x3d1edb92	0.038783617
222	0x3d3b1f6c	0.045684263
223	0xbdf61b8a	-0.120169714
224	0xbedad4e5	-0.4274055
225	0xbdc8d416	-0.09806077
226	0x3dd1c347	0.10242324
227	0xbf0930f4	-0.5359032
228	0x3e7f8d7d	0.24956317
229	0xbe042591	-0.12904955
230	0xbd0ed6b1	-0.034872714
231	0xbc54d8e7	-0.012991167
232	0xbf1354c2	-0.57551205
233	0x3d3e2bb7	0.04642841
234	0xbd003ec0	-0.031309843
235	0xbcf63b6a	-0.030057628
236	0xbebd8d05	-0.37021652
237	0xbe5f88dd	-0.21829553
238	0x3cc8cb2a	0.024510939
239	0x3dac2d59	0.08407087
240	0x3e42bddc	0.19017738
241	0x3d91ba10	0.07115567
242	0xbf0967c2	-0.53673947
243	0x3d9ec544	0.07752469
244	0x3e1116d7	0.14168869
245	0xbdc8c952	-0.09804024
246	0x3dc299a4	0.09501961
247	0xbd016a13	-0.0315953
248	0xbe87f293	-0.26552257
249	0xbdde6bd0	-0.10860407
250	0x3bac6257	0.0052607465
251	0x3cdba699	0.026812838
252	0xbf198a2a	-0.59976447
253	0xbd7109f0	-0.058847368
254	0xbd2eab5b	-0.042643886
255	0xbe9f9033	-0.31164703

linear2.bias f4 [256]
0	0xbc3b5598	-0.011433981
1	0xbe6b2674	-0.22963887
2	0xbeaa3ef2	-0.33251148
3	0x3e75cbc0	0.24003506
4	0x3e964487	0.29349157
5	0xbe016e5d	-0.12639757
6	0xbd8b558d	-0.06803427
7	0x3e840d89	0.25791577
8	0xbe0f82a6	-0.14014682
9	0x3e42bedb	0.19018118
10	0x3e88b562	0.26700884
11	0x3e22a4c7	0.1588317
12	0x3ed9fa12	0.425736
13	0xbe44c045	-0.1921397
14	0xbe063b6d	-0.13108607
15	0xbe687e17	-0.2270435
16	0x3e835e4b	0.25657877
17	0x3e66552d	0.2249343
18	0xbe50a570	-0.2037561
19	0xbe2768d8	-0.16348588
20	0x3e840b96	0.2579009
21	0xbd957d6a	-0.072993115
22	0x3e73f48b	0.23823754
23	0x3dbeb37d	0.093115784
24	0x3e154858	0.14578378
25	0xbe3f0bca	-0.18656841
26	0xbe6beaa6	-0.2303873
27	0xbe5960d7	-0.21228348
28	0x3e641ca8	0.22276556
29	0x3e14fceb	0.14549606
30	0xbe1bcc09	-0.15214552
31	0xbdf61ae2	-0.12016846
32	0xbe32eaad	-0.17472334
33	0x3e3bf204	0.1835404
34	0xbe4a0498	-0.19728315
35	0xbd7c2ecc	-0.061568066
36	0x3e91565b	0.28386196
37	0x3e0ff49f	0.1405816
38	0xbde07473	-0.10959711
39	0x3e20081c	0.15628093
40	0x3dc184b9	0.09449143
41	0xbe060b04	-0.1309014
42	0xbdefbffe	-0.117065415
43	0xbe45ac05	-0.19303901
44	0x3e8650bc	0.2623347
45	0x3e28c274	0.16480428
46	0xbe370814	-0.17874175
47	0x3df1a4ed	0.11799035
48	0xbe539f9a	-0.20666352
49	0x3e162292	0.14661625
50	0xbe31c66a	-0.17360845
51	0xbe21107f	-0.15728949
52	0xbd888dda	-0.06667681
53	0xbe14fce8	-0.14549601
54	0x3e319b31	0.17344357
55	0xbeb4daf6	-0.35323304
56	0xbe702750	-0.23452497
57	0x3c56f68b	0.013120304
58	0xbc2fd442	-0.010731759
59	0x3e2a3b09	0.16624083
60	0x3e757fe7	0.23974572
61	0x3e63b822	0.2223821
62	0x3e970446	0.29495448
63	0xbed0e1b2	-0.40797192
64	0xbdfa76e3	-0.12229707
65	0xbe288ac9	-0.16459192
66	0x3e5c5dec	0.21520203
67	0x3dfa4c1b	0.12221547
68	0x3e16c0d4	0.14721996
69	0xbe4076ad	-0.18795271
70	0x3e1109ab	0.14163844
71	0x3e2e8c8e	0.17045805
72	0x3c86b7a0	0.016444981
73	0xbe90b872	-0.2826572
74	0x3db67981	0.08909894
75	0xbddee8fd	-0.10884283
76	0xbc5db1ec	-0.013531189
77	0x3e22ce86	0.15899095
78	0xbe31feb0	-0.17382312
79	0xbe807c27	-0.2509472
80	0x3e28d2c8	0.16486657
81	0xbe0b426a	-0.13599554
82	0xbe2d3333	-0.16914062
83	0xbe102397	-0.14076076
84	0xbd403348	-0.046923906
85	0xbea803b0	-0.32815313
86	0x3e81976a	0.25310832
87	0xbe498e54	-0.196832
88	0x3e601b7b	0.21885483
89	0x3e7fa702	0.24966052
90	0x3e87788a	0.26459152
91	0xbe339586	-0.17537507
92	0x3de6cc8b	0.11269482
93	0x3e47192b	0.19443195
94	0x3e3142e7	0.17310677
95	0xbe418149	-0.18896975
96	0x3e401d41	0.1876116
97	0xbe82dc91	-0.25558904
98	0xbdaeb914	-0.085313946
99	0xbe225e24	-0.15856224
100	0xbe5d2bd5	-0.21598752
101	0xbe2fe8fa	-0.17178717
102	0x3e72f2ed	0.23725481
103	0x3dd6f909	0.104967184
104	0x3ddf2037	0.10894816
105	0x3e843cf0	0.25827742
106	0xbd9f04dc	-0.07764599
107	0x3de6e06c	0.11273274
108	0x3de9382c	0.11387667
109	0x3e8ebc66	0.27878112
110	0x3dfd9972	0.12382783
111	0x3e50d4fc	0.20393747
112	0x3e2f7e32	0.17137983
113	0xbe049e82	-0.12951091
114	0xbe2c9cfd	-0.16856761
115	0xbcf50fc3	-0.029914742
116	0x3e38d0d5	0.18048413
117	0xbe303d66	-0.17210922
118	0x3e624c6c	0.22099465
119	0xbe1d08ce	-0.1533539
120	0xbe443c6c	-0.19163674
121	0xbdb1f491	-0.086892255
122	0xbe3c73db	-0.1840357
123	0x3e7eca67	0.24881898
124	0x3e641881	0.22274972
125	0x3e89969b	0.26872715
126	0xbe15d53a	-0.1463212
127	0xbdd15d82	-0.10222913
128	0x3da175c1	0.07883788
129	0xbe8f6b1b	-0.28011402
130	0x3e323c05	0.17405708
131	0xbe2e3b3e	-0.17014787
132	0x3ebb41e2	0.36573702
133	0x3da3f76d	0.08006177
134	0x3ebe6434	0.37185824
135	0x3dd66a16	0.10469453
136	0xbe2ba36c	-0.16761559
137	0xbe883e15	-0.26609865
138	0x3e8972a0	0.26845264
139	0xbe3f348b	-0.18672387
140	0xbe272e73	-0.16326313
141	0x3e726a6c	0.23673409
142	0xbe31d85b	-0.1736769
143	0xbe3cc1a4	-0.18433243
144	0xbe2a4a0e	-0.16629812
145	0xbdaa7572	-0.08323182
146	0xbe0fc37c	-0.14039415
147	0x3e4374ef	0.19087575
148	0xbe83b7f3	-0.2572628
149	0x3e0a9099	0.13531722
150	0xbe8d197c	-0.27558506
151	0x3e83cbbc	0.25741374
152	0x3e87fc60	0.26559734
153	0xbe1859a8	-0.14877951
154	0xbdb33041	-0.08749438
155	0x3e50e067	0.20398103
156	0x3da99d59	0.08281965
157	0xbe27b3f8	-0.16377246
158	0xbe32329c	-0.17402118
159	0xbe169df1	-0.14708687
160	0x3e41745b	0.18892042
161	0x3e5c6a8b	0.21525018
162	0x3c865487	0.016397728
163	0xbecade91	-0.3962293
164	0x3e5ed57c	0.21761125
165	0x3e87d75c	0.26531494
166	0x3e271bef	0.1631925
167	0x3e34c8cc	0.17654723
168	0x3e7e4d1b	0.24834101
169	0xbe29122b	-0.16510837
170	0xbd1660e8	-0.03671351
171	0xbdc65f4b	-0.096861444
172	0x3e02f274	0.12787801
173	0x3ead7db9	0.3388498
174	0x3ea53908	0.32270074
175	0xbe1639ad	-0.14670439
176	0x3e2257ce	0.15853807
177	0x3e3c5da6	0.18395099
178	0x3db3affb	0.087738
179	0xbe41c54f	-0.18922924
180	0xbe5b5b79	-0.21421613
181	0x3ed39466	0.41324157
182	0x3da5f96f	0.08104216
183	0xbe441aa9	-0.19150795
184	0x3e0a6527	0.13515149
185	0xbe01c622	-0.12673238
186	0xbd7f4cfc	-0.062329277
187	0xbe231db3	-0.15929298
188	0x3ed81b2b	0.42208228
189	0xbe7a6e2f	-0.24456094
190	0xbe0092f0	-0.12556052
191	0xbe624f7c	-0.22100633
192	0xbe1eb3e8	-0.15498316
193	0x3dcfde26	0.10149793
194	0xbdbdf78a	-0.0927573
195	0xbe33d97e	-0.17563435
196	0x3e1c3a26	0.15256557
197	0xbd8b3a9c	-0.06798288
198	0x3e6d9885	0.23202713
199	0x3e5809f0	0.21097541
200	0x3e307e69	0.17235722
201	0xbe003211	-0.12519099
202	0xbe320062	-0.17382959
203	0x3e1e19f7	0.15439592
204	0x3e230cf9	0.15922917
205	0xbe05af14	-0.13055068
206	0xbe7640f7	-0.2404822
207	0x3def1f0c	0.116758436
208	0x3e1261ac	0.14295071
209	0xbe57022c	-0.20996922
210	0xbdd3a345	-0.103338756
211	0x3e1d489c	0.1535973
212	0x3e4dc3ff	0.20094298
213	0x3e1024c1	0.1407652
214	0x3e0f291e	0.13980529
215	0xbdedf7c8	-0.11619526
216	0x3eac01fc	0.33595264
217	0x3e4e6ccb	0.20158689
218	0x3e3541a3	0.1770082
219	0xbd8c797e	-0.0685911
220	0xbe0058af	-0.1253383
221	0xbe2b9a0a	-0.1675798
222	0xbe4830d7	-0.19549881
223	0xbe03e67a	-0.12880889
224	0x3e73ea0b	0.23819749
225	0xbd84a944	-0.06477597
226	0x3ece9e1f	0.40355012
227	0x3df3182d	0.118698455
228	0xbda861d3	-0.082217835
229	0xbd766c33	-0.06016178
230	0x3e8eb6a8	0.2787373
231	0xbe59d919	-0.21274222
232	0xbe247b27	-0.16062604
233	0xbe094eef	-0.13409017
234	0xbe4ed862	-0.20199731
235	0xbe512a81	-0.2042637
236	0xbe3da8aa	-0.18521371
237	0xbe4c6510	-0.19960427
238	0xbe386171	-0.18005921
239	0xbe72062f	-0.23635171
240	0xbe24e532	-0.16103056
241	0x3e1693a0	0.14704752
242	0x3e511aad	0.20420332
243	0xbe56d193	-0.20978384
244	0xbe12b2ca	-0.14326015
245	0x3d94c478	0.07264036
246	0xbe05e45a	-0.1307539
247	0x3ea0d4b3	0.31412277
248	0xbe2600d2	-0.1621125
249	0x3e358ea1	0.1773019
250	0x3dcff855	0.101547875
251	0xbe4a6436	-0.1976479
252	0xbe1bb45c	-0.1520552
253	0x3e3424ec	0.1759221
254	0xbe5326a2	-0.20620206
255	0x3ed6eddb	0.41978344

linear3.weight f4 [1, 256]
0	0xbf15f37c	-0.5857465
1	0xbf603db2	-0.8759414
2	0xbce1cb22	-0.027562682
3	0xbe934479	-0.28763178
4	0x3cbcc224	0.023041792
5	0xbec4ba6f	-0.38423488
6	0xbdf9483d	-0.121719815
7	0x3d0f99ea	0.035058893
8	0xbe7d8c96	-0.2476066
9	0xbdb3b09d	-0.08773921
10	0xbe1bfc4a	-0.1523296
11	0x3c861639	0.016368018
12	0x3d3a5554	0.04549153
13	0xbd6f9e8e	-0.05850082
14	0xbe4e7da5	-0.20165117
15	0xbde07d6a	-0.10961421
16	0xbe404754	-0.1877721
17	0xbdcecee2	-0.100980535
18	0xbe7c409a	-0.24634019
19	0xbe576c3c	-0.21037382
20	0xbe728e4f	-0.23687099
21	0xbed34979	-0.41266993
22	0xbe6c5883	-0.2308064
23	0x3d9f754a	0.07786043
24	0x3d36d4d6	0.04463657
25	0xbe06c5d7	-0.13161407
26	0xbe065db8	-0.13121688
27	0xbcd4f1ba	-0.02599417
28	0xbdbcd03b	-0.09219404
29	0x3e0cc869	0.13748325
30	0xbe08e4cc	-0.13368529
31	0xbe99e16a	-0.3005479
32	0xbee2afa6	-0.44274634
33	0xbca2c1a9	-0.019867735
34	0xbd1131ff	-0.03544807
35	0xbddf2b67	-0.1089695
36	0xbeb67ec0	-0.35643578
37	0xbe1d0d6e	-0.15337154
38	0xbe120d79	-0.14262952
39	0x3ca3df9c	0.020004086
40	0x3c9936bb	0.018702855
41	0xbe3adae3	-0.18247561
42	0xbe300fd5	-0.1719354
43	0xbd8220d4	-0.06353918
44	0xbe937501	-0.28800204
45	0x3d226713	0.03964908
46	0xbe98c8d5	-0.29840723
47	0x3e01ab64	0.12663037
48	0xbe2a6c29	-0.16642822
49	0x3d005d73	0.03133912
50	0xbdec6425	-0.115425386
51	0xbe7d97bb	-0.24764912
52	0xbd62dfd4	-0.05538924
53	0xbe23dc85	-0.1600209
54	0x3c617019	0.013759636
55	0xbe102a02	-0.14078525
56	0x3de026af	0.10944878
57	0x3c816658	0.015795872
58	0x3e0ea289	0.1392919
59	0x3cae566a	0.02128144
60	0xbded8183	-0.11596968
61	0xbe9c1cb8	-0.3049066
62	0x3da5af12	0.08090033
63	0xbda7e7a8	-0.08198482
64	0xbf001e0a	-0.50045836
65	0xbe099641	-0.13436224
66	0xbd8584be	-0.06519459
67	0x3d37bb5d	0.044856418
68	0x3c4bfe97	0.012450836
69	0xbe2491af	-0.16071199
70	0x3d38106e	0.044937544
71	0x3d86f865	0.06590346
72	0x3cc4e6f5	0.02403591
73	0xbc94876e	-0.018130984
74	0x3d008c51	0.031383816
75	0xbee04d44	-0.4380895
76	0x3c75c1f3	0.014999854
77	0x3c9b9dab	0.01899608
78	0xbdd98bc7	-0.106223635
79	0xbdb1db1b	-0.08684369
80	0xbeb980cc	-0.36231077
81	0xbec89155	-0.3917338
82	0xbe3ec815	-0.18631013
83	0xbf653060	-0.8952694
84	0xbf2fbb17	-0.6864485
85	0xbd39b4d7	-0.045338478
86	0x3c8a13d0	0.01685515
87	0x3e013737	0.12618719
88	0x3c8c88ba	0.01715504
89	0xbe3a716e	-0.18207332
90	0xbdd9b1aa	-0.1062959
91	0xbe23325c	-0.1593718
92	0x3cb046b6	0.021518093
93	0x3ca1161d	0.019663865
94	0x3c8f1771	0.017467232
95	0xbd79c964	-0.060983077
96	0x3c835e0f	0.016036062
97	0xbd99a49f	-0.07502102
98	0xbe496f51	-0.1967137
99	0xbe88f5fc	-0.2675017
100	0xbf0c3a7c	-0.5477674
101	0xbe0e2003	-0.13879399
102	0xbd1c5e41	-0.038175825
103	0x3c799ba4	0.0152348615
104	0x3d07231c	0.032992467
105	0xbe3d5ebf	-0.18493174
106	0xbf8149a0	-1.0100594
107	0x3c796203	0.015221122
108	0x3c5bcd9f	0.013415723
109	0x3c49897d	0.012300846
110	0x3c8db2fd	0.017297262
111	0x3d39c0b4	0.04534979
112	0x3c448c2e	0.011996312
113	0xbe64d197	-0.22345577
114	0xbe613aae	-0.21995041
115	0xbf6bc538	-0.92097807
116	0x3ad726bd	0.0016414743
117	0xbde2bc4c	-0.11071071
118	0xbd7c24b3	-0.061558437
119	0xbe1b1e46	-0.15148267
120	0xbda85ca6	-0.08220796
121	0xbe9dc386	-0.30813235
122	0xbd588874	-0.052864507
123	0xbe6b83d7	-0.22999512
124	0x3d8e9f88	0.06964022
125	0xbdc3211d	-0.095278
126	0xbedb3abe	-0.42818254
127	0xbdc2f32c	-0.095190376
128	0x3c9a01e4	0.01879973
129	0x3d0ec9be	0.034860365
130	0xbdc1738c	-0.09445867
131	0xbe78b932	-0.24289396
132	0xbeb6c702	-0.35698706
133	0x3ca60dba	0.020270217
134	0x3beed2e5	0.007288324
135	0x3cecfc04	0.028928764
136	0xbf0047fb	-0.50109833
137	0xbd85e777	-0.06538289
138	0xbe9771ad	-0.29578915
139	0xbd7b343a	-0.061329104
140	0xbd9bf116	-0.07614343
141	0xbe114719	-0.14187278
142	0xbf277ff9	-0.65429646
143	0xbebc99ec	-0.36836183
144	0xbdc51a1d	-0.09624121
145	0xbe5c8ace	-0.21537325
146	0xbe2e8de1	-0.1704631
147	0x3cc6ee49	0.024283545
148	0xbd592a66	-0.05301895
149	0x3cfeeb2a	0.031117994
150	0xbd9d20fd	-0.07672308
151	0x3c0bedf7	0.008540622
152	0x3c7a773a	0.015287215
153	0xbe76235a	-0.24036923
154	0xbd212d65	-0.039349932
155	0x3d63d9ba	0.055627562
156	0x3d841f96	0.06451337
157	0xbe1f9931	-0.15585782
158	0xbf672246	-0.9028667
159	0xbe057908	-0.13034451
160	0x3d481ad4	0.04885371
161	0x3c79aa6d	0.015238387
162	0x3daa2fe3	0.08309915
163	0xbdba5f93	-0.091002606
164	0x3db05d0d	0.08611498
165	0xbec08806	-0.37603778
166	0xbd914b43	-0.07094433
167	0x3ca97d07	0.0206895
168	0xbdc68c25	-0.09694699
169	0xbe285cc0	-0.16441631
170	0xbf493fde	-0.7861308
171	0xbdfdabd6	-0.12386291
172	0x3ce9c41a	0.028535891
173	0xbe26fd21	-0.16307499
174	0xbe172b11	-0.14762522
175	0xbe00a0ae	-0.12561294
176	0x3da04657	0.07825916
177	0xbd480094	-0.048828676
178	0x3c99031e	0.018678244
179	0xbee08a8d	-0.43855706
180	0xbf1d81f3	-0.6152641
181	0xbe2d7ff8	-0.16943347
182	0x3d5499f9	0.051904652
183	0xbe847eba	-0.25877935
184	0x3c9a48a1	0.01883346
185	0xbdebf964	-0.11522177
186	0x3e12bf60	0.14330816
187	0xbe557469	-0.20845188
188	0xbd24cce6	-0.04023447
189	0xbd315dd8	-0.043302387
190	0xbf626ba2	-0.88445485
191	0xbe6f73e9	-0.2338406
192	0xbddd03ef	-0.10791766
193	0x3db4dc1e	0.088310465
194	0xbedaed2b	-0.4275907
195	0xbe088538	-0.13332069
196	0x3c93925c	0.018014126
197	0xbeddad4c	-0.43296278
198	0xbde3d67c	-0.11124894
199	0xbe0a18b8	-0.13485992
200	0x3cfc9cbc	0.030836456
201	0xbf5ca834	-0.8619416
202	0xbdd4587c	-0.103684396
203	0xbd89488a	-0.06703289
204	0x3d9a8993	0.075457714
205	0xbe254084	-0.16137892
206	0xbe55d4ea	-0.20882002
207	0x3e3edaa3	0.18638091
208	0x3ddcb772	0.10777177
209	0xbda0baaf	-0.07848107
210	0xbe0ee7c4	-0.13955599
211	0xbe8ed4d7	-0.2789676
212	0xbe693971	-0.22775818
213	0x3c9c145a	0.019052673
214	0x3d495065	0.049148936
215	0xbea4ba85	-0.32173553
216	0x3c3dcf9e	0.011585144
217	0xbd95ac50	-0.073082566
218	0x3cc65a69	0.024213033
219	0xbf540daf	-0.8283338
220	0xbf077b68	-0.5292268
221	0xbe58eeb0	-0.21184802
222	0xbdb8a368	-0.09015542
223	0xbf0a9c21	-0.54144484
224	0xbeac8823	-0.33697614
225	0xbf5200f4	-0.82032704
226	0x3d09552c	0.03352849
227	0x3e0572c3	0.1303206
228	0xbe896bb2	-0.26839978
229	0xbf2cab4c	-0.6744888
230	0xbea0d75c	-0.31414306
231	0xbe5558ee	-0.20834705
232	0xbdfb28db	-0.12263652
233	0xbf2b669d	-0.6695345
234	0xbdce9390	-0.10086739
235	0xbda5734e	-0.08078633
236	0xbe9e4385	-0.30910888
237	0xbef00d24	-0.46885026
238	0xbe429f05	-0.19005974
239	0xbe85a8cb	-0.2610534
240	0xbe0a2617	-0.13491093
241	0x3e217667	0.15767823
242	0x3cb1c95f	0.021702467
243	0xbeb08a4d	-0.34480515
244	0xbdf53922	-0.11973788
245	0x3d863ecf	0.065549485
246	0xbf040af0	-0.5157919
247	0xbe319c0f	-0.17344688
248	0xbda0302b	-0.07821687
249	0x3d0f6e36	0.035017215
250	0x3dda4099	0.10656852
251	0xbd723215	-0.059129793
252	0xbd622ed3	-0.055220436
253	0x3cd52e79	0.026023136
254	0xbd9c3304	-0.07626918
255	0x3d18c6d5	0.037298996

linear4.weight f4 [256, 36]
0	0x3d504274	0.050844625
1	0xbe02e7f4	-0.12783796
2	0xbe9281eb	-0.28614745
3	0xbe48f93a	-0.19626322
4	0xbe042e96	-0.12908396
5	0x3ca1cb93	0.019750392
6	0x3c316b29	0.010828772
7	0xbd004d7a	-0.031323887
8	0xbc98821d	-0.01861673
9	0xbd2fd70f	-0.042929705
10	0xbbe9652b	-0.007122656
11	0x3d98cc40	0.074608326
12	0xbd0d61b6	-0.034517013
13	0xbc8ad46b	-0.016946992
14	0x3b4f1dcc	0.0031603454
15	0xbb4d797c	-0.0031352928
16	0x3dd61928	0.10454017
17	0x3d33126d	0.043718744
18	0x3c8d63b8	0.017259464
19	0x3deb4746	0.11488204
20	0x3da3d424	0.07999447
21	0x3d04d6e9	0.032431517
22	0xbe1ec267	-0.15503846
23	0x3ce09a3f	0.0274173
24	0xbf91bda6	-1.1386001
25	0xbf5801f4	-0.8437798
26	0x3eeb00d0	0.45899057
27	0xbe854a5d	-0.26033297
28	0x3d73d740	0.05953145
29	0xbf0cebfc	-0.55047584
30	0xbcfd3ea0	-0.030913651
31	0xbb938a93	-0.0045026033
32	0xbe022492	-0.12709263
33	0x3dc772df	0.09738707
34	0xbe6a09c8	-0.22855294
35	0xbe30bf64	-0.1726051
36	0x3ecaea7a	0.39632016
37	0xbd888288	-0.06665522
38	0x3d6739aa	0.056451477
39	0xbe5344b0	-0.20631671
40	0xbd61bbbd	-0.05511068
41	0x3ea253cf	0.31704566
42	0x3cef7254	0.02922932
43	0x3e5fa4b2	0.2184017
44	0x3c93374a	0.0179707
45	0x3c31bb87	0.010847933
46	0x3c4df212	0.012569921
47	0x3b89820b	0.0041964105
48	0x3d3401a2	0.04394687
49	0xbd64f288	-0.05589536
50	0x3bc32e93	0.00595648
51	0x3c25d55f	0.010121672
52	0xbcbbbb2d	-0.0229164
53	0xbdbdd674	-0.09269419
54	0x3da1d029	0.079010315
55	0xbcf24cc6	-0.029577624
56	0xbcf0e481	-0.029405834
57	0x3b60e1eb	0.0034314345
58	0xbdb73b8b	-0.08946904
59	0xbc97f077	-0.01854728
60	0xc0086b19	-2.1315367
61	0x3fc48d9f	1.5355719
62	0x3e24b7d7	0.16085754
63	0xbec7b44c	-0.39004743
64	0x3da33019	0.07968158
65	0x3dc0d625	0.09415845
66	0xbe1d8cd5	-0.15385754
67	0xbe3bf447	-0.18354903
68	0xbe380d57	-0.17973839
69	0xbce643a1	-0.02810842
70	0x3ceafcab	0.028684935
71	0xbdea2e82	-0.11434652
72	0x3e57ae97	0.21062694
73	0xbe4c189f	-0.19931267
74	0xbe4a5bbe	-0.1976156
75	0x3b891a10	0.004184015
76	0xbdb4a567	-0.088206105
77	0xbb86d112	-0.0041142786
78	0xbe13a288	-0.1441747
79	0xbd6e0f82	-0.05812026
80	0xbd228772	-0.039679952
81	0x3bb89675	0.0056331703
82	0x3d225d5e	0.039639823
83	0x3a33ab33	0.0006853819
84	0xbca43786	-0.020046007
85	0xbb752496	-0.003740584
86	0xbc8f025c	-0.01745718
87	0x3c08d580	0.008351684
88	0x3afaf93c	0.0019147764
89	0xbc86710b	-0.016411325
90	0xbe038f6b	-0.12847678
91	0xbd984b4c	-0.07436237
92	0xbb454d8c	-0.0030106036
93	0x3d804058	0.062622726
94	0xbd95eada	-0.07320185
95	0x3d339801	0.043846134
96	0xbf853f07	-1.040986
97	0xbf01f3fa	-0.50762904
98	0xbf10f437	-0.5662264
99	0x3ed14db7	0.40879604
100	0xbe4eed10	-0.2020762
101	0xbdde3edc	-0.10851833
102	0xbe85a62c	-0.26103342
103	0xbdd24830	-0.10267675
104	0x3cbe0abc	0.023198478
105	0xbe0337a2	-0.12814191
106	0xbe5b3767	-0.21407853
107	0xbdae44d6	-0.08509223
108	0x3dd3f7ca	0.103499964
109	0x3e14adf7	0.14519487
110	0x3e20c578	0.15700328
111	0xbdec2389	-0.11530215
112	0xbd19544e	-0.037433915
113	0x3ebe4f3e	0.37169832
114	0xbb9bf856	-0.0047598286
115	0x3e54e68f	0.20791076
116	0xbb462cc2	-0.003023908
117	0x3bae522a	0.0053198533
118	0xbc0e0bb5	-0.008669783
119	0x3b4fb9b9	0.0031696393
120	0x39f7dcd5	0.00047276044
121	0x3b8ae910	0.004239209
122	0x3ab473ca	0.0013767418
123	0xba5c960f	-0.00084146945
124	0x3bf78a31	0.0075543155
125	0xbbb48e6e	-0.005510143
126	0x3d1f7521	0.038930062
127	0x3cbbefff	0.022941587
128	0x3c13057d	0.0089734765
129	0x3cedadaa	0.029013474
130	0xbbd2a960	-0.0064288825
131	0x3cb19e13	0.021681821
132	0x4005a1ff	2.0880125
133	0xbfd8aa8d	-1.6927048
134	0xbceb6bbe	-0.028737899
135	0x3ef46d63	0.47739705
136	0xbd971132	-0.073763266
137	0xbd951868	-0.07280046
138	0xbdc3c96d	-0.09559903
139	0xbd20e7b0	-0.039283454
140	0x39f14040	0.00046014972
141	0xbdbed65c	-0.093182296
142	0xbc835eec	-0.016036473
143	0xbb404bdf	-0.0029342098
144	0x3d20f921	0.039300088
145	0xbdf6f5cf	-0.12058603
146	0x3e8cec3e	0.27523988
147	0xbe009c76	-0.12559685
148	0x3d49644d	0.04916792
149	0x3e3f17c0	0.18661404
150	0xbd9c4325	-0.07629994
151	0x3d8cf384	0.068823844
152	0x3c469b82	0.012122037
153	0xbb68a7ec	-0.003550048
154	0x3c8e9522	0.017405096
155	0xbcabbf46	-0.02096523
156	0xbb6d97b5	-0.0036253755
157	0xbc01d241	-0.007923664
158	0xbaef150d	-0.0018240527
159	0xbc116626	-0.008874452
160	0x3c3d793a	0.011564547
161	0x3cab5742	0.020915631
162	0x3d09e794	0.033668116
163	0xbcd8997d	-0.026440376
164	0xbcd9d4d9	-0.026590751
165	0x3d843a0c	0.06456384
166	0xbc2d31a7	-0.01057092
167	0xba36d41b	-0.0006974355
168	0x3fb30538	1.3985968
169	0xbdf1247a	-0.117745355
170	0x3f1c0fac	0.60961413
171	0x3f309278	0.68973494
172	0x3ad5ea26	0.0016320392
173	0x3e61f92a	0.22067705
174	0x3df7d4ca	0.12101133
175	0x3e04f292	0.12983158
176	0xbd3fdbdf	-0.046840545
177	0x3e07bffa	0.13256827
178	0xbd605f06	-0.05477812
179	0x3e0fd27e	0.1404514
180	0xbe9675ab	-0.2938665
181	0xbde031f2	-0.10947026
182	0x3c125183	0.008930567
183	0xbe74e117	-0.2391399
184	0x3e705deb	0.23473327
185	0xbea03b2f	-0.31295153
186	0x3c9f385e	0.019436058
187	0xbd083f41	-0.03326345
188	0xbc6b9272	-0.014378177
189	0xbb9b7de4	-0.004745232
190	0xbd766214	-0.06015213
191	0x3c159e9c	0.009132054
192	0xbd04ac0f	-0.03239065
193	0x3ccb559e	0.024821099
194	0x3cee1dc5	0.02906693
195	0x3b451dc6	0.003007756
196	0x3d1596f5	0.036520917
197	0xbca6ef35	-0.020377735
198	0xbd8a6abc	-0.06758639
199	0x3db62126	0.08893041
200	0x3d3d9d48	0.046292573
201	0x3c83c0c2	0.016083125
202	0xbe51cc6e	-0.2048814
203	0x3d56a005	0.0523987
204	0xbf1b4edd	-0.6066721
205	0x3ffe7d54	1.9881997
206	0x3ee528fd	0.44757834
207	0xbe43cd35	-0.19121249
208	0xbe14efe7	-0.1454464
209	0xbeca2899	-0.394841
210	0x3e83fa78	0.2577703
211	0xbe2b4286	-0.16724595
212	0xbe3bf73e	-0.18356034
213	0x3cc5bff7	0.024139388
214	0x3db2f31e	0.08737777
215	0x3c85c2a5	0.016328165
216	0xbe747c59	-0.2387556
217	0x391754f6	0.00014432133
218	0xbe6e5e6b	-0.23278205
219	0xbcbe4737	-0.023227317
220	0x3dafaf37	0.085783415
221	0xbe51f714	-0.20504409
222	0xbdc178be	-0.09446858
223	0x3c19512d	0.009357733
224	0xbd1636c1	-0.03667331
225	0xbd74c82f	-0.059761222
226	0x3cb2aec6	0.021811854
227	0xbc41be0b	-0.011825095
228	0x3c20fd02	0.009825947
229	0x3c2daa13	0.010599631
230	0xbc187d3f	-0.009307205
231	0x3d41938c	0.047259852
232	0xbe17328d	-0.14765377
233	0xbe065fa8	-0.13122427
234	0x3e0d9856	0.13827643
235	0x3d84fa3a	0.064930394
236	0x3d94f490	0.07273209
237	0xbdac27e5	-0.08406047
238	0x3db862f7	0.09003251
239	0xbe38b5b5	-0.18038066
240	0x3f970c95	1.1800715
241	0xbf2b1af7	-0.6683802
242	0xbf164b7d	-0.58708936
243	0x3e06eb48	0.1317569
244	0xbed31f69	-0.41234902
245	0x3e4d47ca	0.20046917
246	0xbe919a59	-0.2843807
247	0xbe785166	-0.24249801
248	0xbce2f491	-0.027704509
249	0x3e672a3e	0.22574708
250	0x3d3fcbf0	0.04682535
251	0xbde19da2	-0.11016394
252	0xbe76fcdb	-0.24119894
253	0xbe1016e7	-0.14071237
254	0xbc461dd8	-0.012092076
255	0xbca5e5f9	-0.020251261

linear4.bias f4 [256]
0	0xbeb0b240	-0.34510994
1	0xbe8c5780	-0.27410507
2	0x3e554951	0.20828749
3	0x3e832fea	0.25622493
4	0x3ebf75f3	0.37394676
5	0xbe83d274	-0.257465
6	0x3e074d1e	0.13213012
7	0x3e904346	0.28176326
8	0xbaaf85cc	-0.0013391315
9	0x3e353a08	0.17697918
10	0xbe96c633	-0.2944809
11	0x3e5d2027	0.21594296
12	0x3e80a709	0.25127438
13	0xbe9cf685	-0.3065683
14	0xbea5681e	-0.32305998
15	0xbdb4e5e4	-0.08832911
16	0x3e958fde	0.29211324
17	0xbea1edb0	-0.31626654
18	0x3e80d0cc	0.251593
19	0xbe521293	-0.20514898
20	0xbed0626a	-0.40700084
21	0x3efe75a6	0.49699134
22	0x3e1aa32c	0.15101308
23	0xbe8394bc	-0.25699413
24	0x3ee150ef	0.4400706
25	0xbe803aea	-0.25044948
26	0x3e885690	0.26628542
27	0x3ec3cee3	0.3824378
28	0xbe3b2601	-0.18276216
29	0x3f03afa3	0.51439875
30	0xbeac05eb	-0.33598265
31	0x3ec5bc77	0.3862035
32	0xbeb395d2	-0.3507524
33	0x3ed51fac	0.41625726
34	0xbe1f7940	-0.15573597
35	0x3e187e52	0.14891937
36	0x3ec5f7d3	0.38665637
37	0x3ef0f881	0.47064593
38	0x3da175a8	0.07883769
39	0x3ef978c3	0.48724946
40	0xbe35f68e	-0.17769834
41	0x3ead108e	0.33801693
42	0xbe644297	-0.22291027
43	0xbe6a5252	-0.22882965
44	0x3e6fa149	0.23401369
45	0x3e6b2a5f	0.22965382
46	0x3e804e40	0.250597
47	0xbe85ad49	-0.2610877
48	0x3d81f0e9	0.06344778
49	0x3ea0edd4	0.31431448
50	0x3dffe0d3	0.12494054
51	0xbedaa8f6	-0.42707032
52	0xbece9f30	-0.40355825
53	0x3e8e6c60	0.2781706
54	0xbe98f122	-0.2987147
55	0xbead8233	-0.33888397
56	0x3e47ce95	0.19512399
57	0xbebacfff	-0.36486813
58	0x3e6ee4a0	0.23329401
59	0x3eb3ab65	0.350917
60	0x3e98ea26	0.2986614
61	0xbe80b14a	-0.2513526
62	0xbe50c745	-0.20388515
63	0x3dd90dd4	0.10598341
64	0xbd124b4f	-0.03571635
65	0xbe6cfb58	-0.23142755
66	0x3ec38910	0.38190508
67	0xbeba9cfc	-0.36447895
68	0x3ed20814	0.41021788
69	0xbe13ecc9	-0.14445795
70	0x3ec642c7	0.38722822
71	0x3e96bf7d	0.2944297
72	0xbebedbe7	-0.37277147
73	0x3e6a7f82	0.22900203
74	0xbeaf10b1	-0.34192422
75	0x3dd5f989	0.10447986
76	0x3e976b31	0.29573968
77	0x3e8a280a	0.26983672
78	0x3ed224ec	0.41043794
79	0xbe8c2850	-0.27374506
80	0xbe9d990c	-0.30780828
81	0x3eadf008	0.33972192
82	0x3ea23a7b	0.31685242
83	0x3ea9f1ef	0.33192393
84	0x3ea74ef1	0.32677415
85	0xbe94733d	-0.2899417
86	0xbe99ab21	-0.30013373
87	0xbe9ea52a	-0.30985385
88	0x3ea090ff	0.31360623
89	0xbea3f278	-0.32020926
90	0xbe2f838a	-0.17140022
91	0x3e779d56	0.24181113
92	0x3ee34797	0.44390556
93	0x3eaa3c94	0.33249342
94	0x3f125bca	0.5717131
95	0xbe98e089	-0.29858807
96	0xbe84ffc8	-0.25976396
97	0xbed3ab7c	-0.4134177
98	0xbe5e6f63	-0.21722178
99	0x3e6e0e13	0.23247556
100	0xbdbc2563	-0.091868185
101	0xbdebfc45	-0.11522726
102	0x3e6ce3bf	0.23133753
103	0x3e6bebce	0.23039171
104	0xbe556478	-0.20839107
105	0x3e74fc5c	0.23924392
106	0x3e4b6fbf	0.19866847
107	0x3e878372	0.26467472
108	0x3e685028	0.22686827
109	0x3e2d8e52	0.16948822
110	0x3eaa8fe2	0.333129
111	0xbe9c0776	-0.30474442
112	0xbeba5e1d	-0.36399928
113	0xbeb03f65	-0.34423366
114	0x3ee85a7f	0.45381543
115	0x3e872690	0.26396608
116	0xbe10c106	-0.14136133
117	0xbe4ec2d5	-0.2019151
118	0xbe5921d3	-0.21204309
119	0xbd0e05dc	-0.034673557
120	0x3e9f8424	0.31155503
121	0x3eb0b1de	0.34510702
122	0xbe305914	-0.1722148
123	0x3dfdba62	0.12389065
124	0x3e3bf1a8	0.18353903
125	0xbe36f33b	-0.17866223
126	0xbe310b9b	-0.17289583
127	0x3e40893d	0.18802352
128	0x3ebbecd1	0.36704114
129	0x3ea22aa4	0.31673157
130	0xbe8b5b15	-0.27217928
131	0xbe722e82	-0.23650554
132	0xbe7d6509	-0.24745573
133	0xbe9b0989	-0.30280712
134	0x3e832209	0.25611904
135	0xbea5ad44	-0.32358754
136	0x3e990fe4	0.29894936
137	0x3d94d8e0	0.07267928
138	0x3ea7afea	0.327514
139	0xbe3bc903	-0.18338399
140	0x3ea9c575	0.3315846
141	0x3e96716d	0.29383412
142	0xbe577874	-0.21042043
143	0x3e520273	0.20508747
144	0xbe80868b	-0.25102648
145	0xbeb0a9cf	-0.34504554
146	0xbed16c47	-0.40902922
147	0xbdb8b3b4	-0.09018651
148	0xbea1939d	-0.31557932
149	0xbeaefbde	-0.34176534
150	0x3e85df0f	0.26146743
151	0x3e9fc781	0.31206897
152	0x3f20e63a	0.628513
153	0x3e23741b	0.1596226
154	0xbe9f1b36	-0.31075448
155	0xbea323d3	-0.3186327
156	0xbef0d8f8	-0.47040534
157	0x3eb93787	0.36175177
158	0x3e85dd4d	0.26145402
159	0xbe6abd94	-0.22923881
160	0x3e71ae8b	0.23601739
161	0xbe692a4d	-0.22770043
162	0x3e856eb5	0.26061025
163	0xbeaaa02a	-0.3332532
164	0xbdec5d9b	-0.11541291
165	0xbe630f27	-0.22173749
166	0x3e490c15	0.19633515
167	0xbeb235cd	-0.34806672
168	0xbe9e291f	-0.30890748
169	0x3e889a7b	0.2668036
170	0x3eb0dd23	0.34543714
171	0x3e82ccba	0.2554682
172	0x3ed67dcf	0.4189286
173	0xbe8362db	-0.25661358
174	0xbe98e1fd	-0.29859915
175	0x3e408d95	0.1880401
176	0xbea0aecb	-0.31383356
177	0xbe56d360	-0.2097907
178	0xbea5d9f1	-0.3239284
179	0xbe9ed5f0	-0.31022596
180	0x3ea3ad8a	0.31968337
181	0xbe99b069	-0.30017403
182	0x3ea7b8ed	0.32758275
183	0x3e5f69c6	0.21817693
184	0x3e5d43de	0.2160792
185	0xbeae6ed5	-0.34068933
186	0x3e64c5d1	0.22341086
187	0x3ddaea7e	0.10689257
188	0x3e9987e1	0.2998648
189	0xbec45bc5	-0.38351265
190	0x3e88a2db	0.2668675
191	0x3e3867b4	0.1800831
192	0xbec89669	-0.39177254
193	0x3e4f3511	0.20235087
194	0xbe9c130c	-0.30483282
195	0xbe990263	-0.29884633
196	0xbddd1fe7	-0.107971005
197	0xbe3bf477	-0.18354975
198	0x3df682e7	0.120366864
199	0x3e8098ac	0.2511648
200	0xbe968530	-0.2939849
201	0xbeef1650	-0.4669671
202	0x3f02fbdc	0.51165557
203	0xbed2ba40	-0.41157722
204	0xbe687903	-0.22702412
205	0xbe53061d	-0.20607801
206	0xbd887106	-0.066621825
207	0xbf0c46ec	-0.5479572
208	0x3e90eed2	0.28307205
209	0x3ea55399	0.32290342
210	0x3ed0aa37	0.40754864
211	0xbdc0c2e3	-0.09412172
212	0x3eba0046	0.36328334
213	0x3e9098f2	0.28241688
214	0x38bd41cc	9.024478e-05
215	0x3e971ce8	0.2951424
216	0xbe846e64	-0.2586547
217	0xbe0fd0d0	-0.140445
218	0x3ed4c875	0.41559187
219	0xbee679e5	-0.45014873
220	0xbe99bcef	-0.30026957
221	0xbebf15ae	-0.37321228
222	0xbe959b68	-0.29220128
223	0xbe85ae1b	-0.26109394
224	0x3e66a0e2	0.2252231
225	0x3dbff4c0	0.09372854
226	0x3e15da39	0.14634027
227	0x3e8cfcb0	0.27536535
228	0xbe3ca24b	-0.18421285
229	0x3e922520	0.2854395
230	0x3c8b24df	0.016985355
231	0xbeaad6aa	-0.333669
232	0xbe69863b	-0.22805111
233	0x3e61155c	0.21980804
234	0x3eab3dc1	0.33445552
235	0xbe4e37b6	-0.2013844
236	0xbe93699b	-0.28791508
237	0xbe91bfa0	-0.2846651
238	0x3eb7d002	0.35900885
239	0xbe7fa605	-0.24965675
240	0x3ebac45d	0.36477938
241	0x3e176906	0.14786157
242	0xbe618592	-0.2202361
243	0xbe88ab6b	-0.26693282
244	0x3eb057db	0.34442028
245	0xbe6cca74	-0.23124105
246	0x3e71ffe2	0.23632768
247	0xbe003e64	-0.125238
248	0x3e232bc4	0.15934664
249	0xbec5c8be	-0.38629717
250	0xbea9f429	-0.33194092
251	0x3e9997cf	0.29998633
252	0xbe9e3fa9	-0.30907944
253	0x3e41846f	0.18898176
254	0xbdbf76a0	-0.09348798
255	0x3e7bf080	0.24603462
