Minitaur-Soft-Actor-Critic/dir_lr0.0001/weights_actor_1500_13.26.pth (torch_old, 310673 bytes, 8 tensors)

linear1.weight f4 [256, 28]
-0.23468508 0.015875796 0.04173853 0.08763131 0.06347222 -0.17795756 0.10183629 0.06711337
0.0014045581 -0.0041301083 -0.01095742 0.012652308 -0.0008322294 -0.021984138 -0.0046359994 -0.0018386262
-0.07645346 0.017966721 -0.0558407 0.008146628 -0.05995616 0.012224903 -0.018406132 0.008776071
2.441532 -1.4808354 -0.28400806 0.59798926 -0.010504592 0.04576619 0.20516619 0.01432238
0.17326218 -0.0668748 0.10980412 -0.13356997 0.005695829 0.0014588883 0.0056462046 -0.0023796344
0.004637561 0.014642799 -0.018504191 0.009711309 -0.044416424 -0.04445554 -0.01648817 0.0315519
0.023301473 -0.09406105 0.08214369 -0.0046811956 -2.8648958 1.9134234 -0.5285602 -0.05400685
0.09906068 -0.1152264 0.11930237 -0.43146953 -0.017950682 0.04114349 0.087345496 0.18154271
0.013132528 0.019138038 -0.0037540144 -0.007104903 0.000531169 -0.010898713 0.03386089 -0.04610394
-0.013406117 -0.017768318 0.011576056 0.15881796 0.020223808 -0.034375798 -0.05675748 0.18287177
-1.6537416 -1.0707859 0.6523195 0.24090412 0.056458466 -0.11195946 -0.16200995 -0.20149289
0.085611425 -0.050465237 -0.050573073 -0.13364609 0.04699135 0.05117633 -0.014677691 -0.06882498
0.10781968 -0.08064428 0.008998503 0.008911109 -0.032140482 -0.054434266 0.083689675 0.013641732
-0.037865967 -0.03962393 0.00044400766 0.01595238 0.69961935 0.25429115 -0.24427946 -0.12467943
0.1653493 0.0081347115 0.09230865 0.047725987 -0.110049255 -0.030711956 -0.0037104425 -0.024727182
-0.009393473 0.0018752647 -0.002134214 0.04950227 -0.032544073 0.010575111 0.072541796 -0.030982835
0.022208447 0.06639319 -0.18052474 -0.07309222 -0.042200178 -0.08551247 -0.12747332 0.06881174
-0.47928157 -0.49513018 0.31402966 -0.05050705 -0.3298259 0.034825016 -0.17899506 -0.038881663
-0.10179457 -0.21442643 -0.081490465 0.028824165 -0.04903697 0.027127251 -0.041396223 0.010816729
0.009511469 -0.05253377 -0.008879346 -0.04210547 0.28987575 -0.10661202 -0.0049153236 -0.00999259
-0.16287906 -0.07900284 -0.20915765 0.2392378 -0.4096774 0.45797303 -0.09113413 -0.14702073
-0.13043714 0.029294886 0.20955762 0.11430131 0.02474688 0.14767118 -0.10959781 -0.052204628
0.0064167334 -0.0051537696 -0.03384384 0.039379023 0.014615901 -0.0015786905 -0.019965483 -0.047320012
0.019245239 -0.063615665 -0.03561079 0.088233605 -0.02600045 -0.15555061 0.14841351 -0.08082494
1.3278519 0.7410685 0.46438438 -0.0751156 -0.170093 -0.036693 -0.20225322 -0.10776333
0.29435906 0.055529036 0.14270861 0.09778147 0.029616572 -0.0005127306 -0.01986648 0.0070222
-0.020023791 0.01080838 -0.03383644 0.022496354 -0.026313089 0.060799703 -0.01756616 0.06474714
-0.1281657 0.15255293 0.10428347 -0.08918862 0.09971052 2.033077 0.28820693 -0.284604
0.11348529 0.19579421 0.16069464 0.020124387 -0.15922387 0.1960461 -0.14220014 0.17423666
0.009405278 -0.026737794 -0.013632132 -0.012393353 0.013378909 -0.01636405 -0.0123879425 0.034117114
0.0039572413 0.07881443 -0.012255332 0.026123587 -0.011470678 0.0308133 0.04476696 -0.16466267
0.31357625 -1.7575952 0.6424643 0.28058955 0.12436192 0.25673413 -0.11367293 0.16669792
00000000: 4951 70be f50d 823c 05f6 2a3d 0b78 b33d
00000010: b9fd 813d 823a 36be 8b8f d03d bc72 893d
00000020: 2619 b83a dc55 87bb c086 33bc a04b 4f3c
00000030: f829 5aba 1418 b4bc 95e9 97bb 0ffe f0ba
00000040: a293 9cbd f22e 933c 38b9 64bd 6f79 053c
00000050: 9794 75bd f64a 483c 75c8 96bc 82c9 0f3c
00000060: 0f42 1c40 048c bdbf 8169 91be d315 193f
00000070: 741b 2cbc 5475 3b3d 1617 523e 6aa8 6a3c
00000080: a46b 313e a8f5 88bd fce0 e03d 91c6 08be
00000090: 14a4 ba3b 2b38 bf3a cc03 b93b a4f3 1bbb
000000a0: aef6 973b 5ae8 6f3c 1a96 97bc 2f1c 1f3c
000000b0: ffed 35bd 0317 36bd 3312 87bc 913c 013d
000000c0: bbe2 be3c 14a3 c0bd f33a a83d b764 99bb
000000d0: 745a 37c0 0feb f43f b94f 07bf 4936 5dbd
000000e0: 53e0 ca3d d2fb ebbd cd54 f43d 93e9 dcbe
000000f0: 4f0d 93bc 1386 283d 32e2 b23d 55e6 393e
00000100: d129 573c 60c7 9c3c e905 76bb 3fd0 e8bb
00000110: 263e 0b3a 8490 32bc b7b1 0a3d 7cd7 3cbd
00000120: 55a5 5bbc dd8e 91bc 7fa9 3d3c 2da1 223e
00000130: 66ac a53c a3cd 0cbd 887a 68bd bd42 3b3e
00000140: cead d3bf 830f 89bf 69fe 263f 92af 763e
00000150: fe40 673d 004b e5bd f0e5 25be 2754 4ebe
00000160: 0b55 af3d a3b4 4ebd b625 4fbd 85da 08be
00000170: 007a 403d 459e 513d b37a 70bc 1cf4 8cbd
00000180: 90d0 dc3d d428 a5bd 756e 133c e6ff 113c
00000190: bda5 03bd 77f6 5ebd 7e65 ab3d 9281 5f3c
000001a0: 5819 1bbd b44c 22bd b3c9 e839 91ae 823c
000001b0: 411a 333f 7332 823e 6524 7abe ee57 ffbd
000001c0: 5451 293e 7447 053c 510c bd3d 537c 433d
000001d0: 8161 e1bd a497 fbbc e52a 73bb a990 cabc
000001e0: 15e7 19bc 71cb f53a 2bde 0bbb e4c2 4a3d
000001f0: ef4c 05bd 3b43 2d3c cb90 943d b7cf fdbc
00000200: 7dee b53c 27f9 873d 7adb 38be 60b1 95bd
00000210: 18da 2cbd 2921 afbd 5e88 02be 2bed 8c3d
00000220: 6564 f5be b481 fdbe 7fc8 a03e 7be0 4ebd
00000230: f1de a8be ada4 0e3d 7b4a 37be 6142 1fbd
00000240: ac79 d0bd 9a92 5bbe 79e4 a6bd a820 ec3c
00000250: fdda 48bd f839 de3c 168f 29bd a638 313c
00000260: fed5 1b3c a72d 57bd ad7a 11bc c976 2cbd
00000270: 986a 943e 6757 dabd b910 a1bb f6b7 23bc
00000280: c5c9 26be 3ecc a1bd 6c2d 56be c1fa 743e
00000290: 3cc1 d1be 717b ea3e 88a4 babd 9a8c 16be
000002a0: 5091 05be d4fb ef3c 4696 563e ce16 ea3d
000002b0: f8b9 ca3c 1d37 173e d174 e0bd 85d4 55bd
000002c0: 7643 d23b f4e0 a8bb d79f 0abd e64b 213d
000002d0: 8877 6f3c 10ec ceba a78e a3bc a1d2 41bd
000002e0: 31a8 9d3c ee48 82bd 9fdc 11bd d2b3 b43d
000002f0: e5fe d4bc a948 1fbe b6f9 173e 8c87 a5bd
00000300: 0df7 a93f aab6 3d3f cac3 ed3e 35d6 99bd
00000310: dc2c 2ebe 664b 16bd 781b 4fbe 05b3 dcbd
00000320: 3bb6 963e 6a72 633d 3522 123e a741 c83d
00000330: 749e f23c c568 06ba 07bf a2bc 7c1a e63b
00000340: ef08 a4bc a215 313c 1498 0abd 464a b83c
00000350: 8c8e d7bc 1c09 793d e8e6 8fbc 269a 843d
00000360: df3d 03be d636 1c3e 9292 d53d 86a8 b6bd
00000370: 0735 cc3d ef1d 0240 dc8f 933e 9eb7 91be
00000380: fa6a e83d 477e 483e 238d 243e e6db a43c
00000390: 950b 23be 4fc0 483e ea9c 11be 186b 323e
000003a0: 9818 1a3c 3809 dbbc 4e59 5fbc 7d0d 4bbc
000003b0: 3633 5b3c e60d 86bc ccf6 4abc 63be 0b3d
000003c0: bfab 813b 7669 a13d 97ca 48bc 2201 d63c
000003d0: 83ef 3bbc 2c6c fc3c 8f5d 373d 559d 28be
000003e0: 118d a03e e1f8 e0bf 8a78 243f 6fa9 8f3e
000003f0: 76b1 fe3d a872 833e 5acd e8bd dcb2 2a3e

linear1.bias f4 [256]
0.38916016 0.09221688 0.08536172 -0.016189665 -0.024295239 -0.054667767 0.062316217 -0.17171142
0.12570646 0.25659183 0.23524226 -0.108368374 0.11454246 0.07114548 0.124940686 0.0001485006
-0.03953993 0.08869673 0.21513239 0.00646431 -0.15868114 0.022005308 -0.05512363 -0.112855025
0.004293842 -0.02716736 -0.33668828 0.060109444 -0.20802408 0.032227326 -0.047132384 0.22376788
-0.24229659 -0.1759693 -0.008533758 0.04370913 -0.1749121 0.26937905 0.5811671 0.054885
0.03151254 0.094244584 0.32135049 -0.33939043 -0.10180905 -0.0946817 -0.035128642 -0.25550175
-0.16673581 -0.05216957 -0.0051888796 0.008829589 0.2106586 0.024775699 0.026041085 -0.055746056
0.24820016 0.100949205 -0.0881357 0.020857183 -0.20795755 -0.021668397 0.14337078 0.024140298
-0.01660721 -0.18862104 -0.15018821 -0.13604847 -0.12935817 -0.10289338 0.15186681 -0.051532716
-0.14016554 0.10383973 0.089452446 0.031657644 -0.0965354 -0.04067861 -0.18035184 -0.18682086
0.45538777 0.0009049411 -0.053758133 0.16140538 0.013205317 -0.010688536 0.07974549 -0.054560605
-0.07139467 -0.057857763 0.2934688 0.022234824 -0.045254704 0.02452989 0.21200421 -0.04613239
0.17664984 0.18231678 0.16441408 0.005839253 0.008480482 -0.046752337 -0.08949034 0.5333355
0.073717 -0.097111605 -0.0956442 0.10096866 0.42396507 0.36551338 0.02475765 -0.07027072
-0.10211888 0.33447495 0.08499746 0.004450859 -0.082993306 -0.013161006 -0.21677017 -0.08771126
0.041505825 0.24503268 -0.12470606 0.042381022 -0.24315473 -0.07646047 -0.07423457 0.036763687
-0.10888585 0.051928278 -0.019508641 -0.06555611 -0.031617515 0.08066334 -0.052644033 0.03029034
-0.057533525 0.0065294285 -0.13968566 -0.07865861 0.029706497 0.081727974 -0.106709436 -0.07214581
0.19555421 -0.009730282 0.13128026 0.12663282 -0.18417767 -0.11990075 0.09844575 0.04346177
-0.15078287 -0.022313058 -0.0358862 -0.1156883 -0.24634036 0.03382543 -0.041901655 -0.1316731
-0.053209517 0.093959935 0.30324945 -0.07434512 -0.22669877 0.0011837095 -0.06653474 -0.032836515
-0.25380188 -0.07200403 0.20740369 0.06803951 0.41358733 0.07208224 -0.040672094 0.12751478
0.059371945 -0.11257336 -0.21944338 -0.23461142 -0.07907964 -0.16889074 -0.18099368 -0.18287084
0.19243489 0.059489712 0.057653267 -0.030365147 0.04449925 -0.22248179 -0.12183766 -0.17298152
0.06736558 0.049050115 0.02887824 0.1482505 0.03292144 0.083112255 0.10726151 0.034829907
-0.03515612 -0.16807216 -0.12771699 0.05728646 0.12367832 -0.2894994 0.11517929 -0.06622699
-0.22036736 0.017569 -0.08182619 0.4388623 -0.011023736 0.23578207 -0.097385265 0.16703051
-0.04080902 0.15678044 0.09793263 -0.15518498 -0.10686021 0.3050542 0.15847954 -0.22264269
-0.11338978 0.008851694 -0.12964042 0.40549538 -0.21339378 0.13587551 -0.090917476 -0.2536857
-0.08248995 -0.03577925 0.1366977 0.11747342 -0.14274286 0.39138174 0.06518372 0.055189166
-0.05936155 0.27264422 0.32764855 -0.055146467 -0.03908641 -0.04076549 0.5075624 0.007726404
0.012663489 -0.003984404 -0.1939082 -0.027800025 -0.027866567 -0.25801504 -0.062988356 -0.038620356
00000000: 0040 c73e 34dc bc3d 20d2 ae3d 30a0 84bc
00000010: cf06 c7bc 4feb 5fbd 4a3f 7f3d 1ed5 2fbe
00000020: 32b9 003e 0160 833e 59e3 703e 3df0 ddbd
00000030: 3d95 ea3d b9b4 913d e7e0 ff3d d4b6 1b39
00000040: 9ff4 21bd a2a6 b53d aa4b 5c3e 90d2 d33b
00000050: 4f7d 22be 7a44 b43c 51c9 61bd 8920 e7bd
00000060: 5bb3 8c3b 158e debc 6862 acbe 5235 763d
00000070: 4404 55be cd00 043d e30d 41bd 6823 653e
00000080: 991c 78be 4c31 34be 2dd1 0bbc 5808 333d
00000090: 281c 33be 0dec 893e 5ec7 143f 18cf 603d
000000a0: 4b13 013d 4e03 c13d 0d88 a43e 95c4 adbe
000000b0: 4381 d0bd 7be8 c1bd 0de3 0fbd 20d1 82be
000000c0: cbbc 2abe c2af 55bd 7a07 aabb fba9 103c
000000d0: e3b6 573e 68f6 ca3c 1d54 d53c fa55 64bd
000000e0: 2f28 7e3e 75be ce3d 7d80 b4bd afdc aa3c
000000f0: d3f2 54be ec81 b1bc cacf 123e e0c1 c53c
00000100: d80b 88bc e025 41be f0ca 19be 4a50 0bbe
00000110: 7876 04be c4b9 d2bd f982 1b3e f813 53bd
00000120: 8e87 0fbe eda9 d43d d832 b73d 72ab 013d
00000130: 5ab4 c5bd 9d9e 26bd 27ae 38be f84d 3fbe
00000140: 9628 e93e 9239 6d3a 7d31 5cbd 7447 253e
00000150: 1d5b 583c f81e 2fbc 9a51 a33d f17a 5fbd
00000160: 5e37 92bd 43fc 6cbd 8b41 963e ce25 b63c
00000170: ff5c 39bd e8f2 c83c a217 593e 51f5 3cbd
00000180: b2e3 343e 40b1 3a3e 2a5c 283e 3457 bf3b
00000190: b8f1 0a3c 617f 3fbd b646 b7bd ad88 083f
000001a0: f0f8 963d 73e2 c6bd 1be1 c3bd a8c8 ce3d
000001b0: f311 d93e 9224 bb3e 8ed0 ca3c 18ea 8fbd
000001c0: b423 d1bd 4d40 ab3e 2613 ae3d 83d8 913b
000001d0: 65f8 a9bd 43a1 57bc 00f9 5dbe f6a1 b3bd
000001e0: 0302 2a3d d9e9 7a3e e465 ffbd b997 2d3d
000001f0: 8efd 78be 4f97 9cbd 4b08 98bd 8595 163d
00000200: 8bff debd bfb2 543d 96d0 9fbc 4842 86bd
00000210: 5e81 01bd d232 a53d 45a1 57bd 7223 f83c
00000220: 46a8 6bbd d1f4 d53b c209 0fbe c417 a1bd
00000230: 0a5b f33c ff60 a73d 7a8a dabd 2fc1 93bd
00000240: 5d3f 483e c36b 1fbc 556e 063e 09ac 013e
00000250: 1299 3cbe 868e f5bd ed9d c93d f804 323d
00000260: d366 1abe e0c9 b6bc 68fd 12bd fded ecbd
00000270: a640 7cbe 898c 0a3d 12a1 2bbd 50d5 06be
00000280: 39f2 59bd 116e c03d 8343 9b3e 4142 98bd
00000290: b923 68be b326 9b3a 5e43 88bd 957f 06bd
000002a0: 52f2 81be d976 93bd a261 543e 4c58 8b3d
000002b0: b8c1 d33e da9f 933d c897 26bd 3c93 023e
000002c0: ff2f 733d dd8c e6bd c4b5 60be fa3d 70be
000002d0: 82f4 a1bd b2f1 2cbe 6856 39be 7e42 3bbe
000002e0: a70d 453e 7cab 733d d525 6c3d 54c0 f8bc
000002f0: d844 363d 44d2 63be 0686 f9bd 1122 31be
00000300: f7f6 893d c6e8 483d 0f92 ec3c fbce 173e
00000310: a2d8 063d c236 aa3d ecab db3d cea9 0e3d
00000320: ddff 0fbd 1c1b 2cbe 3ec8 02be 35a5 6a3d
00000330: 0f4b fd3d 4439 94be 1fe3 eb3d 04a2 87bd
00000340: fba7 61be ddec 8f3c 7d94 a7bd 8fb2 e03e
00000350: e69c 34bc db70 713e ed71 c7bd 0c0a 2b3e
00000360: 5c27 27bd 0d8b 203e e790 c83d d0e8 1ebe
00000370: 87d9 dabd 1030 9c3e 7648 223e 72fc 63be
00000380: e738 e8bd b206 113c 75c0 04be 179d cf3e
00000390: e683 5abe f322 0b3e f132 babd 18e3 81be
000003a0: 7ef0 a8bd 438d 12bd 7bfa 0b3e e895 f03d
000003b0: 2f2b 12be 3063 c83e 0b7f 853d 090e 623d
000003c0: 1925 73bd 0698 8b3e 8dc1 a73e 43e1 61bd
000003d0: 1219 20bd b7f9 26bd 9cef 013f c62d fd3b
000003e0: 867a 4f3c 9a8f 82bb df8f 46be e1bc e3bc
000003f0: 6d48 e4bc 8c1a 84be 0a00 81bd 6130 1ebd

linear2.weight f4 [256, 256]
-0.18128422 0.074586205 -0.090772346 0.07910065 0.03362107 0.026525375 -0.05351831 0.045305297
0.02167264 -0.12632784 -0.08486243 0.04499581 0.021071443 -0.024064597 -0.15216911 -0.004400447
0.059408866 -0.022903752 -0.13669692 0.036541168 -0.09933227 -0.016792327 -0.01674301 -0.14463797
-0.00042833612 0.0076667415 0.09489411 0.06682268 0.029364623 0.060442034 -0.052801464 -0.14283636
-0.08931625 -0.09476485 0.019706022 -0.20291312 0.1925682 -0.0022841967 -0.12477425 -0.06708317
-0.03027866 -0.1062388 -0.05572855 -0.05529966 0.012282162 -0.068460725 0.08185512 0.18811908
0.10290617 -0.07930997 -0.010101248 0.103025906 0.17145644 -0.0108395675 -0.1796434 -0.0829136
-0.14345828 -0.17250472 -0.0028043382 0.094533995 -0.04018337 0.083650395 0.0031059622 -0.076550186
-0.18709898 -0.20633589 0.047383897 0.103231825 -0.2671072 -0.03419868 -0.12303307 0.010882591
-0.011616073 0.11782208 -0.016518904 -0.07786655 0.03579263 -0.014166716 0.017569855 0.069434844
-0.07419015 -0.07337115 0.0407054 -0.0033101118 0.11968374 -0.0540402 0.044107687 -0.0062889834
0.059601407 -0.07331078 0.0141141955 -0.11265167 0.05935799 -0.027468955 -0.13467498 -0.060102683
0.09694788 0.07372109 0.17744544 0.0070686475 0.019252721 -0.02162991 0.04765678 -0.025020057
0.1084218 0.085176066 0.052575316 0.1370667 0.003579523 -0.031461 0.051466815 -0.040246453
0.048803616 -0.18385632 -0.10933547 0.0627692 0.14603005 -0.027870161 -0.008859171 0.24669856
0.011216329 0.054442838 0.059240572 0.08341331 -0.117634155 0.03340994 -0.060835518 -0.013233105
0.021543277 -0.14925021 -0.12878574 -0.043099366 -0.07787198 -0.008495583 -0.14887312 0.007430698
-0.13608426 -0.021072187 0.11302705 0.011805332 0.116089866 -0.18684228 0.1326827 -0.0030659926
0.06606366 0.016455175 0.030277101 0.083145544 -0.08464542 -0.022075865 0.024176791 -0.1372058
0.07552753 0.062364705 -0.0475952 0.015166086 -0.016238255 0.020310037 -0.11760129 -0.097604
-0.09619571 -0.20682016 -0.13558806 -0.056232218 0.045870822 0.03424813 0.05289316 -0.028008023
-0.023264766 0.055057872 -0.059670165 0.088612385 -0.10099424 -0.06375652 0.026903681 0.057199024
-0.08406092 0.14590962 0.07196073 -0.029698571 0.02425314 -0.10215485 -0.03566735 0.028160278
0.08798538 -0.18946101 -0.09052095 -0.05157277 0.057796594 0.051933516 0.04887151 0.047608986
-0.10112125 -0.08871643 -0.03219396 -0.1616863 0.12525482 -0.161499 0.04834877 0.006334531
-0.058666803 -0.021034239 0.043802857 0.029316196 -0.16243555 -0.05070437 -0.20203298 0.06793622
-0.07319089 -0.060882855 0.068868965 -0.14663163 0.00084337074 -0.04524193 -0.011405464 0.04116376
0.03794675 0.059496805 -0.0118386485 0.07035219 -0.12685505 -0.004430446 -0.14047247 0.093087934
0.023247931 -0.05396336 0.080831766 -0.055170916 0.038778905 -0.08295537 0.02942167 -0.019935146
-0.08224938 -0.19692835 0.022255871 0.07674565 -0.07536638 -0.10426318 0.11386819 0.021551514
0.13513474 -0.017613923 -0.21233748 0.021500798 0.021549346 0.15661427 -0.17504787 -0.056400225
-0.10215094 0.05176924 -0.09818221 -0.11487993 -0.036921047 0.038244862 -0.004660115 -0.004449478
00000000: 92a2 39be a7c0 983d dae6 b9bd 86ff a13d
00000010: 3fb6 093d be4b d93c 0436 5bbd 0c92 393d
00000020: d28a b13c 165c 01be 5bcc adbd 874d 383d
00000030: 059e ac3c 1e23 c5bc 38d2 1bbe a031 90bb
00000040: b656 733d a6a0 bbbc 47fa 0bbe 31ac 153d
00000050: b86e cbbd 1090 89bc a328 89bc fa1b 14be
00000060: 4d92 e0b9 4a39 fb3b d857 c23d 54da 883d
00000070: 148e f03c 1192 773d 5946 58bd b243 12be
00000080: 70eb b6bd 1314 c2bd 866e a13c 75c8 4fbe
00000090: 9930 453e 76b2 15bb a489 ffbd e762 89bd
000000a0: f40a f8bc ba93 d9bd 9f43 64bd e581 62bd
000000b0: 1f3b 493c 2335 8cbd a8a3 a73d 4aa2 403e
000000c0: 78c0 d23d 446d a2bd b47f 25bc 3fff d23d
000000d0: 4792 2f3e 7198 31bc 70f4 37be 9bce a9bd
000000e0: bae6 12be 14a5 30be fdc8 37bb 0a9b c13d
000000f0: 5197 24bd e650 ab3d 668d 4b3b 58c6 9cbd
00000100: e096 3fbe b749 53be 9e15 423d 356b d33d
00000110: 46c2 88be ea13 0cbd c3f8 fbbd e54c 323c
00000120: 5751 3ebc b44c f13d a752 87bc 7f78 9fbd
00000130: 4b9b 123d 831b 68bc a8ee 8f3c db33 8e3d
00000140: 01f1 97bd 9d43 96bd b5ba 263d 76ee 58bb
00000150: c01c f53d 4259 5dbd 43aa 343d d113 cebb
00000160: 9b20 743d f623 96bd 3a3f 673c ebb5 e6bd
00000170: 5d21 733d 9306 e1bc 3de8 09be 3b2e 76bd
00000180: 9c8c c63d 15fb 963d 42b4 353e 1da0 e73b
00000190: e2b7 9d3c 3631 b1bc c133 433d ddf6 ccbc
000001a0: 400c de3d ca70 ae3d 3759 573d 375b 0c3e
000001b0: 6e96 6a3b 40dd 00bd dece 523d 77d9 24bd
000001c0: 4de6 473d d544 3cbe 46eb dfbd 238d 803d
000001d0: e788 153e f74f e4bc 0e26 11bc 8c9e 7c3e
000001e0: b2c4 373c 74ff 5e3d 3ea6 723d 99d4 aa3d
000001f0: 2dea f0bd dcd8 083d aa2e 79bd aacf 58bc
00000200: 877b b03c 0cd5 18be 69e0 03be f688 30bd
00000210: 587b 9fbd 0f31 0bbc 3272 18be 367d f33b
00000220: ac59 0bbe 949f acbc ba7a e73d 276b 413c
00000230: 86c0 ed3d 9553 3fbe f9dd 073e d2ee 48bb
00000240: 624c 873d 01cd 863c af07 f83c 3648 aa3d
00000250: 945a adbd 72d8 b4bc 680e c63c ad7f 0cbe
00000260: 2dae 9a3d 2272 7f3d 2ff3 42bd 2d7b 783c
00000270: 1706 85bc 3c61 a63c f2d8 f0bd 9be4 c7bd
00000280: 4202 c5bd aac8 53be 99d7 0abe c153 66bd
00000290: 0be3 3b3d c447 0c3d 80a6 583d 1571 e5bc
000002a0: c095 bebc 5d84 613d b468 74bd 697a b53d
000002b0: 11d6 cebd c792 82bd 1c65 dc3c 8649 6a3d
000002c0: 2228 acbd 5569 153e 2660 933d 6b4a f3bc
000002d0: 85ae c63c 9036 d1bd ed17 12bd 62b0 e63c
000002e0: ae31 b43d 1102 42be 0c63 b9bd f83d 53bd
000002f0: 1fbc 6c3d 3db8 543d 7e2d 483d a401 433d
00000300: a818 cfbd f6b0 b5bd d0dd 03bd 1891 25be
00000310: cd42 003e fe5f 25be 5c09 463d e691 cf3b
00000320: 9a4c 70bd ff4f acbc a06a 333d 8528 f03c
00000330: 8155 26be 63af 4fbd bce1 4ebe 2522 8b3d
00000340: 1be5 95bd 4d60 79bd 2c0b 8d3d 9a26 16be
00000350: a715 5d3a 9a4f 39bd fcdd 3abc 559b 283d
00000360: 0d6e 1b3d ecb2 733d e4f6 41bc cf14 903d
00000370: 4ae6 01be 462d 91bb 04d8 0fbe e3a4 be3d
00000380: 7272 be3c af08 5dbd 208b a53d e6fa 61bd
00000390: a1d6 1e3d 81e4 a9bd b705 f13c 084f a3bc
000003a0: 5d72 a8bd 96a7 49be f251 b63c d32c 9d3d
000003b0: b059 9abd ef87 d5bd ba33 e93d cd8c b03c
000003c0: c360 0a3e 134b 90bc ff6e 59be 7122 b03c
000003d0: 4188 b03c 7e5f 203e c03f 33be ec03 67bd
000003e0: 8334 d1bd fc0b 543d c113 c9bd 2b46 ebbd
000003f0: 863a 17bd a5a6 1c3d e1b3 98bb edcc 91bb

linear2.bias f4 [256]
-0.07906152 0.0063760006 -0.011023749 -0.072833955 -0.04826813 0.18177795 0.14317003 0.11587852
0.26378 0.07002472 0.03789254 -0.09906037 0.07052385 0.034944993 -0.024247736 0.08603883
0.00023020907 0.18552817 0.06765171 0.07376093 -0.053467087 0.36173707 0.06317783 0.12796223
0.07177102 0.112376824 -0.074132316 0.18330096 0.07406539 0.015416481 0.12534924 -0.033472378
0.032972984 0.00921513 0.068673156 -0.16145869 0.11948868 0.1100994 0.10263561 0.07291638
0.012079587 -0.01437236 0.2395273 0.07845871 -0.030569367 0.09171168 0.010032127 0.053861313
0.044850864 0.19461374 0.07270102 -0.04172429 0.07714791 0.20232695 0.20891769 0.08998824
0.11275055 0.02725569 -0.04367135 0.14202604 -0.026165387 -0.03583149 0.015882798 0.017267697
0.00971111 0.08537326 -0.04776714 -0.069498606 0.07835291 0.29593888 0.011645139 -0.002599911
0.034046352 -0.022310495 -0.013279624 0.08476272 0.085308276 0.031067487 -0.00113139 0.19748046
0.03119151 -0.025003757 -0.053146128 0.1834803 -0.015752688 0.14414923 0.056106485 -0.031315897
0.13098572 -0.038228676 0.03592667 0.3442527 0.06767555 -0.10059788 0.12048905 0.029483933
0.08475094 0.10124938 0.084608756 -0.014727316 -0.022825284 -0.028172184 0.03618144 0.079707116
0.16220231 0.057303563 -0.020530807 -0.17132962 0.038472682 0.11421056 -0.032568865 -0.05348662
0.10074071 0.022503866 -0.0068522547 -0.15068373 -0.08193768 0.08946311 0.04159363 0.01632144
0.08738929 -0.07912051 0.33950734 -0.086848624 0.48989096 0.07660291 0.23848203 0.10434261
0.07687289 0.05756792 -0.058688857 -0.10283515 -0.0075655417 0.060100436 0.10162756 -0.06834322
-0.0056617735 0.005100824 -0.07146142 0.061345804 0.03968881 -0.06491183 0.12035488 -0.080906
0.059971273 0.032859586 0.03779367 -0.012021348 -0.021034816 0.14279217 -0.025759466 0.018411437
-0.06364247 0.059039656 0.057468962 0.11870793 0.052506052 -0.04291763 0.05919659 0.07248577
-0.1897139 -0.046960294 -0.011314445 -0.010174507 0.09386153 -0.015569897 0.29629713 -0.04705575
0.020277072 0.021193266 0.06836601 -0.102733135 -0.007946685 -0.0046414537 -0.026843483 -0.03389213
-0.08223385 0.013458713 0.057730068 0.15704213 0.050796047 -0.03758814 0.056638144 0.05394462
-0.026677579 0.05825883 0.06699299 -0.01768633 0.058386795 0.2687638 0.28807282 0.1407343
0.16332573 -0.04278578 -0.009306301 -0.052229997 0.0031733525 0.07419066 0.20121866 0.041894473
-0.021625862 0.07403813 -0.019499024 0.0013231563 0.07400748 0.17506035 0.07510804 0.11819472
0.073581696 0.03430997 0.011429796 0.059069872 -0.009685654 0.119965024 0.08186572 0.112053886
0.24181758 -0.01185457 0.0251423 -0.10722334 0.40068516 -0.014959615 0.065839864 0.030058514
-0.017310819 -0.08481945 -0.12069521 -0.0488052 0.08620583 0.0646896 0.029947545 -0.059264142
-0.0473553 0.12434453 0.030635789 0.09650561 0.10608558 0.12573941 0.11233269 0.18152095
-0.07095969 -0.049912125 0.10095489 0.18553586 0.038530316 0.026168503 0.20070948 0.074491195
0.10936827 0.26552442 0.0937386 0.33489144 0.28660214 0.11199362 0.04031066 0.10760533
00000000: 02eb a1bd c5ed d03b f49c 34bc f829 95bd
00000010: cdb4 45bd 0024 3a3e 2a9b 123e b851 ed3d
00000020: 2c0e 873e 1f69 8f3d 3535 1b3d 2ae0 cabd
00000030: cf6e 903d 7b22 0f3d 30a3 c6bc 2035 b03d
00000040: 4764 7139 19fb 3d3e fb8c 8a3d f80f 973d
00000050: 4e00 5bbd 9a35 b93e 6163 813d 8808 033e
00000060: affc 923d d225 e63d afd2 97bd 3fb3 3b3e
00000070: 98af 973d 6895 7c3c 8d5b 003e 551a 09bd
00000080: ae0e 073d 0efb 163c 83a4 8c3d 6d55 25be
00000090: 7bb6 f43d cb7b e13d 9e32 d23d 2f55 953d
000000a0: 76e9 453c 0c7a 6bbc a546 753e f6ae a03d
000000b0: 9c6c fabc 55d3 bb3d ca5d 243c ae9d 5c3d
000000c0: 8ab5 373d d348 473e 46e4 943d 17e7 2abd
000000d0: b9ff 9d3d cc2e 4f3e 85ee 553e c14b b83d
000000e0: c3e9 e63d 5347 df3c bbe0 32bd 466f 113e
000000f0: cb58 d6bc 0ac4 12bd a41c 823c fc74 8d3c
00000100: 591b 1f3c 2dd8 ae3d 7aa7 43bd 4955 8ebd
00000110: 7e77 a03d 4d85 973e 41cb 3e3c 4563 2abb
00000120: 3074 0b3d 80c4 b6bc c892 59bc 1498 ad3d
00000130: 1bb6 ae3d 3e81 fe3c 264b 94ba 5138 4a3e
00000140: 5685 ff3c aed4 ccbc c1af 59bd 42e2 3b3e
00000150: c80b 81bc db9b 133e eacf 653d 1945 00bd
00000160: 1f21 063e ac95 1cbd d827 133d e441 b03e
00000170: 7b99 8a3d 4306 cebd f7c2 f63d 4a88 f13c
00000180: e791 ad3d d65b cf3d 5b47 ad3d d74a 71bc
00000190: 17fc babc 5ac9 e6bc fd32 143d 7c3d a33d
000001a0: 5d18 263e 24b7 6a3d 3930 a8bc 0871 2fbe
000001b0: 8895 1d3d 3ae7 e93d ee66 05bd c914 5bbd
000001c0: 2551 ce3d 075a b83c e188 e0bb d64c 1abe
000001d0: f1ce a7bd 6f38 b73d 155e 2a3d 8ab4 853c
000001e0: 28f9 b23d ef09 a2bd e8d3 ad3e b1dd b1bd
000001f0: fdd2 fa3e fde1 9c3d a234 743e 94b1 d53d
00000200: 896f 9d3d 57cc 6b3d ba63 70bd 3c9b d2bd
00000210: 5de8 f7bb e02b 763d 1c22 d03d 88f7 8bbd
00000220: 6686 b9bb d024 a73b 5d5a 92bd bd45 7b3d
00000230: bc90 223d 7ef0 84bd 9f7c f63d 0cb2 a5bd
00000240: 70a4 753d c697 063d 89cd 1a3d 30f5 44bc
00000250: 3551 acbc 1c38 123e 8405 d3bc 95d3 963c
00000260: fc56 82bd 91d3 713d 9364 6b3d 251d f33d
00000270: 9610 573d 66ca 2fbd 2078 723d 6b73 943d
00000280: 5c44 42be 7059 40bd 3960 39bc fab2 26bc
00000290: 793a c03d e218 7fbc 42b4 973e 88bd 40bd
000002a0: 1a1c a63c 809d ad3c 7b03 8c3d c065 d2bd
000002b0: d032 02bc 5617 98bb dde6 dbbc 79d2 0abd
000002c0: 396a a8bd ef81 5c3c 5d76 6c3d a7cf 203e
000002d0: 840f 503d 06f6 19bd 66fd 673d 09f5 5c3d
000002e0: f08a dabc d0a0 6e3d 9f33 893d ece2 90bc
000002f0: fe26 6f3d 699b 893e 487e 933e a71c 103e
00000300: dc3e 273e 2440 2fbd 7579 18bc 1fef 55bd
00000310: 05f8 4f3b 46f1 973d 440c 4e3e 8a99 2b3d
00000320: b828 b1bc 4ea1 973d 6bbc 9fbc c26d ad3a
00000330: 3c91 973d 0543 333e 3ed2 993d 1310 f23d
00000340: 00b2 963d 9c88 0c3d 0a44 3b3c 40f3 713d
00000350: 94b0 1ebc 39b0 f53d 37a9 a73d 827c e53d
00000360: 079f 773e ac39 42bc 3af7 cd3c e997 dbbd
00000370: 9b26 cd3e 2c19 75bc 0dd7 863d 463d f63c
00000380: 6bcf 8dbc d2b5 adbd 0d2f f7bd f6e7 47bd
00000390: af8c b03d fb7b 843d 8e54 f53c f5be 72bd
000003a0: a2f7 41bd 58a8 fe3d e8f7 fa3c bca4 c53d
000003b0: 6643 d93d d5c1 003e ae0e e63d a1e0 393e
000003c0: 5053 91bd a870 4cbd 70c1 ce3d 1dfd 3d3e
000003d0: f7d1 1d3d 545f d63c c986 4d3e d78e 983d
000003e0: 79fc df3d d1f2 873e 06fa bf3d e476 ab3e
000003f0: 84bd 923e e95c e53d ca1c 253d 2f60 dc3d

mean_linear.weight f4 [8, 256]
0.055565592 -0.16669355 0.14424202 -0.18646719 0.04066181 -0.17722298 -0.06099688 -0.08672729
0.0031833167 -0.19770584 -0.066186234 -0.16325346 0.05826996 -0.022403989 -0.2751269 -0.46710122
0.32862303 0.08546844 -0.07497528 0.1729478 0.10062456 -0.09771268 0.1510395 0.18153879
0.08207026 -0.04495947 -0.024090163 0.054465044 -0.10485277 0.36124456 -0.12179098 -0.17847385
-0.051432554 0.015430209 -0.14685212 0.24309467 0.27633145 -0.19525972 -0.074374266 -0.100923076
0.08829813 -0.057519086 -0.069182485 0.16169432 0.018130226 0.02110444 0.12686726 -0.18458098
0.14177509 0.20719726 0.03197652 0.5366303 0.035936274 0.14306323 0.17068027 -0.2516822
0.0628003 0.06462093 0.019218836 -0.07969165 0.21465048 0.005402177 0.123413816 -0.09770428
-0.07341782 -0.097628914 -0.22747488 -0.21750914 0.09918012 -0.052930433 0.057081085 0.099606045
0.1113983 -0.023988485 0.036805294 -0.1998338 -0.09692285 0.16349158 -0.25328967 0.19913526
0.27001154 -0.091732524 -0.2921422 -0.08181133 0.35899708 0.26203272 -0.045297366 0.023812776
-0.09819053 -0.3413588 0.18722889 0.084447004 0.08244802 0.08360514 0.28651485 0.09754719
0.033210617 -0.05238829 -0.1619237 0.018460432 0.24842411 -0.18839893 0.06084451 0.09347636
-0.1725707 0.25064972 0.0017835642 0.22403942 -0.04042868 -0.08920896 -0.0065391664 -0.06641075
0.3457007 -0.060946476 -0.062402885 -0.015854994 0.16908349 -0.14440069 0.07561931 0.12025811
-0.20071495 0.010749981 0.09773916 0.13272324 0.016531536 0.03372995 -0.119236216 -0.12007398
0.053365678 -0.094831474 0.20473546 0.16928634 0.0955559 -0.08935147 0.08828807 0.22838019
-0.046181303 0.05781098 -0.30728954 -0.14569457 0.027704611 -0.099190935 0.055202637 0.2086406
0.018010665 -0.3390332 -0.2370224 0.3067144 0.12003558 -0.108001135 -0.0476326 -0.16555478
0.15732558 0.21380119 0.43761384 -0.04666912 0.051762547 0.044869166 -0.068438515 -0.17929906
-0.09889337 -0.16087165 -0.1907774 -0.15503938 -0.0663169 0.005954896 0.04028407 -0.084694795
-0.033850677 0.23880757 -0.44827485 0.0023671922 -0.10108572 0.059436936 -0.06659229 0.037498545
-0.24888933 0.30617934 -0.16907588 -0.086035386 -0.07137694 0.020947617 0.15732598 0.24706511
0.05804846 -0.10351281 -0.06846988 0.32141718 -0.03360555 -0.04037601 0.07681045 -0.21238033
0.19088294 0.12503952 -0.0949036 -0.1600295 -0.2356646 0.12608859 -0.021337057 -0.30452386
0.006310452 0.0090557365 0.08828052 -0.048194088 -0.06918662 -0.05194527 0.09492982 -0.22703037
-0.04774983 0.2026127 -0.060168423 0.068149574 0.089597434 0.10180894 0.032491244 -0.07455054
-0.080824405 0.17696144 -0.025818743 -0.0006556475 -0.1191016 0.14743459 0.08250753 0.20801477
-0.1686167 -0.31208113 0.1723787 0.0456196 -0.17198117 -0.16496588 0.18776111 0.024090081
0.11129333 -0.13838209 0.0006932638 0.08034511 0.10284472 0.09839658 -0.03408665 0.052337945
0.19307928 0.079929724 -0.017507192 0.25506523 -0.20304747 0.008228871 0.0894285 -0.04921878
0.028648622 -0.053616725 0.024187673 -0.010690838 0.013751699 0.058524597 0.07668159 -0.10418326
00000000: bf98 633d b7b1 2abe 2eb4 133e 41f1 3ebe
00000010: 008d 263d f179 35be ddd7 79bd 149e b1bd
00000020: 319f 503b 6673 4abe a68c 87bd ea2b 27be
00000030: 7bac 6e3d 9288 b7bc 6fdd 8cbe e427 efbe
00000040: 4741 a83e 140a af3d a48c 99bd 3a19 313e
00000050: 4014 ce3d 961d c8bd 19aa 1a3e 4ee5 393e
00000060: 7414 a83d 6c27 38bd bc58 c5bc bd16 5f3d
00000070: 0dbd d6bd 0cf5 b83e 8d6d f9bd d9c1 36be
00000080: f1aa 52bd fdce 7c3c 6760 16be cfed 783e
00000090: 517b 8d3e 2af2 47be 8951 98bd c2b0 cebd
000000a0: a6d5 b43d 2299 6bbd 8caf 8dbd 3293 253e
000000b0: d785 943c 38e3 ac3c 7ee9 013e cc02 3dbe
000000c0: 7d2d 113e 852b 543e d0f9 023d 9a60 093f
000000d0: ea31 133d 2b7f 123e cfc6 2e3e 7ddc 80be
000000e0: 729d 803d fa57 843d d270 9d3c 6035 a3bd
000000f0: 56cd 5b3e bf04 b13b 62c0 fc3d 2e19 c8bd
00000100: 155c 96bd abf1 c7bd 2def 68be b7ba 5ebe
00000110: f21e cb3d 95cd 58bd dbcd 693d 41fe cb3d
00000120: cb24 e43d 8083 c4bc 26c1 163d 3ba1 4cbe
00000130: 7d7f c6bd 566a 273e 2faf 81be 1dea 4b3e
00000140: f43e 8a3e 43de bbbd aa93 95be b38c a7bd
00000150: 77ce b73e 2729 863e bb89 39bd 0313 c33c
00000160: 1e18 c9bd 95c6 aebe eeb8 3f3e 8df2 ac3d
00000170: 82da a83d 2c39 ab3d 13b2 923e d2c6 c73d
00000180: db07 083d 1b95 56bd 54cf 25be 553a 973c
00000190: e462 7e3e a6eb 40be 1838 793d 8970 bf3d
000001a0: 60b6 30be 2955 803e 7cc6 e93a 976a 653e
000001b0: 8b98 25bd 30b3 b6bd 8146 d6bb 5c02 88bd
000001c0: afff b03e 03a3 79bd 2b9a 7fbd 55e2 81bc
000001d0: 3924 2d3e c6dd 13be 4cde 9a3d e249 f63d
000001e0: 3888 4dbe b020 303c 782b c83d 9ae8 073e
000001f0: 256d 873c 6b28 0a3d 1e32 f4bd 59e9 f5bd
00000200: f895 5a3d 0137 c2bd 2ca6 513e 6659 2d3e
00000210: d0b2 c33d e7fd b6bd 60d0 b43d 7fdc 693e
00000220: 9b28 3dbd 35cb 6c3d 0e55 9dbe f530 15be
00000230: c8f4 e23c 9e24 cbbd 291c 623d e2a5 553e
00000240: 1a8b 933c c295 adbe 00b6 72be ab09 9d3e
00000250: 37d5 f53d b32f ddbd 671a 43bd 3187 29be
00000260: f519 213e b3ee 5a3e ec0e e03e 1f28 3fbd
00000270: f704 543d bbc8 373d 7e29 8cbd 2c9a 37be
00000280: 9b88 cabd 8abb 24be 275b 43be a5c2 1ebe
00000290: 28d1 87bd 4a21 c33b e900 253d 7774 adbd
000002a0: 02a7 0abd f989 743e 4884 e5be e522 1b3b
000002b0: 0806 cfbd 2574 733d 8a61 88bd 1398 193d
000002c0: d8dc 7ebe 8ac3 9c3e 3a22 2dbe 5233 b0bd
000002d0: 132e 92bd 569a ab3c 101a 213e a3fe 7c3e
000002e0: 39c4 6d3d 86fe d3bd f039 8cbd cb90 a43e
000002f0: f9a5 09bd 5161 25bd cc4e 9d3d 3b7a 59be
00000300: d176 433e 5c0a 003e d25c c2bd c6de 23be
00000310: 1052 71be 5e1d 013e 0dcb aebc 8dea 9bbe
00000320: e8c7 ce3b 835e 143c 6bcc b43d 2a67 45bd
00000330: b7b1 8dbd 90c4 54bd 916a c23d a67a 68be
00000340: 5395 43bd b479 4f3e 2a73 76bd 0192 8b3d
00000350: dc7e b73d 3581 d03d 8a15 053d f4ad 98bd
00000360: 4487 a5bd 6135 353e d481 d3bc c2df 2bba
00000370: 8aeb f3bd 18f9 163e b5f9 a83d d301 553e
00000380: dba9 2cbe 19c9 9fbe 0b84 303e 9edb 3a3d
00000390: d51b 30be d1ec 28be 7344 403e 9058 c53c
000003a0: c2ed e33d 09b4 0dbe 25bc 353a fa8b a43d
000003b0: 41a0 d23d 2584 c93d 719e 0bbd 5060 563d
000003c0: 93b6 453e 32b2 a33d 3e6b 8fbc e997 823e
000003d0: adeb 4fbe 63d2 063c 4a26 b73d a299 49bd
000003e0: 84b0 ea3c 369d 5bbd 3a25 c63c a028 2fbc
000003f0: ce4e 613c 7db7 6f3d 3d0b 9d3d 085e d5bd

mean_linear.bias f4 [8]
-0.1143893 -0.51695675 -0.008623236 -0.4033715 0.082614176 -0.16277114 -0.013248712 0.01729138
00000000: f044 eabd 4757 04bf 7948 0dbc b686 cebe
00000010: 9f31 a93d 7aad 26be 2011 59bc a7a6 8d3c

log_std_linear.weight f4 [8, 256]
0.007961232 -0.008120803 -0.033575445 0.025592571 -0.00961622 -0.013898955 0.015636005 0.014418781
0.014844947 0.06479543 0.03342785 0.0053278413 -0.021262698 0.019251525 0.0719129 0.15513286
-0.13178787 -0.022075126 0.016298413 0.02374458 -0.033270676 -0.003675 -0.0049111387 0.027507892
-0.021139879 0.008103602 -0.005555153 -0.033203844 -0.017334925 -0.030958332 -0.011618945 0.04727305
-0.011475203 0.016985547 0.040001687 0.046283778 0.05004272 0.021959705 -0.0059966687 0.017913023
-0.016391816 0.04579472 0.0042688283 -0.042280197 -0.023309354 0.01963614 -0.018073743 0.046262097
-0.010570326 -0.088811144 -0.008365769 0.08048875 -0.0076021887 -0.018097775 -0.059045002 0.07210965
0.038143765 -0.033768136 -0.018924598 0.042999014 -0.03459691 0.022696292 0.005516131 0.003989267
0.023863986 0.022869507 0.03434394 0.043968804 -0.0632862 0.0065551787 -0.037997603 0.015553388
0.0074255615 0.019545302 -0.0055573485 0.02642045 -0.011794239 -0.04200663 0.055407498 -0.06946299
-0.08569029 0.04317512 0.028956775 -0.0023911106 0.025636233 -0.069932684 -0.015041037 0.0036704359
0.03427983 0.01933961 -0.04623632 -0.067496605 -0.023854194 0.022366824 -0.0375588 -0.015677257
-0.0031760465 -0.013913602 0.01322968 0.0015812598 -0.023440758 -0.05307325 -0.026189664 -0.034024063
0.046560988 -0.069582336 0.11071195 -0.0382644 -0.007065257 0.0005532616 -0.046242442 0.0017092135
-0.121805176 0.013867851 0.01376179 -0.0132119795 -0.035145525 0.03499602 -0.0051135453 -0.05584379
0.028855925 -0.00071993493 -0.031515345 -0.019537676 -0.06411593 -0.03794023 0.03299849 0.021394607
-0.013716527 -0.03207009 -0.010911659 -0.02590721 0.03437755 0.0028779414 -0.03915745 -0.021473933
-0.003871314 0.024703218 0.026426192 0.030201916 0.03789915 0.022437964 -0.087341234 0.0028945706
-0.013615223 0.036805805 0.02072932 -0.012404471 -0.0042663724 0.04806599 -0.12276727 0.022837868
-0.028115759 -0.0057724738 -0.11878292 -0.03267817 -0.015319203 -0.057656102 0.032917667 0.045056947
-0.011389999 0.032092527 0.046630185 0.039606545 0.03765655 0.0044381144 -0.005850555 0.03321987
-0.0020990747 0.024240255 0.04193538 0.012946891 0.0006437771 -0.023462946 -0.024004258 -0.015789468
0.033176553 -0.030260157 0.0066518155 0.0064830133 -0.014635506 -0.0081733875 0.023086574 -0.114873886
-6.9242895e-05 0.0013092381 0.02858274 -0.015119325 0.06682083 0.017536344 -0.042274136 0.039367396
-0.07065751 0.048682738 0.010351905 -0.034105215 0.0019479069 0.020123845 0.004649167 0.06345492
0.07148182 -0.0032782224 0.02061182 0.017371826 0.024207914 -0.012031528 -0.011736017 0.039272636
0.014523342 -0.011486473 0.0080710435 -0.042985156 0.0054062116 0.014599787 -0.0025499277 0.004821023
0.020714281 -0.030094367 0.060688395 -0.0063838544 0.011285161 -0.009685394 -0.034419194 -0.054362208
0.0485552 -0.0031577942 -0.036890943 0.032638196 0.04342374 -0.0011796233 -0.062093686 -0.05103799
-0.036876563 -0.013320926 -0.014927092 -0.018842971 -0.049393974 -0.0016774518 -0.010402877 -0.037367024
-0.0034997643 0.018129712 -0.062967196 -0.029832505 -0.006650611 0.023886258 -0.040587008 0.016073843
0.041023917 -0.0043207635 0.024244469 0.0018708286 -0.04182803 -0.029683687 -0.008172815 0.008845772
00000000: d46f 023c 1e0d 05bc 6886 09bd 83a7 d13c
00000010: 5a8d 1dbc 71b8 63bc 1417 803c c03c 6c3c
00000020: 3838 733c 77b3 843d a4eb 083d 2c95 ae3b
00000030: 1c2f aebc 60b5 9d3c 1247 933d 26db 1e3e
00000040: 66f3 06be e5d6 b4bc 4084 853c fe83 c23c
00000050: d546 08bd 45d8 70bb 9eed a0bb 3b58 e13c
00000060: 8a2d adbc f8c4 043c 0008 b6bb c100 08bd
00000070: f901 8ebc 549c fdbc 635d 3ebc 63a1 413d
00000080: 7d02 3cbc 4625 8b3c cfd8 233d 0f94 3d3d
00000090: 98f9 4c3d d7e4 b33c b47f c4bb 55be 923c
000000a0: 2148 86bc 3f93 3b3d 87e1 8b3b 002e 2dbd
000000b0: 42f3 bebc f8db a03c 630f 94bc 537d 3d3d
000000c0: 292f 2dbc 9ee2 b5bd 9410 09bc 49d7 a43d
000000d0: c81b f9bb c941 94bc 2cd9 71bd 39ae 933d
000000e0: a33c 1c3d 7550 0abd c207 9bbc bc1f 303d
000000f0: 7db5 0dbd 93ed b93c a9c0 b43b 66b8 823b
00000100: 687e c33c d558 bb3c 3bac 0c3d a218 343d
00000110: 329c 81bd d3cc d63b 60a3 1bbd a3d3 7e3c
00000120: 2052 f33b 781d a03c 6b1a b6bb b36f d83c
00000130: a03c 41bc 250f 2cbd f9f2 623d 9d42 8ebd
00000140: 647e afbd 65d8 303d c236 ed3c 2eb4 1cbb
00000150: 1403 d23c de38 8fbd af6e 76bc b28b 703b
00000160: 0269 0c3d 1a6e 9e3c 4c62 3dbd a93b 8abd
00000170: df69 c3bc a13a b73c 42d7 19bd 976d 80bc
00000180: 3825 50bb e0f5 63bc 4dc1 583c 4642 cf3a
00000190: d506 c0bc 5663 59bd b58b d6bc d15c 0bbd
000001a0: bcb6 3e3d 2f81 8ebd f2bc e23d 22bb 1cbd
000001b0: ac83 e7bb c208 113a b768 3dbd b007 e03a
000001c0: fe74 f9bd fc35 633c 2179 613c 0f77 58bc
000001d0: c1f4 0fbd fd57 0f3d 878f a7bb 75bc 64bd
000001e0: 4363 ec3c 04ba 3cba 3c16 01bd 7a0d a0bc
000001f0: 364f 83bd 3767 1bbd 6d29 073d be43 af3c
00000200: 49bb 60bc ed5b 03bd d1c6 32bc 5b3b d4bc
00000210: 79cf 0c3d d89b 3c3b 9063 20bd 1aea afbc
00000220: dfb5 7dbb 675e ca3c be7b d83c 026a f73c
00000230: 243c 1b3d d2cf b73c f6df b2bd d6b2 3d3b
00000240: 6212 5fbc afc1 163d 89d0 a93c 1f3c 4bbc
00000250: edcc 8bbb d8e0 443d 686d fbbd 7b16 bb3c
00000260: 0553 e6bc 0527 bdbb 7644 f3bd 8bd9 05bd
00000270: 65fd 7abc ce28 6cbd add4 063d a28d 383d
00000280: 1e9d 3abc 7473 033d 4bff 3e3d 793a 223d
00000290: c13d 1a3d 9a6d 913b 03b6 bfbb 8f11 083d
000002a0: a190 09bb 8093 c63c 6fc4 2b3d 321f 543c
000002b0: 26c3 283a 5d35 c0bc 94a4 c4bc ea58 81bc
000002c0: 23e4 073d 26e4 f7bc 79f7 d93b 756f d43b
000002d0: c3c9 6fbc ace9 05bc 0e20 bd3c 0043 ebbd
000002e0: 7f36 91b8 be9a ab3a 5a26 ea3c 0cb7 77bc
000002f0: 5cd9 883d 61a8 8f3c a527 2dbd b53f 213d
00000300: e2b4 90bd 8d67 473d 099b 293c e9b1 0bbd
00000310: e950 ff3a c3da a43c 0a58 983b a7f4 813d
00000320: 0f65 923d 72d7 56bb 1fda a83c 5c4f 8e3c
00000330: ad4f c63c e31f 45bc 6c48 40bc 58dc 203d
00000340: 50f3 6d3c c231 3cbc 693c 043c 3411 30bd
00000350: 9726 b13b f233 6f3c b01c 27bb acf9 9d3b
00000360: ffb0 a93c 7688 f6bc 6594 783d a72f d1bb
00000370: 65e5 383c 7daf 1ebc 24fb 0cbd e8aa 5ebd
00000380: d1e1 463d fff2 4ebb f51a 17bd a1af 053d
00000390: 17dd 313d 979d 9aba f355 7ebd 360d 51bd
000003a0: e10b 17bd 0340 5abc c390 74bc 935c 9abc
000003b0: 5651 4abd f1dd dbba d470 2abc 2a0e 19bd
000003c0: 4d5c 65bb c384 943c f2f4 80bd 4c63 f4bc
000003d0: 5eed d9bb 1dad c33c 903e 26bd 4bad 833c
000003e0: b208 283d 3195 8dbb 569c c63c 9736 f53a
000003f0: de53 2bbd 342b f3bc 45e7 05bc dbed 103c

log_std_linear.bias f4 [8]
-0.5171887 -0.7766665 -0.52865183 -0.64244205 -0.41808873 -0.43820056 -0.4826169 -0.40809068
00000000: 7b66 04bf 9ed3 46bf ba55 07bf 1577 24bf
00000010: ba0f d6be d35b e0be 9019 f7be 43f1 d0be
