MountainCarContinuous-TD3/dir_mcar_td3/final_actor.pth (torch, 489445 bytes, 5 tensors)

l1.weight f4 [400, 2]
0	0x3f2e668e	0.68125236
1	0x3f096ea8	0.53684473
2	0x3fc2d1eb	1.5220312
3	0x3f88ade1	1.0678064
4	0xbf101969	-0.5628877
5	0x3f4e0023	0.8046896
6	0xbe3ffacb	-0.18748014
7	0x3dc3ef3d	0.095671155
8	0xbe6b2bab	-0.22965877
9	0xbed092ac	-0.40736902
10	0xbd6aed1c	-0.05735503
11	0x3ee4571d	0.44597712
12	0x3fdebb37	1.7400883
13	0x4088a818	4.2705193
14	0xbf00a426	-0.5025047
15	0xbf34d275	-0.7063363
16	0x3e9f5e64	0.31126702
17	0x3ea21060	0.31653118
18	0xbe86c26d	-0.2632021
19	0x3e7aca3f	0.24491213
20	0xbdf636ca	-0.12022169
21	0xbdadcbc7	-0.08486133
22	0xbed5397c	-0.4164542
23	0x3f012d32	0.5045959
24	0x3eeaa292	0.45827156
25	0x3fa217b1	1.266348
26	0xbea64266	-0.32472533
27	0xbf16a98b	-0.5885245
28	0xbd387f60	-0.04504335
29	0x3e704321	0.23463108
30	0xbf0165f7	-0.5054621
31	0x3fe1a3ec	1.762815
32	0xbe881df8	-0.26585364
33	0xbdce4b1c	-0.1007292
34	0xbea171c6	-0.31532115
35	0xbdb469c9	-0.088092394
36	0x3f22d6f2	0.6360923
37	0xbf2e0583	-0.6797716
38	0xbeab4809	-0.33453396
39	0x3f19d61b	0.60092324
40	0xbcb329ff	-0.021870611
41	0xbe0bf438	-0.13667381
42	0x3fa747c8	1.3068781
43	0xbe57b3e0	-0.2106471
44	0x3fa95587	1.3229226
45	0x3e63fc6d	0.22264262
46	0xbe59b096	-0.21258768
47	0x3f0a8a62	0.54117405
48	0x3f4bc95c	0.79604125
49	0x3eec6fe7	0.46179125
50	0x3edbe706	0.42949694
51	0xbe982a17	-0.29719612
52	0xbd3ae6d2	-0.045630284
53	0xbb05e71f	-0.0020431948
54	0xbe9f894e	-0.31159443
55	0x3ea2085a	0.31646997
56	0x3c453db0	0.012038633
57	0x4058dfd6	3.3886619
58	0x3eb7f3c1	0.35928157
59	0xbf0d9311	-0.5530253
60	0x3f0730a9	0.52808625
61	0x3c9067e5	0.017627666
62	0x3f85077d	1.039291
63	0x3f8f76db	1.1208147
64	0xbe54ec25	-0.20793207
65	0xbe0f5bd6	-0.13999876
66	0xbe846d65	-0.2586471
67	0xbeab697a	-0.3347891
68	0x3fab924e	1.3404024
69	0x3ff749e8	1.9319429
70	0x3ea04138	0.31299758
71	0x3f229e6a	0.6352297
72	0x3e75bfd2	0.23998955
73	0x3de18fc1	0.11013747
74	0x3e8a308c	0.26990163
75	0x3e9091c0	0.28236198
76	0xbdddb2bc	-0.108251065
77	0x3feda19d	1.8564945
78	0xbdb8f2e6	-0.09030704
79	0xbe8f08af	-0.27936313
80	0x3e336f23	0.17522864
81	0x3f0a8533	0.54109496
82	0xbed704c6	-0.4199583
83	0xbf9e3167	-1.2358826
84	0xbe0485e1	-0.12941696
85	0xbf336a60	-0.7008419
86	0x3dc4c8ce	0.09608613
87	0xbf002aea	-0.5006548
88	0xbe863483	-0.26211938
89	0xbfe4ea4e	-1.7884004
90	0xbd43207d	-0.047638405
91	0xbec02fcf	-0.37536475
92	0x3ef29e53	0.47386417
93	0xbe30544e	-0.1721966
94	0x3f5b55df	0.85677904
95	0x3ee6cf44	0.45080006
96	0x3e176872	0.14785936
97	0x3cf910f1	0.030403586
98	0x3dec3ff2	0.11535634
99	0x3ed51f19	0.41625288
100	0xbf2b820b	-0.66995305
101	0xbf04ff7f	-0.51952356
102	0x3fb0f0b8	1.3823462
103	0x3e710513	0.23537092
104	0x3eb662b2	0.35622174
105	0xbf1939b1	-0.59853655
106	0x3e46e08e	0.19421598
107	0x3b45bfa1	0.0030174034
108	0xbeb807a6	-0.35943335
109	0xbe839256	-0.25697583
110	0xbd99935b	-0.07498809
111	0xbf2fb260	-0.68631554
112	0xbe614812	-0.22000149
113	0x3f1523ba	0.5825764
114	0x3e1142ec	0.14185685
115	0xbedd145a	-0.4317959
116	0x3cfa27c4	0.03053654
117	0xbe5575eb	-0.20845763
118	0xbe6ce6b9	-0.23134889
119	0x3dc043b8	0.09387916
120	0xbe2137fd	-0.15744014
121	0x3e84a4cd	0.25906983
122	0x3ec14b47	0.37752745
123	0x3f04bb2d	0.5184811
124	0x3f091084	0.53540826
125	0x3ee48592	0.44633156
126	0xbef2e710	-0.47441912
127	0xbeab395b	-0.33442196
128	0xbee37231	-0.4442306
129	0x40055373	2.0832183
130	0xbeeae14c	-0.45875013
131	0xbf1a0b7a	-0.6017376
132	0x3e905287	0.28187963
133	0x3f296616	0.66171396
134	0x3eeb95ef	0.46012828
135	0x3e95b49a	0.2923935
136	0xbeeb8079	-0.45996454
137	0x3fb7dff3	1.4365219
138	0xbd266b5d	-0.040629733
139	0xbf89ab6e	-1.0755441
140	0xbdb97a00	-0.09056473
141	0x3f29679d	0.66173726
142	0x3ebbb9db	0.36665234
143	0xbd213f16	-0.039366804
144	0xbdf8855d	-0.12134812
145	0x3f07ee29	0.5309778
146	0x3ef85710	0.48503923
147	0x3e761bc4	0.24034029
148	0xbeea6d76	-0.45786637
149	0xbf1847f6	-0.59484804
150	0x3f88afbe	1.0678632
151	0xbefd9098	-0.4952438
152	0x3e9a8ef4	0.3018719
153	0x3da71f24	0.081602365
154	0x3f2571ac	0.64626575
155	0x3e77e50b	0.24208467
156	0x3ebf41a7	0.37354776
157	0x3e69dc7a	0.22838011
158	0xbea02eae	-0.31285614
159	0xbec40253	-0.38283023
160	0xbe4e6ade	-0.20157954
161	0x40bc234d	5.879309
162	0x3de01577	0.10941594
163	0xbe65bb5c	-0.22434753
164	0x3f2e0303	0.67973346
165	0x3f0a4ef6	0.54026735
166	0x3f8b4542	1.0880511
167	0x401a952b	2.4153545
168	0xbe03867d	-0.12844272
169	0xbf75edbe	-0.9606589
170	0x3e5f04aa	0.21779123
171	0xbf2892ce	-0.65849006
172	0xbede6a0c	-0.43440282
173	0x3fbab2e7	1.4585847
174	0x3eabfbbe	0.33590502
175	0xbf2dcd52	-0.6789142
176	0x3dc77c36	0.09740488
177	0x3e95a46a	0.29227
178	0xbee4a5b7	-0.4465768
179	0xbeb98214	-0.36232054
180	0x3fc544f5	1.5411669
181	0x3ffd153d	1.9772106
182	0xbeca07d0	-0.39459085
183	0xbf8a6e9b	-1.0815004
184	0x3d6012ab	0.054705303
185	0xbf85bcfe	-1.0448301
186	0xbeb589e1	-0.35456756
187	0x3f12bcb7	0.57319206
188	0xbd12c134	-0.035828784
189	0xbf09ad8b	-0.5378043
190	0x3e07f74e	0.13277933
191	0xbfc5646d	-1.5421273
192	0xbf04823f	-0.5176124
193	0x3ead1498	0.33804774
194	0x3db3f910	0.08787739
195	0x3ebf8d9b	0.37412724
196	0x3f68e68b	0.9097678
197	0x3ff06938	1.878211
198	0x3f013d69	0.5048433
199	0xbe278b64	-0.16361767
200	0xbea1bb8f	-0.31588408
201	0xbebd3332	-0.3695312
202	0xbbb8f93e	-0.0056449464
203	0xbcac7627	-0.021052433
204	0x3e22c5e4	0.15895802
205	0xbeafdd0d	-0.34348336
206	0xbeddb8d1	-0.43305066
207	0xbeaaf639	-0.33390978
208	0x3e080453	0.132829
209	0x3eb96fe4	0.36218178
210	0xbef3c62f	-0.4761214
211	0xbea09ceb	-0.3136972
212	0x3f8d0459	1.1016952
213	0x3e56cbb8	0.2097615
214	0xbe676025	-0.2259527
215	0xbf2c1cf5	-0.67231685
216	0x3e6f30e2	0.23358491
217	0xbe08c006	-0.13354501
218	0x3eeb97f1	0.4601436
219	0xbf08ea30	-0.5348234
220	0xbd5e3c9e	-0.054257028
221	0x3fd6be2d	1.6776787
222	0x3f8fd26d	1.1236092
223	0x3ed57886	0.41693515
224	0xbdab3c06	-0.08361058
225	0x3f0b0df1	0.5431815
226	0x3e5497f6	0.20761093
227	0xbf59fb2d	-0.8514889
228	0xbeac4b06	-0.33650988
229	0xbe88ef2e	-0.2674498
230	0x3e7ad8a1	0.244967
231	0x3f10e14d	0.5659378
232	0x3f2a0d62	0.6642667
233	0xbeac3d1d	-0.33640376
234	0x3d951f90	0.07281411
235	0xbea9b5f3	-0.3314663
236	0x3f8d962f	1.1061457
237	0xc03b3537	-2.925123
238	0xbdce54bb	-0.10074755
239	0x3dc28494	0.094979435
240	0x3f0a3259	0.53983074
241	0x3e2ec99c	0.17069095
242	0xbf795265	-0.9739135
243	0xbee4f7e4	-0.44720376
244	0xbd1ccda8	-0.038282067
245	0xbeffc1f7	-0.4995267
246	0x3dc816e4	0.09769991
247	0x3ee6e29e	0.4509477
248	0x3b50f336	0.0031883246
249	0xbda47a5a	-0.08031149
250	0xbe4dc1f7	-0.20093523
251	0x3f3f095f	0.74623674
252	0xbe71d0db	-0.23614828
253	0x3f0563f1	0.52105623
254	0x3f995271	1.1978284
255	0x3f49ff08	0.7890477

l1.bias f4 [400]
0	0xbeb3106b	-0.34973463
1	0x3d05ea6a	0.032694258
2	0xbf2ea236	-0.68216264
3	0xbf2675f2	-0.6502372
4	0xbedb60c3	-0.4284726
5	0xbe9194e7	-0.28433916
6	0x3e98286a	0.29718333
7	0xbf2ee94f	-0.6832475
8	0xbed639eb	-0.41841063
9	0xbf239ba1	-0.63909346
10	0xbf258193	-0.6465084
11	0xbf00b6e9	-0.502791
12	0x3e809dae	0.251203
13	0xbee9c095	-0.4565474
14	0xbea88907	-0.32917044
15	0xbf1e5a2d	-0.6185635
16	0xbeab6a65	-0.3347961
17	0xbef7f7e1	-0.48431304
18	0xbe93746b	-0.28799757
19	0xbf2db1fd	-0.67849714
20	0xbd2090d7	-0.03920063
21	0x3d697e57	0.057005253
22	0x3d781a73	0.0605721
23	0xbf10db8d	-0.5658501
24	0x3da04443	0.0782552
25	0xbddd49cf	-0.108050935
26	0xbeda07f0	-0.4258418
27	0xbf18e841	-0.5972939
28	0x3e1ecfec	0.15509003
29	0xbf270559	-0.65242535
30	0xbea9912a	-0.33118564
31	0x3ddc19ce	0.10747109
32	0xbf20198e	-0.62538993
33	0xbf127056	-0.5720266
34	0x3e07e23a	0.13269892
35	0xbee76286	-0.45192355
36	0xbe05d8ac	-0.13070935
37	0xbdcc2766	-0.09968452
38	0xbdd80db1	-0.105494864
39	0xbf2c8117	-0.67384475
40	0xbdb9bae4	-0.0906885
41	0xbf1eb8e4	-0.6200087
42	0xbedbc8f6	-0.4292676
43	0xbf0182d1	-0.50590235
44	0xbeeae38f	-0.45876738
45	0xbdc1290e	-0.09431659
46	0xbf1e2382	-0.6177293
47	0x3dabb0de	0.08383344
48	0xbdaed4de	-0.08536695
49	0xbf0c3af7	-0.54777473
50	0xbf583368	-0.8445344
51	0x3d72fc4e	0.059322648
52	0xbe19f654	-0.15035373
53	0xbdbcd704	-0.092206985
54	0xbee9bf26	-0.45653647
55	0xbeb571ec	-0.35438478
56	0xbf1271a4	-0.5720465
57	0xbf192ea4	-0.5983679
58	0xbcf58042	-0.029968385
59	0xbe96edbd	-0.29478255
60	0xbe456690	-0.19277406
61	0xbea4162d	-0.3204817
62	0xbdf99f20	-0.12188554
63	0xbf1c1c05	-0.60980254
64	0xbe1ac43b	-0.15113918
65	0xbf1f0601	-0.62118536
66	0xbeff77f1	-0.49896196
67	0xbed0db0d	-0.40792122
68	0xbf1131ba	-0.567165
69	0xbe193b72	-0.14964083
70	0xbea75a43	-0.32686052
71	0xbe2bbc16	-0.16770968
72	0xbe4e714c	-0.20160407
73	0xbef772ef	-0.48329875
74	0xbf1a31b0	-0.6023207
75	0x3ce4e6c9	0.027942078
76	0xbef66781	-0.48125842
77	0xbf18887c	-0.5958326
78	0xbf1ca74c	-0.61192775
79	0xbec9c149	-0.39405277
80	0xbe284f65	-0.16436537
81	0xbd7b243b	-0.06131385
82	0x3d8b4f3c	0.06802222
83	0x3e70ca6e	0.23514721
84	0xbe6b8936	-0.2300156
85	0xbeb2e094	-0.34936965
86	0xbf0b48af	-0.5440778
87	0xbe196a4a	-0.14981952
88	0xbdab2d85	-0.083582915
89	0xbf1e3643	-0.61801547
90	0x3da619e9	0.08110411
91	0xbe4a22f9	-0.19739904
92	0xbd485387	-0.048907783
93	0xbef77685	-0.4833261
94	0xbf34aebd	-0.7057913
95	0xbd8a1c36	-0.06743662
96	0xbf1ffe52	-0.62497437
97	0xbd3813c9	-0.044940744
98	0x3e4b13b0	0.19831729
99	0xbe0bfa63	-0.13669734
100	0xbed3e200	-0.41383362
101	0xbdf3815b	-0.11889907
102	0xbd9af20a	-0.075656965
103	0xbf12e92e	-0.57387054
104	0xbef5b52e	-0.47989792
105	0xbf22bd07	-0.6356968
106	0x3d98c207	0.07458883
107	0xbeb02c93	-0.34409007
108	0xbe03aa84	-0.12858015
109	0xbe16310b	-0.14667146
110	0xbe3eb73e	-0.18624589
111	0x3da4343d	0.08017776
112	0xbf030f07	-0.51194805
113	0xbdb56209	-0.08856589
114	0xbee15bf8	-0.4401548
115	0xbe949b16	-0.2902457
116	0xbf105383	-0.5637743
117	0xbd6e45f8	-0.058172196
118	0x3f6a0199	0.9140869
119	0xbe3f8f29	-0.18706955
120	0x3d82b73c	0.063826054
121	0xbf105f9d	-0.56395894
122	0xbe9c2f82	-0.30504996
123	0xbd58622b	-0.052827995
124	0xbe66a36a	-0.22523275
125	0xbe8442ea	-0.258323
126	0xbe99e42b	-0.3005689
127	0x3d104a62	0.035227187
128	0x3e4665ce	0.19374773
129	0xbd39b4e6	-0.045338534
130	0x3dcc4e40	0.099758625
131	0xbf2c03a9	-0.67193085
132	0xbdbe1d71	-0.09282959
133	0xbec4728a	-0.38368636
134	0x3d9710f0	0.073762774
135	0xbf3746ac	-0.7159221
136	0xbe54048e	-0.20704862
137	0xbdcd6036	-0.100281164
138	0xbf34a194	-0.7055905
139	0xbda89c23	-0.08232906
140	0xbf0837ab	-0.5320994
141	0xbe8b5198	-0.2721069
142	0xbd2423d9	-0.04007325
143	0xbe221b1c	-0.15830654
144	0xbe1480bb	-0.14502232
145	0xbefd428b	-0.4946483
146	0xbee4b832	-0.4467178
147	0x3ed4bc72	0.41550022
148	0xbead2378	-0.33816123
149	0xbf23227d	-0.637245
150	0xbe10b939	-0.14133157
151	0xbe491906	-0.19638452
152	0xbe856334	-0.26052248
153	0x3d9f7ed3	0.07787862
154	0x3d8859a0	0.066577196
155	0xbf00bfa1	-0.502924
156	0xbe21fadc	-0.15818352
157	0x3d97c27c	0.07410142
158	0xbf1aa486	-0.6040729
159	0xbdef88d6	-0.11696021
160	0xbee6835a	-0.45022088
161	0xbeeb6e75	-0.4598271
162	0x3da5ac40	0.08089495
163	0xbe20dd51	-0.15709426
164	0x3e74b36f	0.23896573
165	0xbef71cf7	-0.48264286
166	0x3e576532	0.21034697
167	0xbe4cb8fa	-0.19992438
168	0xbe87491e	-0.2642297
169	0xbf0810f9	-0.531509
170	0xbe03bb07	-0.12864314
171	0xbe664487	-0.22487079
172	0xbd9c91cf	-0.07644998
173	0xbd84aeeb	-0.064786755
174	0xbd8dc0aa	-0.069215134
175	0xbf17a6eb	-0.5923907
176	0xbf1f5bb1	-0.62249285
177	0xbf27f66c	-0.65610385
178	0xbf0e739e	-0.5564517
179	0xbd84e981	-0.0648985
180	0xbe6705e7	-0.22560845
181	0x3d9dadfa	0.07699199
182	0x3f4f8257	0.8105826
183	0xbcf8033f	-0.030274985
184	0x3d8d99ee	0.069141254
185	0xbf05e058	-0.52295446
186	0x3dddddd2	0.108333245
187	0xbe035077	-0.12823664
188	0xbf0913b2	-0.5354568
189	0xbe87db6c	-0.26534593
190	0xbcfeead3	-0.031117832
191	0xbf20c975	-0.628074
192	0xbf007e8a	-0.50193083
193	0xbf2a4ce6	-0.6652359
194	0xbed2e1bc	-0.41187847
195	0xbf005fb7	-0.5014605
196	0xbeed8fef	-0.46398875
197	0xbe0f2e76	-0.13982567
198	0xbf317c6c	-0.6933048
199	0xbe3dd2ae	-0.18537399
200	0x3dbfd2bf	0.093663685
201	0x3dac8774	0.08424273
202	0x3dba0ce9	0.09084494
203	0xbe7cff75	-0.24706824
204	0xbe97a1c3	-0.29615602
205	0xbeabf7ed	-0.3358759
206	0x3e6159e1	0.22006942
207	0xbef48862	-0.47760302
208	0xbe510c12	-0.2041476
209	0x3de431b5	0.11142293
210	0xbe69297e	-0.22769734
211	0xbdced243	-0.10098698
212	0xbf134344	-0.57524514
213	0xbefa6510	-0.4890523
214	0xbedc70f1	-0.43054917
215	0xbdf397d2	-0.11894192
216	0x3e08c867	0.13357697
217	0xbe2c318b	-0.16815774
218	0xbe010d8e	-0.12602827
219	0xbe675621	-0.2259145
220	0xbf3163bc	-0.6929281
221	0xbeee8c6a	-0.46591502
222	0x3e0fff19	0.14062156
223	0xbe7b88d5	-0.24563916
224	0xbe056b04	-0.13029104
225	0x3e375158	0.17902124
226	0xbde91d19	-0.11382503
227	0xbe875eb2	-0.26439434
228	0xbf13a373	-0.5767128
229	0x3e207555	0.15669759
230	0xbf0fc257	-0.56155914
231	0xbd51d843	-0.051231634
232	0xbf2f0ff9	-0.6838375
233	0xbeab5468	-0.33462834
234	0xbd4a977b	-0.04946087
235	0x3e8a7951	0.27045682
236	0xbe46c382	-0.19410518
237	0x3e9c34d1	0.30509046
238	0x3d3d289b	0.046181303
239	0x3e7d2749	0.24722017
240	0xbeeff30d	-0.4686512
241	0xbedd72f6	-0.4325177
242	0xbd4bead3	-0.049784493
243	0xbeb1cbd8	-0.34725833
244	0xbf24af97	-0.6433043
245	0xbef2c39d	-0.47414866
246	0xbe62d260	-0.22150564
247	0xbde63984	-0.11241439
248	0xbef9a2ff	-0.4875717
249	0xbdef58fb	-0.116868936
250	0xbf07cc0e	-0.5304574
251	0xbf347cce	-0.70502937
252	0xbf20779e	-0.6268252
253	0xbe369b6d	-0.17832728
254	0xbe225663	-0.15853266
255	0xbd9124cb	-0.07087096

l2.weight f4 [300, 400]
0	0x3c46d913	0.012136715
1	0x3c782314	0.015145082
2	0x3b90ac1d	0.0044150488
3	0xba5b5d9a	-0.0008368135
4	0x3d22e9b7	0.03977367
5	0x38b54333	8.6432694e-05
6	0xbd0d4542	-0.034489878
7	0x3cc128cc	0.023579024
8	0x3ba87700	0.005141139
9	0xbce5c390	-0.028047353
10	0x3a28c8cd	0.0006438613
11	0xbd34b295	-0.04411562
12	0x3cf37fd5	0.029724041
13	0xbd432c35	-0.04764958
14	0x3c08167a	0.00830614
15	0xbd0e5a48	-0.034754068
16	0xbd480ed3	-0.048842262
17	0xbc900cf0	-0.017584294
18	0xbcd43d3a	-0.025908101
19	0x3d16dcc3	0.03683163
20	0xbc9c5198	-0.019081876
21	0xbc4709ec	-0.012148362
22	0xbcfa14eb	-0.030527553
23	0xbceeb0ea	-0.029137094
24	0xbbd2c85c	-0.006432576
25	0x3cf5ff2a	0.030028898
26	0x3bd3dd27	0.0064655724
27	0x3b112b1a	0.0022150935
28	0xbd042743	-0.032264005
29	0xbd1405bb	-0.036138278
30	0x3c2b16cd	0.010442448
31	0x3d3ff8bb	0.046868067
32	0xbcc7c01d	-0.024383599
33	0x3d285a63	0.041101824
34	0xbba7625d	-0.0051081614
35	0xbb2084e7	-0.0024493278
36	0x3d27d25b	0.040972095
37	0x3bec8f59	0.007219237
38	0xbcb15bf4	-0.021650292
39	0x3cd74c13	0.026281392
40	0xbc99738b	-0.018731853
41	0xbcbde036	-0.023178201
42	0x3d221e77	0.039579835
43	0x3c6040e0	0.013687342
44	0xbbe7198a	-0.007052605
45	0x3c8268c1	0.015919091
46	0xbb169d67	-0.0022982003
47	0xbd473826	-0.04863753
48	0xbbef80cd	-0.0073090554
49	0xbb37da1a	-0.0028053583
50	0xbc4f9caa	-0.012671629
51	0x3c8000e9	0.015625434
52	0x3cc0a5ad	0.0235165
53	0x3ce6f428	0.028192595
54	0xbc4b6059	-0.012413108
55	0xbd409caf	-0.047024425
56	0x3d47b737	0.04875871
57	0xb9cef000	-0.00039470196
58	0x3bf6f346	0.0075363247
59	0x3c9cd2c8	0.019143477
60	0x3ccb862e	0.024844255
61	0x3c265ced	0.010153991
62	0x3bf58629	0.0074928
63	0x3cad7b2f	0.021176903
64	0x3d08a946	0.033364557
65	0xbd4736e5	-0.048636336
66	0xbd0bc357	-0.034121837
67	0xbbb4f327	-0.00552215
68	0xbd352e1f	-0.044233438
69	0x3aafdac0	0.0013416633
70	0xbd0fb50a	-0.03508476
71	0x3cec7f60	0.02886933
72	0xbcf5861b	-0.029971173
73	0x3d32a59f	0.04361498
74	0xbd3a95b6	-0.04555293
75	0xbb5c8db6	-0.0033653802
76	0xbd2a1652	-0.041525193
77	0x3c91f467	0.017816735
78	0xbc4a7b7a	-0.012358541
79	0x3d4b53d8	0.049640507
80	0xbcd87d6d	-0.026426995
81	0xbc4eb24b	-0.012615751
82	0xbd5bd569	-0.05367032
83	0xbd346490	-0.044041216
84	0x3c22aae3	0.009928438
85	0xbce6a88a	-0.028156538
86	0x3c9d5ccb	0.019209286
87	0x3ca09e18	0.019606635
88	0x3c047167	0.008083678
89	0xbc6c2932	-0.014414119
90	0x3ae68b54	0.001758913
91	0xbd255d00	-0.040371895
92	0xbcee8a12	-0.029118571
93	0xbc23b39d	-0.009991554
94	0x3c99eee3	0.018790668
95	0x3c9e0ef9	0.019294249
96	0x3c9086b9	0.017642366
97	0x3c5c0769	0.013429501
98	0x3bce0df1	0.006288283
99	0x3c17ca2f	0.009264513
100	0x3d2181a6	0.039430283
101	0x3c86741a	0.016412783
102	0x3cc0b093	0.023521697
103	0xbd1724ce	-0.036900334
104	0xbd204c23	-0.03913511
105	0x3c5a5c4a	0.0133276675
106	0xbc27f99a	-0.010252381
107	0xbd2186d0	-0.039435208
108	0x3d41cce3	0.047314536
109	0x3c1f2320	0.009712964
110	0xbd67382a	-0.056450047
111	0xbd3f75b4	-0.04674311
112	0xbd084b7b	-0.03327511
113	0xbcccc180	-0.024994612
114	0xbc809cc0	-0.015699744
115	0xbd24bca2	-0.040218957
116	0x3c93b44d	0.01803031
117	0xbd49149b	-0.049091917
118	0xbb96e409	-0.0046048206
119	0x3c25b283	0.010113361
120	0xbc4d35ae	-0.012525005
121	0xbd07e518	-0.033177465
122	0xbd026212	-0.03183181
123	0xbd741479	-0.059589837
124	0x3d0d3153	0.034470867
125	0xbc1734bd	-0.009228882
126	0xbc9a2207	-0.018815054
127	0x3c2bcf2b	0.010486404
128	0x3ced0db9	0.028937208
129	0xbd2eddf3	-0.042692136
130	0xbd3e1e99	-0.0464159
131	0xbb366d4d	-0.0027836144
132	0xbc3d730e	-0.011563076
133	0xbd13c893	-0.036079954
134	0xbd4bb2cc	-0.04973106
135	0xbd4406a7	-0.047857907
136	0xbc9c4a3d	-0.019078368
137	0x3ad6ef00	0.0016398132
138	0x3d165732	0.03670425
139	0x3d14e7e2	0.036353953
140	0xbd39b7ca	-0.04534129
141	0xbd078d77	-0.033093896
142	0x3ceee622	0.02916247
143	0xbcb3d303	-0.021951204
144	0x3cdf5743	0.02726329
145	0x3d20602a	0.03915421
146	0xbd0c7c13	-0.034298014
147	0xbcea8adc	-0.028630666
148	0x3c14d95c	0.009085026
149	0x3d040640	0.032232523
150	0x3c371fe7	0.01117704
151	0x3cce5956	0.025189083
152	0xbd3151d8	-0.043290943
153	0xbd2d4c7f	-0.04230928
154	0xbd5dfc0d	-0.054195452
155	0xbd4b0845	-0.049568433
156	0xbc22cca2	-0.009936484
157	0xbce97c18	-0.028501555
158	0x3cdaac13	0.02669338
159	0xbd5c26bf	-0.05374789
160	0x3c812bba	0.01576792
161	0xbd07fc6b	-0.03319971
162	0xbd068baa	-0.032848038
163	0xbcd6a802	-0.02620316
164	0xbc1f9a36	-0.009741357
165	0xbcfeb5bd	-0.031092519
166	0x3bcd75c5	0.0062701427
167	0xbcb4f9e3	-0.022091812
168	0x3bede500	0.007259965
169	0x3b8c714d	0.0042859674
170	0x3b62a04d	0.003458041
171	0xbc4dedcc	-0.012568902
172	0xbd699c55	-0.057033855
173	0xbd1180b4	-0.03552313
174	0xbaa3b221	-0.0012489
175	0x3d3e9a2b	0.046533745
176	0x3aa83100	0.0012831986
177	0xb9fa34cd	-0.00047723055
178	0xbd33e438	-0.04391882
179	0xbd2d8888	-0.042366534
180	0xbccc57b0	-0.024944156
181	0xbc88481c	-0.016635947
182	0xbd3e4e5e	-0.046461456
183	0xbd0f18b0	-0.034935653
184	0x3cda59ac	0.026654087
185	0xbd21974b	-0.039450925
186	0xbc4fd787	-0.012685663
187	0xbd5e1e3f	-0.054228064
188	0xbbe441cc	-0.0069658514
189	0xbd3ed848	-0.04659298
190	0xbd0c4eba	-0.034254767
191	0x3c9937a0	0.018703282
192	0xbcedbae7	-0.029019786
193	0x3c0c8114	0.0085756965
194	0x3c52103e	0.012821255
195	0xbd3f6b0d	-0.04673295
196	0x3cf9aad7	0.03047697
197	0xbc45fc87	-0.012084133
198	0x3c9f8b53	0.019475615
199	0xbd3bce8b	-0.04585127
200	0x3b7f1a23	0.003892549
201	0x3c944d03	0.018103128
202	0xbcbed121	-0.02329308
203	0xbc2bb29a	-0.010479594
204	0xbca2066b	-0.019778451
205	0x3d498528	0.049199253
206	0xbbf518ab	-0.0074797473
207	0xbcf0d44d	-0.029398108
208	0xbcbf6397	-0.023362918
209	0xbc651480	-0.013981938
210	0xbbef103c	-0.0072956365
211	0xb804cb37	-3.166051e-05
212	0x3ce33156	0.027733486
213	0xbd436e2b	-0.047712486
214	0x3d332f7f	0.043746468
215	0xbcab6d73	-0.020926213
216	0xba10bffb	-0.00055217714
217	0x3d2a3237	0.041551795
218	0xbd3e0278	-0.046389073
219	0xbc181e20	-0.009284526
220	0x3d30fe5b	0.043211322
221	0x3c923f57	0.017852468
222	0xbcf193c5	-0.029489407
223	0x3d405c8f	0.04696327
224	0x3aedcca6	0.0018142655
225	0x3cb8a72d	0.022540653
226	0x3d09a0eb	0.03360073
227	0x3c9f50b7	0.019447668
228	0xbd2948e2	-0.041329272
229	0xbc919028	-0.017768934
230	0xbd0a49c7	-0.033761766
231	0x3cad895f	0.021183668
232	0xbcaa31b0	-0.020775646
233	0x3c93447d	0.017976994
234	0xbc8ea76e	-0.017413821
235	0xbd19e9dd	-0.037576545
236	0x3cab0a8f	0.020879058
237	0x3c7eb984	0.01554716
238	0xbcf661c9	-0.030075924
239	0x3c168587	0.009187109
240	0x3d06e183	0.03292991
241	0xbcf4d0d0	-0.029884726
242	0x3c938aa9	0.018010454
243	0x3cf89d1a	0.03034835
244	0x3d23f9a8	0.040033013
245	0x3c721800	0.01477623
246	0xbce68537	-0.028139694
247	0xbce7d430	-0.028299421
248	0xbd29a19b	-0.041413885
249	0xbd7593e9	-0.05995551
250	0x3b3ebc33	0.0029103875
251	0x3cc265fa	0.023730267
252	0xbd01763d	-0.0316069
253	0xbc45533a	-0.012043769
254	0xbd36aa6f	-0.044596132
255	0xbcce8152	-0.02520815

l2.bias f4 [300]
0	0xbd74eac6	-0.05979421
1	0xbd57d0ba	-0.05268929
2	0xbc75d86a	-0.01500521
3	0xbd655084	-0.05598499
4	0xbd993962	-0.07481648
5	0xbd0932b9	-0.03349564
6	0x3e48336d	0.19550867
7	0xbcbb0f11	-0.022834333
8	0xbd0ad544	-0.033894792
9	0xbdb0f92b	-0.08641275
10	0xbd322e9b	-0.043501478
11	0xbd09ec1d	-0.03367244
12	0xbe872441	-0.26394847
13	0xbd6f10d3	-0.058365654
14	0xbddc581c	-0.10758993
15	0xbd0df86f	-0.034660753
16	0xbc797227	-0.01522497
17	0xbb2fad0a	-0.002680602
18	0xbd8c4baa	-0.06850369
19	0xbde8b7fc	-0.11363217
20	0xbdc335ce	-0.09531747
21	0xbcdf7eac	-0.027282082
22	0xbccb8def	-0.024847953
23	0xbd2ac7e3	-0.041694533
24	0xbcdb7d61	-0.026793184
25	0xbd209321	-0.039202813
26	0xbd5f7c3d	-0.054561842
27	0xbd8164ff	-0.063180916
28	0xbe47d497	-0.1951469
29	0xbc6247c3	-0.013811055
30	0xbc90683f	-0.017627833
31	0xbc693844	-0.014234606
32	0xbc9143c2	-0.017732505
33	0xbd541995	-0.05178221
34	0xbd212c1d	-0.03934871
35	0xbd9cd6a9	-0.07658131
36	0xbd1f448e	-0.03888374
37	0xbd1b1580	-0.0378623
38	0xbbbc2dce	-0.005742765
39	0xbd817afd	-0.06322286
40	0xbd36cccd	-0.044628907
41	0x3e99737d	0.29970923
42	0xbc88047e	-0.016603705
43	0xbd734cf4	-0.05939956
44	0xbd40106b	-0.046890657
45	0xbd8b27e9	-0.06794722
46	0xbd299e42	-0.041410692
47	0xbd4554a0	-0.048176408
48	0xbd471ddc	-0.04861246
49	0xbce48b76	-0.027898531
50	0xbd7e1222	-0.06202901
51	0xbdd586cd	-0.10426102
52	0xbe100524	-0.14064461
53	0xbcbcad7b	-0.02303194
54	0xbd0eecfb	-0.03489397
55	0xbda86bb1	-0.082236655
56	0xbd7ac573	-0.06122346
57	0xbca75fcc	-0.020431422
58	0xbd508f99	-0.050918195
59	0xbd91f70e	-0.071272
60	0xbce466ae	-0.027880993
61	0xbe5b88ac	-0.21438855
62	0xbd9599e2	-0.073047414
63	0xbd2c3d59	-0.042050693
64	0xbcac9663	-0.021067804
65	0xbcfca4ed	-0.030840361
66	0xbcec1a60	-0.02882117
67	0xbc390374	-0.011292327
68	0xbd52725c	-0.051378593
69	0xbd5ab885	-0.053398628
70	0xbca9667e	-0.020678755
71	0xbd7a99de	-0.061181895
72	0x3d523639	0.051321242
73	0xbd103cc2	-0.035214193
74	0xbd69d82d	-0.057090927
75	0xbcb76c1d	-0.02239042
76	0xbd84648e	-0.06464492
77	0xbe162100	-0.14661026
78	0xbebb1fed	-0.36547795
79	0xbd80c0c4	-0.06286767
80	0xbe820146	-0.25391597
81	0xbe04ff6a	-0.12988058
82	0xbd1d5d65	-0.038419146
83	0xbd9bc705	-0.07606319
84	0xbe02fe2a	-0.12792268
85	0xbd34995e	-0.044091575
86	0xbcd93a42	-0.026517037
87	0xbceffeac	-0.029296242
88	0xbcd4ee7e	-0.025992628
89	0xbd89560c	-0.06705865
90	0xbd4e4db0	-0.050367057
91	0xbd443875	-0.047905404
92	0xbd0aa8bf	-0.033852335
93	0xbdd8a39c	-0.10578081
94	0xbcf0ac58	-0.029379055
95	0xbc75436f	-0.014969691
96	0xbdc07e9a	-0.09399147
97	0xbd07402f	-0.033020195
98	0xbd83f8bd	-0.064439274
99	0xbda1f877	-0.07908719
100	0xbd06dd61	-0.032925967
101	0xbd56e012	-0.052459784
102	0xbd048ac0	-0.032358885
103	0xbd096088	-0.033539325
104	0xbd318fb4	-0.043349937
105	0xbd890208	-0.066898406
106	0x3ce6d627	0.028178288
107	0xbcdde009	-0.027084367
108	0xbd816e96	-0.06319921
109	0xbce6c584	-0.028170355
110	0xbdb87aec	-0.090078205
111	0xbd6c33cf	-0.057666596
112	0xbd6ac189	-0.057313476
113	0xbd76c16e	-0.060243063
114	0xbd16c422	-0.03680814
115	0xbea47b1a	-0.3212517
116	0xbc8ce449	-0.017198699
117	0xbe3a05b5	-0.1816624
118	0xbd444ddc	-0.047925815
119	0xbdb37e46	-0.08764319
120	0xbde08413	-0.10962691
121	0xbe33b6de	-0.17550227
122	0xbd844ab5	-0.06459562
123	0xbdb430cf	-0.08798372
124	0xbd22014a	-0.03955201
125	0xbe25f503	-0.16206746
126	0xbcbc0bdc	-0.022954874
127	0xbca15e97	-0.019698424
128	0xbc4fdc26	-0.012686765
129	0xbd374fd9	-0.044753883
130	0xbd5cac47	-0.053875234
131	0xbcf8a7f6	-0.030353528
132	0xbc8cfbd4	-0.017209925
133	0xbd35e0a9	-0.044403706
134	0xbd4d6722	-0.050147183
135	0xbd0c6426	-0.034275196
136	0xbd8eadad	-0.0696672
137	0xbd496013	-0.04916389
138	0xbc8a1e7a	-0.016860235
139	0xbcbc9895	-0.023021976
140	0xbd8343c5	-0.064094104
141	0xbd06a248	-0.032869607
142	0xbd77034c	-0.06030588
143	0xbd8f9677	-0.07011121
144	0xbccaaf6e	-0.024741855
145	0xbd2883cf	-0.041141327
146	0xbd08d254	-0.03340371
147	0xbd430155	-0.047608692
148	0xbd9a9df8	-0.075496614
149	0xbcb3e861	-0.021961393
150	0xbdc25bff	-0.09490203
151	0xbd5ba9e2	-0.05362881
152	0x3e09331a	0.133984
153	0xbd27a416	-0.04092797
154	0xbd077cc8	-0.033077985
155	0xbd0937a5	-0.033500332
156	0xbc8533d2	-0.016260061
157	0xbd9e2645	-0.07722143
158	0xbd4a77bb	-0.04943059
159	0xbd9ba18d	-0.07599173
160	0xbd74789b	-0.05968533
161	0x3de90e4a	0.113796785
162	0xbd60709c	-0.054794893
163	0xbd09f13b	-0.03367732
164	0xbd2ee63f	-0.04270005
165	0xbd61d349	-0.055133138
166	0xbd3fddea	-0.046842493
167	0xbdbfd2dc	-0.0936639
168	0xbd51a2e2	-0.051180728
169	0xbd60d304	-0.05488874
170	0xbd50a516	-0.05093869
171	0xbd1c18e2	-0.038109668
172	0xbd1aa967	-0.03775921
173	0xbd58dbc7	-0.05294397
174	0xbcbebc66	-0.023283195
175	0xbd73dc03	-0.05953599
176	0xbd30f94d	-0.0432065
177	0xbd9b7a86	-0.07591729
178	0xbcf3fec3	-0.029784566
179	0xbcc51940	-0.024059892
180	0xbd5ab4d6	-0.053395115
181	0xbd8c1909	-0.068407126
182	0xbd9ddc73	-0.07708063
183	0xbc4a33bf	-0.012341439
184	0xbce2f440	-0.027704358
185	0xbddf51a9	-0.10904247
186	0xbc8bb41b	-0.017053654
187	0xbda6fdef	-0.08153903
188	0xbcec4cb0	-0.028845161
189	0xbd2a1378	-0.041522473
190	0xbd63da8a	-0.055628337
191	0xbcaa8041	-0.02081311
192	0xbdd2ac71	-0.10286797
193	0xbd0a10e7	-0.033707526
194	0xbd06a000	-0.03286743
195	0xbd3da355	-0.046298344
196	0xbd7d549d	-0.06184827
197	0xbce59d2c	-0.028029047
198	0xbda44771	-0.08021439
199	0xbd4114e9	-0.047139082
200	0x3e0a3671	0.1349733
201	0xbd349d55	-0.044095356
202	0x3e854f1d	0.2603692
203	0xbd00e339	-0.031466696
204	0xbdcc125a	-0.09964438
205	0xbd7766d5	-0.060400803
206	0xbd84befd	-0.064817406
207	0xbd848378	-0.06470388
208	0xbdb2c399	-0.087287135
209	0xbcb1b626	-0.0216933
210	0xbd6c911b	-0.05775557
211	0xbed23adf	-0.4106054
212	0xbd901607	-0.070354514
213	0xbe8f242d	-0.27957287
214	0xbcbb25de	-0.022845205
215	0xbd04908e	-0.03236442
216	0xbd040a28	-0.03223625
217	0xbc81d043	-0.015846377
218	0xbcfb1288	-0.030648485
219	0xbe0065c7	-0.12538825
220	0xbd425e1c	-0.04745303
221	0xbd8999a2	-0.06718756
222	0xbc32e993	-0.010919946
223	0xbd33e8ea	-0.043923296
224	0xbcf89b91	-0.030347617
225	0xbccc635c	-0.024949722
226	0xbc097fb3	-0.008392262
227	0xbd2958e9	-0.041344557
228	0xbce35145	-0.027748713
229	0xbd5f9c09	-0.054592166
230	0xbdb5d99b	-0.088793956
231	0xbdad6b1a	-0.084676936
232	0xbc7e9016	-0.015537282
233	0x3e0db2b8	0.13837707
234	0xbdd288de	-0.102800116
235	0x385f2e60	5.3210533e-05
236	0xbcf15f54	-0.029464401
237	0xbd272a50	-0.040811837
238	0xbd3c11d9	-0.04591546
239	0xbd62418c	-0.05523829
240	0xbd5281b5	-0.05139323
241	0xbd948141	-0.07251216
242	0xbdd3f576	-0.10349552
243	0xbc19fc2c	-0.009398501
244	0xbca452ed	-0.020059073
245	0xbc679160	-0.014133781
246	0xbd237fb3	-0.039916705
247	0x3e4d6f1a	0.20061913
248	0xbd3c2a40	-0.04593873
249	0xbcad19d5	-0.021130482
250	0xbd04df11	-0.032439295
251	0xbd700dfc	-0.058607087
252	0xbdc49a05	-0.095996894
253	0xbdb69617	-0.08915346
254	0xbd3223d4	-0.0434912
255	0x3c9b512a	0.0189596

l3.weight f4 [1, 300]
0	0xbbd3d250	-0.00646428
1	0x3db89928	0.09013587
2	0x3c9f0f3e	0.019416448
3	0xbc2c5c26	-0.010520017
4	0x3cc65328	0.024209574
5	0xbc82719a	-0.01592331
6	0xbefeddef	-0.49778697
7	0x3b5eaa39	0.0033975972
8	0x3ca5c432	0.020235155
9	0x3db4ca69	0.08827669
10	0xbcbfe87b	-0.023426285
11	0xbd19091b	-0.0373622
12	0xbe435ae7	-0.19077645
13	0xbccebf2b	-0.02523764
14	0xbc9bea82	-0.01903272
15	0x3d0faf74	0.035079435
16	0xbc99b53b	-0.018763175
17	0xbcd0ab13	-0.0254722
18	0xbca0cdae	-0.019629326
19	0xbcbecda1	-0.02329141
20	0x3c8cb99e	0.017178353
21	0xbc16402d	-0.009170574
22	0xbc2eea75	-0.010676016
23	0x3c1f7a1e	0.009733705
24	0xbb368f10	-0.0027856268
25	0xbc1270f7	-0.008938066
26	0xbc2a58eb	-0.010397176
27	0xbcb9d0b4	-0.022682525
28	0xbdde9419	-0.10868091
29	0x3b775f12	0.0037745875
30	0x3b648b55	0.0034873087
31	0x3b684341	0.0035440477
32	0xbc85ed76	-0.016348582
33	0xbcdbc48b	-0.026827117
34	0x3c6f658a	0.014611611
35	0x3c54eb21	0.012995512
36	0xbd1b0815	-0.037849505
37	0x3aade2f1	0.0013266486
38	0x3c058e3a	0.008151585
39	0xbacf357b	-0.0015808785
40	0x3d406044	0.046966806
41	0xbf47de29	-0.78073364
42	0xbcd13f7b	-0.025542965
43	0x3b595a41	0.0033165368
44	0xbbf77fe0	-0.0075530857
45	0xbcdcb57e	-0.026942011
46	0xbc91afd3	-0.017784035
47	0xbc21ca3b	-0.009874876
48	0x3c43ac87	0.011942989
49	0xbcf6b168	-0.03011389
50	0x3c66569d	0.014058736
51	0x3d0942b8	0.033510894
52	0x3bb28c53	0.005448857
53	0x3c24bbec	0.01005457
54	0xbd01334b	-0.031543057
55	0xbce74263	-0.028229898
56	0x3d73b14a	0.059495248
57	0xbccd1916	-0.025036376
58	0x3bae5beb	0.005321016
59	0xbaa92245	-0.001290389
60	0x3cbfea0b	0.02342703
61	0x3f4602a1	0.7734776
62	0x3b10d334	0.0022098543
63	0x3e878bb3	0.2647377
64	0x3ce22369	0.027604776
65	0xbe16c66f	-0.14724134
66	0xbcc130e2	-0.02358288
67	0x3b754d55	0.0037430127
68	0xbbfcc421	-0.00771381
69	0xbb817552	-0.0039507532
70	0xbd42f6ae	-0.047598533
71	0xbc190eac	-0.009341877
72	0x3f792673	0.97324294
73	0x3d0585d2	0.032598324
74	0xbc6ddb87	-0.014517671
75	0xbd1d4165	-0.038392443
76	0xbb4d2196	-0.0031300536
77	0x3f981af6	1.1883228
78	0xbf131c27	-0.5746483
79	0xbc5f6abc	-0.013636287
80	0x3cd2a2e9	0.025712447
81	0xbbddf2a8	-0.0067733116
82	0xbc049df7	-0.008094302
83	0xbcef509e	-0.029213246
84	0x3eaa6e95	0.33287492
85	0xbcf3ac09	-0.029745119
86	0x3cd7e521	0.026354374
87	0xbd2a3619	-0.041555498
88	0xbd2c8630	-0.04212016
89	0x3cd32fb3	0.02577958
90	0xbc4a475d	-0.012346116
91	0xbb1d0af0	-0.0023962818
92	0x3d4088b9	0.04700539
93	0xbe687650	-0.22701383
94	0xbb6c5d4b	-0.003606635
95	0x3d19a602	0.037511833
96	0xbceb83ea	-0.028749425
97	0x3c4c0dea	0.012454489
98	0x3bde852b	0.006790777
99	0xbb817316	-0.003950487
100	0xbd1ad2b4	-0.0377986
101	0xbcc4024f	-0.023926882
102	0xbb5da77e	-0.0033821757
103	0xbaa987da	-0.0012934164
104	0xbc854504	-0.01626826
105	0xbc66f95e	-0.01409754
106	0x3dbceac6	0.09224467
107	0xbc80077b	-0.015628567
108	0x3c61a9ac	0.013773363
109	0xbd224109	-0.039612804
110	0xbbeb9d2c	-0.007190367
111	0x3bd79257	0.0065787244
112	0x3b47995e	0.0030456404
113	0xbca87d6a	-0.020567615
114	0x3c801f19	0.015639829
115	0xbd8ba9a4	-0.06819466
116	0xbc6d85fe	-0.014497278
117	0xbc3380f1	-0.010956035
118	0x3b94c55b	0.004540128
119	0x3c0fa0a0	0.008766323
120	0xbbe6d235	-0.0070441016
121	0xbdf38d94	-0.11892238
122	0xbb9fe9f3	-0.004880184
123	0x3c05ba9f	0.00816217
124	0xbcbcb793	-0.023036754
125	0x3f4f390a	0.8094641
126	0xbd45928b	-0.048235457
127	0x3d335875	0.04378553
128	0x3b611c2d	0.003434907
129	0x3c0ea086	0.008705264
130	0xbb0b1c3e	-0.002122655
131	0x3c1ff9a4	0.009764109
132	0xbc645de9	-0.013938406
133	0xbceee79a	-0.02916317
134	0xbb8fca5d	-0.0043881373
135	0xbc58704e	-0.013210369
136	0x3f23a013	0.6391613
137	0xbd4ebd71	-0.050473634
138	0x3c071d72	0.008246766
139	0xbce05c51	-0.02738777
140	0xbae91d78	-0.0017785272
141	0xbc47d18a	-0.012195954
142	0xbba36b6e	-0.004987172
143	0x3c5521af	0.013008519
144	0x3d05f138	0.032700747
145	0x3b7ad02d	0.0038271055
146	0xbcb3b8f8	-0.021938786
147	0xbc4541e0	-0.012039632
148	0x3c94ccad	0.018164003
149	0x3c8e0e6b	0.01734086
150	0x3d2639a3	0.04058231
151	0xbc3e010a	-0.011596927
152	0xbef05d5a	-0.46946222
153	0xba31f958	-0.0006789169
154	0xbc12ab1d	-0.008951929
155	0xbc7f18cb	-0.015569876
156	0xbcd6d3c1	-0.026224019
157	0xbc9a767b	-0.018855324
158	0xbc23b59e	-0.009992031
159	0x3cf855a0	0.030314267
160	0x3c9af8bf	0.01891744
161	0xbeb6ab0b	-0.3567737
162	0x3c5da69f	0.013528495
163	0x3ca1c973	0.019749379
164	0xbc90d2b9	-0.017678605
165	0xbd083e93	-0.0332628
166	0x3cdf5974	0.027264334
167	0xbd80c987	-0.06288438
168	0xbd10afac	-0.035323784
169	0xbd377f17	-0.044798937
170	0x3d08830c	0.0333281
171	0xbb1d6b09	-0.0024020097
172	0xbd249bdd	-0.040187705
173	0xbc668209	-0.014069089
174	0x3c32efbb	0.010921414
175	0xbcf8e924	-0.030384608
176	0x3c62bb88	0.013838656
177	0xbcac38da	-0.021023203
178	0x3c1ed1c4	0.009693567
179	0xbb5a22ed	-0.0033284978
180	0x3cafaa1e	0.021443423
181	0xbc6017f9	-0.0136775905
182	0xbd080435	-0.033207137
183	0x3c843bec	0.016141854
184	0xbc41ada7	-0.011821187
185	0x3f8156b6	1.0104587
186	0x3c332c3e	0.010935841
187	0xbbb23453	-0.0054383664
188	0xbc886d30	-0.016653627
189	0x3ba8acfb	0.005147574
190	0xbd0ec24e	-0.034853272
191	0xbac43eb1	-0.0014972297
192	0xbc60d907	-0.013723618
193	0x3a692a40	0.00088945404
194	0xbd38e6c8	-0.045141965
195	0x3cb402f3	0.021974063
196	0x3cf1b579	0.029505478
197	0xbc634daf	-0.013873502
198	0x3bbee240	0.005825311
199	0xbc9abcda	-0.01888888
200	0x3f280674	0.65634847
201	0x3c9c6ae9	0.019093947
202	0x3e80aff6	0.25134248
203	0x3d0ef6cc	0.034903333
204	0xbb8b9a23	-0.004260318
205	0x3d4e4fcf	0.05036908
206	0xbc59a6b9	-0.013284379
207	0x3c2bbdda	0.010482276
208	0xbc0f8801	-0.008760453
209	0xbcf91aa5	-0.030408213
210	0xbcc55c42	-0.024091844
211	0xbd244fca	-0.040115155
212	0xbcb0135e	-0.02149361
213	0xbdafba30	-0.08580434
214	0xbf12fc8b	-0.574166
215	0xbc6abe34	-0.0143275745
216	0xbcd4a124	-0.025955744
217	0x3c04203a	0.008064324
218	0xbbafd5c8	-0.005366061
219	0xbc9825f8	-0.018572792
220	0x3c22fdd9	0.009948217
221	0xbce14034	-0.027496435
222	0x3c24b9c0	0.010054052
223	0x3a8a82e5	0.0010567574
224	0x3d0865bb	0.033300143
225	0x3b6c5903	0.0036063797
226	0x3bf28432	0.007401013
227	0xbbbe34ed	-0.005804649
228	0x3ca1b70c	0.019740604
229	0xbedcbb26	-0.43111533
230	0xbc7b59b2	-0.015341209
231	0x3ca06967	0.01958151
232	0x3cabcfe3	0.020973152
233	0xbf103ae0	-0.56339836
234	0x3c8ac8a2	0.016941372
235	0xbe88d3fa	-0.26724225
236	0xbcd4097d	-0.02588343
237	0xbcc73323	-0.024316376
238	0x3caee208	0.021348014
239	0xba856fff	-0.0010180472
240	0x3b4a1dbc	0.0030840477
241	0xbba846fa	-0.005135414
242	0xbc5123e4	-0.012764905
243	0xbcef0a66	-0.029179763
244	0xbcc3cf60	-0.023902595
245	0xbcb2e1ea	-0.02183624
246	0xbc124695	-0.008927961
247	0xbf0a53fb	-0.54034394
248	0xbca46d02	-0.02007151
249	0x3f7ec09d	0.99512655
250	0xbcc3197f	-0.023815868
251	0xbc9723fd	-0.018449778
252	0xbf4224d4	-0.75837445
253	0x3cb889b2	0.022526596
254	0xbcc1ad31	-0.023642154
255	0x3f780723	0.9688589
