LunarLanderContinuous-v2-DDPG/dir_chk_1/LLC-v2_actor_target.pth (torch_old, 72655 bytes, 6 tensors)

fc1.weight f4 [128, 8]
00000000: 9537 5a3e 0791 febd edde 0bbd a81b 913c
00000010: 651c 06bf ea1e 80bf 13ff 59be 3625 d93c
00000020: 1d0c 99bc 8767 26bd 2f30 7cbf 7eea e43f
00000030: 2c9e 9cbd 0e0f 30bc ed9d bbbe d469 6bbe
00000040: 1683 653d 3826 8dbc 380b 37bc a1d3 fb3b
00000050: 94d7 863c 38f6 58bc 8090 12ba 230a a2bd
00000060: 6bc4 c23d fa3e f63d b96a f83d cc8f 9a3f
00000070: ef40 20bf 13c7 5fbe 9ac8 1ebe 5318 96be
00000080: 3434 7dbd 77af 3f3d 3632 68be ab4f 833e
00000090: 8b6d a0be ba9d e03d affe bbbd f9db b0be
000000a0: 587d 853e 45b2 30be 0aab 50be 8c51 6c3f
000000b0: 5d34 1abe 3233 35bf e00d 97be 45d7 b9be
000000c0: 1853 7a3e 023f 3d3e 7cf4 4bbe e21e 823f
000000d0: ffc7 1abe a3db 0a3e 4b19 c23e ff54 b33b
000000e0: f9d0 85bf d496 00be a29a 3a3e ba33 483e
000000f0: 529a 67be c5d5 983e 5cfe 873c 2a27 ab3e
00000100: bcc9 a5bc d89f 95bd 67ea 2a3e 8942 29bf
00000110: bca6 8f3f bf59 e83e 402c 713d 1205 5c3e
00000120: 1850 09bd ca40 2a3e 0ea5 99bd ae93 063f
00000130: a707 d7bd a629 da3e ea67 38bd 7827 05bf
00000140: ead6 4b3d e8e7 da3b ce6a e33d 5c02 82bf
00000150: 25b5 023f 0d15 503e ebc5 5d3e 577e d9bd
00000160: 869c bb3e 1aa1 82be 8155 953e 3a29 933e
00000170: 2dd3 eabe 261d 25be e4bb 37be c443 50bf
00000180: 3804 893e c347 8ebd 36c3 1bbf bd7d ad3f
00000190: b6a7 2d3c 7b82 49be 905e ac3c 45e3 c03c
000001a0: 28ad a33c 4181 68bd 7894 3b3c f151 563d
000001b0: c8fb 2e3c b2ad 813d 46d5 95bd b077 903b
000001c0: a5bf 3ebe 0878 b7bd a5f8 483e cee9 4c3f
000001d0: 9446 7e3d 7a9e 6c3e 853f b73d cd13 92be
000001e0: 8a24 d13c 65cd 8cbd 6b8b cabe c03a 373e
000001f0: 67bd a73e 84f7 4a3d e51e bb3d 6e13 aa3d
00000200: bab5 cbbd 34b7 0bbe 4bdb 413e 366b ab3c
00000210: 29fe ac3f ad98 153f cb5b 993e 3a49 fabe
00000220: ef6d d7be b597 83be 6a40 41be 8c78 0d3f
00000230: ebf4 ff3b 52bd 163e e772 313e 63da e0bd
00000240: fa4f 7fbe fbf9 5a3e 917b cebe dd90 33be
00000250: c0b7 f03e c91a bd3e c182 a23e 07b2 9bbe
00000260: a9e0 3ebd 9726 7ebe f60e 983e 3dbf 11be
00000270: a908 6bbd 7b06 3a3d 1769 d1bb a99b f5bd
00000280: 171b 4dbf 803f 223d b7b2 803e b70d 95be
00000290: 0869 1d3d 6863 6e3e eee4 9fbd 71fd e63d
000002a0: a010 86bd edfd c7bc 4ac1 613d c3ed 833d
000002b0: a0d2 dc3c 2056 54bd 2e99 ebbc 7bd8 8f3d
000002c0: db6a dabd d2df cbb9 1f8f dc3e 5a37 fb3e
000002d0: 6db8 6bbf 812d eabe 1f63 4cbe ca52 64bd
000002e0: bb58 813e 9e7f 303e 13f4 62bd d034 72bd
000002f0: e99b f23e 3dd0 e6bc c569 073c 981e 8ebe
00000300: 93ec 58be 7bd2 b2bd c94a 24be 3039 533e
00000310: a327 f73c 3779 093f 2272 3bbe 41b7 05bf
00000320: d233 97be 13b1 43bc 4a37 b3bd a4cb 65bc
00000330: 39d7 cf3c aaa0 88be 8285 c93e 3a47 283e
00000340: 8663 31be a85e cc3d 990b 8dbf 170f 8f3f
00000350: 399b 99be 0ebb b5be 2c82 8bbe 6798 103d
00000360: 56e7 85be 3bbd a23e cd18 bb3d 88d8 70be
00000370: 633e 423e 987d f0be ce10 ddbe 5af3 8ebb
00000380: 5ff6 9b3c 6404 513c 36f8 b93e 34c7 debe
00000390: 966f 22be de70 54be 60bb ec3d 13c2 d53d
000003a0: 5963 b2be 7a28 30be f706 96be e7b1 d8be
000003b0: 450e 90bd 68d8 183e 72e6 43be 322b 62be
000003c0: 0280 37bd 45ca 6ebd d5b0 52bf 6c05 0140
000003d0: c634 27bd beb2 fa3d 0a85 953e e43c 86be
000003e0: 35b8 dcbd ad4b 3b3d 6d4a 54bd 81dd 0f40
000003f0: 09cd a13e 0e83 1b3e d5df 753e 582c 1bbf
0.21310265 -0.124300055 -0.034148145 0.017713383 -0.52387077 -1.0009434 -0.2128871 0.026507001
-0.018682534 -0.040626075 -0.9851102 1.7884061 -0.076473564 -0.010745777 -0.36643925 -0.22989589
0.056033216 -0.017230138 -0.011172108 0.0076851402 0.016460218 -0.013242297 -0.000559099 -0.0791209
0.0951012 0.120237306 0.12129731 1.2075133 -0.6259908 -0.21853285 -0.15506211 -0.29315433
-0.061817363 0.046798196 -0.22675404 0.2564672 -0.31333575 0.10967584 -0.091794364 -0.34542826
0.26072192 -0.17255504 -0.20377746 0.9231193 -0.15059038 -0.7078124 -0.29502773 -0.3629705
0.2444576 0.18481067 -0.19917482 1.0165675 -0.15115355 0.13560347 0.37909922 0.005472779
-1.0454398 -0.12557536 0.1822305 0.19550982 -0.22617462 0.29850593 0.01660078 0.33428317
-0.020237796 -0.073058784 0.1669098 -0.6611715 1.1222758 0.4538097 0.05888009 0.21486309
-0.03352365 0.16626278 -0.07502185 0.5256909 -0.104995064 0.426099 -0.045020975 -0.5201335
0.049765505 0.0066804774 0.11104356 -1.015697 0.51057655 0.2032053 0.21657531 -0.106198005
0.36642855 -0.25513536 0.29166797 0.2874239 -0.4586424 -0.161244 -0.17942768 -0.813534
0.2676103 -0.06947281 -0.60844743 1.3553997 0.010599067 -0.1967868 0.021041185 0.02354587
0.019980028 -0.05676389 0.011448972 0.05232424 0.0106801465 0.06331958 -0.07316069 0.004408799
-0.18627794 -0.08958441 0.196261 0.8004426 0.062079027 0.23107329 0.08947662 -0.28530732
0.025530118 -0.068751134 -0.39559492 0.17893505 0.3276169 0.049552456 0.09136752 0.08304487
-0.09946771 -0.13644105 0.1893131 0.020925146 1.3515064 0.5843609 0.29952845 -0.48883992
-0.4207606 -0.2570168 -0.18872228 0.55262065 0.007811179 0.14720657 0.17328988 -0.10979154
-0.24932852 0.21384422 -0.4032865 -0.1753573 0.4701519 0.36934498 0.31740382 -0.30409262
-0.04660097 -0.24819408 0.29698914 -0.14233108 -0.057381306 0.045416337 -0.0063907015 -0.119925804
-0.8011946 0.03961134 0.2513635 -0.29112026 0.038430244 0.23280108 -0.07807337 0.11278809
-0.0654614 -0.024413073 0.055115975 0.06441834 0.026955903 -0.051839948 -0.028759565 0.07023712
-0.10664912 -0.00038885936 0.43077943 0.49065667 -0.92078286 -0.45737842 -0.19959687 -0.055743016
0.25263008 0.17236182 -0.05540855 -0.059132397 0.47384575 -0.028175468 0.0082649635 -0.27757716
-0.21183996 -0.08731552 -0.16044153 0.20627284 0.030170267 0.53700584 -0.18305257 -0.5223275
-0.29531723 -0.011944073 -0.0875078 -0.0140256025 0.02537118 -0.26685077 0.3935967 0.16433421
-0.17323121 0.09978992 -1.1019164 1.117648 -0.30001238 -0.35494274 -0.2724775 0.035301592
-0.26153058 0.31784996 0.0913559 -0.235201 0.18969111 -0.4697082 -0.43176883 -0.004362506
0.019038377 0.012757394 0.36322182 -0.43511355 -0.15862879 -0.2074618 0.115591764 0.10437407
-0.3484142 -0.1720294 -0.2930219 -0.4232323 -0.07033972 0.14926302 -0.19130877 -0.2208679
-0.044799812 -0.058298368 -0.82301074 2.015956 -0.040821813 0.122411236 0.29203063 -0.2621833
-0.10777322 0.045726467 -0.05182879 2.2478945 0.31601742 0.15186712 0.24011166 -0.6061454

fc1.bias f4 [128]
00000000: 2c90 11be 8988 f33c 616b 29be 5eae 04be
00000010: cff3 093e c161 20be c0bf 24be 193b 31be
00000020: 6ea6 383e 0312 603e e61c 8b3d 0a43 8f3d
00000030: 8e77 943d a0ed aabe 2962 a43e 4e53 583e
00000040: f95b 8d3e 4d80 9e3e 3b09 163e b2b4 7cbe
00000050: 66b7 cc3d 56fb a9be 6acf 0cbe 2372 a1bd
00000060: 904b c63e cbc2 b63e be3b 35be 9b0e 863c
00000070: 7301 24bc ec89 5ebe 6e41 873d b5d9 7f3c
00000080: 5c94 b2be 1864 683e 9dd3 58ba 81d1 573e
00000090: f75c 813e 1bc5 b03e 5f9e 913e 1971 f73d
000000a0: 8375 223d e7cb 1a3e b616 103e 571b fd3b
000000b0: 2f69 d93d 2c3d 55be d3c3 20be 9947 21be
000000c0: 0a46 86be 158b 83be 547d 45be e0ed 453e
000000d0: d12f afbd 55bd 593d f5b0 82bd f1aa c13e
000000e0: 7ec6 bdbe 85ab 403d 6f6b 8abe a045 963d
000000f0: 264c 9f3e cd88 973d 0b89 ecbd b620 613e
00000100: 6e63 813e 7f35 23bc d0fe fbbd a848 013d
00000110: b7ea 5e3e 1c52 63be 332e 2dbe 27fc 8c3e
00000120: c604 00bd e1a0 f13d aef0 6c3d 0d92 f23e
00000130: 9ef4 19be c1a3 d03d 1b3a 1abc c01f 9bbe
00000140: 9f61 7b3d 7caf a4be 0c26 103e 279d a33d
00000150: 4d6b c33e 0b30 b1be 42e1 83be 3525 1fbe
00000160: 8a16 64bd 101e 5d3e 2920 543d fd5e 35bd
00000170: 900b 5d3d f8dd 6ebc ffd9 37be bdbe 5abd
00000180: 1f87 af3d 9f3c d0bd e156 6cbe f520 df3d
00000190: e817 303d 3fc1 9d3e db5b f03d 844c 85be
000001a0: 623d 6dbd 2cf4 be3c f40a 20be c711 033e
000001b0: db19 083e f2c3 b93c 7bc5 863e 1c61 70bd
000001c0: a6f1 c73d 7aba 353d 5009 293d e184 a03e
000001d0: cd44 1b3b 99a7 3d3e 7fcc b8bd dd11 20be
000001e0: 33a4 8b3e 7136 a2be 4534 46be 2826 e8bd
000001f0: 1c40 35be 6f9a 4cbe f023 a5be 9a58 a8bd
-0.14215153 0.029728191 -0.16544868 -0.12957141 0.13471912 -0.1566229 -0.16088772 -0.173077
0.18032238 0.21881871 0.06792621 0.069952086 0.07249366 -0.33384418 0.3210614 0.21125528
0.27609232 0.3095726 0.14651959 -0.24678305 0.09995918 -0.33199567 -0.13750997 -0.07883098
0.38729525 0.3569549 -0.17698571 0.016364386 -0.010010111 -0.217323 0.066042766 0.01561587
-0.34878814 0.22694433 -0.0008271279 0.21076013 0.2526624 0.3452538 0.2844114 0.120821185
0.03966285 0.15116845 0.14071164 0.0077242064 0.10615765 -0.20824116 -0.15699701 -0.15749969
-0.2622531 -0.2569205 -0.1928609 0.19329023 -0.08554042 0.053159077 -0.06381408 0.3782573
-0.370655 0.047038574 -0.2703509 0.07337499 0.31112784 0.073991396 -0.11549576 0.21985134
0.2527117 -0.009961485 -0.12304461 0.03156343 0.21769224 -0.22199291 -0.16912155 0.27536127
-0.031254552 0.11798263 0.057846718 0.47377053 -0.1503472 0.101874836 -0.0094132675 -0.3029766
0.061372396 -0.32165134 0.14077014 0.07988959 0.38167801 -0.34606966 -0.25757796 -0.15541537
-0.055685557 0.21593499 0.051788483 -0.04428004 0.053966105 -0.014579289 -0.17954253 -0.05340456
0.08570694 -0.101678126 -0.23080017 0.10894958 0.04299155 0.30811498 0.1173627 -0.2603494
-0.057919867 0.02330979 -0.15629178 0.1279975 0.13291113 0.022676442 0.2632254 -0.05868636
0.09762888 0.04436729 0.041268647 0.3135138 0.0023692132 0.18520965 -0.090233795 -0.15631814
0.27273712 -0.3168216 -0.19355877 -0.11335403 -0.17700237 -0.19980787 -0.3225398 -0.082200244

fc2.weight f4 [128, 128]
00000000: aafa 56be 2ad9 8e3d 68c1 6bbc 24b3 b7bf
00000010: c501 173e ab1d 9fbf efd2 f4be 4961 06bf
00000020: 5eb8 b53d 986b 873e 3516 a7bc f3c8 573e
00000030: f83c eb3d b487 8bbc c074 833d 1daf 25be
00000040: 4a71 16bd 1775 3c3e 3b7d 0c3e a9bc 94be
00000050: 3053 1f3e 0897 b63c eddb d4bf 2a28 ab3e
00000060: 7da9 fe3d 7300 1abc b589 5a3d a982 bcbb
00000070: 64d2 2fbf 80f8 26bf 9cf1 4a3e 61d6 233e
00000080: 9c6c 81bd 4ac9 e4be e1bb 5f3e 0168 303e
00000090: f41d 35bf 9a0a a4be 6b43 b4bd 2dbf 99be
000000a0: 7450 a6be 3476 a23d eb75 7abc f416 b2bf
000000b0: 973a 3c3e 08fb 8cbd 2853 c8bf c621 2b3e
000000c0: 7bf3 aa3d 7e1b 143f 6c75 6abd 41bc 513e
000000d0: fab8 85be 17d6 be3d 2265 7bbe 2346 363e
000000e0: 6019 39be a7b0 783e bbee 0bbd 04ea 243e
000000f0: 91fd 39be 235a 993e e20c 00c0 ef7c 26bf
00000100: 2c1d 1a3e 56ac 12be f553 ac3d a2d5 19bf
00000110: b46a 3a3e 3825 71bd 6662 c9be 4d4d 1b3d
00000120: 6f4b c4bd 0775 bf3d e99e 193d 139e 903b
00000130: b127 dfbc f054 68bf 9731 9dbf 4625 583d
00000140: 837a 273e fa31 4d3b 5658 a73e 6f59 803e
00000150: 0c59 323e e964 d7bc 6c08 c3bf 0614 653e
00000160: c474 d23d 3a3a a9bd 59bd 0cbf 2478 463e
00000170: b455 7abd 6dbe ef3d 8a25 f33d 3dce 57bd
00000180: 3c46 3ebe d081 e33e edb0 1dbf 325c f93d
00000190: c432 c0bd 901e cc3e 9b6d 25bf facb 42bf
000001a0: 67fb 533c dd9d e1be c4cd c6be c3ee c7be
000001b0: e6f8 cc3d 98de c33d dbbc c2bd 8f45 ffbe
000001c0: cf29 083e 4d0a a43e 416b 8a3e fcfa b6be
000001d0: 231d 943e 3a1a 273e 1296 debf 96c7 8b3e
000001e0: 4c0a 7d3e 7bce 8e3e 7a7a a33e 657c fcbe
000001f0: 8cda ca3c 72a5 b43e 5685 28bd 4e3e 503e
00000200: 416a d0bd 13e1 20bf 76cb 723d 8f8b d5bf
00000210: 2e1c f03c ccd0 8fbf ab22 a0bf 7b81 14bf
00000220: 1d38 7abb b02b 95bc cbd8 09bc 745b 1f3e
00000230: 394f 8b3d 2e54 8dbd 5a0a e43d 0a97 bebe
00000240: 98a6 b1bd 0297 87b9 aac9 c93c aa39 15be
00000250: 0ed8 613e 0636 3ebd 6336 cbbf 1346 b43e
00000260: 064e 8a3d aa42 61be 2fcb 1ebf 29ec 21bf
00000270: f451 98be a4f5 95be 44cf 0abf f8f2 a53d
00000280: c3c5 61bd 7607 2f3f e260 e03e 774a e73d
00000290: 17ac a5be 3dbe ca3e 47b3 0dbc 6201 84bf
000002a0: bdd6 b9be 2cb4 d5bd afa4 033d f812 4abe
000002b0: c590 08bf 67ba 2dbe 5975 d8bf 7fd5 7e3f
000002c0: dde6 1dbd 103f c33e dba3 8abd 1b66 cf3d
000002d0: 5529 c2be 5211 1dbe c6b5 1cbf 2fea 953e
000002e0: 3caf 04be a9f9 da3d 6e34 56bd e952 bb3b
000002f0: ac05 27be fe8d 33be 42bc 6ebe c492 1ebf
00000300: f4b0 c1bd 5a46 b9be 87eb 17be 8fa3 6cbf
00000310: 10fb 0f3d aabd 473d f31f 3fbe dd68 ebbd
00000320: 3b02 0a3f 96fe 953e ae7c dabc f851 a33e
00000330: b0de 123d 4524 42be 88a2 56bf e050 aebb
00000340: d7ba 79be 52a1 293d a743 e33e b042 fd3d
00000350: e9de 3abe b1b0 e0be 8672 81bf 593f 223e
00000360: 8e52 d5be 70ff ab3c 733d 0fbf def8 e0bc
00000370: d8e2 b2be ea99 653e d604 2dbb 21d9 17bf
00000380: d5cb 08be b56a 77be bfed 25be 2a9c 633e
00000390: 2893 4ebf c9b5 f3bd a1e3 08bf a95f 03bf
000003a0: 5a44 e13d 32b9 fc3c ff61 9dbe 74f2 8bbe
000003b0: 51b5 a1bb c1fb bdbe c3a9 1dbe 0b63 04bf
000003c0: 8497 9a3d 9788 493e f2b6 f0bc 241a f6bd
000003d0: 3446 923d d727 1e3e 9606 babf 37f1 42bd
000003e0: 9b86 d13d fe18 083e 5119 b13c 3388 06be
000003f0: 698f ba3e 8d3f d53d 0d52 a03d 980a dcbe
-0.20994058 0.069750145 -0.014389373 -1.4351544 0.14746769 -1.2430929 -0.4781718 -0.52492195
0.08873056 0.26449275 -0.020396331 0.2107275 0.11486238 -0.017032482 0.06418753 -0.16180082
-0.036729135 0.18404041 0.13719647 -0.29050186 0.15559077 0.022288814 -1.6629616 0.3342908
0.12434671 -0.009399521 0.053353984 -0.0057528806 -0.68680406 -0.6522293 0.19818729 0.15999748
-0.06319544 -0.4468482 0.21849014 0.17227174 -0.7074883 -0.32039338 -0.088019215 -0.30028668
-0.32483256 0.07932702 -0.015286903 -1.3913255 0.18381725 -0.06883818 -1.5650377 0.16712102
0.083472215 0.5785445 -0.05724089 0.2048197 -0.26117688 0.09318178 -0.24550298 0.17800193
-0.18076086 0.24286138 -0.034163218 0.16104895 -0.18163134 0.2995158 -2.0007863 -0.65034384
0.1505019 -0.14323553 0.08414451 -0.600916 0.18204767 -0.058873385 -0.39332885 0.037915517
-0.095847 0.09348493 0.037505064 0.004413375 -0.027240606 -0.90754604 -1.2280759 0.05276992
0.16355328 0.0031310306 0.32684582 0.25068232 0.17416781 -0.026293235 -1.5236945 0.2237092
0.102761775 -0.08263059 -0.5497642 0.19381768 -0.06111689 0.11706243 0.118723944 -0.05268692
-0.1858148 0.44434977 -0.6159809 0.12175788 -0.09384683 0.39867067 -0.6462037 -0.76092494
0.012938357 -0.44065753 -0.38828862 -0.39049348 0.10008411 0.09563941 -0.095086776 -0.49857756
0.13297199 0.3203911 0.27034953 -0.3573836 0.2892848 0.16318598 -1.7389548 0.2730071
0.24710959 0.27891907 0.3192938 -0.49313655 0.024762414 0.35282475 -0.041142784 0.20336267
-0.10176516 -0.62843436 0.059276067 -1.6683215 0.029310312 -1.1235595 -1.251058 -0.5801007
-0.0038180419 -0.018209308 -0.008413504 0.1556223 0.0680222 -0.069008216 0.11134787 -0.3722461
-0.08674353 -0.00025861716 0.024632294 -0.14572778 0.22055075 -0.04643824 -1.5875973 0.35209712
0.06753163 -0.21998087 -0.62028784 -0.63250977 -0.29750025 -0.2928897 -0.5422251 0.08102983
-0.05512024 0.6837076 0.43823916 0.112935 -0.32357857 0.39598265 -0.0086487 -1.0312922
-0.36296645 -0.10434756 0.032139476 -0.19733799 -0.533459 -0.16965638 -1.6910812 0.9954452
-0.038550247 0.3813405 -0.06769534 0.10126897 -0.3792216 -0.15338638 -0.61214864 0.2928023
-0.12957472 0.1069215 -0.052296095 0.005716671 -0.16310757 -0.17534634 -0.23314002 -0.61942697
-0.09457579 -0.36186486 -0.1483594 -0.9243707 0.03515154 0.048764862 -0.18664531 -0.114946105
0.53909653 0.29295796 -0.02667078 0.31898475 0.035856903 -0.18959148 -0.83841753 -0.0053196996
-0.2438768 0.041413613 0.44387552 0.12366235 -0.18249096 -0.43884805 -1.0113075 0.15844478
-0.41664547 0.020995826 -0.5595314 -0.02746242 -0.34938693 0.22421995 -0.0026400588 -0.5931569
-0.13359006 -0.24161799 -0.16203974 0.2222754 -0.8069329 -0.11899907 -0.53472334 -0.5131784
0.10999365 0.030850027 -0.30738828 -0.27333415 -0.0049349447 -0.37106135 -0.1539679 -0.5171363
0.075484306 0.19681011 -0.02938411 -0.12016705 0.071422964 0.15444885 -1.453326 -0.04759332
0.10230752 0.13290784 0.021618517 -0.13137893 0.36437538 0.10412512 0.0782815 -0.42976832

fc2.bias f4 [128]
00000000: 3f1b 3a3d 5412 5bbd 3f91 28be dc5d a1bd
00000010: df46 16be 47c8 5cbd 870f 4d3d 281f 1d3d
00000020: b389 aa3d 6b7a ba3d 98e1 a3bd eafc c0bd
00000030: c688 f63c b4ad 14bd fee3 d33c 992b 0dbe
00000040: 0b8a 14be f5c7 103c 291b 54bd 16a7 083d
00000050: 894a 393e 6ced babc d6b6 31be 7dbe b8bd
00000060: e514 af3d 352f 213d 0add cf3c 60fa 733d
00000070: c583 8aba 2ea7 46bd f122 b93d e1d8 34bd
00000080: f189 8f3d e0d8 05bd 0bd2 ccbd 843e d9bb
00000090: 17d8 9bbd 9c11 b9bc d8f6 f13d 1916 133e
000000a0: 816e ba3c 2996 833d f5ea 813d 5e1f b33d
000000b0: d52d ec3c 2ccf b0bd 1f57 ff3b 4155 8bbd
000000c0: 556a c33d b025 8a3c 9b21 9fbc 8c50 34bc
000000d0: f8c3 4abe 9ccf 97bd f73b 3bbd 04ae 15bd
000000e0: ed2a 2bbd 588d d9bc b27d c73d 7287 d5bd
000000f0: cc40 1a3d 92e3 fabd 5229 333d 143e 063e
00000100: d334 cabd 5f80 9b3c 7174 403d 63ce 26bb
00000110: ea5b bf3d e14c 8fbc ed2b df3d a1ee c03d
00000120: d198 733c cfdc 77bc 0d5f d13d 5b1d b0be
00000130: 70ae e93d 8ded 41bd f7bb c83d d6e5 813d
00000140: dbf6 06be 98b7 193e 1b37 bcbd 2e9b a13d
00000150: c544 e8bb da12 5c3d 68cb 8d3d 335d e73b
00000160: 65f8 283d f1cc c83c f051 0d3d 67ec f5bd
00000170: f756 94bd 5943 0abe be79 bcbb 2bb9 a73d
00000180: be26 b93c 524c a8bc 9c9a 2fbe 88df 663c
00000190: 1d65 b13d 6cbc e1bd e382 0dbd c086 72bd
000001a0: d810 d9bd 2f7a 8cbe aae6 6dbe e31d 283e
000001b0: 4619 d5bc abd0 443c e174 8c3c ddb8 b73d
000001c0: 6d4e 2dba d3aa 7c3e 4eb2 d1bc 73ee d93d
000001d0: 1632 6abd d43f 173d acfa e33b 2bb4 f3bc
000001e0: 071c 013c afa5 5d3d ab2a d0bd f533 813b
000001f0: 3e5a 943c 73d8 f43c c729 46bd 05ac 42bd
0.04543614 -0.053484276 -0.16461657 -0.078792304 -0.14675473 -0.053901937 0.050063636 0.03835979
0.08327045 0.091053806 -0.08002013 -0.094232395 0.030094516 -0.03629847 0.025865551 -0.13786162
-0.14505784 0.008836736 -0.051783714 0.03336247 0.18094839 -0.02281829 -0.17354903 -0.09020708
0.08548907 0.03935166 0.025373954 0.059564948 -0.0010567835 -0.04849928 0.09039868 -0.044152144
0.07008732 -0.03267753 -0.10001 -0.006629767 -0.07609575 -0.022591405 0.1181466 0.14363898
0.02275777 0.06425125 0.063436426 0.08746217 0.028830448 -0.08633265 0.007792368 -0.0680337
0.095417656 0.016863674 -0.019425204 -0.011005532 -0.19801319 -0.07412645 -0.045711484 -0.036542907
-0.041788984 -0.026556656 0.09740771 -0.10426225 0.03765945 -0.12250437 0.043740578 0.13109618
-0.09873357 0.01898211 0.046986047 -0.0025452606 0.09343703 -0.017492713 0.1089705 0.09420515
0.014867977 -0.015128328 0.102232076 -0.34397396 0.114102244 -0.047345687 0.098014764 0.06342666
-0.13180105 0.15011442 -0.09190198 0.07890926 -0.007088276 0.053728916 0.06923562 0.0070606708
0.041252512 0.024511786 0.03450197 -0.12007981 -0.0724315 -0.13502254 -0.0057518175 0.08189615
0.022601482 -0.020544205 -0.17148823 0.01409138 0.08661864 -0.11022267 -0.03454865 -0.05921054
-0.10598916 -0.2743697 -0.23232523 0.16417651 -0.026013028 0.012012641 0.017145576 0.08970807
-0.00066111126 0.2467454 -0.025597718 0.10641184 -0.057176672 0.036926106 0.0069573727 -0.029748997
0.007880217 0.054113086 -0.10164388 0.0039429613 0.018109437 0.029888367 -0.048379686 -0.04752733

fc3.weight f4 [2, 128]
00000000: f183 9c3f 1d95 f33f 53bc f83e 89c5 5c3f
00000010: 3ebd f93d fb49 dc3d 0435 063f eddf 773d
00000020: 054d 333e a6b4 92bf 95ae 76be 6be6 643f
00000030: 7785 163d cdb5 f8be 6f2d 9b3d f226 9cbf
00000040: b3a9 063f 9f36 553e f911 34be e313 cdbe
00000050: 3d75 f3c0 aea3 bbbd 0a84 a93e 1fc4 9c3d
00000060: d628 dfbe 4495 2abf 0840 bb3e 11aa 21be
00000070: a83e a5be c0c1 7bc0 ca0b 23bf 4d4a fcbe
00000080: 7a56 f63f 3a11 433f 566b 3f3d 0687 b9bd
00000090: 38b2 2ebe 0dc2 553e e621 13bf 6be7 63be
000000a0: f0e3 b9be e814 a83e e5c3 063e ad87 2dbf
000000b0: 3a9b 2c3c 0fe8 4c3e fc74 16bf be5f c4be
000000c0: 48df d23e 4b9a 56bd 6789 5bbf b604 7f3f
000000d0: 8057 0f3f db0c 623e 1ba1 3bbf 76b5 d8bd
000000e0: eebd 19bb d30b 18bf eb39 193e 829b 34bf
000000f0: 640a 7e3f 10bc 393d 6db0 33bf 3066 16bf
00000100: e3ba 283f 5dac d8be ad0b 31bf 9ea8 8cbe
00000110: e1f4 afbe 53e2 35be 89a8 d13d 5cbf 783e
00000120: 8c47 eebd 5ab2 74bd 3b85 1b3f f4cd 373e
00000130: 5a03 6c40 cea1 4c3e 258c 0dbe c3ff 173e
00000140: 5f00 c33d 955a 453e 68ff 96be 410b d43e
00000150: 68d5 26bf 1021 b0be b859 e0bd 1e6d 6c3f
00000160: d4c1 c53d 3f20 43bf 095b 8e3e 79bf c83e
00000170: 6fec 15bd 693c 48bf 3877 203f 43cc 133f
00000180: 7ce9 503d 8f1e 033e c362 35bf e6f2 433e
00000190: d9e9 c1be 641e 65be 92e3 353c 7875 20be
000001a0: 9d45 cbbe a4f6 8dbd 12bd 69be f993 0d3f
000001b0: 49b1 98be ad61 413f 265d 07bf bba2 793d
000001c0: ce4b 9e3e 08ad 5a3f b605 993d 2bd3 253e
000001d0: b925 e0be 47fb 9f3e cad4 a43e 84b9 d9be
000001e0: f961 07bf 4e4e 88be 4099 3c3d ec9d 16bf
000001f0: 4412 a6be c74b d33c 84ff 9cbe ceda f83d
00000200: da0c 383f 9822 7c3f 1889 fa3d d504 67bd
00000210: f6e7 a8be 78f4 c43f 39be f13e 43fb b7be
00000220: cfbd ed3e 42ff 0e3e 9be0 5c3f 5b5b 0ebf
00000230: 74a1 db3e 3252 123d fd69 0c3f 78ae a8bf
00000240: ff1e 333f dbeb a63e 6953 efc0 90cb 0abf
00000250: 045f 34bf db62 6f3f b2a0 8cbf 3fc7 4d3f
00000260: b9b7 113f 420b d83e 4f0c 3b3e c013 283f
00000270: 0e27 453e 655f 48be b11e e53e ad3b b93c
00000280: a333 9a3f f785 13bf edce 1c3f ecf7 e63e
00000290: 31cd 0e3f 15f5 6fbe dc33 8b3e d483 263f
000002a0: 7056 2f3e b9f4 da3e b06c 453f 115b 353d
000002b0: ded4 3ebf ccaa 87bf 614c 85be 0f31 bdc0
000002c0: 56a2 2fbf 7a4d bf3e 8c5c f63e 9ad8 4e3f
000002d0: 66a1 febf a02c fe3e 2fb3 62be f8c8 0f3f
000002e0: d0be afba 9065 9f3d 74cb d83f c631 20bf
000002f0: 9365 0f3f 590d bfbf 800e f6bd fc9c b13e
00000300: 3517 d43e 5414 3c3c b171 29bc 049b 263f
00000310: a357 83be cd95 3f3f d3a2 37be fdb9 373f
00000320: db85 56bf a22e a1bf 74fa ff3e a6ab 85bf
00000330: a310 633f 41a9 81bf fd2f 343f 4ba9 293e
00000340: 347f f33e 5416 613e 5990 ac3e 9fcb 673d
00000350: c5e5 a6be 7810 f23d 80b8 e13f c064 863e
00000360: becb 2ebe ce95 60bc e1a5 28bf 322a 9a3e
00000370: 1ec3 01c0 230e 453e ea1f b4be 1f53 093f
00000380: f683 153f de1f 83bf 6a23 83bf 2d81 fd3e
00000390: 0170 933e d7d0 093f 1ed6 21c0 4a5d efc0
000003a0: 065c f8bd 3f30 bbbf 7f2a 13bf e5c3 983f
000003b0: 6fbc 72be 0642 abbe 20ac 5c3b 4780 72be
000003c0: 6432 543f 6b95 2f3f 5bbf 64bf 20ec 023f
000003d0: 6438 a1bf 4cc7 d03d e640 72be c08d b13e
000003e0: 0b6e 503f 5424 b43e c35e 24bf e7c6 1a3d
000003f0: 8a4b 943e 6f04 6bbf 2ee0 0e40 b9b5 7e3f
1.2227765 1.9029881 0.4858118 0.86238915 0.12194298 0.10756298 0.52424645 0.060516287
0.1750985 -1.146138 -0.24090035 0.8941409 0.036748376 -0.48576203 0.07577025 -1.2199385
0.5260269 0.20821618 -0.17584981 -0.40054235 -7.6080613 -0.09162079 0.3310855 0.07654595
-0.43585843 -0.6663401 0.3657229 -0.15787531 -0.32274365 -3.9337006 -0.63689864 -0.49275437
1.924514 0.7619816 0.046733223 -0.09058957 -0.17060173 0.20874806 -0.574736 -0.22256248
-0.36306715 0.3282845 0.13160665 -0.6778515 0.010535056 0.20010398 -0.58772254 -0.38354295
0.41185975 -0.05239324 -0.85756534 0.99616563 0.5599289 0.22075216 -0.732927 -0.10581486
-0.0023459154 -0.5939304 0.149635 -0.70549786 0.99234605 0.045345366 -0.7019108 -0.58749676
0.65910167 -0.42319003 -0.6915844 -0.27472395 -0.34366515 -0.17762117 0.10237224 0.24291748
-0.1163474 -0.0597404 0.6075017 0.17949659 3.6877046 0.19983599 -0.13822992 0.14843659
0.09521555 0.19272836 -0.29491735 0.41414836 -0.6516938 -0.34400225 -0.109546125 0.92354
0.096561104 -0.7622108 0.2780383 0.39208582 -0.036602434 -0.7821718 0.62681913 0.57733554
0.051003918 0.12804626 -0.70853823 0.19135627 -0.37873724 -0.22374874 0.01110162 -0.15669811
-0.39701548 -0.069318086 -0.22826031 0.55303913 -0.29822758 0.75539666 -0.5287651 0.060946207
0.3091721 0.85420275 0.074717924 0.16193835 -0.4377878 0.31246397 0.32193595 -0.4252435
-0.5288387 -0.26622242 0.046044588 -0.5883472 -0.3243581 0.02579297 -0.30663693 0.12151109
0.7189461 0.98490286 0.1223318 -0.056401093 -0.32989472 1.5387106 0.4721544 -0.35933885
0.46433875 0.1396456 0.8628022 -0.5560815 0.42896616 0.03572292 0.54849225 -1.3178244
0.6996917 0.32601818 -7.478932 -0.5421686 -0.7045748 0.93510216 -1.098654 0.8038215
0.56920964 0.4219609 0.18266414 0.65655136 0.1925318 -0.1956764 0.44749978 0.022611463
1.2047008 -0.5762629 0.61253244 0.45111024 0.5578185 -0.23433335 0.27188003 0.65044904
0.17122817 0.42764834 0.7711897 0.0442763 -0.7454356 -1.0598998 -0.26034835 -5.9122386
-0.6860708 0.37363797 0.48117483 0.8079926 -1.9893005 0.4964342 -0.22138666 0.5616603
-0.0013408307 0.077830434 1.6937089 -0.6257595 0.56014365 -1.4925948 -0.120144844 0.34690082
0.41423956 0.011479456 -0.010342048 0.65080285 -0.256528 0.7483795 -0.17933206 0.7176817
-0.83798 -1.2592356 0.49995768 -1.0443008 0.8869726 -1.0129777 0.70385724 0.16568486
0.47557986 0.21981174 0.3370388 0.056590673 -0.32597175 0.118195474 1.763443 0.2624874
-0.17069909 -0.013707591 -0.6587811 0.30110317 -2.027534 0.19243674 -0.35180598 0.5364246
0.5840448 -1.02441 -1.0245183 0.49512616 0.2879639 0.5383429 -2.5286937 -7.480138
-0.12126927 -1.4624099 -0.5748672 1.1934782 -0.23704694 -0.3344881 0.003367193 -0.23681746
0.8288939 0.6858737 -0.89354485 0.5114155 -1.2595334 0.10194263 -0.2365757 0.3467846
0.8141791 0.35183966 -0.64207095 0.037787344 0.28963882 -0.9180364 2.2324328 0.99496037

fc3.bias f4 [2]
00000000: f920 5cbd 6ccf 093e
-0.053742383 0.13458031
