LunarLander-v2-DQN/dir_chk/LunarLander-v2_local.pth (torch_old, 4715 bytes, 8 tensors)

layer1.0.weight f4 [16, 8]
-0.9430874 0.39541543 0.5443669 0.50426066 -0.34261388 -0.9970603 -0.47531813 1.0937885
1.4165622 0.16692315 -0.5197486 0.80831844 -1.4552424 -1.1992338 -1.1538152 1.1112748
1.1024064 0.27277276 1.4468303 1.1172973 -2.09234 -0.9593114 0.114485696 -0.06092078
-0.76478386 -0.07650666 0.7593917 1.2687759 -2.2712462 0.7008058 -1.2777305 -0.22430533
-0.16415161 0.08037498 0.8617217 -0.7324529 -1.2992239 0.025532283 0.9287847 -0.5918827
-0.33746922 0.7690184 -0.5496315 1.3589329 -0.8511252 1.2230116 0.4682738 -0.86661685
-0.2856153 0.009875377 2.9634612 -1.7749611 0.24568938 -0.29251695 -1.8742037 1.2657577
-1.4419873 0.40957692 1.9264766 0.6647472 0.008921915 -0.8445619 -1.0573465 0.3860955
-1.3305596 0.8113369 -0.9624744 0.7209165 0.04770023 -0.32825476 0.54098237 -1.4152812
0.66946447 0.21755016 -0.9060746 2.035406 1.1700156 -0.29013723 0.51271325 0.36679024
0.54934764 0.11716223 -0.6605909 -0.5718619 -4.043655 0.21873623 0.14496975 -1.04256
-1.2185851 0.60012233 1.8876823 -0.26061648 2.8492563 1.2893524 1.4684656 -1.6907421
0.4236805 -0.19218828 0.6179124 0.4352381 -0.17530379 2.0081322 0.19909526 -0.19234417
-0.45174673 -0.0758308 -1.1537474 0.8663008 0.655923 0.70204455 0.929302 -0.051417798
-0.047468554 -2.5794086 0.46238247 -0.18888968 -0.09181093 0.28047365 0.72817737 -1.099277
0.07694096 0.84772635 -0.20175934 -2.4437232 1.4256676 -0.0944865 -1.1324419 -1.5100567
00000000: 2d6e 71bf e473 ca3e a15b 0b3f 3a17 013f
00000010: 166b afbe 583f 7fbf e65c f3be 4301 8c3f
00000020: e951 b53f e7ed 2a3e 3f0e 05bf f5ed 4e3f
00000030: 6245 babf 7e80 99bf 37b0 93bf 413e 8e3f
00000040: a71b 8d3f dfa8 8b3e bc31 b93f 9903 8f3f
00000050: e6e8 05c0 6f95 75bf 7a77 ea3d 1188 79bd
00000060: e0c8 43bf 86af 9cbd 7f67 423f 4067 a23f
00000070: 195c 11c0 0268 333f ac8c a3bf 4cb0 65be
00000080: 5c17 28be a39b a43d cb99 5c3f 0982 3bbf
00000090: f84c a6bf 1429 d13c d6c4 6d3f a085 17bf
000000a0: c4c8 acbe 64de 443f a6b4 0cbf 83f1 ad3f
000000b0: 57e3 59bf a58b 9c3f 95c1 ef3e 9ada 5dbf
000000c0: 2b3c 92be 55cc 213c 59a9 3d40 ed31 e3bf
000000d0: ff95 7b3e c8c4 95be e8e5 efbf 5904 a23f
000000e0: 0a93 b8bf 11b4 d13e c996 f63f df2c 2a3f
000000f0: 392d 123c 3535 58bf 2157 87bf 4fae c53e
00000100: c74f aabf c6b3 4f3f b964 76bf fc8d 383f
00000110: 5161 433d 0211 a8be d27d 0a3f ef27 b5bf
00000120: 0662 2b3f 78c5 5e3e 81f4 67bf 1844 0240
00000130: 12c3 953f de8c 94be 2d41 033f eecb bb3e
00000140: 0ca2 0c3f c0f2 ef3d 7c1c 29bf 8b65 12bf
00000150: 9f65 81c0 64fc 5f3e f372 143e 9b72 85bf
00000160: 99fa 9bbf 9ea1 193f 939f f13f 866f 85be
00000170: 375a 3640 8009 a53f aef6 bb3f 3d6a d8bf
00000180: a7ec d83e 01cd 44be 822f 1e3f 87d7 de3e
00000190: d682 33be 3d85 0040 a1df 4b3e dff5 44be
000001a0: 594b e7be 2e4d 9bbd ffad 93bf e4c5 5d3f
000001b0: 92ea 273f 31b9 333f bce6 6d3f 789b 52bd
000001c0: 636e 42bd 0815 25c0 65bd ec3e 4c6c 41be
000001d0: 5e07 bcbd 3e9a 8f3e d569 3a3f 1cb5 8cbf
000001e0: 3993 9d3d 9804 593f 009a 4ebe f665 1cc0
000001f0: 477c b63f 2382 c1bd dbf3 90bf 8a49 c1bf

layer1.0.bias f4 [16]
0.2581797 0.6028494 0.62835354 0.15830436 0.452543 0.7290632 0.437906 1.5767952
0.12717608 0.32874617 -0.110683344 0.23235136 0.6054954 0.49311224 0.44235983 0.36297414
00000000: 2130 843e 5754 1a3f c7db 203f 8a1a 223e
00000010: b7b3 e73e e3a3 3a3f 3735 e03e 6dd4 c93f
00000020: 723a 023e 6b51 a83e f3ad e2bd 84ed 6d3e
00000030: bf01 1b3f 3579 fc3e fd7c e23e bfd7 b93e

layer2.0.weight f4 [16, 16]
0.64578074 0.36363515 -0.3438093 -0.41726473 -0.4698176 -0.6009031 -0.4837947 0.17204179
-0.008462377 -1.4736834 0.8245945 -2.9460342 -0.36186776 1.6816123 -0.20188525 -0.785364
1.4021467 -0.16165897 -0.053243257 -0.5993396 -0.3295355 -0.9004546 0.33111677 0.4692934
-0.73731387 -1.3889253 0.17183945 -0.7070076 0.0020780116 -2.7542403 1.0848687 -0.38766176
-0.16351783 0.40288574 -0.14633702 -0.0479255 -1.067393 1.1332277 -2.8903203 0.110366926
-0.24454036 0.5479446 0.20706846 0.66621673 -0.1841694 0.15954384 0.6120333 -2.242276
-0.33624914 0.63787144 -0.5235774 0.011550215 0.0012692879 -0.3037909 0.18271631 0.5301539
-0.6949474 -0.5020588 0.1783159 -0.5274174 -0.45434296 -0.6856364 0.059369262 1.3560065
0.01155848 -0.5849319 -0.019420745 -0.3230933 -0.38371933 -0.99499947 0.78766555 0.63952935
-0.723368 1.2352456 1.3672279 -0.95634186 0.22641532 -0.057779543 1.508031 -0.06861762
-1.2256305 -0.98643214 -0.5266637 1.8597753 -0.10474855 -0.39026695 0.26874226 1.230607
-0.6830628 0.36815226 0.44427764 -0.37457398 -0.61316055 -1.2769933 0.3000533 0.23460911
-1.2047316 -1.4850202 2.2238765 -0.02638773 0.71828634 1.1756617 -0.29782256 0.4341879
0.11280096 1.4924383 -0.79707986 0.026299601 -0.14163698 -0.23427482 -1.412874 -0.014698639
0.21252389 0.84881246 1.1974577 0.30953932 0.42330596 -0.048548732 -0.43303993 0.75790024
0.5791844 -0.013010209 -0.81773734 -0.9282558 -0.8376544 0.48908412 0.018928852 -0.6185962
-0.025071502 -0.056514386 -0.617804 -1.1870996 0.31607962 -0.018703496 -1.2953312 0.90350246
-0.5592096 -0.15725933 1.388492 -0.9958 -1.030999 0.18407382 1.0530576 -0.96337545
0.7677571 0.27593637 -1.7470193 -0.94544506 -1.0589887 -1.6214644 -0.06568751 0.7625132
-1.358933 0.20380768 -0.5192406 -2.1385777 -0.22370267 0.85796386 2.164172 0.10967912
0.010941642 -1.1571367 -0.02165283 0.38511688 1.2048919 0.7628346 -0.21782343 -1.989566
1.0213406 -0.8498845 1.3293353 0.44213763 -0.24433517 0.5906206 -0.13996275 -1.7110666
-1.1760337 0.59942776 -0.8695888 -0.25132227 -0.42609048 0.17472506 1.100585 -0.26127815
-0.2811728 0.3471585 1.0705856 -0.8232831 0.52767694 0.9707492 -0.06147524 1.2512517
0.023473967 -0.18634859 -1.4946033 -1.9865707 -1.5575937 -1.5584267 -0.9464617 0.5283296
-0.54587513 0.9465785 1.1997987 -0.80596733 -3.385684 0.60136354 1.0945948 -0.13433272
0.7613631 -0.4536475 -0.015240653 -0.7962478 -0.5341683 -1.0302185 0.6810316 -0.9370071
-1.7689078 1.6141686 0.46141452 -0.2517164 0.2359667 2.2365847 0.90168893 -1.1451497
1.0260687 -0.11860768 -1.4769088 0.91229236 0.00081164343 -0.47056025 1.3586136 -0.31093433
-0.9904657 -0.7318798 1.1872516 -0.3696998 0.11581205 -1.1920494 0.36354956 -0.24611439
-0.65852916 -1.4861768 -1.0296003 1.7872884 0.78554016 0.5053491 -0.22926454 -1.1400516
-0.3900186 -0.07338928 -0.38428947 0.69888705 -0.43657583 -0.10393367 0.17625563 0.9469802
00000000: e351 253f 632e ba3e c607 b0be b9a3 d5be
00000010: ef8b f0be c9d4 19bf f0b3 f7be b92b 303e
00000020: c8a5 0abc a8a1 bcbf a018 533f d38b 3cc0
00000030: bb46 b9be 123f d73f 02bb 4ebe 9d0d 49bf
00000040: 8b79 b33f ee89 25be 9a15 5abd 526e 19bf
00000050: e1b8 a8be 3184 66bf 2388 a93e 3947 f03e
00000060: 9ac0 3cbf 4ec8 b1bf aef6 2f3e 73fe 34bf
00000070: 402f 083b 7945 30c0 fadc 8a3f 9a7b c6be
00000080: 3871 27be 0a47 ce3e 5fd9 15be 874d 44bd
00000090: 55a0 88bf 9b0d 913f 02fb 38c0 0e08 e23d
000000a0: ca68 7abe 1946 0c3f c109 543e 2e8d 2a3f
000000b0: e796 3cbe 765f 233e 37ae 1c3f 7381 0fc0
000000c0: d928 acbe 8b4b 233f 2b09 06bf 1d3d 3d3c
000000d0: 3c5e a63a 7b8a 9bbe fc19 3b3e 2ab8 073f
000000e0: 13e8 31bf ed86 00bf 7198 363e d404 07bf
000000f0: a49f e8be de85 2fbf 2f2d 733d 9f91 ad3f
00000100: c75f 3d3c 19be 15bf 4118 9fbc 7c6c a5be
00000110: dc76 c4be 49b8 7ebf 73a4 493f 32b8 233f
00000120: a52e 39bf 871c 9e3f 5301 af3f d2d2 74bf
00000130: 6bd9 673e 3eaa 6cbd 2907 c13f 6587 8cbd
00000140: 76e1 9cbf d186 7cbf 6fd3 06bf 1e0d ee3f
00000150: 6886 d6bd 12d1 c7be 9698 893e 8884 9d3f
00000160: 34dd 2ebf 747e bc3e 5c78 e33e 29c8 bfbe
00000170: 17f8 1cbf 8474 a3bf 96a0 993e 5f3d 703e
00000180: a534 9abf 2415 bebf fe53 0e40 152b d8bc
00000190: 9de1 373f 157c 963f 337c 98be e04d de3e
000001a0: 3104 e73d 3808 bf3f 6d0d 4cbf 4372 d73c
000001b0: 4909 11be bde5 6fbe 0ed9 b4bf 8fd2 70bc
000001c0: dd9f 593e c64b 593f 4b46 993f f07b 9e3e
000001d0: 8fbb d83e 09db 46bd 69b7 ddbe c005 423f
000001e0: 6e45 143f c628 55bc 3c57 51bf 2ca2 6dbf
000001f0: 8570 56bf 3c69 fa3e ae10 9b3c 525c 1ebf
00000200: c062 cdbc a17b 67bd 6728 1ebf e1f2 97bf
00000210: 30d5 a13e 1338 99bc 6acd a5bf f04b 673f
00000220: 5c28 0fbf 9708 21be 1bba b13f c0ec 7ebf
00000230: c6f7 83bf d97d 3c3e 97ca 863f c69f 76bf
00000240: bb8b 443f 8847 8d3e 549e dfbf b008 72bf
00000250: f18c 87bf 258c cfbf 2c87 86bd 1134 433f
00000260: 84f1 adbf f6b2 503e f4ec 04bf 75de 08c0
00000270: 5012 65be 85a3 5b3f cb81 0a40 729f e03d
00000280: 9344 333c 0e1d 94bf 4761 b1bc 0a2e c53e
00000290: e639 9a3f 2149 433f 1b0d 5fbe 19aa febf
000002a0: 4abb 823f 0892 59bf a927 aa3f dd5f e23e
000002b0: 0033 7abe e932 173f 6552 0fbe 3b04 dbbf
000002c0: 4688 96bf 1974 193f 5f9d 5ebf 50ad 80be
000002d0: 8828 dabe 20eb 323e f8df 8c3f 40c6 85be
000002e0: e2f5 8fbe c2be b13e f308 893f aec2 52bf
000002f0: d615 073f 0583 783f 76cd 7bbd 0429 a03f
00000300: 7a4c c03c 2ad2 3ebe 294f bfbf f347 febf
00000310: 3b5f c7bf 877a c7bf 504b 72bf 9c40 073f
00000320: 79be 0bbf f852 723f 0193 993f e053 4ebf
00000330: 0caf 58c0 f6f2 193f af1b 8c3f 848e 09be
00000340: b1e8 423f 7c44 e8be efb3 79bc e5d6 4bbf
00000350: 41bf 08bf 33de 83bf 1658 2e3f b3df 6fbf
00000360: 926b e2bf 149d ce3f 863e ec3e f9e0 80be
00000370: 41a1 713e 3424 0f40 16d5 663f 4494 92bf
00000380: 3856 833f 95e8 f2bd 590b bdbf fe8b 693f
00000390: 78c4 543a 46ed f0be 0de7 ad3f c932 9fbe
000003a0: 298f 7dbf 795c 3bbf dcf7 973f 4b49 bdbe
000003b0: de2e ed3d 1395 98bf 2b23 ba3e 6905 7cbe
000003c0: 5e95 28bf 0b3b bebf f1c9 83bf dec5 e43f
000003d0: 2919 493f 8f5e 013f 53c4 6abe 36ed 91bf
000003e0: 85b0 c7be 1e4d 96bd 97c1 c4be 43ea 323f
000003f0: de86 dfbe 2ddb d4bd 5b7c 343e 4b6d 723f

layer2.0.bias f4 [16]
-0.47120056 0.14302346 0.9516075 0.9710798 0.29063496 0.9002974 -0.7101584 -0.23622403
1.2100949 -0.5824083 -0.18587546 0.18127352 0.60679924 -1.4068364 0.10279826 0.4866754
00000000: 3341 f1be be74 123e 8d9c 733f b098 783f
00000010: 1bce 943e e479 663f f1cc 35bf b6e4 71be
00000020: 64e4 9a3f b618 15bf 2356 3ebe c49f 393e
00000030: 3257 1b3f 3713 b4bf e587 d23d 852d f93e

layer3.0.weight f4 [16, 16]
0.46466416 -1.0307245 0.86435914 0.11697308 0.6154965 -0.2599537 -0.2623949 0.4551922
-0.015588704 0.43249947 -1.4463408 -0.105311826 -0.5645897 0.7104095 -0.05718474 -1.855343
-1.298031 0.8355682 -0.8443573 0.95222825 0.6592127 2.988616 0.238791 -0.4488511
-1.0888902 -1.4175107 0.89720666 -0.42715454 -0.96311444 -1.303149 1.3795418 1.0130223
-1.5849725 0.28903913 -0.619909 0.29094905 -1.2166057 -0.16391355 1.1366919 0.15754882
-0.20014174 -0.93250823 -0.4943466 -0.35612994 -1.5293043 -1.3957075 0.39961493 -0.0952722
0.25806427 -1.6656779 -2.076291 0.09264408 -0.47485498 -0.07918454 1.4412225 0.51995546
-0.68016464 -0.90064764 0.38395998 0.709952 -1.5163927 -0.5142552 -0.79363316 -1.2708247
1.567804 -0.49627718 -0.5779789 0.015994556 -0.30091396 -1.2177281 1.132722 0.82214344
-0.32658 -0.78027505 -0.53608406 0.36139348 -1.3048567 -0.55486494 -1.0436994 -1.8844907
-0.54860824 -0.2601532 0.321441 0.8001726 0.12584513 0.68007654 0.76955587 -0.49768135
0.48428887 -0.67372 -2.1393373 1.5179949 -0.09107961 0.08416366 1.0202683 -0.06632588
0.86674666 0.7626045 -1.2323679 -0.9263074 -0.22471645 -1.1628985 -0.85886824 -0.46856594
0.324878 -0.6132504 0.19275814 -0.7536396 -0.2762464 0.1402737 1.0510529 0.5599554
-0.20022482 0.7308575 -0.28443122 1.2782608 0.5146867 -0.7033417 1.1080875 0.34491223
0.279339 -0.3268702 -0.39226323 0.07329391 -0.7649311 -1.0320144 -0.11596087 -0.4338978
0.5539612 0.6348304 0.5554798 0.14138448 0.23785529 0.6014234 -0.17554675 0.12952277
1.7389938 -0.6506578 0.8496615 0.31139317 -0.20192908 -2.5179698 1.2355452 0.7289014
1.1739866 -1.1238154 0.40414563 0.45199183 -1.2138283 0.41047466 -0.29055572 0.62401205
-0.9401473 -0.21898921 -0.20408238 -0.33707786 1.7403251 -1.1103404 0.25026146 0.10647828
-0.7796598 0.02478249 0.654113 0.25575346 -0.3880285 0.42870918 0.5712965 -0.68192846
0.8963689 -0.5655477 0.56020683 0.6780546 1.2670362 -2.3883688 -0.19122294 0.2450495
-0.7935525 0.78976786 0.123875275 -0.74557245 1.2988398 0.52729684 1.2964075 -0.24187623
-0.5763045 -0.93456256 0.4267084 -0.909943 1.4043454 -0.13643092 1.2240484 -0.0042983834
-1.411212 -0.22031151 1.4576114 0.7315752 0.46089274 1.4914036 0.0014020215 -0.6462231
1.5736395 -0.8492818 -0.2863054 0.762026 -0.81512725 -1.360484 0.44247302 0.3441372
0.3904854 1.8754504 -1.087478 -0.022826998 -1.0425334 -0.31770018 -0.4445765 -0.30919185
-0.3070717 -0.32241043 1.1103656 -0.58122325 -1.2841661 -0.054987706 -0.52867633 0.33544102
1.0485276 1.5541067 -0.44854724 -0.4460336 1.6247059 -0.5140269 -1.139051 0.61316127
-0.25607634 1.4635661 0.73632795 0.38635 0.6771576 1.3186413 -0.54876035 -0.20168833
1.1985692 0.3179269 2.044431 0.19954126 1.1379796 0.8544391 -0.9735946 1.0504972
0.1779656 0.15817118 0.6532951 -0.11076403 0.62646407 0.53831357 0.034997854 -0.97010213
00000000: 76e8 ed3e c8ee 83bf a446 5d3f 958f ef3d
00000010: 2e91 1d3f a718 85be a058 86be f40e e93e
00000020: c367 7fbc 9270 dd3e b221 b9bf baad d7bd
00000030: f388 10bf 66dd 353f 8c3a 6abd e17b edbf
00000040: e125 a6bf cce7 553f cd27 58bf 3bc5 733f
00000050: 2ac2 283f 7c45 3f40 a185 743e d0cf e5be
00000060: c160 8bbf fe70 b5bf 56af 653f 00b4 dabe
00000070: ab8e 76bf 96cd a6bf d394 b03f b7aa 813f
00000080: 61e0 cabf f0fc 933e 5bb2 1ebf 46f7 943e
00000090: bcb9 9bbf f4d8 27be 1f7f 913f 7a54 213e
000000a0: f5f1 4cbe dcb8 6ebf ff1a fdbe aa56 b6be
000000b0: 3ec0 c3bf 8ba6 b2bf 549a cc3e 121e c3bd
000000c0: 0021 843e ef34 d5bf f4e1 04c0 2ebc bd3d
000000d0: 3120 f3be 812b a2bd fb79 b83f cd1b 053f
000000e0: 451f 2ebf d890 66bf 6796 c43e 6abf 353f
000000f0: 2819 c2bf 3ba6 03bf 8b2b 4bbf 62aa a2bf
00000100: cdad c83f 0b18 febe 6df6 13bf 0407 833c
00000110: 6511 9abe 84de 9bbf 09fd 903f fe77 523f
00000120: 7e35 a7be 1bc0 47bf ce3c 09bf 9108 b93e
00000130: 8b05 a7bf a10b 0ebf f197 85bf fe36 f1bf
00000140: 9771 0cbf cd32 85be ea93 a43e 1dd8 4c3f
00000150: 8cdd 003e 7f19 2e3f 9d01 453f 17d0 febe
00000160: b6f4 f73e ea78 2cbf e7ea 08c0 a84d c23f
00000170: f287 babd ff5d ac3d 2798 823f ddd5 87bd
00000180: 1ce3 5d3f 0c3a 433f 3bbe 9dbf 7b22 6dbf
00000190: 121c 66be dcd9 94bf cade 5bbf e0e7 efbe
000001a0: 6956 a63e fafd 1cbf 6462 453e 86ee 40bf
000001b0: 2b70 8dbe e9a3 0f3e e788 863f 3d59 0f3f
000001c0: bc07 4dbe 7a19 3b3f f8a0 91be 0d9e a33f
000001d0: 82c2 033f 340e 34bf d0d5 8d3f 5698 b03e
000001e0: 8505 8f3e 885b a7be bad6 c8be 1e1b 963d
000001f0: 86d2 43bf 0c19 84bf e57c edbd da27 debe
00000200: 67d0 0d3f 3f84 223f ed33 0e3f 18c7 103e
00000210: 5690 733e e2f6 193f 87c2 33be 9ea1 043e
00000220: 5997 de3f 8291 26bf 6b83 593f ed6e 9f3e
00000230: 7fc6 4ebe 6b26 21c0 5826 9e3f 4899 3a3f
00000240: 3145 963f 2fd9 8fbf 2dec ce3e 796b e73e
00000250: ba5e 9bbf bc29 d23e b8c3 94be 41bf 1f3f
00000260: 7ead 70bf b53e 60be f9fa 50be 7895 acbe
00000270: f9c2 de3f a21f 8ebf 4522 803e 4911 da3d
00000280: c997 47bf a604 cb3c f373 273f 1ef2 823e
00000290: acab c6be c57f db3e 7d40 123f dd92 2ebf
000002a0: 6f78 653f bcc7 10bf b769 0f3f fc94 2d3f
000002b0: 3e2e a23f 09db 18c0 f2cf 43be 42ee 7a3e
000002c0: 4226 4bbf 3a2e 4a3f 52b2 fd3d d6dd 3ebf
000002d0: 6240 a63f edfc 063f aef0 a53f 67ae 77be
000002e0: b188 13bf 7e3f 6fbf 8679 da3e 06f2 68bf
000002f0: 97c1 b33f 8cb4 0bbe 9ead 9c3f 74d9 8cbb
00000300: 98a2 b4bf 5799 61be 0393 ba3f 8348 3b3f
00000310: 22fa eb3e 50e6 be3f 09c4 b73a e16e 25bf
00000320: 056d c93f 886a 59bf 9f96 92be 2314 433f
00000330: 2eac 50bf 5724 aebf d38b e23e c032 b03e
00000340: b4ed c73e c20e f03f 7b32 8bbf afff babc
00000350: bc71 85bf 99a9 a2be 889f e3be 654e 9ebe
00000360: 8038 9dbe fb12 a5be 7620 8e3f 0ccb 14bf
00000370: 8e5f a4bf ca3a 61bd 5557 07bf edbe ab3e
00000380: 2736 863f f8ec c63f fca7 e5be 845e e4be
00000390: 5df6 cf3f 4497 03bf 6ccc 91bf 23f8 1c3f
000003a0: 701c 83be 2256 bb3f fd7f 3c3f abcf c53e
000003b0: 335a 2d3f 3dc9 a83f 8f7b 0cbf 6387 4ebe
000003c0: b76a 993f 51c7 a23e f5d7 0240 8b54 4c3e
000003d0: 51a9 913f 85bc 5a3f 7f3d 79bf b176 863f
000003e0: 9d3c 363e a0f7 213e 593e 273f 40d8 e2bd
000003f0: f35f 203f ebce 093f e959 0f3d 9d58 78bf

layer3.0.bias f4 [16]
0.5391595 0.8850526 -0.8128289 -0.39371553 0.3111166 0.852301 0.12090214 -0.34546855
1.0669057 0.99740475 1.398012 -0.016470939 1.4356612 0.08283459 -0.89946616 0.33012167
00000000: 5b06 0a3f cf92 623f 8e15 50bf 1595 c9be
00000010: ad4a 9f3e 6630 5a3f 8b9b f73d 41e1 b0be
00000020: 5e90 883f eb55 7f3f 0ff2 b23f 10ee 86bc
00000030: bfc3 b73f 2ea5 a93d 6a43 66bf b505 a93e

final.weight f4 [4, 16]
0.8528828 1.1441076 -0.75169015 -1.0462743 -0.79123074 0.741401 0.5624715 -0.100327216
0.43895638 -1.0193383 0.44752908 1.8993775 1.345017 0.8045494 -0.34870628 -1.0882443
-0.013899411 1.1481955 -1.0901208 -1.2763398 -0.49259225 1.0773517 1.0458359 0.66474104
0.9110996 -0.92897534 -1.0164485 1.9119374 1.1220559 0.48213753 -0.39922595 -1.0634314
0.6584638 1.0907865 -0.7380079 -1.0187259 -0.7670148 1.5070962 -0.12624721 -0.025767185
1.0135679 -0.5519169 0.70013213 1.3458542 1.3757334 0.273628 -0.835985 -0.7917848
0.6050371 1.04148 -0.596959 -1.1338162 -0.6912582 1.3752139 0.41570508 -0.9047291
0.87552106 -1.5370117 1.1254294 1.6880652 0.6450667 1.0600141 -0.030605078 -0.722697
00000000: 8756 5a3f 1e72 923f c46e 40bf 51ec 85bf
00000010: 198e 4abf 75cc 3d3f 22fe 0f3f 5b78 cdbd
00000020: e4be e03e ad79 82bf 8822 e53e cd1e f33f
00000030: 8429 ac3f f3f6 4d3f a189 b2be 974b 8bbf
00000040: 5bba 63bc 12f8 923f 1489 8bbf 1a5f a3bf
00000050: 0d35 fcbe a9e6 893f f3dd 853f 782c 2a3f
00000060: d33d 693f 54d1 6dbf fc1a 82bf 5dba f43f
00000070: 879f 8f3f bbda f63e 5867 ccbe 851e 88bf
00000080: 1591 283f e49e 8b3f 16ee 3cbf 9c65 82bf
00000090: 155b 44bf 87e8 c03f f346 01be b415 d3bc
000000a0: 98bc 813f 6d4a 0dbf dc3b 333f f344 ac3f
000000b0: 0818 b03f f818 8c3e 1d03 56bf 69b2 4abf
000000c0: b6e3 1a3f 374f 853f 4ed2 18bf e420 91bf
000000d0: 4cf6 30bf 0207 b03f 4cd7 d43e 549c 67bf
000000e0: 2622 603f cdbc c4bf 120e 903f 8512 d83f
000000f0: 1723 253f 8bae 873f 80b7 fabc ac02 39bf

final.bias f4 [4]
0.5866641 -0.7534337 0.7914221 0.38580552
00000000: 9e2f 163f 08e1 40bf a49a 4a3f 4d88 c53e
