Project-2_Continuous-Control-Crawler/checkpoint_critic_678epis_1200score.pth (torch_old, 210461 bytes, 23 tensors)

fc1_bn.weight f4 [129]
00000000: f8b5 943e cfa4 133f bb8f 663f 19ae 713e
00000010: 1d71 173f a636 173f 7441 713f 823b d83c
00000020: ffc7 003f 0c23 263e d503 533e 1040 263f
00000030: b9e1 303e 48f9 8b3d 91cc c33b d1c6 3d3f
00000040: 2a28 403f 22d1 813a 47df c33e a473 263e
00000050: 80c1 0c3e 18f0 d53e bebf fb3d fcc7 103f
00000060: fb20 2e3f 7a1d 9a3d 85a9 9b3e 7f7a d53e
00000070: 159a ed3e d293 433c ec03 4b3d 1177 583e
00000080: d142 81bb 6453 b63e df3f 793e 3a0a 4a3f
00000090: 92eb b63e 4c3a 2d3f 68d6 d63c d446 c03e
000000a0: 6ad4 393f 8e2d 343f 9570 493d 734b ac39
000000b0: 10ae 103f 7603 6f3e 596f da3e f0f2 313f
000000c0: 0f29 023e 05ef 193f 5dfa e63e 78cd 463f
000000d0: d47d 2e3f ac74 6c3f aa96 c13e c6a1 cd3e
000000e0: 56a8 af3e eb2a 293c 1453 6d3d a5c1 083e
000000f0: 5de0 973e dbb1 053e a738 013d a31c 613e
00000100: bcb8 de3e 07e4 bb3c b7fb 043f 0892 703f
00000110: c61a 983e 39f1 473e 8d92 203e dfb4 cc3c
00000120: 0b23 053f b90b f038 61fc f93d e827 923e
00000130: 3379 3f3d f81c 6d3e 59db a83e 440f 243f
00000140: 35ef f53e 644f b23d 3069 ee3e 2c8d 8d3e
00000150: 62ce 033f 1bab 2a3e d129 013e 7dc6 a53e
00000160: 898d fb3e 704b 3c3f c80a 983e 77ec 5f3f
00000170: ca7e ab3d bedb 443f 841d d63e f4d4 433f
00000180: 6cbb 5e3f c42e 953e 214e cb3a 8ca2 063e
00000190: fbf0 cd3d 009c cd3c a655 f23e 25fe a93d
000001a0: dbd7 1a3e e9c7 3e3f e148 133f d0d2 e03e
000001b0: 627b 713e 5876 1fbc 17a7 193f fb4e d93d
000001c0: 6e69 043e 3890 053c 2311 ce3e 0bef a63e
000001d0: c3f0 ea3e 4e36 5b3f 31c6 4c3f 3bdd 483f
000001e0: 8c1c e03e 81e2 493f 662c d93e 64bb 513f
000001f0: 3f22 1b3f 893e 9c3e ed52 f63c bab8 b63d
00000200: a801 303e
0.2904508 0.5767335 0.90063065 0.23601569 0.5915697 0.5906776 0.942405 0.026395563
0.5030517 0.16224307 0.2060693 0.649415 0.17273606 0.06834656 0.005975314 0.74131495
0.75061285 0.0009904245 0.38256285 0.16255051 0.1374569 0.4178474 0.12292431 0.5655515
0.68019074 0.075251535 0.3040277 0.4169502 0.46406618 0.011937099 0.049564287 0.2113917
-0.0039447327 0.35610497 0.24340771 0.78921854 0.357266 0.6766708 0.026225284 0.37554038
0.72589743 0.7038201 0.049179632 0.0003286261 0.565156 0.23341164 0.42663077 0.6951132
0.12710975 0.6013034 0.45112887 0.7765727 0.6816075 0.9236553 0.3781026 0.40162486
0.34308118 0.010325174 0.057940558 0.1335512 0.29663363 0.13056128 0.03154817 0.2198358
0.43500316 0.02293588 0.51946586 0.93972826 0.29707927 0.19525613 0.15680905 0.02498859
0.52006596 0.00011446275 0.122063406 0.2854607 0.046746444 0.23155582 0.3297985 0.64085793
0.48034063 0.08706549 0.46564627 0.27646768 0.5148679 0.16666834 0.12613608 0.32377997
0.4913142 0.7355261 0.29695725 0.8747019 0.083737925 0.768978 0.41819394 0.76496816
0.87004733 0.29137242 0.0015510955 0.13147944 0.10055729 0.0250988 0.4733097 0.08300427
0.15121405 0.7452379 0.5753308 0.43910837 0.23582223 -0.009732805 0.60020584 0.106107675
0.12930843 0.00815206 0.4024745 0.3260425 0.45886812 0.8562974 0.79989916 0.7846257
0.4377178 0.7886124 0.42416686 0.8192656 0.6059913 0.3051646 0.030068839 0.089219525
0.17188132

fc1_bn.bias f4 [129]
00000000: 6d9e 00be 5745 0cbe a87c 083e 457b 5e3d
00000010: 8f1e 0d3e d7c5 f43d df66 15be 5938 10be
00000020: 88ea d13d 9638 c23c 0790 b93d b904 e43d
00000030: 6cf2 10be fe6f 053e 1da9 eebd c98a d93d
00000040: de89 f03d 5ef7 f83d 9428 d53d efed d63d
00000050: eae8 babd 4f66 b4bd 44b4 4f3d ca14 f3bd
00000060: 20eb ad3c 141a e93d a4e8 953d d8cc ffbd
00000070: 69fe 823d cdeb 0bbe 1359 fb3d 77db 97bd
00000080: 8d6b 173e 86e5 c53d 4851 a9bd ca16 01bd
00000090: 578e d83d 996b 8c3d 07ee 053e fe38 edbd
000000a0: 07c8 813d 4d35 07bd 1a7c 13be 9779 fabd
000000b0: e575 8dbd b4cc 08be 60d9 df3d c746 fabd
000000c0: f641 8a3d 5a6c d93d be10 a7bd dc59 c43d
000000d0: c80b 2ebd 9a11 e93d 31c3 c9bc b934 d73d
000000e0: d6c0 bfbd 3860 033e 1398 c7bd 6eca 0dbe
000000f0: 8bcd b43d f615 c33d 3106 8bbd 98f3 413c
00000100: d4e6 953a 05e5 f1bd 0a70 9abc b25a 9a3c
00000110: d258 a53d ecf1 0c3e 6c20 d43d 884f fcbd
00000120: 2259 7e3b 339d 043e 0dee 003e 1cac 30bd
00000130: 4914 f73d 490d b23b 309e c7bd 5255 efbd
00000140: c180 24bd 9efb ddbd b161 eabc 91e1 bb3d
00000150: f276 23bd 95a7 073e aee1 503d 6481 983d
00000160: 2fee b43d a546 cd3d 230d f43b 95e1 ef3d
00000170: 753d ef3d 02fb 763b 097c d4bc d689 8e3d
00000180: ca4a ba3d c7bf e43d 1f41 09be 18c4 09be
00000190: fb85 9fbd 7d36 8ebd 9a46 8b3d 021f fabd
000001a0: dc76 aebd 235e fe3b 164d e03d fcb0 debd
000001b0: c49c 25bc a3de 313d f572 213d b3f6 0a3e
000001c0: dae1 2e3d d693 f1bd 0c80 b13d 4f07 cdbd
000001d0: 00f3 85bd f0b0 843d 7ac2 823d 3aa8 8e3d
000001e0: 2ce3 80bd 7575 223d 9dbf bf3d 7e2f c5bd
000001f0: 38df 6f3d 66a5 0f3c da0b 14be 8faa 0abe
00000200: 2a6e e23d
-0.12560435 -0.13698326 0.13328803 0.054316778 0.13781188 0.119517975 -0.14590023 -0.14083995
0.102498114 0.023708623 0.09060674 0.11133713 -0.14154977 0.13031003 -0.116533495 0.10622174
0.11745046 0.121565565 0.1040813 0.10494601 -0.09126456 -0.08808576 0.050709024 -0.118691996
0.02123028 0.11381927 0.07319763 -0.12490243 0.06396181 -0.1366417 0.12272849 -0.074149065
0.14787121 0.09662919 -0.08267456 -0.031515874 0.10574024 0.0685646 0.13079081 -0.11583136
0.0633698 -0.033009816 -0.1440281 -0.12230223 -0.06907252 -0.13359338 0.10930133 -0.12220531
0.06750862 0.106163695 -0.0815749 0.09587452 -0.042491704 0.1138031 -0.024629207 0.10508103
-0.093629524 0.12829673 -0.09745803 -0.13846752 0.08828267 0.09525673 -0.0678829 0.011837862
0.001143659 -0.1181126 -0.018852253 0.018842075 0.08073582 0.13764161 0.103577465 -0.12319857
0.0038810452 0.12950592 0.12590809 -0.043132886 0.12064416 0.0054337126 -0.09746969 -0.116861954
-0.04016185 -0.10839008 -0.028611036 0.09173883 -0.039908357 0.13247521 0.050996475 0.07446554
0.088344924 0.1002324 0.007447855 0.11712948 0.11681644 0.0037686233 -0.02593805 0.06959884
0.09096296 0.11169391 -0.13403748 -0.1345371 -0.077892266 -0.069439866 0.068005756 -0.122129455
-0.085187644 0.007762687 0.10952203 -0.10873601 -0.010108177 0.043425214 0.039416272 0.13570671
0.042695858 -0.117957756 0.08667001 -0.1001116 -0.06540489 0.06479061 0.0638475 0.069656804
-0.062933296 0.039662797 0.09362719 -0.09628199 0.058562487 0.008767461 -0.14457646 -0.13541625
0.110561684

fc1_bn.running_mean f4 [129]
00000000: bdf9 7f3f 5f7c fa3a ffc8 b4ba 3fe3 d63f
00000010: 5c54 623f 6b46 87bc c496 bdbd 8fc1 bc3c
00000020: 6744 7a3f 7e10 6b3d 0000 0000 858d 9b40
00000030: b8d8 23be eec4 7c3d 4f73 65bd 5e8e 23bd
00000040: 0550 a1bd 0000 0000 7415 9940 ac65 5ebb
00000050: 179e 163d 2a97 86bd aaaf 833c 5c32 88bd
00000060: e187 0d3f 335d 4c3d 2151 18bf 3e76 213f
00000070: 868e 183f 0000 0000 e111 0b3f ba18 e53e
00000080: fb7a 9940 e8ca 463d b6d7 c93d 8635 b8bd
00000090: d998 d7bd 3690 d5bd a991 6f3f e357 f6be
000000a0: a4bc 80bf 1d63 1b3f 0000 0000 0000 0000
000000b0: d918 023f 0000 0000 67e5 9a40 2717 b5bc
000000c0: 48f9 5a3d b434 2fbd ffea f63c ea95 38be
000000d0: 1d4d 0ebf 1419 9d3d 1ab4 12bf f80a 083f
000000e0: 997f f03e 0000 0000 a8ae 243f f7fb 913e
000000f0: d5b9 9a40 59ca db3d 6991 94bc 3a5b 993d
00000100: 74af be3d 2876 1fbe 82dc 88bf 00e1 a2be
00000110: 83e6 8dbf 82d3 033f 0000 0000 0000 0000
00000120: 45fa 163f 0000 0000 56d5 9b40 4b7e 8dbd
00000130: a2a8 0d3d e4c4 2cbe bcbe 6c3d 80e7 05bc
00000140: f9ff 0fbf f4de b23d b5c9 0e3f 1b91 ff3e
00000150: 82d4 fd3e 0000 0000 d979 0d3f a42e 663e
00000160: 7857 9240 4357 473e e7c6 913c 78c5 7dbe
00000170: b983 9b3c 2c7d 53be 8005 8fbf 2a6e 40be
00000180: 85ff 8e3f e27b ee3e 0000 0000 0000 0000
00000190: 407d 243f 0000 0000 fac5 9b40 73b1 01be
000001a0: fcf6 9b3d 3dd7 a03d afdc 1f3e bc40 5abc
000001b0: 5843 093f 9bf9 c73d 7309 123f 391a ec3e
000001c0: af48 f03e 0000 0000 15b2 f83e 4e63 263e
000001d0: c27e 8d40 d850 a83e c018 de3e 9f38 98bd
000001e0: 005d ee39 e5af ce3c b4b6 823f 37d2 33be
000001f0: cbcd 8c3f 4919 fe3e 0000 0000 0000 0000
00000200: 9108 243f
0.99990445 0.0019110552 -0.0013792812 1.67881 0.8840997 -0.01651307 -0.09257272 0.023041515
0.97760624 0.057388775 0.0 4.8610253 -0.1600064 0.061711244 -0.05601817 -0.039930694
-0.07876591 0.0 4.783869 -0.0033935113 0.03677186 -0.06571801 0.016074974 -0.0665023
0.5528546 0.04989357 -0.5949879 0.6307105 0.59592474 0.0 0.54324156 0.44745427
4.7962623 0.04853335 0.09855597 -0.08994584 -0.105272 -0.10427897 0.93581635 -0.48113927
-1.0057569 0.6069811 0.0 0.0 0.50819165 0.0 4.840503 -0.022105766
0.05346039 -0.04277487 0.030141352 -0.18025938 -0.55586416 0.07670799 -0.57306063 0.53141737
0.4697235 0.0 0.64329004 0.28512546 4.8351846 0.10731954 -0.018135743 0.07488103
0.09310809 -0.15572417 -1.0692294 -0.31812286 -1.1085972 0.5149461 0.0 0.0
0.5897563 0.0 4.869792 -0.06908854 0.03458465 -0.16871983 0.057799086 -0.00817287
-0.5624996 0.08733931 0.5577653 0.49915394 0.49576193 0.0 0.5526405 0.2247873
4.5731773 0.19466881 0.01779504 -0.2478236 0.018983709 -0.20653218 -1.1173553 -0.18792024
1.1171728 0.4657889 0.0 0.0 0.64253616 0.0 4.867917 -0.12665348
0.07615468 0.078535534 0.15611528 -0.013321098 0.53618383 0.09764405 0.5704567 0.46113756
0.46930453 0.0 0.48573366 0.16248819 4.4217234 0.3287418 0.43378258 -0.074326746
0.00045464188 0.025230357 1.0212007 -0.1756066 1.1000303 0.49628666 0.0 0.0
0.6407557

fc1_bn.running_var f4 [129]
00000000: 4841 9433 384b 3833 8baf 4539 0daf dd3c
00000010: b4f9 933d b2f9 663c ad3e fc3d bd7c 6f3c
00000020: 95ee 703b 55a2 b53c 0400 0000 e09a 0e40
00000030: 4f6a 5d3f 5aac 913f f2d2 4640 53d8 383f
00000040: f54e 0440 0400 0000 97a2 1240 d1f0 0640
00000050: 3e71 9e3f a461 7340 609e 7a3f 6a14 0b40
00000060: 5dd7 663a a65b 5f3b a634 933a 903a 4a3c
00000070: 2c8d 2c3c 0400 0000 a071 183c 7937 7d3e
00000080: 2899 c240 0f4b 6e40 c2e4 7240 60a3 8840
00000090: 4e34 f13f 3c57 ac40 97af 3f3c dc79 993c
000000a0: eed8 af3c 7029 a73c 0400 0000 0400 0000
000000b0: 3bf3 e93b 0400 0000 17f4 1240 6eb7 f33f
000000c0: 1cd3 963f 93a2 8740 0c94 683f 2f3a 2a40
000000d0: fc01 3f3a 635b f73a 5a82 743a 6a25 8a3c
000000e0: 2a14 0f3c 0400 0000 1d44 023c c6b3 503e
000000f0: 607c 9640 1d27 d140 0fa0 7b40 d39a d040
00000100: 387f b43f aee9 8e40 8269 f23b b3c6 993c
00000110: 922c 473c b2a1 8f3c 0400 0000 0400 0000
00000120: 5e81 e83b 0400 0000 4918 1540 ff10 0840
00000130: 384d a23f 0986 2240 615b 913f 0a1f f83f
00000140: b1e1 9c3a 8ab7 e83a e3a0 783a 83cb 4e3c
00000150: e95a 6d3c 0400 0000 c9a5 e13b bb70 323e
00000160: df5a 2641 e4ab 2741 e740 8040 23fd ec40
00000170: 0199 c33f 796c 7541 e626 833c c517 7d3d
00000180: eeb1 bb3c 3566 6b3d 0400 0000 0400 0000
00000190: ca10 083c 0400 0000 744e 1140 2b4e 0440
000001a0: fddf 943f 8e9b 1340 068d 4f3f 9a10 0f40
000001b0: fff1 d83a 3ab7 0c3b 577c 973a 66f0 4a3c
000001c0: fbe2 093c 0400 0000 43db 113c b869 0b3e
000001d0: 1956 4f41 ec69 8b41 739a be40 7406 8c41
000001e0: 3366 2e40 0aba c741 8210 b13c 4c8b cd3d
000001f0: b0fa 3b3d 275f d23d 0400 0000 0400 0000
00000200: 4548 163c
6.9036616e-08 4.290925e-08 0.00018852779 0.02706101 0.072253615 0.014097618 0.12316642 0.014617142
0.00367633 0.022172133 6e-45 2.2282028 0.8649034 1.1380723 3.106625 0.72205085
2.0673192 6e-45 2.2911737 2.1084483 1.2378309 3.8028345 0.9789791 2.173121
0.00088058953 0.0034081726 0.00112309 0.012343064 0.010531705 6e-45 0.009304434 0.24728192
6.081196 3.7233312 3.7952123 4.269943 1.8844087 5.3856487 0.011699579 0.018734865
0.021465745 0.020405501 6e-45 6e-45 0.007139591 6e-45 2.296148 1.9040353
1.1783175 4.2385955 0.908509 2.6598012 0.00072863675 0.001887184 0.0009327285 0.016863544
0.008732835 6e-45 0.00795081 0.20381078 4.7026825 6.5360246 3.9316442 6.5188994
1.4101324 4.4660254 0.0073978314 0.018771505 0.0121566225 0.017533157 6e-45 6e-45
0.0070955 6e-45 2.3296072 2.1260374 1.2679815 2.5394309 1.1356012 1.9384472
0.0011969117 0.0017754894 0.0009484423 0.012621763 0.014487007 6e-45 0.006886218 0.17425816
10.397185 10.4794655 4.0079226 7.4059005 1.5281068 15.338983 0.01600976 0.061790247
0.022911992 0.05747052 6e-45 6e-45 0.008304784 6e-45 2.2704134 2.067271
1.1630856 2.3063693 0.8107456 2.2353883 0.0016551613 0.0021471516 0.0011557442 0.012386417
0.008415933 6e-45 0.008902374 0.13614547 12.95852 17.42672 5.9563537 17.50315
2.7249877 24.96584 0.021614317 0.100363344 0.04589337 0.10272055 6e-45 6e-45
0.009172504

fc1.weight f4 [128, 129]
00000000: d619 a3bc 0ce8 b7bc 2f1c 303b d420 3a3d
00000010: 495e 0ebd c508 263d c86c bbbd 07df f7bc
00000020: 63e8 ddbc d27b 333d cfcc 8a3a 3187 9b3d
00000030: 0158 67bc 37d6 05bc f147 1abb a0c8 f4bc
00000040: d00a 033d b6bd 3c3c 6d1e 2d3d 6f66 803a
00000050: 50e7 7f3d d773 31bd 14ec 22bb fbd1 533b
00000060: 4317 903d a8a7 c2bb 857d 6d3c 468d 8dbd
00000070: 63ab 6abd afec f3bc a7b8 643c d985 97bc
00000080: d4dd 4a3c c9bc 39bd e1ba a2bc 09da 4cbd
00000090: 173b d33c 208a 97bd da63 c73c 3a80 afbc
000000a0: f32e a3bd 2e63 9dbd 829c f8bc 22d1 b8bc
000000b0: 7e89 0cbd 71dc ebbc 25b7 813c f47c 04bd
000000c0: fffc 773b f41f 213c 825c 4fbd e46d f93c
000000d0: 22f9 9f3c a898 9a3d b01d 2abc fa67 a1bc
000000e0: d0df 313c 7ace c93a 2926 1abc acd7 66bc
000000f0: 8ec4 373d 70f9 c1ba e715 d4bb b935 aabb
00000100: e7d8 5a3d 05d3 efbb 4151 ab3c 30d1 143a
00000110: c660 073a 3133 ef3b 01d7 443a 455f a3bb
00000120: 8aad cd3c a267 4f3b 3642 733d a417 d63c
00000130: ccb7 1cbc b0c1 ca3c cef0 c5bc 6cfb 3b3d
00000140: 9863 373c a55d b4bb 3f60 5cbd 9861 16bd
00000150: 0990 3d3d 59ce 643c c4ee acbc e505 683c
00000160: 115e 2bbd 0182 31bd 0913 853d 9807 66bd
00000170: f9d7 503d f422 543d f512 a1bc 3a52 10bd
00000180: f9e7 cc3c 624d 2c3c daa4 9dbc 219a 0f3a
00000190: 16c2 5dbc 523b 08bc bfc8 4bbd 6d12 4cbd
000001a0: 694c 27bd 7b47 483d 6848 45bd 586e 513d
000001b0: b93b 153d 77da d13b 923d f6bc 325b 653d
000001c0: 26fa 0cbc 0869 97bc e627 453d f08d 2a3d
000001d0: 5897 a1bd 0bd0 09bb da1c 973d 2d17 90bd
000001e0: cf37 543d 70a0 03bd e950 463d 640a 943c
000001f0: 78eb 233b afd6 aa39 c9c2 f4bb 3e7e c6bc
00000200: bff2 dcbc d55d 093b 5ae1 043b 8d18 14bb
00000210: 0b67 67b9 8174 513c ada2 3eba 9b77 c7ba
00000220: b633 033b ca44 a73a cf56 3ab9 6524 bcba
00000230: 50ed ba3a f9e8 f93a 9ad0 17bb 35f8 e83a
00000240: 963d 45bb 8405 c438 c962 ffba a3c7 e0ba
00000250: e417 dcba d0f3 793a 194b e83a 9bb1 4aba
00000260: 031e 0f3a c1ed b839 5665 d2ba 4a47 32ba
00000270: fdc2 f53a 356a 26bb d3fb 073b ec1f fcba
00000280: d9fb 823a 60ad 18bb aa81 9bba 57c6 2f3a
00000290: a290 a93a 5413 b1ba 532d 68bb dcf7 f7ba
000002a0: 2f36 a73a 3945 233b a2bb 913a ea76 0e3b
000002b0: f6c3 003b 6f85 16ba 2bf8 063b 7767 5ebb
000002c0: 7818 443b 5f00 c3ba 6dc7 5abb 13f8 ab3a
000002d0: 4576 53bb 3acd 91ba e700 14bb 79db 553a
000002e0: ecde 25bb 6dd9 1b3b 8457 03bb 1eee c93a
000002f0: 8d6e 063b fd47 27bb c583 8cba 8a7d 953a
00000300: ddfa d8b9 5e62 1438 bbfe dc3a 457e 12ba
00000310: 7c50 223b 423d ddba 92b6 0fbb c7b0 cfba
00000320: 325a 053b ae0d df3a 9570 00bb fef7 01bb
00000330: 0ff7 4f3a 3fd0 05bb 09cc 83b9 2a5b 8e3a
00000340: d912 0b3b 376d 713a 7faf bb3a dd3c 973a
00000350: b7ea 7eba 4860 3c38 de01 05bb c067 6cba
00000360: 3a42 b1b8 2f97 2dbb 31c7 bb39 998a 8aba
00000370: dae2 aaba 99fe f4ba e197 54ba acaa a23a
00000380: 2659 c8b8 b9f6 49b9 2136 2bba 0a36 033b
00000390: 76dc 063b aa7b 843a b380 9b3a 71c4 4ebb
000003a0: 0b25 d13a 7eac 9839 064a e0ba 7de6 78b9
000003b0: c5e1 0338 6e85 8eb9 f128 44ba 8ee0 c639
000003c0: 37c2 0bbb 72e2 a1ba 4f73 f73a d596 72ba
000003d0: 5619 5239 dc1b 2839 8d78 00bb 5dcf 623b
000003e0: b220 8ebb afcc 8bb9 b26a 28ba 38e1 8fba
000003f0: 8f4c e239 4d2a 1d39 ce75 93ba ce58 0b3b
-0.01990978 -0.022449516 0.0026872267 0.045441464 -0.034757886 0.040535707 -0.09151608 -0.030257715
-0.02708835 0.043819256 0.0010589602 0.07594145 -0.014120103 -0.008168749 -0.0023541416 -0.029880822
0.031992733 0.01151984 0.042265344 0.0009796153 0.062476456 -0.043323364 -0.0024859952 0.0032321203
0.07035687 -0.0059403963 0.014495258 -0.069117114 -0.057292353 -0.029775945 0.01396004 -0.01849644
0.0123819895 -0.045346055 -0.019864501 -0.050012622 0.025785012 -0.07399392 0.024339605 -0.021423448
-0.07967939 -0.07684933 -0.030348066 -0.02256066 -0.03431081 -0.028791638 0.0158344 -0.032345727
0.0037840006 0.009834278 -0.05062533 0.030447908 0.019527975 0.07548648 -0.010383055 -0.0197029
0.010856584 0.0015396618 -0.009408512 -0.014089506 0.044865184 -0.001479907 -0.0064723375 -0.0051943925
0.05342951 -0.0073188567 0.020912768 0.00056769233 0.00051642617 0.0072998037 0.0007508845 -0.0049857222
0.025107164 0.0031647463 0.059389316 0.02613432 -0.009565305 0.02475056 -0.024162676 0.04589407
0.011193179 -0.0055043274 -0.053802725 -0.036714166 0.04627994 0.013965213 -0.021109946 0.014161562
-0.041837756 -0.043336872 0.06497771 -0.056159586 0.050987218 0.051791146 -0.01966236 -0.035234667
0.025012957 0.010516496 -0.019243646 0.0005477984 -0.013535043 -0.008314924 -0.049751993 -0.04982226
-0.040844355 0.048896294 -0.048164755 0.051130623 0.03643391 0.006404217 -0.030058656 0.055995174
-0.008604562 -0.0184827 0.048133753 0.04163927 -0.07890195 -0.0021028544 0.0737855 -0.070356704
0.051811036 -0.032135427 0.048417006 0.01807136 0.0025012176 0.00032584878 -0.0074695093 -0.024230119
-0.02697122 0.002096047 0.0020275922 -0.0022597641 -0.00022068263 0.012784124 -0.00072721654 -0.001521814
0.0020019836 0.001276159 -0.00017770681 -0.0014354108 0.0014261398 0.0019066624 -0.0023165108 0.0017774167
-0.0030096523 9.347036e-05 -0.0019484396 -0.001714934 -0.0016791788 0.0009534927 0.0017722576 -0.0007732154
0.0005459489 0.00035272355 -0.0016051929 -0.0006800784 0.0018750128 -0.0025392894 0.0020749464 -0.0019235588
0.0009993269 -0.00232967 -0.0011864204 0.0006705275 0.0012936781 -0.0013509789 -0.0035427406 -0.0018918472
0.0012757237 0.0024913086 0.0011118541 0.0021738359 0.0019648052 -0.0005741929 0.0020594697 -0.0033936182
0.002992181 -0.001487743 -0.0033383027 0.0013120197 -0.003226654 -0.0011123784 -0.0022583546 0.0008158009
-0.0025309874 0.002378072 -0.0020041177 0.0015406047 0.002051267 -0.0025525086 -0.0010720423 0.0011405211
-0.00041385638 3.537756e-05 0.0016860584 -0.00055882736 0.002476721 -0.0016879218 -0.0021928889 -0.001584553
0.002034795 0.0017017627 -0.0019598354 -0.0019831653 0.0007933238 -0.0020418314 -0.00025138285 0.0010860909
0.002122095 0.00092096947 0.001431927 0.0011538524 -0.00097243063 4.491236e-05 -0.0020295302 -0.00090181455
-8.452353e-05 -0.0026487818 0.0003581583 -0.001056987 -0.0013037578 -0.0018691599 -0.000810979 0.0012410483
-9.553348e-05 -0.00019260765 -0.0006531198 0.0020021223 0.0020578182 0.0010107656 0.0011863917 -0.0031550194
0.0015956474 0.00029120216 -0.0017111904 -0.00023736987 3.1443098e-05 -0.00027183763 -0.00074829074 0.0003793281
-0.0021325478 -0.0012350811 0.0018878969 -0.0009254043 0.00020036599 0.00016032107 -0.0019603104 0.0034608461
-0.0043373937 -0.00026664647 -0.000642459 -0.0010977155 0.0004316312 0.00014988445 -0.0011250318 0.0021262649

fc1.bias f4 [128]
00000000: 8a69 b73d 0aa8 07bc 91ac 90bc baa8 58bc
00000010: ca32 453d f9c8 a5bc cbd8 70bd 6cc6 06bb
00000020: 022f f03c ed73 0abe 077b b23c e38a e83c
00000030: 088e d4bc a872 00bd 594d 74bc 32cc 363d
00000040: 446f fbbd b8fb 3c3d 6785 513d db7c ac3d
00000050: 3d59 a7bc 60fd 49bc 5c0b 88bc 9c72 9c3d
00000060: 5c8e b8bc 66cc 073c 41e8 ab3d 419d 0bbd
00000070: 1c21 363d 83a0 8f3d 86db 0f3d e354 4a3d
00000080: 9190 e33d 78a7 eabc e4c6 ecbc 92bb 97bd
00000090: 4f40 883d 006c c43a 848d 893d 0421 2dbd
000000a0: 252b 05bc f2a0 963d 685c b23c 8c81 8cba
000000b0: 8a0b e13b 87b2 073e 32a5 fa3c 3df8 7e3d
000000c0: 3183 f2bd b3f0 6c3d 4f98 6e3d 3c07 b9bc
000000d0: a682 9a3d d308 6c3d cac2 a93c ad26 e93a
000000e0: a293 423c b341 1d3d 78bb 853c 3622 5e3c
000000f0: 34a4 97bc 0cab 573d 0791 66bd da36 833d
00000100: b823 48bd 5693 85bd cf83 c83d 6b9f 3bbd
00000110: 8b90 5b3c 82d1 1e3d e04a 783c fe0a 84bd
00000120: 3853 f7bc 3192 a63d 6f20 d9bc d9af a23d
00000130: 2d2f 8e3d bad5 65bc 370d 103d bf92 b83b
00000140: 8254 873d d267 a93d e58a 77bb 8b46 393a
00000150: edaf fabc 77a0 9b3d 0d08 97bd 428d 09bc
00000160: ac17 343c 5882 833d 9f70 6d3d ce5a cebd
00000170: f8a2 8cbb b265 d438 d52f c23c 11d0 8f3c
00000180: 7c56 b93d 819f c2bd 594f 773d 79be 663c
00000190: 6dd3 1cbd d7ad d73d 89f2 a13d 352c cb3d
000001a0: 85b3 3cbc 8ca9 a23c 5d27 c5bb 28bc 773d
000001b0: 24cd a83b fd1e 16bb a33c 55bd 3301 9d3c
000001c0: ac4b ffbd f031 f93c fa98 03bd 4301 c53c
000001d0: 1b64 933c 8fdd 19be 10c3 0d3d 7a39 04be
000001e0: 78c1 bf3d daff 92bc a62e 863d ce00 c33d
000001f0: c385 00be d571 e3bd 8914 c1bb 941b 743d
0.08955677 -0.00827981 -0.017660411 -0.013223821 0.04814414 -0.020237433 -0.0588005 -0.0020565046
0.02931929 -0.13520785 0.02178718 0.028386539 -0.025946632 -0.031359345 -0.014911019 0.04462833
-0.122770816 0.046138495 0.051152613 0.08422252 -0.020428294 -0.012328476 -0.01660698 0.076390475
-0.02252882 0.0082884785 0.08393908 -0.034085516 0.04446517 0.07013037 0.035121463 0.04939736
0.11111558 -0.028644308 -0.028903432 -0.07408823 0.06652891 0.00149858 0.06716445 -0.042267814
-0.008127962 0.07354917 0.021772578 -0.001071976 0.0068678306 0.13251697 0.03059635 0.062248457
-0.11841429 0.057846736 0.05825072 -0.022586457 0.075444505 0.057625603 0.020722765 0.0017788016
0.011876019 0.038392734 0.016324744 0.013557961 -0.018510915 0.052653357 -0.056290653 0.064069465
-0.04886219 -0.06522243 0.097907655 -0.04580633 0.013401161 0.03877402 0.01515457 -0.06447409
-0.030191049 0.081333525 -0.026504723 0.079436965 0.06942592 -0.014028007 0.035168853 0.005632728
0.066079155 0.08271755 -0.0037771997 0.00070677017 -0.030601466 0.075989656 -0.073745824 -0.008395495
0.010991972 0.064213455 0.057968732 -0.10075913 -0.0042918883 0.0001012789 0.023704449 0.017555268
0.09049699 -0.09503079 0.060378406 0.014083498 -0.03828757 0.10531204 0.07907588 0.09920541
-0.01151741 0.019856237 -0.0060166554 0.060482174 0.005151408 -0.0022906654 -0.05205978 0.01916561
-0.12465605 0.03041932 -0.03212831 0.024048453 0.01799207 -0.15025924 0.034609854 -0.1291255
0.09363073 -0.017944265 0.06551866 0.09521638 -0.12551026 -0.11105696 -0.0058923406 0.059596613

fc2_bn.weight f4 [128]
00000000: bcff 1c3f 6015 26ba 52b1 8c3e 88b2 de3e
00000010: 5ab5 423f 47ae 133f 1e74 8a3e ec31 383f
00000020: 572d 723e 1847 303f 2feb e73e b507 123f
00000030: fce8 053f 8bfb 183f 0ae8 353f 3d44 7a3d
00000040: 48c5 ae3e 8d1d 923e 012c 643e c3b5 453f
00000050: 1221 f53e e975 863c b731 9f3e c71a 133f
00000060: c82b bf3e b455 923e 024a 3d3f 83c3 c53e
00000070: a441 9c3e 9244 0b3f 59ba 0c3f 00e5 173f
00000080: e8ef 893e 3cb4 353f fb18 d33e dc22 093f
00000090: 31ac ab3e f9c5 2e3f 3259 2a3f 824f 4b3d
000000a0: d3dd 373f 8fbb d93e c475 533e af83 6a3e
000000b0: b458 183e 7839 f13e 9620 1a3e 73d2 963e
000000c0: 5bf5 253f 774e e43e 02f2 b63d b885 0a3e
000000d0: 7ad8 bc3e 39d0 203f 2db4 3f3c 4503 df3e
000000e0: 432e 7b3d 7eba 243f ab96 923e 625b 773d
000000f0: 16d0 a43e 5655 083f db09 cc3d 2a9c 5b3e
00000100: 5ffd b83e c101 da3d 474a a33e f628 413e
00000110: ee31 153e a316 833e def1 a53d efd4 0c3e
00000120: b9ec 333e 1fed 113f 9ed4 2c3f cf96 383f
00000130: 25d3 2c3f 3c34 2c3f afd1 cd3c b77e b13e
00000140: da24 213f abb1 443f 0a36 053f bb8c a63e
00000150: a152 113f 0366 963e f3d5 093e 9485 0f3f
00000160: 12d5 4c3e 3b0b d23e e197 523e e556 003e
00000170: 0ea0 623d 769a 263f 112b 153f 4417 ef3d
00000180: 0168 e33d 99fe 9b3e daa4 123f 68ef f03e
00000190: 72cc 603f 4489 2d3f ca44 c73d 259a 223f
000001a0: 8404 df3e fe01 633e 2719 0b3f 937b 463f
000001b0: b23f 0a3f 31c2 0c3e d285 e33e cdf5 6e3e
000001c0: edd8 6f3f 8130 823d 5c20 963e 83b3 383f
000001d0: 0fd5 213f 9b9f ad3e 89af 133d 9032 443e
000001e0: 2ff1 143f 2972 183f 3c7d 203f 72d3 2a3e
000001f0: 71a4 c23e 7557 8a3d e697 513e 478b 003f
0.6132772 -0.00063355826 0.27479035 0.43495584 0.7605797 0.576878 0.27041715 0.71951175
0.23650108 0.6885848 0.45296618 0.5704301 0.5230863 0.59758824 0.7105719 0.061100233
0.3413489 0.2853817 0.22282411 0.7723047 0.47876793 0.016413646 0.31092617 0.57462734
0.3733809 0.2858101 0.7394105 0.38625726 0.3051883 0.54401505 0.54971844 0.593338
0.26940846 0.7097814 0.41229996 0.53568816 0.3352981 0.6827083 0.6654235 0.04963637
0.7182285 0.42525908 0.20650393 0.22901796 0.14877588 0.47114158 0.15051493 0.29457435
0.6482751 0.44591114 0.08932878 0.13527572 0.3688391 0.6281772 0.011700672 0.43557182
0.061323415 0.64347064 0.28630576 0.060389884 0.32190007 0.5325521 0.09962817 0.2144629
0.36130807 0.10644866 0.31892607 0.18863282 0.14569828 0.25603208 0.08102773 0.13753103
0.17570771 0.57002443 0.6751193 0.72105116 0.6750968 0.67267203 0.025124399 0.34666988
0.62946856 0.768336 0.5203558 0.32529244 0.56766707 0.29374704 0.13460521 0.560632
0.20003155 0.41024193 0.2056575 0.12533148 0.05532842 0.6507944 0.5826884 0.116743594
0.111038215 0.3046768 0.57282794 0.47057652 0.8781196 0.67787576 0.09729917 0.63516456
0.43558133 0.22168729 0.54335254 0.7753231 0.5400344 0.13745953 0.44438034 0.23335953
0.9369038 0.06356908 0.29321563 0.72148913 0.63215727 0.33910832 0.036056075 0.19159913
0.58180517 0.59549195 0.6269109 0.16682222 0.38016084 0.06754962 0.20468101 0.5021252

fc2_bn.bias f4 [128]
00000000: 850b d4bd 1ee6 1fbe b2f5 cc3d 1bf0 dfbd
00000010: 51b1 01be 68f2 0d3e 12de cb3d 6fcb 1c3e
00000020: 3dfe 213e d62d 2cbe 3042 eabd af7e d23d
00000030: 67a4 e93d 529d 19be 4b0e fd3d dc25 34be
00000040: 112b 1abe c01f d5bd dc80 98bd ba73 b0bd
00000050: bb7f 93bd a196 23be 5d2d 67bd a796 cabd
00000060: 430f 0c3e 323f 0c3e aecd 2dbd 57e7 f43d
00000070: 1d2c bbbd 4065 103e 5f10 aa3d bc8e fa3d
00000080: b874 04be 773b f03d cea6 043e 8761 32be
00000090: bc69 173e 7fdb d9bd 84c1 6fbd f47e 353e
000000a0: b9d3 cdbd 858b dfbd f56e 00be f83f 07be
000000b0: 30d1 2b3e 3545 d0bd 22be e0bc 1ff4 b2bd
000000c0: 6399 16be 23e5 3e3d 6960 34be c603 17be
000000d0: e596 053e 877f 0f3e 985a 22be ff60 8c3d
000000e0: 960a 8fbd 9d34 a0bd d4ef c13c 81ec 1cbe
000000f0: 86e1 00be 9b78 083e e669 1f3e b684 f93d
00000100: 251a fc3d 7dbf 2b3e 551c 813d 15ac fd3d
00000110: b95e 0ebe da25 13be 48f6 04be 2dc2 03be
00000120: e8bb 1f3e 6259 c5bd dd93 01be 817e 11be
00000130: e47b cfbd 5cc1 163e 0239 2abe 27cf cebd
00000140: 3440 0b3e 8714 08be 909e cabd 186e 133e
00000150: 769b e4bd b6a2 04be 243a 0cbe d3b0 85bd
00000160: 277d ba3d 0514 9cbd 9141 4bbd 3be8 023e
00000170: 055b 30be 331a 193e 8432 083e 37fc 233e
00000180: c933 14be e61e 0bbe b769 ca3d 512b ba3d
00000190: 4223 37be c918 75bd 4e65 24be 4b0a a3bd
000001a0: b004 9abd 28ec f9bd ae59 d6bd 231e eb3d
000001b0: 90eb 133d 7f84 24bc 7a64 1ebe b38b 13be
000001c0: 0f70 46be d9b3 e5bd 7bc5 aa3d 4ea9 93bd
000001d0: 2436 f63d 2680 1ebe fa87 2abe 02e9 2abe
000001e0: db35 e23d 144b 06be b217 7ebd 1a50 14be
000001f0: 0e72 22be babf 29be d100 0b3d fd2a 2d3e
-0.1035376 -0.15615126 0.100078 -0.10934468 -0.12665297 0.13862002 0.09954466 0.15311979
0.1581964 -0.1681436 -0.114384055 0.10278069 0.114083104 -0.15001419 0.12356242 -0.17592567
-0.15055491 -0.104064465 -0.07446453 -0.08615823 -0.07202097 -0.15975429 -0.056439746 -0.09892016
0.13677697 0.13695982 -0.04243248 0.11958187 -0.09139273 0.14101124 0.08303904 0.12234256
-0.1293515 0.11730092 0.12954256 -0.17420016 0.14786428 -0.10637569 -0.05853416 0.1772421
-0.100501485 -0.10915283 -0.12542327 -0.13207996 0.16779017 -0.1016945 -0.027434412 -0.08737969
-0.1470695 0.04660524 -0.17614903 -0.14747533 0.13045843 0.14013492 -0.15854871 0.06854438
-0.06984441 -0.07822535 0.02367393 -0.15324594 -0.1258603 0.13327257 0.15567741 0.12183516
0.12309674 0.16772266 0.06304232 0.12386338 -0.13903321 -0.14369908 -0.12984574 -0.12867041
0.15599024 -0.09636189 -0.12654062 -0.14208414 -0.10131052 0.14722198 -0.16623309 -0.10098105
0.1359871 -0.1328908 -0.09893525 0.14397466 -0.11162464 -0.12952694 -0.13694054 -0.06527867
0.09105902 -0.07621006 -0.049623076 0.12783901 -0.17222221 0.149514 0.1330052 0.16014181
-0.1447288 -0.13586006 0.09883445 0.09090293 -0.17884544 -0.05983809 -0.1605427 -0.079609476
-0.07520425 -0.12203246 -0.10466324 0.114803575 0.03611332 -0.010041355 -0.15468016 -0.1440876
-0.19378684 -0.11215944 0.08338448 -0.07210027 0.12022045 -0.15478572 -0.16653433 -0.16690448
0.11045428 -0.13114578 -0.062034316 -0.14483681 -0.15863821 -0.16577044 0.033936325 0.1691093

fc2_bn.running_mean f4 [128]
00000000: d04a 673e f1ab 4038 b2f3 883d 200a 263e
00000010: a761 953d 45b0 b33d ab68 bf3d 26ad ba3d
00000020: 0ada 923d 92df fa3b 171b cb3d 3bc4 dc3d
00000030: f87e 1b3e 9a4a 813c 4c0d 673d a2b9 bf3d
00000040: 2419 0d3c 2712 fc3d b162 0a3e 20dc 583e
00000050: db3e 043e 3305 a73d 5475 b73d c43b 273e
00000060: 808b 533d 4038 493d 284c 7c3e c3e7 633d
00000070: 1db9 073e 829c f03d 782b 033d 983c 273e
00000080: e6f3 7a3e 3b52 113e 4fba a73c 0131 5838
00000090: dc8d db3d 72ee 2a3e de57 163e 3c34 5a3b
000000a0: 9184 373e 793e 553e 37bd b73d 1513 083e
000000b0: f217 d33c 57e8 803e 24d6 bf3d ddac 1b3e
000000c0: d781 7739 5baa 1b3e 3ae4 063e a7ed ac3d
000000d0: d366 eb3d d955 213e 6c00 013e 7952 fa3d
000000e0: a7a5 ed3d 5208 ef3d 1c38 eb3d 2925 c53d
000000f0: 880a d23c 2550 a63d 7074 a53c a85b d13d
00000100: bff8 473d 0657 aa3c 0558 473e bbf3 d93b
00000110: ad65 d53d 8148 063e ae95 e83d 3067 bc3d
00000120: 7bc0 1f3d 3222 553e e2ff e83d 659a b03e
00000130: c4a5 543e 2f37 de3d c086 c83d b3a8 f93d
00000140: c79f 913d fed5 4d3e 54c1 203e ce16 693d
00000150: 4140 ff3d 5eb3 8c3e 5864 533d d6d1 063e
00000160: 5bef fd3d 497f 933e b2cc e03d 1e74 e43a
00000170: 7f31 ed3d 043d 723d ede4 cf3d cb4b 9f3d
00000180: 2c24 543e cf93 293d 97d2 313e 18df fd3d
00000190: d5a7 c03b 8884 583e 83d9 523e a7a5 5e3e
000001a0: cc4e bb3d 5170 ce3d 9312 1b3e 1bbd 223e
000001b0: 4e1e 133e 7422 223d aba0 0e3d 64f2 283e
000001c0: f4f6 0738 eed7 d63d 41a4 f03b 1cbb 3f3e
000001d0: 3285 cf3d 0767 6837 27db ac3d e2a5 063a
000001e0: b0c5 153e 6ffc 913d 3cb3 123e dac4 8d3e
000001f0: 13ef 773b b9f5 4c3c 0336 2e3c edb1 723d
0.22587132 4.59365e-05 0.06687106 0.162148 0.07294016 0.08773855 0.09346136 0.09115057
0.07170494 0.007656046 0.09917276 0.107796155 0.15185153 0.015782643 0.056409165 0.093615785
0.008611951 0.1230815 0.1351421 0.21177721 0.12914602 0.081552885 0.089579254 0.16331393
0.05164671 0.04912591 0.24638426 0.055640947 0.13254209 0.117486015 0.032023877 0.16331708
0.24507102 0.14191525 0.020474581 5.154405e-05 0.10720417 0.16692522 0.14681956 0.0033295294
0.17921664 0.20824613 0.08971637 0.13288529 0.025768254 0.2517726 0.09367016 0.15202661
0.00023604125 0.15201704 0.13172999 0.08443766 0.114942215 0.15755405 0.12597817 0.12222762
0.11603861 0.11671509 0.114853114 0.09626228 0.025639787 0.08120755 0.020197123 0.1022256
0.048821207 0.02079345 0.1946717 0.0066513694 0.10419784 0.13113596 0.11356674 0.09199369
0.039001923 0.20813826 0.11376931 0.34492794 0.2076636 0.10850369 0.097913265 0.1219038
0.07110553 0.20101163 0.15698749 0.056906514 0.12463427 0.27480596 0.051609367 0.13165984
0.12399169 0.28808048 0.109765425 0.0017429625 0.11581706 0.05914022 0.10151086 0.07778128
0.20716923 0.041400727 0.1736549 0.123960674 0.005879382 0.21144307 0.20590787 0.21742879
0.09145889 0.100800164 0.15143804 0.1589245 0.14367029 0.03958364 0.034821194 0.16498715
3.24165e-05 0.10490404 0.0073437993 0.1872372 0.10132827 1.38522655e-05 0.084402375 0.0005136413
0.14626193 0.07128226 0.14326185 0.27689248 0.0037831708 0.012509757 0.010632995 0.059251714

fc2_bn.running_var f4 [128]
00000000: ab4a 413d 4ef1 b234 0295 473c 16a5 193d
00000010: 612a a53c 9d62 823c c39b 843c 7801 d83c
00000020: e174 8e3c fc8c 0f3b 57ad cf3c 24fc d73c
00000030: 1b50 1a3d 684e f33b 2c97 443c d474 e23b
00000040: 7b9f 303b cf37 9b3c a074 8e3c 3e07 413d
00000050: 3df1 2d3d 75d7 553c 5a1a 993c 5161 303d
00000060: 2002 0a3c 71a2 103c c144 ab3d 4231 3f3c
00000070: b209 c73c 7030 913c 4653 b23b 7b6f 393d
00000080: 4d16 543d c618 183d b72c 843b ccb8 d436
00000090: 8fd6 873c 1566 343d 83f6 fe3c 4e51 163a
000000a0: 7ca6 293d fd85 843d 65dc 8a3c 6d33 ad3c
000000b0: c34f b23b a886 603d 67e8 5e3c cb89 e03c
000000c0: 373e 7537 0d23 063d 9a57 4e3c 263c 5a3c
000000d0: ae84 ba3c 20f4 243d 7c1b 5f3c cc75 f83c
000000e0: bda3 eb3c e626 aa3c ebc5 c83c 89c6 183c
000000f0: f8c7 e13b 6d43 643c 5db8 4b3b 5806 6e3c
00000100: 9482 403c 9fa4 4b3b 09d6 f03c be43 a73a
00000110: 66e0 6d3c cd1f 153d 558f e73c daaa ea3c
00000120: eb5e 0c3c 676f 813d 463d a33c 1c77 3c3d
00000130: 20a3 383d ea2b a53c c122 703c 5a0d 9b3c
00000140: 55ad 753c 454c 113d 6116 193d 49dd 4c3c
00000150: 07b0 0a3d 1f3e 243d 55d5 3b3c 7914 1a3d
00000160: fa8c e03c 7473 a63c 8485 803c b621 7239
00000170: 951d c53c dccd 423c 4818 a33c 50cf 9a3c
00000180: 7646 fe3b dfd6 403c 8089 113d ba0e bf3c
00000190: ad63 c93a b6d9 533d 660f 453d 4664 2d3d
000001a0: a8a2 673c 1c9c cd3c 7680 b13c 93e3 0d3d
000001b0: f46a 013d d081 a33b ece6 433c 7d78 043d
000001c0: a21c 4c36 c4e3 a63c 4917 af3a 5bfd 2f3d
000001d0: 646e c23c 3216 9535 cd9d 243c e229 2e38
000001e0: a820 cc3c 462b ac3c 4672 db3c d558 443c
000001f0: 67ba 2a3a 3829 433b a37c e43a 3341 8f3c
0.04719035 3.3330656e-07 0.012181522 0.037510954 0.02016181 0.015916163 0.016187554 0.026367888
0.017389717 0.0021904102 0.02535121 0.026365347 0.03767405 0.0074251182 0.011998933 0.0069108997
0.0026950527 0.01894751 0.017389596 0.047126047 0.04246639 0.013051857 0.018689323 0.04306156
0.008423358 0.008827792 0.08362723 0.011669459 0.024296615 0.017723292 0.005442056 0.04527233
0.05177908 0.037133 0.0040336507 6.3396055e-06 0.016581802 0.044042666 0.031123405 0.0005734161
0.041418537 0.06470869 0.016950795 0.021142686 0.0054416372 0.05481592 0.013605214 0.027409455
1.46176235e-05 0.03274827 0.012594128 0.013320005 0.022768345 0.04027188 0.013617393 0.030329607
0.0287646 0.020770501 0.024508437 0.009324678 0.006890293 0.013932091 0.003108523 0.01452788
0.011749882 0.0031073464 0.029398935 0.0012761278 0.014518833 0.03640728 0.028266588 0.028645921
0.008567552 0.063200764 0.019926678 0.04601203 0.045077443 0.020162541 0.0146567235 0.018927265
0.014994939 0.035473127 0.037374858 0.01250393 0.03385928 0.040098306 0.011464437 0.03761718
0.027410973 0.020318724 0.015688665 0.00023091477 0.024061957 0.011889901 0.01990904 0.018897682
0.0077598644 0.011769979 0.03553152 0.023322452 0.0015364789 0.051721297 0.04811039 0.042331956
0.014137901 0.025098853 0.0216677 0.03464086 0.03159614 0.00498984 0.0119569115 0.03234147
3.0415035e-06 0.020372279 0.001335838 0.042966228 0.023734279 1.1107825e-06 0.010047388 4.152384e-05
0.024917915 0.021016728 0.026787888 0.01198407 0.00065127615 0.0029779207 0.0017432164 0.017487144

fc2.weight f4 [128, 128]
00000000: e107 83bc 1898 07bc 94a6 f83c b271 733c
00000010: 55cf bdbc 8026 f03c 536c e8bb bf74 e93b
00000020: f782 033c ee28 ccbc 535c b73c c65e 793c
00000030: 89a5 1f3d f955 63bd adaf 013b 23f0 eebb
00000040: 1de8 35bb 4cc2 eb3b d1af 79bb cca9 473d
00000050: 6d1c 053b bb9c 05bc 1bcd dd3c c9dd dabb
00000060: 822f 5bbc aeef 89bc 333a 4dbc 23bf adbc
00000070: e8d3 20bc 6425 dc3c c2ba 693c 1579 353c
00000080: d03a 593c 26bd a23c f312 393c 7649 bcbc
00000090: 3254 87bb e818 f9bc 64f8 cabb 64d4 f53b
000000a0: 36ae bf3c 6078 b9bb d532 1fbc 4853 003b
000000b0: 1d6b 4d3b feb1 f43b bf34 a53c 70c3 5abc
000000c0: fade 44bc 5720 873c 79b5 ac3a 9c08 4c3c
000000d0: a385 773b 43fb 2bbc 9a45 bebb 340a 643d
000000e0: 8831 0a3a 1b32 b83c b616 b33c 46eb f6bb
000000f0: 9719 90bc 7562 c6bc 4b14 703c 1c71 ba3c
00000100: 05e6 443c 762e 503c 2638 3a3c d126 133c
00000110: 94f5 3eba f777 01bb 6b05 e33a 5ba9 c1bb
00000120: 16d0 a73c a734 8f3c 0988 c0bb 27d3 353d
00000130: 3f7a 88bb 2b33 833d 8424 45bc 74e9 89bc
00000140: 1e07 843c f83f f8bc a3d1 8bbc 2f83 2a3c
00000150: 9e13 aa3a ace8 b6bb 199a 9fbc 6629 c73b
00000160: c3c7 b2bc 0f92 6e3b e802 8bba 90e2 683c
00000170: 1068 85bb 7a13 353d 6d91 a83c bdd1 1c3c
00000180: 29fe 9bba b99a f43c afde 0abc 0a91 323d
00000190: cc8f 383b 3f3d d4ba bea9 9c3c 0dea 0bbc
000001a0: e384 24bc 54bc b93a b02f 463b abe9 15bc
000001b0: 0534 d1ba 35d3 21bc 9eae 27bd 253d 5f3b
000001c0: a354 e4bc 4588 f1b9 01b7 ca3b c02e 433d
000001d0: a7c9 8dbc c330 dcbb 67a1 c7bb f8f4 01bd
000001e0: 5623 df3c a6ee d23c bfa0 503b 811b 17bc
000001f0: 929a febc 4be7 00bd 75d5 cf3c 6730 423c
00000200: b3e2 033c 365b c639 d30c 19bb da36 da3a
00000210: 33fb 7dbc 3486 7239 dbba 193b e8cd 8abb
00000220: bf04 213a 05a5 11bc 076f f7bb f2c7 c93b
00000230: b394 9d3b 759f 903b 0f08 183a 11d7 8639
00000240: 06cd 03bc 0777 b53a a481 8d3a bc9d a4bb
00000250: d1e5 ec3b ac44 dc39 9c27 66bb 5ca9 de3b
00000260: cc2d 51ba faf2 a33a d17b 8139 7a46 fe39
00000270: a9d6 d83a c241 2e3a 567c 333b 6792 48b8
00000280: 8f07 bc39 a18c d6bb e558 853a e7d1 b63a
00000290: df43 7bb9 aad5 00bc 5ee2 503b 1f65 35ba
000002a0: 70e4 dfbb 0c9a 243b 4ceb b237 7fd8 983a
000002b0: 4dbe e5b9 462c a13b eba0 953a 9869 0c3b
000002c0: a4a5 893b 4bee 573b afcd 773a 0962 e439
000002d0: ca8f 19bb 84fc ff3b eef1 b539 ba76 1bba
000002e0: 9b81 163a 34cd 5f3b 2af1 223a 5597 433a
000002f0: 61be dc3a 5b58 883b 1cc0 24ba 9857 6fba
00000300: 0b81 f43a 48db 81b9 8a4e 7ab8 e778 a23a
00000310: 2b45 86b9 53f6 bc3a 4478 ba39 58f3 833a
00000320: 998c 8439 3cde abba 8cac 6c3a d1f0 6a3c
00000330: 1bd6 e93b 1f13 15bc 88ad 193a c043 d53a
00000340: 4287 f53b a056 283c adba d6ba ebee 41ba
00000350: be90 513b 0a03 4c3b ff07 2739 0d8e 8d3b
00000360: 0893 b9b8 ecaf b43b 8db8 7239 9673 4ab9
00000370: 706c 643a c232 d73a 978c d4ba deb5 0eb8
00000380: 98a1 9d39 7f8b ff3a a40a 853b c41d 0dbb
00000390: ff44 233b 2dc9 fa3a 65cf 853a 671a 5cbb
000003a0: 91d7 7b39 f56a 5d3a 612c 99ba 0f58 f9ba
000003b0: e1fb ae39 4d1b abb9 6806 603a 96b5 ba3a
000003c0: dff5 8a3b 2878 9439 f604 723a db76 6d3b
000003d0: 0eed 13bb f408 f73a a486 283a 6916 afba
000003e0: ee97 cbb8 cfd1 923b 051e 833b c4e8 dd38
000003f0: fbce 133c 12f7 423a 4f5f 453b f795 f3bb
-0.015994968 -0.008276008 0.030352868 0.01485865 -0.023170153 0.029315233 -0.0070929914 0.007124513
0.00802683 -0.02492186 0.02238289 0.01522035 0.038976226 -0.05550191 0.0019788549 -0.00729181
-0.0027756758 0.007194793 -0.003809918 0.048745915 0.0020311133 -0.008155043 0.027075341 -0.006679271
-0.013378026 -0.016837921 -0.012526083 -0.021209305 -0.009816147 0.026873298 0.014265718 0.0110762315
0.013258651 0.019865584 0.011296022 -0.022984248 -0.00412991 -0.030407384 -0.0061941613 0.0075021256
0.0233985 -0.005660102 -0.009716709 0.001958089 0.0031344362 0.0074675074 0.020166753 -0.01335226
-0.012016052 0.016494913 0.0013176642 0.0124532245 0.0037768863 -0.010496917 -0.005806637 0.055673793
0.0005271663 0.02248483 0.021861415 -0.007535371 -0.017590327 -0.02421687 0.014653276 0.022759013
0.012017732 0.01270639 0.011365926 0.0089814225 -0.0007284519 -0.0019755343 0.001732034 -0.0059100813
0.020484965 0.017481161 -0.0058755917 0.044390824 -0.0041649635 0.06406244 -0.012032632 -0.016834952
0.016116675 -0.03030394 -0.017067736 0.010407253 0.0012975817 -0.005581936 -0.01948266 0.006077933
-0.02182377 0.0036402976 -0.0010605725 0.014214173 -0.004071243 0.044208027 0.020577157 0.00957149
-0.0011901307 0.029858934 -0.0084759435 0.04359535 0.0028161881 -0.0016192569 0.019123908 -0.008539689
-0.010041448 0.0014170506 0.0030240826 -0.009149949 -0.0015960938 -0.009877016 -0.040938012 0.0034063545
-0.02787239 -0.0004606863 0.0061863665 0.047652006 -0.01730807 -0.00671968 -0.0060922387 -0.03172776
0.02723853 0.025748562 0.0031834093 -0.009222866 -0.031079564 -0.03147058 0.025370339 0.01185236
0.008049655 0.0003783346 -0.002335359 0.0016648427 -0.015501785 0.00023128913 0.0023457322 -0.0042359717
0.000614237 -0.008889441 -0.0075510773 0.0061578685 0.004808986 0.00441354 0.00057995407 0.0002571871
-0.008044487 0.0013844677 0.0010796082 -0.005023686 0.0072295447 0.00042012834 -0.0035118824 0.0067950916
-0.00079795416 0.0012508326 0.00024697048 0.00048499164 0.0016543466 0.0006647372 0.0027387342 -4.7820064e-05
0.00035863786 -0.006547526 0.0010173587 0.0013948054 -0.0002396251 -0.0078634415 0.0031873207 -0.000691967
-0.006832652 0.0025116233 2.1328822e-05 0.00116612 -0.0004382007 0.004918608 0.0011415755 0.0021425243
0.004200654 0.003294843 0.00094529515 0.0004356059 -0.0023431652 0.0078120846 0.00034703262 -0.00059304724
0.00057413586 0.003414941 0.0006215746 0.000746121 0.0016841405 0.0041609234 -0.000628473 -0.0009130179
0.001865418 -0.00024768175 -5.967779e-05 0.0012395651 -0.00025610006 0.0014416672 0.0003556629 0.0010067029
0.00025281755 -0.0013112496 0.0009028397 0.014339642 0.007136119 -0.009098797 0.0005862345 0.0016270801
0.0074929306 0.010274559 -0.0016382538 -0.0007397967 0.0031977142 0.003112974 0.0001592934 0.0043199123
-8.848874e-05 0.0055141356 0.00023147669 -0.0001930728 0.0008713668 0.0016418325 -0.0016216215 -3.4024815e-05
0.0003006577 0.0019496529 0.0040601064 -0.0021532634 0.002491295 0.0019133441 0.0010208903 -0.0033585073
0.0002401753 0.0008446419 -0.00116862 -0.0019023436 0.0003337553 -0.00032636002 0.00085458765 0.0014244791
0.004240736 0.00028318283 0.00092323066 0.0036234173 -0.0022571716 0.0018847273 0.00064287544 -0.0013358119
-9.7080934e-05 0.0044805775 0.0040013813 0.00010581457 0.009021516 0.0007437329 0.0030116623 -0.0074336487

fc2.bias f4 [128]
00000000: 0839 423d f051 90bb 79ff bd3d e1e7 b2bd
00000010: eb69 593c a545 3cbc f29a 84bb 76b2 1c3d
00000020: d3dd e8bb 9607 51bd afbe c93d 188d 0bbe
00000030: 9b52 ad3d 2bee 8dbc f626 683d e28a 50bc
00000040: 36dc e63c d467 7cbd e17d 46bd e82c c9b9
00000050: fd33 3d3d 944e 11bd 4b47 5b3d e585 933c
00000060: d84f 2c3d b25a 9dba 4734 18bd e292 d93c
00000070: b37d 14be 9987 8d3d 5c18 ab3d 5c98 a0bd
00000080: 0731 0b3d f0eb 2abe d992 343d b7b7 d2bd
00000090: 2997 1dbd 2b33 593d 944c 36bd 761f f03d
000000a0: c393 59bc 9815 87bb 467b 1e3d 8f2e a13b
000000b0: 5590 2f3d 9df4 ab3c 2da6 20bc 5b38 803c
000000c0: 214b fb3c 31ab 30be 9e55 20bc 5923 5fbc
000000d0: 4f96 013d 6396 413d 88a9 ac3b e51d bebc
000000e0: ce7c 0abc 0288 3b3b dba3 2dbe 934b b03c
000000f0: f86b 91bc 93c2 0fbe ce7f 923c 665d aabd
00000100: 9989 663d 9c95 f1bb 4dcc 1cbd 0fec 0e3e
00000110: 8dd8 55bc 1bef 01be 9b3a 89bd 1582 70bd
00000120: 2681 abbd 2fee 38bd ff97 943b 6709 35bb
00000130: b9e7 da3d 56ba bdbd 29f1 84bc 8e16 80bc
00000140: ed87 37be ec61 94bd c7b8 ad3c 9766 2d3d
00000150: 635e cdbc 2a18 683c 99fa c33b d734 b93d
00000160: 0142 ce3c ae89 263d 788b afbd 10ae f23c
00000170: 81ad 15be 0e8d 4dbd f9c1 5eba 26f4 d6bb
00000180: 2318 dfbd e757 c2bd a101 1fbc 74cb f9bc
00000190: e0a0 8b3d 8f7e 223d e62d cd3c 8f15 113b
000001a0: 9dc3 b03b 1f9d 62bc 7347 c43c fe7a cbbd
000001b0: 4eca f43c 48dc f6bd 5abb 29be 9ccc e53c
000001c0: 0fa4 8abc 0e52 873d 9e9c a0bd d30d 9abc
000001d0: 21cd 993b a25a dbbc b76d 45bc 8b39 50bb
000001e0: 5891 eebc abb4 203c 7a95 763d a120 f6bd
000001f0: b40d bb3c 577c 0fbc c26e cbbc d259 b63c
0.04741767 -0.004404299 0.09277243 -0.08735634 0.013269882 -0.011491214 -0.0040467912 0.03825613
-0.0071065216 -0.051032625 0.09850823 -0.13628042 0.08463021 -0.017325481 0.05667778 -0.012728425
0.028181177 -0.061622456 -0.04845989 -0.00038371165 0.046192158 -0.03547533 0.053534787 0.018008182
0.042068332 -0.0012005179 -0.03715923 0.026559297 -0.14501075 0.06910629 0.083542556 -0.0784156
0.033982303 -0.16691566 0.044085357 -0.10288947 -0.038474236 0.053027313 -0.044506624 0.11724751
-0.013279858 -0.004122447 0.03869178 0.0049188803 0.042862255 0.020990664 -0.009805244 0.015651872
0.030675473 -0.17252804 -0.009786038 -0.013619267 0.031637486 0.04726256 0.005269233 -0.023207614
-0.008452607 0.0028615003 -0.16957037 0.021520412 -0.017751679 -0.14039068 0.017883208 -0.083185956
0.056283567 -0.007372571 -0.038280774 0.13957237 -0.013052118 -0.12688868 -0.06700631 -0.058717806
-0.083742425 -0.045149025 0.004534721 -0.0027624012 0.10688729 -0.092640564 -0.016228275 -0.015635755
-0.17922945 -0.072452396 0.021206273 0.042334165 -0.025069421 0.014165917 0.0059808013 0.090432815
0.025177957 0.040658645 -0.085715234 0.029624015 -0.14616968 -0.05018335 -0.0008497532 -0.0065598665
-0.108932756 -0.09489422 -0.009704978 -0.030492522 0.06817794 0.039671477 0.0250463 0.0022138094
0.0053944127 -0.013831406 0.02395985 -0.09935568 0.029881623 -0.12053734 -0.16575375 0.028051667
-0.016923932 0.066074476 -0.07842372 -0.01880542 0.0046936427 -0.026776616 -0.012050084 -0.003177258
-0.02912204 0.0098087 0.060201146 -0.12017942 0.022833683 -0.008757672 -0.024833087 0.022259627

fc2a_bn.weight f4 [128]
00000000: 8c3e 043f eb5a 593b d24a 013f 44a3 273f
00000010: cf0e 8d3e 4824 ec3e 01cb 3a3e 0beb b93e
00000020: 636c c4ba f544 0a3f 9752 d73e 130e 9d3e
00000030: e317 203f a220 2e3c eb0b c73e ea34 f23c
00000040: d53a 183f 6423 be3e d0d8 d93d 5c3d 5f3e
00000050: ee26 d43e 870e 083f 0e34 093f a8f5 30bc
00000060: e8a0 973d 68e0 b43e d212 c23d 983c 933b
00000070: eded 473e 9331 0e3f fce9 043f 6ae2 383f
00000080: 1003 033f 42de 663e a3c5 203e f077 943e
00000090: 7749 c43e 3b86 e63d 0602 123e bef5 ea3d
000000a0: 5123 cc3e 3a5d 113e bc53 bd3e 1af1 6c3e
000000b0: b2b4 363e baa8 573d dbbe 203f 40d0 123f
000000c0: 9aa6 4a3e b2d8 a83e d0a1 c43e 28cf b83e
000000d0: e11c d93d 2c7a 073e d689 613d 2f6f 8d3e
000000e0: 5a1f 323f 7f37 6f3e 8968 1f3f c698 b33e
000000f0: 3e21 c23d 5cc3 1f3e 17e5 e33c 3875 363e
00000100: b4b9 a23e 3b0e c93c ee03 ac3e bce8 6a3e
00000110: 3fe3 013f 7676 2c3f e258 0a3f 3060 613e
00000120: 7c4c 753e 62ad a03c 172c df3e e4b9 d03c
00000130: 4156 2b3d 0bf3 273f bc09 ae3e 4fb2 993e
00000140: ad34 ac3e 08a8 1b3f cb3e 163f 700a a33c
00000150: 93c6 dd3e 4297 cb3e 7a62 eb3e c051 e23e
00000160: b29c f13e 7524 9a3e ed08 d03e 819f a33e
00000170: fc91 423f 79b9 9b3e 91df 753d 2469 3d3d
00000180: 1a94 db3e 1704 923e a0ec dc3d 7603 833d
00000190: b95c ae3d 3f8c 0e3e 0808 133f 6f37 183f
000001a0: b73a d33e 4987 4e3e 734c 0c3e a8c5 ea3e
000001b0: da86 df3e b6a9 803e 0eed a03e f74b 9e3e
000001c0: 27d5 443e 80dd 873e 6804 503f 1023 0a3f
000001d0: 3876 823e 7d56 b13e 6810 643e a3b3 a23c
000001e0: 5b5c dc3e e2a4 5a3e 5f60 f23e 6c05 aa3e
000001f0: dbaa bf3e 0a85 80bb 0c0b 8e3e 9afb 793d
0.5165794 0.0033165764 0.5050479 0.654835 0.2755036 0.4612143 0.18241502 0.36312136
-0.0014985915 0.5401147 0.420552 0.306748 0.6253645 0.010627897 0.3887628 0.029566247
0.5946477 0.37136376 0.10637057 0.2180075 0.4143595 0.53147167 0.53595054 -0.0108007565
0.07403737 0.35327458 0.09476246 0.0044933073 0.19524355 0.55544394 0.5191953 0.7222048
0.5117655 0.22545722 0.15700392 0.28997755 0.383373 0.11256071 0.14258584 0.11472653
0.39870694 0.1419572 0.36977947 0.23138848 0.17842367 0.052651145 0.6279122 0.57349014
0.19790116 0.32977825 0.38404703 0.36095548 0.10601211 0.13230199 0.05506309 0.2762389
0.6957909 0.23361014 0.62268883 0.35077494 0.09478997 0.15601867 0.0278192 0.17818153
0.31782305 0.024542918 0.33596748 0.22940344 0.50737375 0.6736826 0.54041874 0.22009349
0.23954958 0.019613925 0.43588325 0.025479265 0.041830305 0.6560523 0.33991802 0.3001885
0.33633938 0.6080327 0.58689564 0.019902438 0.43315563 0.39763838 0.4597357 0.44202995
0.47189862 0.3010594 0.4063181 0.3195763 0.76004004 0.30414942 0.060027663 0.046242848
0.4288643 0.28518745 0.1078732 0.063971445 0.08513779 0.13920687 0.5743413 0.59459585
0.41255733 0.20168795 0.13701038 0.45853925 0.4365757 0.2512948 0.31430858 0.30917332
0.19221936 0.2653618 0.81256723 0.5395975 0.2548082 0.34636298 0.22271883 0.019861048
0.43039212 0.2135196 0.4733915 0.33207262 0.3743504 -0.0039221095 0.27742803 0.06103096

fc2a_bn.bias f4 [128]
00000000: 6e79 563c cdcf 18be 2c96 6b3d f852 34be
00000010: 1ecc acbd 6f7b 8a3d 857c 423d 3fa2 c73c
00000020: 6fd4 14be 4dec d8bd f2bc 28bd 7752 24be
00000030: 7885 103d b1be 11be f5a6 7b3c 8848 15be
00000040: 7aea ee3b c082 96bd 3a79 06be f5ab 2d3d
00000050: f525 3c3d 68ba 0fbd bc5c d2bc dca1 143e
00000060: ea08 033e 6e2c 883c c7dd ce3d 8b14 efbd
00000070: 2063 03be 9393 1cbd 73bc 75bc 30f2 2bbe
00000080: d382 003d ec0d c5bd 5ba0 f63d 7f3e 9dbd
00000090: 9573 ebbc 1901 ae3d 730d a13d 6097 cfbd
000000a0: ea82 41bd 7ee1 d13d 3f24 e5bc f96c 0abd
000000b0: ec91 f1bc bf1c 00be 17bf 1f3c c501 4d3d
000000c0: 50b6 983d 83be 29be ce90 e039 9cb4 92bd
000000d0: d1c3 533d 8d4b 5dbd b100 da39 a2b1 543d
000000e0: 6697 413d cb70 fd3c cddf 28be 7c88 87bc
000000f0: e838 183d 3fbf d2bd 086f 153e 65ab 92bd
00000100: dc3a 583c 9e44 f83d 8c19 83bd 29fa 68bd
00000110: abe7 a53c f11f 33be 8a26 0bbe 4cca 80ba
00000120: 37b0 ffbd c273 1d3e 239a c9bb 0999 1b3e
00000130: 05ee 04be 6c59 b83d 5456 c6bd e6ea 673d
00000140: 52a9 1ebe 110b b83d 2ddd 393d 3c47 0bbe
00000150: 5fcc 983c 6916 0a3d 0859 833c 7cb1 5c3d
00000160: 7f90 b4bc 9edc 1dbd d924 fcbc ec31 8c3b
00000170: fb0e 38be f1b6 8fbd c601 e7bd 1223 113e
00000180: 8dc5 2bbe 69b7 c5bd 1830 81bc af8b d33d
00000190: a418 c5bd 494f 9cbd a7eb 94bb bc73 da3c
000001a0: a069 d13c 3562 bdbd db27 16bd 9f02 16bd
000001b0: a21d a0bc b66f 80bd c89e 0fbe 0972 5d3c
000001c0: 96c5 3e3d 9cbc 4c3d 345e 26be 4786 94bd
000001d0: e48e 173d 739b 61bd a61b 9cbd 9594 033e
000001e0: 4de0 413d 8191 abbc da2c 0d3d 69e4 eebd
000001f0: dffb 4ebd eedf 15be f29b 6cbd 6426 0c3e
0.0130904745 -0.1492302 0.057516262 -0.17609775 -0.0843737 0.06761824 0.047482032 0.024369357
-0.14534162 -0.10591946 -0.041195817 -0.16047083 0.035283536 -0.14232899 0.01535963 -0.1457845
0.0072911354 -0.07349157 -0.13132182 0.04240032 0.045934636 -0.03508988 -0.025678985 0.1451487
0.12796369 0.016622748 0.101008944 -0.1167384 -0.12830782 -0.038226675 -0.014998543 -0.16791606
0.031374764 -0.09621796 0.12042304 -0.07677936 -0.028741637 0.08496303 0.07863893 -0.10136294
-0.04724399 0.10248087 -0.027971385 -0.03379533 -0.029488526 -0.12510966 0.009750149 0.050050516
0.07456648 -0.1657658 0.00042832497 -0.07163355 0.051700417 -0.05402713 0.00041580715 0.051927216
0.047263525 0.030937573 -0.16491623 -0.016544573 0.037163645 -0.102903835 0.14593136 -0.07161597
0.013197627 0.12122463 -0.06401357 -0.056879196 0.02025207 -0.17492653 -0.1358892 -0.0009825914
-0.12484782 0.1537619 -0.0061524077 0.15195097 -0.12981422 0.09001431 -0.096844345 0.0566205
-0.15494278 0.08986486 0.045376945 -0.13601393 0.01865214 0.03371278 0.016033664 0.0538802
-0.022041557 -0.038540475 -0.03077929 0.004278412 -0.17974465 -0.07017315 -0.11279635 0.14173535
-0.16774578 -0.09654123 -0.015770003 0.10329377 -0.096238405 -0.0763231 -0.0045446935 0.026666515
0.025563061 -0.09247247 -0.036659103 -0.036623593 -0.01954538 -0.06271307 -0.14025414 0.013515958
0.04657515 0.04998456 -0.16246873 -0.07252174 0.037001505 -0.05507989 -0.07622461 0.12849648
0.04733305 -0.020943405 0.034466602 -0.116646595 -0.05053317 -0.14636204 -0.05776591 0.1368652
