LunarLanderContinuous-v2-DDPG/dir_chk_2/LunarLanderContinuous-v2_actor_target.pth (torch_old, 72655 bytes, 6 tensors)

fc1.weight f4 [128, 8]
0	0xbe279982	-0.16367152
1	0x3f83cbb3	1.0296539
2	0x3fd16f3b	1.636207
3	0xbfab0774	-1.336165
4	0xc0187b8c	-2.3825407
5	0xbf8467d2	-1.0344183
6	0xc0002ddb	-2.0027988
7	0xbfbe8805	-1.488526
8	0xbefa9955	-0.48945108
9	0x3f43ee12	0.7653514
10	0xbe9e29ea	-0.30891353
11	0xc006cb55	-2.1061604
12	0x3e127ccf	0.14305423
13	0xbfa0a668	-1.2550783
14	0x3febc26d	1.8418709
15	0xbfa14f28	-1.2602282
16	0x3d658316	0.056033216
17	0xbc8d2638	-0.017230138
18	0xbc370b38	-0.011172108
19	0x3bfbd3a1	0.0076851402
20	0x3c86d794	0.016460218
21	0xbc58f638	-0.013242297
22	0xba129080	-0.000559099
23	0xbda20a23	-0.0791209
24	0xb96c1c24	-0.00022517197
25	0xbd12a968	-0.03580609
26	0xbbbabb5a	-0.0056986036
27	0x3d5a12e4	0.05324067
28	0xbbedf4cc	-0.007261848
29	0x3bf77e3d	0.0075528906
30	0xbd21e3e4	-0.039523974
31	0x3c9a1fb8	0.018813953
32	0x3fb8a02b	1.4423879
33	0xbea622db	-0.32448468
34	0x3fc1bf57	1.5136517
35	0xbf7fc96c	-0.9991672
36	0xbf10f699	-0.5662628
37	0x3f5e6755	0.8687642
38	0xbe786798	-0.24258268
39	0x3eb5a42b	0.35476813
40	0xc02c2496	-2.689733
41	0x3ddf4f9c	0.10903856
42	0xbfacba55	-1.3494364
43	0xbf913405	-1.1344
44	0x3e482151	0.19543959
45	0xbefe62db	-0.49684796
46	0xbfb7d9eb	-1.4363378
47	0x3ff8a5a3	1.9425548
48	0x3f1805e8	0.5938401
49	0x3e9beecf	0.30455634
50	0xbfface44	-1.9594197
51	0x4045af3e	3.088821
52	0xbe3408d5	-0.17581494
53	0xbf7ef437	-0.9959139
54	0xbf0311ba	-0.51198924
55	0xbf07ee10	-0.5309763
56	0xc01c0bbf	-2.438217
57	0xc05761e4	-3.3653498
58	0xbecbbca6	-0.39792365
59	0x3fbc9938	1.4734259
60	0x3ff6fc76	1.9295795
61	0x3f3a3169	0.72731644
62	0x3ea505f7	0.32231113
63	0x3e6a1643	0.22860055
64	0xc002fc47	-2.0466478
65	0xbec8cc86	-0.3921854
66	0x3fe37a40	1.7771683
67	0xbda9a244	-0.08282903
68	0xc0097f07	-2.1483781
69	0x4015aa8c	2.3385344
70	0xbd86825f	-0.06567835
71	0xc058326b	-3.3780773
72	0xbf1737d4	-0.5906956
73	0xbfc56606	-1.542176
74	0xbf03322a	-0.5124842
75	0x40791245	3.89174
76	0x4009aee7	2.1513002
77	0xbe1e366e	-0.15450451
78	0x3f8fca76	1.1233661
79	0x3d06e24c	0.032930657
80	0xbf9068db	-1.1281999
81	0xbf200458	-0.6250663
82	0x3fa28e75	1.2699724
83	0x3f034ec8	0.51292086
84	0xbf303fc9	-0.6884733
85	0xbfa4f973	-1.2888626
86	0xc01d03e5	-2.4533627
87	0xc02c8e66	-2.6961913
88	0x3f8434ba	1.0328591
89	0xbf92fa17	-1.1482571
90	0x3fa9e7c8	1.3273859
91	0xbf8c1337	-1.0943364
92	0x3f83c0fb	1.0293268
93	0xbec28063	-0.37988576
94	0xbf8cc0a8	-1.0996294
95	0xbeca6dff	-0.39537045
96	0x3e4e8dea	0.20171323
97	0xbecff16c	-0.40613878
98	0xc02cc1a6	-2.6993194
99	0x4081b556	4.0533857
100	0x40181503	2.3762825
101	0x3f64fff8	0.8945308
102	0x3e7c591a	0.24643365
103	0xbdf8987d	-0.1213846
104	0x3ca50c80	0.020147562
105	0xbd688241	-0.056764845
106	0x3c48b586	0.01225031
107	0x3d593054	0.053024605
108	0x3c144b61	0.009051175
109	0x3d6d8b54	0.0579942
110	0xbd95d546	-0.07316069
111	0x3b6672e6	0.00351637
112	0xbf98fcc6	-1.195214
113	0x3e2de168	0.16980517
114	0x3fb649ab	1.4241232
115	0x3e834578	0.25638938
116	0xbfa03377	-1.2515706
117	0xbff42613	-1.9074119
118	0xbeb878ec	-0.36029756
119	0xbf27bbf1	-0.6552115
120	0xc01e7efc	-2.4765005
121	0xbf5ffc87	-0.874947
122	0xbd137f72	-0.036010213
123	0x3ee7ceb4	0.4527489
124	0xbf120563	-0.5703947
125	0xbfae1f19	-1.360324
126	0x3efe9b92	0.49728066
127	0xbf458406	-0.77154577
128	0xbf539a37	-0.8265719
129	0xbea90268	-0.33009648
130	0x3fed3b15	1.8533655
131	0xbeef3e8b	-0.46727404
132	0xc034afda	-2.8232331
133	0xbf32ff4b	-0.69920796
134	0xbe38bdb2	-0.18041113
135	0x3f870807	1.0549325
136	0xbf019d72	-0.5063087
137	0xbf558f16	-0.83421457
138	0x3ef3ccdc	0.47617233
139	0xc058ce83	-3.3876045
140	0xbfd000a6	-1.6250198
141	0x3e8661f1	0.26246598
142	0x3f4669e3	0.7750532
143	0x3f3baa2b	0.7330653
144	0xbf5ca18c	-0.86184
145	0x3e6c9390	0.23103166
146	0x3eca0cd2	0.39462906
147	0x3f7c4308	0.9853978
148	0x3fdd13e1	1.7271692
149	0x3f4d393e	0.8016547
150	0xbe96eea4	-0.29478943
151	0xc036af97	-2.8544672
152	0xbf9b20b7	-1.2119359
153	0xbf67d299	-0.9055572
154	0xc0067b01	-2.1012576
155	0x3f366aca	0.712567
156	0xbfec24ed	-1.8448769
157	0x3e1846d1	0.14870764
158	0x3edff328	0.437402
159	0xbfd680e7	-1.6758088
160	0xc038f9cf	-2.890247
161	0x3f964077	1.1738423
162	0x3f67bb43	0.90520114
163	0x3fc4895d	1.535442
164	0x3f7798d6	0.96717584
165	0x3fa1e486	1.2647865
166	0xc014e70a	-2.3266015
167	0xbe076e50	-0.13225675
168	0xbd8610a0	-0.0654614
169	0xbcc7fded	-0.024413073
170	0x3d61c14a	0.055115975
171	0x3d83edc3	0.06441834
172	0x3cdcd2a0	0.026955903
173	0xbd545620	-0.051839948
174	0xbceb992e	-0.028759565
175	0x3d8fd87b	0.07023712
176	0x3fb889fd	1.4417111
177	0xbf02fc26	-0.51166
178	0xbf9dde4f	-1.2333468
179	0xc016674c	-2.3500547
180	0x4023a8d6	2.55718
181	0x3eb6dbba	0.35714513
182	0xbf9889d3	-1.1917061
183	0x3f0a96f6	0.541366
184	0xbf38db66	-0.72209775
185	0x3decc4c9	0.11560971
186	0xbfd318a2	-1.6491892
187	0x3fe67785	1.8005224
188	0x3f271b93	0.6527645
189	0x3f824f62	1.0180476
190	0x3fbb2f42	1.4623797
191	0xc065b4a1	-3.5891497
192	0xbfa1d714	-1.2643762
193	0xbf9078bd	-1.1286846
194	0x3e96dd0a	0.29465514
195	0xbfacc023	-1.3496135
196	0x3d8930a9	0.06698734
197	0x3f183d7d	0.59468824
198	0xbfe3fce6	-1.7811553
199	0xbfaebf83	-1.3652195
200	0xc004ea7d	-2.076812
201	0xbc8ba6ad	-0.01704725
202	0x3f09bd5b	0.5380456
203	0xbf134124	-0.5752127
204	0x4079af8b	3.9013393
205	0x3f93ba77	1.154128
206	0x3f6c350d	0.9226845
207	0xbcd414ee	-0.025888886
208	0x3f1c45ca	0.6104399
209	0xbe11c109	-0.14233793
210	0xbeaa88e4	-0.33307564
211	0x3fa99541	1.3248674
212	0x40884505	4.258425
213	0x401d2432	2.4553342
214	0xc0334562	-2.8011098
215	0xbfdc3f40	-1.7206802
216	0xbeb65b68	-0.35616612
217	0xbed2dab6	-0.41182488
218	0xbfc075f7	-1.5036
219	0xbfb775c4	-1.4332814
220	0x403c81b1	2.9454157
221	0x3f169342	0.5881845
222	0x3f4e76df	0.8065013
223	0xbf54fc1f	-0.83197206
224	0x3bbe8804	0.005814554
225	0xbe083d67	-0.13304673
226	0xbce430c5	-0.027855286
227	0x3e19bdee	0.15013859
228	0x3b6aa90a	0.0035806322
229	0xbd5f8958	-0.05457434
230	0x3c60ecd1	0.013728336
231	0xbcd6934e	-0.026193287
232	0x3d31f53a	0.043446757
233	0xbdb698bf	-0.08915853
234	0xbc43fa91	-0.011961595
235	0xbc977013	-0.018486058
236	0xbc9cabf1	-0.019124957
237	0x3cdc39ad	0.02688297
238	0xbd19873e	-0.037482493
239	0x3cdab30c	0.026696704
240	0x3f183c67	0.59467167
241	0x3f176866	0.59143674
242	0xbf9e11b6	-1.2349155
243	0xbe77ad18	-0.24187124
244	0xc021343e	-2.5188136
245	0xc006e966	-2.1079955
246	0x3ec0a764	0.3762771
247	0x3eedc023	0.4643565
248	0x3f9e4dba	1.236747
249	0xc018d4d6	-2.3879905
250	0xbebdbd26	-0.3705837
251	0x3ef3e3b3	0.47634658
252	0xbf7613ef	-0.96124166
253	0x3f04af50	0.51830006
254	0xbfff6d84	-1.9955297
255	0x3e3a8bb9	0.18217362

fc1.bias f4 [128]
0	0xbf963b48	-1.1736841
1	0xbf03bfae	-0.51464355
2	0xbe296b61	-0.16544868
3	0xbe67b720	-0.2262845
4	0xbf64f888	-0.8944173
5	0xbf8fdf4c	-1.124002
6	0xbeb5dc43	-0.3551961
7	0xbfa965c0	-1.3234177
8	0xbf9f552f	-1.2447871
9	0x3eb8310e	0.35974926
10	0x3f2475ab	0.6424205
11	0x3eca909e	0.3956346
12	0x3e6fa0b7	0.23401152
13	0xbeab619d	-0.3347291
14	0x3e8a4d56	0.27012128
15	0x3f871daa	1.0555928
16	0xbe9330d3	-0.28748187
17	0x3f1221fd	0.5708311
18	0x3f852d30	1.0404415
19	0x3f5c7691	0.8611842
20	0xbef95dce	-0.4870438
21	0xbea9fb56	-0.33199567
22	0xbf6b3b0c	-0.91886973
23	0x3f2fce78	0.6867442
24	0x3fb7a211	1.4346334
25	0x3f9d5e1a	1.2294343
26	0xbe8d44c8	-0.27591538
27	0x3f915154	1.1352944
28	0xbe863dae	-0.26218933
29	0xbebb28ba	-0.3655451
30	0xbf97c0bf	-1.1855696
31	0xbf00580f	-0.50134367
32	0x3e5e5567	0.21712266
33	0x3fc4c0c6	1.537133
34	0xbe7b6259	-0.24549235
35	0x3e503200	0.20331573
36	0xbf2d47fe	-0.67687976
37	0x3f39ee98	0.7262969
38	0x3e58c78e	0.21169874
39	0xbf83ed3e	-1.0306776
40	0x3f145e89	0.5795675
41	0xbee4f0da	-0.44715005
42	0xbb3f993f	-0.002923563
43	0xbf1d733a	-0.61503947
44	0x3fadcd5e	1.3578298
45	0xbd86b63c	-0.06577727
46	0x3e9557dd	0.29168597
47	0xbdd0588c	-0.10173139
48	0xbe9f24c3	-0.31082734
49	0xbe95c263	-0.29249868
50	0xbe457d54	-0.1928609
51	0x3f3f10bd	0.74634916
52	0x3f0d804b	0.55273885
53	0xbe4101ec	-0.1884839
54	0x3f611232	0.8791839
55	0xbf0065bd	-0.5015524
56	0xbff8fbb7	-1.9451817
57	0xbedf45c6	-0.4360792
58	0xbe9da5f2	-0.3079067
59	0xbfc11470	-1.5084362
60	0xbfa8748f	-1.3160571
61	0xbee591e0	-0.44837856
62	0xbb8c2330	-0.0042766556
63	0x3ed03a57	0.4066951
64	0x3dd127ad	0.10212646
65	0xbfba87b5	-1.4572664
66	0xbead2aa7	-0.33821604
67	0xbdc3e70a	-0.095655516
68	0x3ea8504a	0.32873756
69	0xbe63521c	-0.22199291
70	0xbf2289e6	-0.63491666
71	0x3ded03b4	0.11572972
72	0xbfbe48aa	-1.4865925
73	0x3db4f613	0.088359974
74	0xbf21601b	-0.6303727
75	0xbe918180	-0.28419113
76	0x3faab3a9	1.3336078
77	0xbe9ace23	-0.30235395
78	0xbddd1c3f	-0.10796403
79	0xbe9b1fc0	-0.3029766
80	0xbf1d647d	-0.6148146
81	0xbeaf8ff1	-0.34289506
82	0xbf24d6e0	-0.64390373
83	0x3e899e4c	0.26878583
84	0x3e5668cd	0.20938416
85	0xbe121110	-0.14264321
86	0xbee9ff34	-0.45702517
87	0xbeb19392	-0.346829
88	0xbea4415f	-0.32081124
89	0x3ebdc186	0.3706171
90	0x3f0872b8	0.53300047
91	0xbff2120b	-1.8911756
92	0xbf8b26c6	-1.0871208
93	0xbf459a80	-0.77188873
94	0xbf066be5	-0.52508384
95	0xbf875df4	-1.0575547
96	0x3f6164c0	0.8804436
97	0xbe944b62	-0.28963763
98	0xbea48b51	-0.3213754
99	0xc008d39a	-2.1379151
100	0x3fc0cde5	1.5062834
101	0xbf44f305	-0.7693332
102	0x3ebe470f	0.37163588
103	0x3ed48dcf	0.4151444
104	0x3f09c204	0.5381167
105	0xbf3134e8	-0.69221354
106	0xbf1fa63f	-0.62363046
107	0x3baf393e	0.0053474
108	0x3dcf5599	0.10123748
109	0xbea6d589	-0.3258479
110	0x3da0c8b6	0.078507826
111	0xbe620613	-0.2207263
112	0xbfabdcd4	-1.3426766
113	0xbf9d5eb3	-1.2294525
114	0xbe8603ca	-0.26174766
115	0x3e2e96c8	0.17049706
116	0x3ec04da4	0.37559235
117	0xbf0c304b	-0.5476119
118	0xbfa8b05a	-1.3178818
119	0xbffa6ad3	-1.956385
120	0x3f3aef40	0.73021317
121	0xc0067b28	-2.1012669
122	0xbf87467b	-1.0568384
123	0xbfd117f3	-1.6335434
124	0xbecc7a61	-0.39937118
125	0xbf58fcf7	-0.84760994
126	0xbea8b21b	-0.32948384
127	0xbdcf5511	-0.10123647

fc2.weight f4 [128, 128]
0	0xbfe10e43	-1.7582477
1	0xbf3aaf45	-0.7292369
2	0xbc6bc168	-0.014389373
3	0x3c71d118	0.0147593245
4	0x3f2ad4c2	0.6673089
5	0x3e93ce61	0.28868392
6	0xbecccd3e	-0.40000337
7	0x3ffcecc4	1.9759755
8	0x3f27c50b	0.6553504
9	0x3fa5c5db	1.2951006
10	0xbf2b448e	-0.6690148
11	0x3f1e927a	0.61942255
12	0x3f01f792	0.5076839
13	0xbc8b17e1	-0.01697916
14	0x3ece441c	0.40286338
15	0xbcc98055	-0.024597326
16	0x3e7485e3	0.23879199
17	0xbd04c916	-0.032418333
18	0x3f51e4ac	0.8198955
19	0x3f338259	0.7012077
20	0xbd1350e5	-0.03596582
21	0x3cb69708	0.022288814
22	0x405732a8	3.3624668
23	0x3f642f44	0.8913462
24	0xbfada3d5	-1.3565623
25	0xbcd40e1d	-0.025885636
26	0x3ef71a77	0.4826238
27	0xbf907a57	-1.1287335
28	0x3d9cb3c1	0.07651473
29	0x3dc3e322	0.095648065
30	0xbe70b87c	-0.23507875
31	0xbf509617	-0.8147902
32	0xbfdc6270	-1.7217541
33	0xbfc21250	-1.5161839
34	0x3d6234f3	0.055226278
35	0xbef36ead	-0.47545376
36	0x3e8f1921	0.2794886
37	0xbfa0b475	-1.2555071
38	0xc024268b	-2.5648525
39	0x3fe8c81b	1.8186067
40	0x3ea3725a	0.3192318
41	0xbe92a569	-0.28641823
42	0xc005a5f5	-2.0882542
43	0x40395c9f	2.8962781
44	0x3dfe1147	0.12405639
45	0xc03174e6	-2.77276
46	0x3fa3e922	1.2805521
47	0xc04a01b2	-3.1563535
48	0x3d15be7a	0.036558606
49	0xbd92ebd0	-0.07173884
50	0xbd6a756c	-0.05724089
51	0xbf2f6212	-0.6850902
52	0xc0b3614c	-5.605627
53	0x3ef75b29	0.48311737
54	0xc012d020	-2.293953
55	0x3ff33121	1.8999368
56	0x3e5136c9	0.20431055
57	0x4029e9d3	2.6548965
58	0x3cd95f34	0.026534654
59	0xbf12e42c	-0.5737941
60	0x3fbf1054	1.4926858
61	0xbf47bdab	-0.78023785
62	0xbfc8cab2	-1.5686858
63	0x3f851044	1.0395589
64	0xc078e858	-3.8891811
65	0x3f25f72e	0.6483029
66	0xbd3285c3	-0.043584596
67	0x3ce0547a	0.027384032
68	0xbd507354	-0.050891235
69	0xbd712538	-0.058873385
70	0x3f76d537	0.9641909
71	0xc019fb50	-2.405964
72	0xbf9cff07	-1.2265328
73	0x3fbbdef2	1.4677413
74	0x3ffa18c7	1.9538811
75	0x3f232323	0.6372549
76	0x3db08577	0.086192064
77	0xbd839a7b	-0.06425949
78	0xbcca5130	-0.024696916
79	0x3d582546	0.05276992
80	0x3fd2ae31	1.6459409
81	0x3d814822	0.06312586
82	0xbf8cc71b	-1.0998262
83	0xbfcf98b0	-1.6218472
84	0x3fa4645d	1.2843128
85	0x3dae5770	0.08512771
86	0xbe83d4c7	-0.25748274
87	0xbc9d1180	-0.019173384
88	0x3dc4c99a	0.09608765
89	0xbfb46098	-1.4091978
90	0xbebbfb1b	-0.36715016
91	0xbf2ef528	-0.6834283
92	0x3f34fdd5	0.70699817
93	0xbec1bc9c	-0.3783921
94	0x3f79fa77	0.97647804
95	0xbd9da456	-0.0769736
96	0xbfc21f94	-1.5165887
97	0xbd01ccf2	-0.03168959
98	0x40213a25	2.5191739
99	0xc10ca3db	-8.790004
100	0xbe879444	-0.26480305
101	0x3fd06c9c	1.6283145
102	0x3fad3205	1.353089
103	0xbdd5cf6e	-0.10439955
104	0xbe82dffc	-0.25561512
105	0xbd325c8e	-0.0435453
106	0x3f9df18b	1.2339338
107	0xbecb3b23	-0.39693555
108	0x3e7d7e8d	0.24755307
109	0xbd58ea03	-0.052957546
110	0xbf0069d1	-0.50161463
111	0x3c641185	0.013920193
112	0xbe3024bf	-0.17201518
113	0xbf4cdc2e	-0.8002347
114	0xbf45afc7	-0.7722134
115	0xc00b42f9	-2.1759627
116	0x3e033e41	0.12816717
117	0x3f35f043	0.71069735
118	0x3f66c0cb	0.9013793
119	0xc0805ed8	-4.0115776
120	0xbc115753	-0.008870917
121	0x401eefdc	2.4833899
122	0xc00bf235	-2.1866581
123	0x4010dea7	2.2635896
124	0x3d0606fd	0.03272151
125	0x3fd17579	1.6363975
126	0xbd288556	-0.041142784
127	0x3f09a764	0.5377104
128	0x3fb006e3	1.3752102
129	0xbd1de7d7	-0.038551178
130	0x3d72cb76	0.059276067
131	0xbd8ea60d	-0.069652654
132	0xbfafb16e	-1.3726022
133	0x3f21053b	0.62898606
134	0xbf0af96a	-0.54286826
135	0x40354cb4	2.8328066
136	0x3e68efa1	0.22747661
137	0x3e072427	0.13197385
138	0xbfa22264	-1.2666745
139	0xbeb15129	-0.34632233
140	0xbec7138c	-0.388821
141	0xbd8d2f0b	-0.06893738
142	0x3d363775	0.04448648
143	0xbe961083	-0.29309472
144	0xc0247f9e	-2.5702891
145	0xbecf3d6b	-0.40476546
146	0xbf8e0834	-1.1096253
147	0xbee2c194	-0.44288313
148	0xbf0a84b8	-0.5410876
149	0xbd3e3606	-0.04643824
150	0xc006fd15	-2.109197
151	0xbf017f92	-0.5058528
152	0xbfa746d2	-1.3068488
153	0xc04f5421	-3.2395098
154	0xbff5606a	-1.9170048
155	0xbf8a0f67	-1.078595
156	0x3ad04af4	0.0015891478
157	0x3d18c7d5	0.03729995
158	0xbff73d56	-1.9315593
159	0xbfe6c107	-1.8027657
160	0xbfb09eb0	-1.3798428
161	0xc034ac76	-2.8230262
162	0xbc7065ce	-0.01467271
163	0x3ecd12b9	0.40053347
164	0xbf44c9b2	-0.7687026
165	0x3e6891e1	0.22711898
166	0xbfca383e	-1.5798414
167	0xbf0c3613	-0.5477001
168	0xbfd8ea04	-1.6946416
169	0xbfbeabda	-1.4896195
170	0x3ec38948	0.38190675
171	0xbe2d3762	-0.16915658
172	0x3ebda97d	0.37043372
173	0xbe0700fe	-0.13183972
174	0xbf6d906a	-0.92798483
175	0xbed11869	-0.40838936
176	0xbd1de6dd	-0.038550247
177	0x3c7c9ec1	0.015418709
178	0xbd8aa3db	-0.06769534
179	0x3f801a5e	1.0008047
180	0x3f15c64a	0.5850569
181	0xbee2ffc4	-0.4433576
182	0xbfa49489	-1.2857829
183	0xc02dbf16	-2.714788
184	0x3f05d959	0.5228477
185	0xbe98662d	-0.29765454
186	0x3c060316	0.008179447
187	0x403db739	2.964308
188	0x3f90c439	1.1309882
189	0xbf301c90	-0.6879358
190	0xbec9942f	-0.39370868
191	0x3eb669de	0.35627645
192	0x3f416073	0.75537795
193	0xbfc13796	-1.5095088
194	0xbc07d006	-0.008289343
195	0x3d610441	0.054935697
196	0xbe20e214	-0.15711242
197	0x3d47bdaa	0.048764862
198	0x3f9dec41	1.2337724
199	0xc00a9ae1	-2.165703
200	0x3efbb078	0.49158072
201	0x3fe73e08	1.8065805
202	0xbfa9a44c	-1.3253264
203	0xc02e1506	-2.7200332
204	0x3eb32d0c	0.34995306
205	0x3f80e2e1	1.0069238
206	0x3d335f72	0.043792196
207	0xbbae50e0	-0.0053196996
208	0xc035f895	-2.8432972
209	0x3dc23570	0.09482849
210	0xc021053c	-2.5159445
211	0xbee8871f	-0.4541559
212	0x3f7e6722	0.9937612
213	0x3cd957fc	0.026531212
214	0xbf5aaf25	-0.854235
215	0x3df5c8bc	0.12001178
216	0xbc97451b	-0.01846557
217	0xbf0493e4	-0.51788163
218	0xc0262f89	-2.5966513
219	0xc0273f02	-2.6132207
220	0x3d55ecc2	0.052227743
221	0x3f499c44	0.7875407
222	0xbfdddf90	-1.7333851
223	0xbe4c18b8	-0.19931304
224	0x3e430836	0.19046101
225	0xb99b736f	-0.00029649909
226	0x3f9588db	1.168239
227	0xc0679be4	-3.6188898
228	0xbfaa09db	-1.3284258
229	0x3f919bdf	1.1375693
230	0x3f054795	0.5206235
231	0xbeec6e2c	-0.46177804
232	0x3edab93e	0.42719454
233	0xc019391e	-2.3941112
234	0xc0181425	-2.3762295
235	0xbebaafa2	-0.36462122
236	0x3eed5c75	0.46359602
237	0xbdf1b1d8	-0.11801499
238	0x3eba6131	0.36402276
239	0x3d23b4bf	0.039967295
240	0xc023b9d7	-2.5582178
241	0x3ee96f58	0.4559276
242	0xbf08b67f	-0.53403467
243	0x3fce0cb9	1.6097633
244	0xbf86ddd5	-1.0536448
245	0xbf5bdbee	-0.8588246
246	0xc008394c	-2.1284971
247	0xc09adfae	-4.8398046
248	0xbeba0b62	-0.3633681
249	0xbb5fd3d4	-0.003415336
250	0xc051b255	-3.2765095
251	0xbee13c4a	-0.4399131
252	0xbd955502	-0.072916046
253	0xbf596a09	-0.8492742
254	0x3da0520d	0.0782815
255	0x3f8d949b	1.1060976

fc2.bias f4 [128]
0	0xbed66a08	-0.4187777
1	0xbfa32a22	-1.2747233
2	0xbda7799a	-0.081774905
3	0x3ee2eb82	0.44320303
4	0xbe019642	-0.12654975
5	0xbe05246d	-0.13002177
6	0xc015f6e0	-2.343193
7	0xbd90635e	-0.07050203
8	0xbf0bbbf2	-0.54583657
9	0xbd0952c0	-0.033526182
10	0xbdaec4d0	-0.08533633
11	0xbe23dfb7	-0.16003309
12	0xbd3fe3ae	-0.04684799
13	0xbd907eb6	-0.07055418
14	0xbdb7543f	-0.089516155
15	0xbdcf4923	-0.101213716
16	0xbe0157c2	-0.12631133
17	0xbdc6d124	-0.09707859
18	0xba8981a1	-0.0010490903
19	0xbd91ea00	-0.0712471
20	0xbf9708a1	-1.1799508
21	0xbc89a8b1	-0.016804071
22	0x3ed3cf38	0.41369033
23	0xbfd17f56	-1.6366985
24	0xbcb8d310	-0.02256158
25	0xbc75cca4	-0.015002403
26	0xbfd532e6	-1.6656158
27	0xbe8a3115	-0.26990572
28	0xbc7a6088	-0.015281804
29	0xbe110387	-0.14161502
30	0x3cb1e982	0.02171779
31	0xbeed5756	-0.46355695
32	0xbf9b08de	-1.2112081
33	0xbd83a1b4	-0.06427327
34	0xbdd67ce9	-0.104730435
35	0x3ebf7303	0.37392434
36	0xbdb7aa2f	-0.08968007
37	0xbdfbcbd1	-0.12294734
38	0xbdbd536c	-0.09244427
39	0xbd1560bb	-0.036469202
40	0xbd9702b4	-0.073735625
41	0xbe3b7ac3	-0.18308549
42	0x3e28e736	0.1649445
43	0xbdf4fa33	-0.11961784
44	0xbf948dca	-1.160577
45	0xbcee23ad	-0.029069746
46	0xbdaaa61c	-0.08332464
47	0xbd3f3bb6	-0.046687804
48	0xba6c00cc	-0.0009002804
49	0x3b241e36	0.0025042421
50	0xbf02df73	-0.51122206
51	0xbf1ec477	-0.6201853
52	0x3f608f04	0.87718225
53	0xbd2cb18e	-0.042161517
54	0xbd0ac9c2	-0.033883817
55	0xbe6953ba	-0.22785845
56	0x3f14182c	0.57849383
57	0xbe1d3c79	-0.153551
58	0xbc0f230d	-0.008736384
59	0xbf0e6dea	-0.55636466
60	0xbc781e66	-0.015143966
61	0xbdb94c29	-0.090477295
62	0x3ea86b97	0.32894585
63	0xbc02ea1b	-0.007990385
64	0xbde94591	-0.11390222
65	0xbcb289ab	-0.02179416
66	0xbded48ed	-0.11586175
67	0xbc7c0669	-0.015382388
68	0xbc82de63	-0.015975183
69	0xbe9a913b	-0.30188927
70	0xbc00fde9	-0.007873037
71	0xbd8a6fe9	-0.067596264
72	0x3de9d1a1	0.11416937
73	0xbd3fd026	-0.046829365
74	0x3e90bf47	0.28270933
75	0xbddc7447	-0.10764366
76	0xbe417dd8	-0.18895662
77	0x3eed9caa	0.46408588
78	0xbd0470bc	-0.032334074
79	0xbfc0b69f	-1.5055732
80	0xbe75b0ae	-0.23993179
81	0x3efbda13	0.49189815
82	0x3e4ec06a	0.20190588
83	0xbc27e312	-0.010247009
84	0xbd521016	-0.051284872
85	0x3fc7bb5a	1.560405
86	0xbfac2184	-1.3447728
87	0xbeb0845b	-0.3447598
88	0xbd76d645	-0.060262937
89	0xbe67cabe	-0.22635934
90	0xbd05c0ad	-0.032654453
91	0xbd97aaac	-0.074056
92	0xbe0109a1	-0.1260133
93	0xbecb8d9d	-0.3975648
94	0x3caa2d03	0.020773416
95	0xbf9bd9fb	-1.2175897
96	0x3de5f5e6	0.11228542
97	0xbda3010e	-0.079591855
98	0x3ece9132	0.4034515
99	0xbf9b135e	-1.2115285
100	0x3e574a08	0.21024334
101	0xbe0449ac	-0.12918729
102	0x3e8a21c8	0.26978898
103	0xbd95be7b	-0.07311722
104	0xbdfb3760	-0.12266421
105	0xbdc1cbf8	-0.09462732
106	0xbe03306b	-0.12811439
107	0xbebd3ac2	-0.3695889
108	0xbe052855	-0.13003667
109	0xbdd3738f	-0.103247754
110	0xbd9e1352	-0.07718529
111	0xbfb1a5c8	-1.3878717
112	0xbda8ae33	-0.08236351
113	0xbdc615a4	-0.09672096
114	0xc005060a	-2.0784936
115	0xbcf75345	-0.030191073
116	0xbcc27fa9	-0.023742514
117	0x3b096a2f	0.0020967831
118	0xbd81fbd2	-0.06346859
119	0xbf1583e3	-0.5840437
120	0xbb0de6a4	-0.0021652365
121	0xbe634ea4	-0.22197968
122	0xbd4a18fe	-0.04934024
123	0xbdc80d8d	-0.097682096
124	0xbd8b5a4a	-0.06804331
125	0xbd89f2e9	-0.067357846
126	0xbe179724	-0.1480375
127	0xbe0dcf34	-0.13848573

fc3.weight f4 [2, 128]
0	0xbf4d91ee	-0.80300796
1	0xc0a7c7ba	-5.2431307
2	0x3c91c6d6	0.017795008
3	0x3def8811	0.116958745
4	0x3cdb012c	0.026733957
5	0x3d425c80	0.047451496
6	0x406db686	3.7142653
7	0x3d38d310	0.04512316
8	0x410ad191	8.676164
9	0x3d223205	0.039598484
10	0x417236a8	15.138344
11	0x3b7a83af	0.0038225462
12	0x3d4ca170	0.049958646
13	0x3cba3a72	0.022732947
14	0x3c5ee160	0.013603538
15	0xbcc517ba	-0.024059165
16	0x3d3e5155	0.046464283
17	0x3d0aaa80	0.033854008
18	0x3bca289e	0.0061693927
19	0x3c1e3291	0.009655611
20	0x3da8724f	0.08224928
21	0x3d0ee48c	0.034885928
22	0x418a26dd	17.268976
23	0x400997cb	2.1498897
24	0x3d01d4c1	0.03169704
25	0x3d00d2f1	0.03145117
26	0x40a0dbe0	5.02684
27	0x3fa59974	1.2937455
28	0x3c85f75d	0.016353304
29	0x3c8061a8	0.015671566
30	0x3c48443c	0.0122233
31	0x3efb4def	0.49082896
32	0xbdfb30bc	-0.12265155
33	0x3cf357b9	0.029704915
34	0x3d38ac00	0.045085907
35	0xc140e4b3	-12.055835
36	0xbb82f5d3	-0.0039965897
37	0x3ccc66d9	0.024951385
38	0x3d22ed86	0.0397773
39	0x3c89f2e8	0.01683946
40	0xbb879d3f	-0.0041386182
41	0xc123fb0f	-10.248794
42	0x3dc690a3	0.09695556
43	0xbd9b66b0	-0.075879455
44	0x3f946e89	1.1596233
45	0x3d2ff969	0.042962465
46	0x3d2ec8b8	0.04267189
47	0x3d48d8ae	0.049034767
48	0x3cdfdb61	0.027326288
49	0x4113a368	9.227394
50	0x3ccffb40	0.02538836
51	0xc08c0d3d	-4.376616
52	0xbdce433b	-0.10071417
53	0x3d2ca1ee	0.042146616
54	0x3d015baa	0.03158156
55	0x3fb83887	1.4392251
56	0x3f46af80	0.7761154
57	0x3d4d9f59	0.050200794
58	0x3cea7e12	0.028624568
59	0xbd512cf7	-0.051068272
60	0x3d3a2eba	0.04545472
61	0x3d3200f2	0.043457933
62	0xbd6f2588	-0.058385402
63	0x3c02cec2	0.007983865
64	0x3c906745	0.017627368
65	0x3d087417	0.033313837
66	0x3d0c832b	0.03430478
67	0x3d1151a6	0.035478257
68	0x3ce72698	0.028216645
69	0x3f4de09c	0.8042085
70	0xbb161083	-0.0022898025
71	0x39c4ae41	0.00037513862
72	0xc2116353	-36.346996
73	0x3c199ead	0.00937621
74	0xbf9a6d6e	-1.2064645
75	0xbc4d7462	-0.012539955
76	0xc0fecd5b	-7.962568
77	0x3d81888d	0.06324873
78	0x3cc254af	0.02372202
79	0xbf667e9e	-0.9003695
80	0xbf1ad524	-0.60481477
81	0xbf3addec	-0.72994876
82	0xc02ef3af	-2.7336233
83	0x3cc1db98	0.02366428
84	0x3d0b94e2	0.034077533
85	0xbeb9ebc8	-0.363127
86	0x3d0166a7	0.031592038
87	0xc19d704c	-19.679832
88	0x3d2c0996	0.04200133
89	0x3ea8fd8d	0.33005944
90	0x3c5fa4b0	0.013650104
91	0x3c9bae07	0.019003881
92	0x3cd1b63c	0.025599591
93	0x3c607f34	0.013702203
94	0x3cd33126	0.025780272
95	0x3eb1e7d6	0.3474719
96	0x412654a1	10.395661
97	0x3c83289a	0.016010571
98	0xbf89e1b5	-1.0772005
99	0xbf2dffee	-0.6796864
100	0x3f70c129	0.9404474
101	0x3d805209	0.06265647
102	0x412ea1a8	10.914467
103	0x3d8ce0eb	0.06878837
104	0x3c0d84fb	0.008637662
105	0x3d40128f	0.0468927
106	0x3d63b7ad	0.05559509
107	0xbe1a6732	-0.15078428
108	0x3d5e1a28	0.054224163
109	0xba4f453b	-0.00079067395
110	0x3bca6eee	0.0061777746
111	0x4012407e	2.2851863
112	0x3d4fe17c	0.050752148
113	0x3c8f80ce	0.017517474
114	0xbf274338	-0.6533694
115	0x3d4b5950	0.049645722
116	0x3bb665f5	0.0055663534
117	0xbc387168	-0.011257507
118	0x3d0756ee	0.033041887
119	0x3e083596	0.13301691
120	0x3d0bfa73	0.034174394
121	0x3e807a7a	0.25093442
122	0x3d311691	0.04323441
123	0x3d31f923	0.043450486
124	0x3d3982d9	0.0452908
125	0x3d1c36c0	0.03813815
126	0x3d1a98af	0.037743267
127	0x3b169553	0.0022977188
128	0x3eab949a	0.33511811
129	0x4176233c	15.383602
130	0xbdccb4f8	-0.099954545
131	0x3ec289c1	0.37995723
132	0xbb884d07	-0.004159573
133	0xbd4bbedf	-0.049742576
134	0xbe80e704	-0.2517625
135	0xbd29a063	-0.041412722
136	0x4021d445	2.528581
137	0xbd6405cd	-0.055669595
138	0xc099f49d	-4.81111
139	0xbd829bfa	-0.063774064
140	0xbd821341	-0.06351329
141	0xbcea2439	-0.028581725
142	0xbd6d9af5	-0.058009107
143	0x3d266ff9	0.04063413
144	0xbd8704e5	-0.065927304
145	0xbdfc9309	-0.12332732
146	0x3d4c5f08	0.049895316
147	0xbd90c8ef	-0.07069575
148	0xbf1cff58	-0.61327124
149	0xbd58038a	-0.05273775
150	0xbecaf1f0	-0.3963771
151	0x3eedb64c	0.46428144
152	0xbd593c0b	-0.053035777
153	0xbda5c02f	-0.08093297
154	0xbed8c711	-0.42339376
155	0x3fe3c291	1.7793752
156	0xbd7ec1a2	-0.06219638
157	0xbd44a289	-0.048006568
158	0xbd7be341	-0.061496023
159	0xbf37cc0c	-0.71795726
160	0x4001fff2	2.0312467
161	0xbda0c6bc	-0.078504056
162	0xbd0b69e9	-0.03403655
163	0x3eb6dd38	0.35715652
164	0xbd1d9268	-0.038469702
165	0xbdb54cb4	-0.088525206
166	0xbd2406c6	-0.040045522
167	0xbcb796a6	-0.022410702
168	0xbd458903	-0.048226368
169	0x4116a8db	9.4162245
170	0x3ed9be9c	0.42528236
171	0xc129afdc	-10.605434
172	0xc010d4a7	-2.2629793
173	0xbd6409b5	-0.05567332
174	0xbe00109b	-0.12506334
175	0xbd176c2b	-0.03696839
176	0xbdbc3e12	-0.091915265
177	0x3d8effe4	0.06982401
178	0xc09ff9f6	-4.999263
179	0x3edefbf9	0.43551615
180	0xc0c85dec	-6.261465
181	0xbbcf9b2b	-0.006335636
182	0xbda3a51e	-0.07990478
183	0xbfbe6614	-1.4874902
184	0xbe21920c	-0.15778369
185	0xbd6fb607	-0.058523204
186	0xbdaa86db	-0.08326503
187	0x416bba7b	14.733027
188	0xbdf21768	-0.11820871
189	0xbda1f385	-0.07907776
190	0x40c09448	6.0181007
191	0xbdc692a3	-0.096959375
192	0xbad75b91	-0.0016430487
193	0xbd3d91eb	-0.046281736
194	0xbd823a51	-0.06358779
195	0xbd559a58	-0.052149147
196	0xbd82bf22	-0.06384112
197	0x418a5621	17.292055
198	0xbdb884ef	-0.0900973
199	0x3c92fb70	0.01794216
200	0x3cee3f5e	0.02908295
201	0xbd84da34	-0.064869314
202	0x40cf295a	6.473798
203	0xbd998355	-0.07495753
204	0x4102ee02	8.183107
205	0xc1102b1b	-9.010524
206	0xbda2746e	-0.079323635
207	0x401685b3	2.3519104
208	0xc0153814	-2.3315477
209	0x3ecb6b2d	0.39730206
210	0xc0768053	-3.8515823
211	0xbdbb5b82	-0.09148313
212	0xbdaf64f7	-0.085641794
213	0x3e177ff5	0.14794905
214	0xc00952bb	-2.1456745
215	0xbedcc4d7	-0.43118927
216	0xbd270468	-0.040775687
217	0x40835678	4.1043053
218	0xbd9024dd	-0.07038281
219	0xbdc1721f	-0.09445595
220	0xbcc7cb24	-0.024388857
221	0xc10418be	-8.256041
222	0xbdbf4b55	-0.0934054
223	0x3e2e13fd	0.16999812
224	0xc0622552	-3.5335279
225	0xbd8226c9	-0.06355054
226	0xbe37d930	-0.17953944
227	0xc0b45ee6	-5.6365843
228	0x3f0b8de2	0.5451337
229	0xbd028872	-0.031868406
230	0x410399e3	8.22507
231	0xbc9b9e67	-0.01899643
232	0xbd737312	-0.05943591
233	0xbd13f958	-0.036126465
234	0xbd851c9c	-0.064995974
235	0xbed369e1	-0.41291717
236	0xbb51aa84	-0.0031992504
237	0x3ccd9789	0.025096672
238	0xbd86baae	-0.06578575
239	0xc15fa114	-13.976826
240	0xbd14d419	-0.036335085
241	0x3b17f4e5	0.002318674
242	0xc0a57bb7	-5.171352
243	0x3c3452b5	0.011006047
244	0xbd88126e	-0.0664414
245	0xbdcaff78	-0.09912008
246	0xbd596703	-0.053076755
247	0xc0d2892e	-6.5792456
248	0xbda61238	-0.08108944
249	0xbea1aa9b	-0.31575474
250	0xbd1d57d1	-0.038413826
251	0xbd55a9f9	-0.05216405
252	0xbd7860ce	-0.060639195
253	0xbd670f26	-0.05641093
254	0xbce9b2f1	-0.028527709
255	0x3c35874e	0.011079622

fc3.bias f4 [2]
0	0xbfcbadda	-1.591243
1	0xbea64fe6	-0.32482833
