HalfCheetahBulletEnv-TD3/dir_chk_005/chpnt_1_actor_t.pth (torch_old, 532654 bytes, 6 tensors)

l1.weight f4 [400, 26]
1.501414 0.14889404 0.13363604 0.44709766 -0.16347615 1.4480757 -0.05199763 -4.5507436
0.15396847 1.4574428 -0.4138938 0.5565508 0.24493174 0.71339846 -0.86399704 0.98393375
1.1511836 0.16266112 0.5542187 -0.02396592 0.8927025 -1.3297213 -0.24384433 -0.21658099
-3.8861551 0.48395738 0.9986914 -0.16533642 -0.8442223 0.31539682 -0.17993172 -1.3382466
-0.07373453 0.6141302 -0.4582044 0.76959974 0.61062396 0.45133212 -0.61995405 -0.107872956
-0.13497867 0.8983438 -1.3185877 -0.39164641 -0.836493 -0.37808567 0.2525654 0.50199485
0.46161613 -0.9885607 0.32288763 -1.1137854 0.13591632 -0.00056667626 0.36233136 -1.7526662
-0.019390568 0.6668659 0.09964679 -1.3053964 1.5789227 1.72976 1.0675945 1.187141
0.7573702 1.192451 -0.10210325 1.0875297 0.37457922 0.1173564 0.2919679 -0.013596697
0.100934446 -0.82748616 1.3925686 0.8584308 -0.2145218 -0.17901228 0.527465 -0.0774814
-0.23128189 -4.9524646 -0.17374927 -1.1788467 -0.035893798 -2.0875175 0.907794 0.27223885
-0.9826056 -1.0145642 -0.5505371 -0.611924 0.11130184 1.1832052 0.6574802 0.67524695
0.8860707 -0.3803307 0.47677004 -0.80162954 -1.7086642 0.48619065 -2.785423 -0.6175464
0.3989232 -0.15668097 0.20906423 -0.70863783 -0.18420146 -0.92639804 -0.020797953 -0.0856732
-0.07506341 1.3188614 -0.053621273 -1.2626936 0.027378011 -0.054295827 -0.5126337 -0.7658532
0.9993654 -0.9551096 -2.8947515 -1.0613024 -0.27203754 -0.8587928 1.4246477 0.024834516
-1.9693036 -2.884462 0.47751883 -0.09292788 -0.91676146 1.0943878 0.12761663 -0.9687267
-0.1385072 3.288689 -0.64801997 0.48225984 0.86167026 0.006161522 0.13989727 1.3012283
-0.41515037 -0.28817645 0.35750026 0.0016060704 0.59208655 -0.10566498 -0.14982997 -1.2996329
-0.484017 0.37018064 -0.7576414 0.2564224 1.6743295 0.063341245 -0.6963502 0.011506781
-0.19015841 0.6945105 0.002922684 -3.1839302 1.2086241 -0.7817582 1.3692981 0.9592331
0.8205803 0.37287062 0.26281387 -0.3930672 -1.8692486 -0.67524654 0.27522197 -0.29421136
-0.1142643 -0.6514257 -1.2437474 0.37004048 0.63363975 -0.4567657 0.52205974 -0.10540469
-1.4811411 -2.7503278 -0.12713408 0.79025704 -0.009937129 -1.3708246 -0.020996314 -0.3648493
0.8307286 0.7701702 0.0047751283 -0.12780888 -0.10784502 -0.2794119 0.56139874 -0.03607314
-0.15760528 0.15477403 -0.10420467 -1.7796892 -0.41032177 -0.33825964 -2.244975 -0.40573815
0.1437953 0.10045116 -0.59999067 -0.17740369 -0.011225596 -0.35545963 -0.07993337 -1.493417
1.0541687 -0.016755337 -0.25248057 0.064460576 0.62474215 -0.28694996 -0.28570443 -0.54500353
1.8503342 1.1109167 -0.64979875 -0.60547394 0.5278209 -0.6459898 -1.5312836 -0.07549054
1.7356006 -0.39313176 1.164879 -0.031784967 -0.3911798 -0.14430499 -0.06968412 1.2619845
-0.12493226 0.68112016 -1.8492118 0.20700543 -0.08655106 0.3356433 1.377972 1.1106254
0.14846583 -0.03811984 -1.2033603 0.10811855 -0.032991312 -0.58565444 0.65876424 0.23485343
00000000: 552e c03f ae77 183e e3d7 083e fce9 e43e
00000010: 4b66 27be 8b5a b93f 78fb 54bd b19f 91c0
00000020: e9a9 1d3e 7c8d ba3f e3e9 d3be 1d7a 0e3f
00000030: 63cf 7a3e 48a1 363f e92e 5dbf 15e3 7b3f
00000040: fc59 933f a390 263e 47e1 0d3f 2d54 c4bc
00000050: 2788 643f 4f34 aabf 54b2 79be 68c7 5dbe
00000060: c4b6 78c0 43c9 f73e 3daa 7f3f f34d 29be
00000070: f41e 58bf b17b a13e 0540 38be aa4b abbf
00000080: 2102 97bd a337 1d3f c499 eabe 7d04 453f
00000090: da51 1c3f 0115 e73e 4fb5 1ebf 7fec dcbd
000000a0: d937 0abe dcf9 653f 7bc7 a8bf e185 c8be
000000b0: 6824 56bf 7294 c1be 4150 813e bc82 003f
000000c0: f358 ec3e 5012 7dbf 8751 a53e 8590 8ebf
000000d0: a62d 0b3e 008d 14ba 7f83 b93e 5e57 e0bf
000000e0: f8d8 9ebc b9b7 2a3f 9e13 cc3d 3b17 a7bf
000000f0: 241a ca3f c768 dd3f f0a6 883f 3cf4 973f
00000100: 03e3 413f 3ca2 983f 821b d1bd 2c34 8b3f
00000110: d9c8 bf3e 8d58 f03d d17c 953e aec4 5ebc
00000120: b8b6 ce3d 22d6 53bf b03f b23f 1fc2 5b3f
00000130: 9aab 5bbe ff4e 37be f207 073f 91ae 9ebd
00000140: 29d5 6cbe 977a 9ec0 54eb 31be 73e4 96bf
00000150: 6005 13bd e399 05c0 3065 683f e462 8b3e
00000160: 0a8c 7bbf 3ddd 81bf 00f0 0cbf 0da7 1cbf
00000170: 38f2 e33d 4573 973f 9f50 283f fcdc 2c3f
00000180: 88d5 623f b5ba c2be 341b f43e 9837 4dbf
00000190: 82b5 dabf fbed f83e 5f44 32c0 8517 1ebf
000001a0: a93f cc3e fa70 20be ef14 563e 4a69 35bf
000001b0: 4f9f 3cbe 6c28 6dbf 7860 aabc 6e75 afbd
000001c0: d8ba 99bd 73d0 a83f fba1 5bbd f29f a1bf
000001d0: da47 e03c 4d65 5ebd f63b 03bf f50e 44bf
000001e0: 69d6 7f3f 1082 74bf 9c43 39c0 c2d8 87bf
000001f0: 8148 8bbe d8d9 5bbf db5a b63f c171 cb3c
00000200: 2412 fcbf 079b 38c0 597d f43e f950 bebd
00000210: e1b0 6abf e614 8c3f efad 023e 79fe 77bf
00000220: d5d4 0dbe e179 5240 a3e4 25bf c3ea f63e
00000230: 6c96 5c3f 98e6 c93b 3b41 0f3e a68e a63f
00000240: 978e d4be dd8b 93be 460a b73e c882 d23a
00000250: fc92 173f e266 d8bd 076d 19be 5f5a a6bf
00000260: 14d1 f7be 5188 bd3e c9f4 41bf cc49 833e
00000270: 6e50 d63f 0eb9 813d 0244 32bf f086 3c3c
00000280: e3b8 42be 71cb 313f 808a 3f3b 83c5 4bc0
00000290: 32b4 9a3f 4e21 48bf 2945 af3f 4d90 753f
000002a0: 8d11 523f e6e8 be3e 8a8f 863e 1b40 c9be
000002b0: 8a43 efbf f5dc 2cbf e5e9 8c3e dfa2 96be
000002c0: 6703 eabd d6c3 26bf 1d33 9fbf f275 bd3e
000002d0: 3736 223f 32dd e9be b5a5 053f 6ade d7bd
000002e0: 0896 bdbf 5f05 30c0 702f 02be 494e 4a3f
000002f0: 57cf 22bc 2e77 afbf 7600 acbc 87cd babe
00000300: a1aa 543f e029 453f ae78 9c3b 55e0 02be
00000310: dadd dcbd 140f 8fbe d4b7 0f3f 6ec1 13bd
00000320: 4763 21be 157d 1e3e 4269 d5bd dbcc e3bf
00000330: b215 d2be 5e30 adbe acad 0fc0 e9bc cfbe
00000340: 133f 133e 56b9 cd3d fd98 19bf 50a9 35be
00000350: 90eb 37bc cefe b5be 1bb4 a3bd 4a28 bfbf
00000360: 00ef 863f 7d42 89bc 2245 81be e803 843d
00000370: 1aef 1f3f 1beb 92be da47 92be 5a85 0bbf
00000380: c0d7 ec3f 8532 8e3f 3659 26bf 5700 1bbf
00000390: 451f 073f 965f 25bf 1a01 c4bf c99a 9abd
000003a0: 2928 de3f 9148 c9be c11a 953f f430 02bd
000003b0: b848 c8be b0c4 13be 8cb6 8ebd b588 a13f
000003c0: 7cdc ffbd e45d 2e3f f9b2 ecbf 3bf9 533e
000003d0: af41 b1bd 70d9 ab3e 6361 b03f f928 8e3f
000003e0: 6d07 183e 8d23 1cbd b607 9abf 426d dd3d
000003f0: e621 07bd 73ed 15bf c6a4 283f 6b7d 703e

l1.bias f4 [400]
-0.020284574 -0.7844598 0.6152442 -0.13003702 0.3458407 -0.9269077 -0.5272527 -1.2098682
-0.5724471 -0.45104036 -0.5507849 -0.31572506 -0.25964698 0.3076575 -0.3234776 -0.7034171
-0.42048976 -0.5185397 -0.046613265 -0.091705255 -0.038671445 -0.082914464 0.01496214 -1.3630522
-0.011549756 -0.59318006 -0.4919623 -0.7363177 -0.7391584 -0.6577439 -0.18558383 -0.9908768
-0.81708604 -0.6585177 0.67000514 -0.41305006 -0.80940825 -1.035751 -0.4022406 1.5233378
-0.24546227 -0.55309844 0.27740875 -0.43893299 -0.20824726 0.7651502 -0.60165775 0.04971415
-0.7209409 -0.73991627 0.39925537 -1.2769895 0.28121388 -0.7723995 -0.65680754 -0.41531596
0.30838633 -0.80029446 -0.6837419 0.3800553 0.031073915 0.037926994 -0.351524 0.20571056
-0.954824 -0.95709825 -0.800664 -0.5007812 0.6190401 -0.57442313 -0.62519974 -0.43781143
0.33458087 -0.061430488 -0.83202803 -0.34596378 -0.61375284 -0.62095207 -0.4740038 0.28095043
-0.91697663 -0.83173287 -0.20814954 -0.078774475 -0.915685 -0.87748647 -0.46961 -0.19958486
-0.16350643 -0.5979246 -0.3492249 -0.06793037 -0.12795968 -0.7725306 -1.4693251 -0.57332736
-0.1458813 -0.10253299 -0.05289617 -1.2281004 -0.9108135 -0.13113406 -0.5430571 -1.1737955
-1.14691 -0.33614865 -0.061597914 -0.4526815 -0.34819093 -0.59167576 -0.5736157 -0.03423885
-0.22481936 -0.8551146 -0.43320844 -0.93704575 -0.78217894 -0.41815788 -0.38552025 0.01831769
0.09198305 -0.8719512 -0.48952448 -0.8279792 -0.16941246 -0.6459439 -0.8910812 -0.70955426
-0.94862646 -0.21059464 -1.0145794 -0.23258013 -0.8991429 -0.24330725 -0.055181574 -0.23550743
-0.36863354 0.13775788 -1.1721504 -0.61802566 -0.08735603 -0.41783133 -0.18908083 -0.8303114
-0.6154513 -0.82890606 0.1752165 -0.27285475 -0.8970687 -0.8110109 -0.1281664 -0.9348939
-0.8211747 -0.40038782 -0.6280266 -0.73062694 -0.6723452 0.030538125 -0.57065934 -0.15249886
-1.3253821 -0.63287807 -0.7641979 -0.30762938 0.025292374 -1.0973321 -0.2508279 -0.30409276
-0.5087099 0.53969437 -0.6988365 -0.5130283 0.119266234 -0.76310337 -0.8563708 -1.1520879
-0.09508776 -0.99135786 -0.24605061 -0.48436272 0.1910124 -0.69963145 -0.1888968 -0.03927987
-0.9515619 -0.121046506 -0.8281106 -0.9246515 -0.089695804 0.09460128 -0.3695885 -0.3979657
-0.50608337 -1.4562486 -0.8664593 -0.81005687 -0.76649374 -1.3621463 -0.77043927 -0.45537895
-1.4010196 -0.84497416 -1.3622893 -0.891747 -0.50798273 -0.79785883 -0.5506461 -0.17139904
-0.7555611 -0.3142863 -1.2018183 -0.1924215 -1.2539041 -0.9025404 -0.91800386 -0.15220489
0.07798529 -0.43015027 -0.47117367 -0.8208932 -0.2547004 -0.905529 -0.5219281 -0.48812708
-0.20533566 0.036853638 -1.3957951 -0.4612386 -0.571005 -0.20021334 -0.07555222 -0.9025202
0.17280912 -0.29529926 -0.5709087 -1.0067539 -0.77801216 0.5841367 -0.66654307 -0.23199844
0.27396828 -0.48128712 -1.0174797 -0.096274264 -0.19385622 -0.03435061 -0.8881266 -0.34344828
-0.21597646 -0.35676387 -1.3670815 -0.39257303 -1.0727378 -0.46644446 -0.71181715 -0.792975
00000000: d62b a6bc 5cd2 48bf a580 1d3f 6d28 05be
00000010: 0812 b13e d349 6dbf 08fa 06bf f6dc 9abf
00000020: e58b 12bf c3ee e6be 3d00 0dbf b7a6 a1be
00000030: 73f0 84be 4985 9d3e db9e a5be 2513 34bf
00000040: 6f4a d7be 05bf 04bf 8ded 3ebd f7cf bbbd
00000050: f365 1ebd 0fcf a9bd c323 753c 7f78 aebf
00000060: 303b 3dbc a6da 17bf 7ce2 fbbe 517f 3cbf
00000070: 7c39 3dbf e761 28bf b009 3ebe 1aaa 7dbf
00000080: 8d2c 51bf 9e94 28bf 7585 2b3f 4c7b d3be
00000090: 6135 4fbf 7d93 84bf 7bf2 cdbe bcfc c23f
000000a0: 765a 7bbe dc97 0dbf 8508 8e3e d3bb e0be
000000b0: c53e 55be e2e0 433f 3e06 1abf 11a1 4b3d
000000c0: 958f 38bf 276b 3dbf 336b cc3e 6474 a3bf
000000d0: 44fb 8f3e f9bb 45bf 8a24 28bf 4ba4 d4be
000000e0: d0e4 9d3e 19e0 4cbf b609 2fbf 9c96 c23e
000000f0: b98e fe3c 5659 1b3d f4fa b3be caa5 523e
00000100: 586f 74bf 6404 75bf 51f8 4cbf 3233 00bf
00000110: 6979 1e3f 650d 13bf 170d 20bf d228 e0be
00000120: 2f4e ab3e 899e 7bbd caff 54bf 2a22 b1be
00000130: e81e 1dbf b7f6 1ebf a0b0 f2be bcd8 8f3e
00000140: fbbe 6abf 72ec 54bf 2725 55be 8354 a1bd
00000150: 556a 6abf f4a2 60bf b970 f0be f95f 4cbe
00000160: 3b6e 27be 9611 19bf 9bcd b2be 141f 8bbd
00000170: dd07 03be 91c4 45bf d812 bcbf 95c5 12bf
00000180: e861 15be d1fc d1bd a8a9 58bd 6532 9dbf
00000190: 132b 69bf 0248 06be ca05 0bbf ee3e 96bf
000001a0: f2cd 92bf ad1b acbe 184e 7cbd dfc5 e7be
000001b0: 1546 b2be 1078 17bf 7ad8 12bf 093e 0cbd
000001c0: 0c37 66be cae8 5abf 7fcd ddbe 3be2 6fbf
000001d0: e13c 48bf ca18 d6be e962 c5be fb0e 963c
000001e0: 9c61 bc3d 3238 5fbf f4a2 fabe 72f6 53bf
000001f0: 767a 2dbe 945c 25bf e61d 64bf 59a5 35bf
00000200: 2fd9 72bf 1fa6 57be bddd 81bf 7c29 6ebe
00000210: 3b2e 66bf 8925 79be 1306 62bd dc28 71be
00000220: 89bd bcbe 6710 0d3e 0609 96bf ee36 1ebf
00000230: b8e7 b2bd fded d5be 689e 41be 4a8f 54bf
00000240: 378e 1dbf 3033 54bf f46b 333e 9eb3 8bbe
00000250: 4ba6 65bf 699e 4fbf 0e3e 03be 3555 6fbf
00000260: 8138 52bf a2ff ccbe 5ac6 20bf 5e0a 3bbf
00000270: d11e 2cbf 172b fa3c bb16 12bf a928 1cbe
00000280: 1fa6 a9bf 4c04 22bf 79a2 43bf 9981 9dbe
00000290: f431 cf3c 6175 8cbf 846c 80be 0cb2 9bbe
000002a0: d03a 02bf 6929 0a3f f3e6 32bf d355 03bf
000002b0: db41 f43d be5a 43bf 1e3b 5bbf 9e77 93bf
000002c0: 5fbd c2bd a1c9 7dbf b1f4 7bbe 64fe f7be
000002d0: c198 433e 0c1b 33bf 2a6e 41be eee3 20bd
000002e0: 9099 73bf 3be7 f7bd 0eff 53bf f6b5 6cbf
000002f0: 6fb2 b7bd 51be c13d b43a bdbe 29c2 cbbe
00000300: ae8e 01bf 5b66 babf 47d0 5dbf e35f 4fbf
00000310: ef38 44bf cf5a aebf 823b 45bf 6e27 e9be
00000320: 9c54 b3bf 3a50 58bf 7f5f aebf 8849 64bf
00000330: 280b 02bf 7a40 4cbf 25f7 0cbf 3b83 2fbe
00000340: 746c 41bf 22ea a0be 2fd5 99bf 240a 45be
00000350: ee7f a0bf e30c 67bf 4d02 6bbf 99db 1bbe
00000360: c0b6 9f3d a83c dcbe ad3d f1be 0f26 52bf
00000370: 1768 82be c0d0 67bf 149d 05bf cbeb f9be
00000380: 8343 52be d7f3 163d 6aa9 b2bf 7727 ecbe
00000390: 622d 12bf ba04 4dbe 1fbb 9abd 900b 67bf
000003a0: e0f4 303e 7731 97be 1327 12bf 50dd 80bf
000003b0: ce2b 47bf fc89 153f 91a2 2abf 0091 6dbe
000003c0: 9245 8c3e 446b f6be c63c 82bf 712b c5bd
000003d0: 3f82 46be 3ab3 0cbd 445c 63bf 74d8 afbe
000003e0: ef28 5dbe c1a9 b6be 87fc aebf 55ff c8be
000003f0: 794f 89bf cfd1 eebe a639 36bf 6900 4bbf

l2.weight f4 [300, 400]
-0.3218505 -0.49798834 -1.529564 -0.81266844 -0.05456326 -0.33207268 -0.29551715 -0.80282164
-0.358108 -0.65278476 0.25306666 -0.4940008 0.18866527 -0.9661982 -0.20073521 -0.1683669
-0.96268153 -0.38397646 -1.4388218 -0.16600953 0.029311543 0.5522196 0.3518853 0.10239567
-0.5369728 -0.1737641 0.22070578 -0.44548854 0.064299315 -0.02936519 -0.34726596 -0.37541726
-0.046951745 0.2917561 0.20761658 -0.6876178 -0.61690265 -0.51899606 0.63958824 -0.7802077
-0.8873889 0.92768157 -0.401691 -0.73280996 -0.256029 -0.68427986 -0.20639768 -1.2097013
-0.31677216 0.05139378 -0.54518634 -0.4542683 -0.5949324 0.06027041 -0.69050264 -0.04870859
-0.1826601 0.19871461 0.22770636 0.13599259 -1.0751615 0.01923872 -0.7860132 -0.8367845
-0.2284544 -0.40747863 0.21440257 -1.0475764 -0.4342292 -0.47924268 0.06489983 0.32773942
-0.94110465 -0.7191248 0.0392836 0.32702416 0.5446499 -0.4033122 -0.059362933 -0.45959696
0.47771677 0.311366 -0.5129402 -0.30768842 -0.5168503 0.46565276 0.56856334 -0.31701657
-0.20057727 0.0669711 -0.016339699 -0.4577373 0.516898 -0.71136427 -0.029985078 -0.23241213
0.40216184 -0.68147844 -0.23535365 0.16281769 -0.33417675 0.43055752 -0.6482906 0.18862355
0.5708402 -0.43449146 -0.9864042 0.06104676 -0.072913684 1.0044644 0.16707644 -0.87294066
-0.52434856 -0.29043287 0.13565284 0.4764055 -0.16779467 0.19108522 -0.19649436 0.4796718
-0.10109479 0.1800822 0.60439765 -0.061072096 -1.0711085 -0.3344092 0.532717 0.7380791
0.18984842 -0.2920362 0.38776135 -0.55480653 -0.22130482 0.49881685 -0.2232062 -0.21972232
0.005711201 -0.3836844 0.24810904 -1.4376297 0.3843341 0.18356013 -0.05874379 0.23143461
0.6098932 -0.04542288 0.08522801 -0.22277705 0.62752426 -0.046294596 0.25008792 0.12673302
-0.8548208 -0.80455023 -0.3801856 0.24914615 -0.34394598 -0.7790871 -0.30964342 -0.19502808
0.24948888 -0.21008123 -0.22150747 0.55856156 -0.033329833 -0.008828295 -0.39316753 -0.9932587
0.12981457 0.036199052 0.42308906 0.62541425 0.0666835 0.09453678 -1.0677943 0.45848832
-0.11023518 -0.035938285 -0.23264161 0.61314756 -0.43689948 -1.0869156 -1.1614215 -0.15501244
-0.77686983 0.2456414 -0.62083656 -0.5134051 -0.68062013 -0.86340386 0.4748498 0.0031669885
-0.7812925 0.020295214 -0.5332296 0.18068121 0.14453693 -0.13213618 -0.085323386 -0.14839932
-0.17202961 -0.59737617 0.05023074 -0.31506154 -0.28140873 -0.7101245 0.65549076 0.21545161
-1.0732542 -0.41680673 0.33495754 -0.08216434 -0.9926388 -1.1994731 -0.40964228 -0.5337661
0.014951561 0.61846435 0.8394428 -0.5647129 -0.066783346 -0.07480911 1.1408459 -0.095244594
-0.39851406 -0.22089057 -0.09158933 0.5144899 -0.42627198 -0.82529265 0.04941863 -0.14536841
-0.0643485 -0.41332582 -0.9576509 -1.085509 0.44129834 0.34349293 -0.6410188 0.07080219
-0.5733078 0.04277941 -0.79013777 0.43155292 0.61650926 0.8703299 -0.59737617 -0.007241552
-0.8798787 -0.7655568 0.26005828 -0.909836 -0.4455422 -0.81188154 0.34056634 -0.69622463
00000000: 97c9 a4be 54f8 febe c1c8 c3bf 0a0b 50bf
00000010: ba7d 5fbd 6e05 aabe 064e 97be b885 4dbf
00000020: ef59 b7be e71c 27bf f491 813e aced fcbe
00000030: 7831 413e c458 77bf 888d 4dbe 5f68 2cbe
00000040: 4c72 76bf 9098 c4be 502b b8bf 67fe 29be
00000050: c31e f03c 445e 0d3f 4f2a b43e d2b4 d13d
00000060: 0d77 09bf 37ef 31be b200 623e 1317 e4be
00000070: 5caf 833d 448f f0bc d8cc b1be b136 c0be
00000080: 7950 40bd 0e61 953e 7199 543e b807 30bf
00000090: 55ed 1dbf eddc 04bf 0ebc 233f b1bb 47bf
000000a0: eb2b 63bf 8a7c 6d3f 71aa cdbe 6f99 3bbf
000000b0: 3c16 83be f72c 2fbf ea59 53be 7ed7 9abf
000000c0: f62f a2be 4982 523d 5591 0bbf db95 e8be
000000d0: 7d4d 18bf 1bde 763d c8c4 30bf a982 47bd
000000e0: 400b 3bbe d87b 4b3e db2b 693e a441 0b3e
000000f0: e49e 89bf 859a 9d3c 2938 49bf 8237 56bf
00000100: f3ef 69be 0aa1 d0be 598c 5b3e fc16 86bf
00000110: 4a53 debe 4c5f f5be 34ea 843d 76cd a73e
00000120: 3cec 70bf 9018 38bf d7e7 203d b66f a73e
00000130: 2d6e 0b3f f07e cebe 8c26 73bd 4b50 ebbe
00000140: 4b97 f43e 5d6b 9f3e 0d50 03bf 5689 9dbe
00000150: 4d50 04bf 0a6a ee3e 5e8d 113f ff4f a2be
00000160: 2164 4dbe 2528 893d d5da 85bc 8b5c eabe
00000170: 6d53 043f f81b 36bf 44a3 f5bc 72fd 6dbe
00000180: 28e8 cd3e 5f75 2ebf 8c00 71be aeb9 263e
00000190: 3719 abbe 0972 dc3e 5ff6 25bf 8826 413e
000001a0: 9522 123f aa75 debe fc84 7cbf 2b0c 7a3d
000001b0: c553 95bd 4a92 803f 1616 2b3e 0a79 5fbf
000001c0: b53b 06bf 9eb3 94be 94e8 0a3e 6ceb f33e
000001d0: 5ed2 2bbe d8ab 433e d135 49be 8b97 f53e
000001e0: c90a cfbd 7867 383e ceb9 1a3f bc26 7abd
000001f0: 151a 89bf af37 abbe 2460 083f c0f2 3c3f
00000200: a067 423e c585 95be a888 c63e cd07 0ebf
00000210: bb9d 62be ec64 ff3e 2b90 64be e3fe 60be
00000220: 0725 bb3b 4872 c4be 4c10 7e3e 4004 b8bf
00000230: 70c7 c43e 30f7 3b3e 549d 70bd 32fd 6c3e
00000240: f621 1c3f 580d 3abd 068c ae3d ab1f 64be
00000250: 6ea5 203f 679f 3dbd 860b 803e 4dc6 013e
00000260: 89d5 5abf 01f7 4dbf b0a7 c2be 2b20 7f3e
00000270: b019 b0be 4172 47bf 9589 9ebe 71b5 47be
00000280: 037a 7f3e 891f 57be dbd2 62be e4fd 0e3f
00000290: dd84 08bd 8ea4 10bc 414d c9be 3446 7ebf
000002a0: 1cee 043e 7545 143d 219f d83e 261b 203f
000002b0: 5c91 883d 809c c13d 7cad 88bf fbbe ea3e
000002c0: fbc2 e1bd 0634 13bd 9a39 6ebe 3df7 1c3f
000002d0: 4ab1 dfbe 0d20 8bbf 76a9 94bf 95bb 1ebe
000002e0: f1e0 46bf 6b89 7b3e 25ef 1ebf 846e 03bf
000002f0: 1f3d 2ebf 0908 5dbf 831f f33e 408d 4f3b
00000300: c902 48bf 2642 a63c bc81 08bf 7f04 393e
00000310: 7d01 143e b54e 07be 07be aebd fef5 17be
00000320: 8828 30be a5ed 18bf c0be 4d3d bf4f a1be
00000330: ce14 90be b8ca 35bf 3ece 273f 599f 5c3e
00000340: 6560 89bf b167 d5be 8e7f ab3e c745 a8bd
00000350: 941d 7ebf 5688 99bf a2bc d1be e5a4 08bf
00000360: 64f7 743c ae53 1e3f b9e5 563f 0691 10bf
00000370: b5c5 88bd 8535 99bd 3d07 923f 990f c3bd
00000380: 090a ccbe 2331 62be 3093 bbbd 9cb5 033f
00000390: 5240 dabe 6146 53bf 306b 4a3d 75db 14be
000003a0: 25c9 83bd 719f d3be 9c28 75bf f5f1 8abf
000003b0: dbf1 e13e 4ede af3e cf19 24bf bd00 913d
000003c0: 4dc4 12bf 7639 2f3d 7846 4abf 81f4 dc3e
000003d0: 8dd3 1d3f f1cd 5e3f a5ed 18bf 8b4a edbb
000003e0: bb3f 61bf 88fb 43bf 5c26 853e 03eb 68bf
000003f0: 1b1e e4be 78d7 4fbf b65e ae3e c73b 32bf

l2.bias f4 [300]
-1.1705291 -1.2324877 1.0355248 -1.2384069 0.79934675 -0.16448067 -1.1193405 -0.08682692
-0.3378438 0.072772115 -0.5446499 -1.4030352 -0.95502 -0.76117 -0.9747932 -1.0323223
-0.1435028 -0.5738085 -0.39521196 -0.054907884 -0.9116122 -1.2119423 -0.5224412 -0.12144384
-1.7216105 -0.30197233 -0.13886555 -1.4963628 -0.8907029 -0.11668291 -0.999243 -1.173414
-0.7455535 -0.98069406 -0.026021767 -0.6420559 -0.850124 0.6433489 0.07540814 -0.038018487
-0.4844879 -1.7667842 0.31931728 -0.28108683 -0.14763638 -0.14282629 -0.4058633 -0.99260306
-0.09784485 -0.20222662 -0.7332637 -0.17086144 -0.3257816 -0.59157073 -0.24424368 -0.16977952
-0.11657264 -0.15579924 -0.5485957 -1.2590363 0.21245594 -0.21683446 -0.84145254 1.0380752
-0.15322134 -0.060837403 -1.2154472 -0.4351718 -0.96046424 -0.05293233 -0.09839172 -0.5121177
-0.6409711 -0.23766631 -0.4287992 0.34663936 -0.31400418 -0.67680544 -0.7148094 -0.61408937
-0.88208884 -0.47881415 0.32756656 -0.5072897 -0.1612501 0.21934156 -0.09573931 -0.9360086
-1.1768711 -0.07162325 -0.08284979 -0.103748694 -0.098610766 -1.1831892 -0.1520352 -0.013765799
0.92139024 -0.37603715 -0.106839195 0.1774588 -0.78670454 -1.145729 -0.6752675 -0.07690869
-0.3327635 -1.5525801 -1.1047016 -0.40777266 -0.15834437 -0.2901587 0.033627603 -0.37088728
-0.84214383 -0.48846352 0.026813848 -0.18046069 0.0033661055 0.017668137 -0.09037936 -0.20776263
-0.72206926 -0.6650872 0.15925702 -0.591474 -0.008451668 -0.03076031 1.3743285 -0.60855806
-0.6275839 -0.05260972 -0.41286093 -1.4261733 -0.26079705 0.078748986 -1.6895192 -0.3345761
-1.3610257 -1.0142695 -0.11602428 -0.61670005 -0.5963959 -0.96794635 -0.48624727 -0.7333873
0.43011424 -0.2968225 -1.2342323 -0.1962917 -1.5456811 -0.32641882 -0.6871306 -0.3175923
-0.1833396 -0.009784951 -1.0954642 -1.2588556 -1.2063396 -1.613249 -0.47933805 -0.05854411
-0.055305343 -0.08098268 0.035264105 -0.15907136 -0.5799955 -0.14269814 0.5341564 -1.9749541
-0.6926365 -0.8560964 -0.21808192 0.70708966 -0.8084722 -0.17454195 -0.08757794 -0.48169243
0.9526375 -1.0292668 -1.4821079 -0.29925436 -0.79532343 -1.1594241 0.16360061 -0.5385463
-0.80739933 -0.07133268 -1.359628 -0.2736195 -0.09649033 -0.025073048 -0.1596974 -0.17183624
-0.18622446 -0.50632256 -0.10852899 -0.71478194 -0.45416102 -0.9190509 -0.86793387 -0.18881463
-0.4128967 -0.10920997 -1.1202873 0.05097246 -1.1795645 -0.28014508 0.01647103 -0.42867404
-0.067523934 -0.19907524 -0.9773085 -0.84411585 -0.19053091 -0.8211323 -1.565303 -0.050631583
0.056870133 -0.9388397 -0.6309429 0.8701748 -0.1355098 -2.2742815 -0.5566185 -0.057088267
0.18567683 1.3461871 0.6993506 -0.8730167 -0.1024508 -0.5112117 -0.6634053 0.07875752
-1.3495682 -0.15644597 -0.08515947 -0.102856115 -0.523722 -0.9695591 -0.06813637 -0.2630638
-0.7456131 0.28595695 0.69858503 -0.2403366 -0.74298036 0.73418206 -1.9926925 -1.1353385
-0.06531856 -0.78535753 -0.379601 -1.1474025 -0.8718062 -1.3774644 0.5377762 -1.1811626
00000000: e6d3 95bf 28c2 9dbf 148c 843f 1e84 9ebf
00000010: fda1 4c3f 9f6d 28be 8d46 8fbf 50d2 b1bd
00000020: ddf9 acbe 8c09 953d 2d6e 0bbf a896 b3bf
00000030: 317c 74bf 0adc 42bf 0c8c 79bf 2323 84bf
00000040: 66f2 12be 1de5 12bf 3959 cabe 17e7 60bd
00000050: 6b5f 69bf ed20 9bbf b5be 05bf 8cb7 f8bd
00000060: bc5d dcbf 1e9c 9abe c532 0ebe d188 bfbf
00000070: 1b05 64bf 73f7 eebd 64ce 7fbf 6e32 96bf
00000080: 98dc 3ebf c40e 7bbf 9a2b d5bc c75d 24bf
00000090: baa1 59bf 83b2 243f 956f 9a3d 46b9 1bbd
000000a0: cc0e f8be fc25 e2bf 8e7d a33e 9dea 8fbe
000000b0: fe2d 17be 0e41 12be 51cd cfbe 3c1b 7ebf
000000c0: e162 c8bd 7f14 4fbe 2bb7 3bbf 4df6 2ebe
000000d0: d9cc a6be 2e71 17bf 041b 7abe afda 2dbe
000000e0: a3bd eebd d689 1fbe c570 0cbf 1a28 a1bf
000000f0: 0d8e 593e da09 5ebe 6f69 57bf a6df 843f
00000100: 0ee6 1cbe a430 79bd c693 9bbf d7ce debe
00000110: fce0 75bf 92cf 58bd 9981 c9bd 251a 03bf
00000120: af16 24bf cc5e 73be 928b dbbe b77a b13e
00000130: 28c5 a0be 1f43 2dbf c0fd 36bf f634 1dbf
00000140: 93d0 61bf 2127 f5be ceb6 a73e bddd 01bf
00000150: bf1e 25be 139b 603e f912 c4bd 429e 6fbf
00000160: b6a3 96bf 36af 92bd 27ad a9bd 327a d4bd
00000170: 71f4 c9bd be72 97bf 1eaf 1bbe f289 61bc
00000180: 3be0 6b3f f187 c0be 82ce dabd c2b7 353e
00000190: 7865 49bf 3fa7 92bf 55de 2cbf 4e82 9dbd
000001a0: fa5f aabe f2ba c6bf dd66 8dbf 94c7 d0be
000001b0: 0725 22be ae8f 94be 19bd 093d f0e4 bdbe
000001c0: bd96 57bf e417 fabe b7a8 db3c b0ca 38be
000001d0: e199 5c3b c5bc 903c d018 b9bd babf 54be
000001e0: 88d9 38bf 2843 2abf 4614 233e d76a 17bf
000001f0: dd78 0abc 0cfd fbbc ffe9 af3f 76ca 1bbf
00000200: 57a9 20bf 4a7d 57bd 8262 d3be d98c b6bf
00000210: 3187 85be 2647 a13d 2a42 d8bf 8f4d abbe
00000220: 1736 aebf 95d3 81bf 239e edbd 0ee0 1dbf
00000230: 67ad 18bf 55cb 77bf 67f5 f8be 45bf 3bbf
00000240: ef37 dc3e 1ef9 97be 53fb 9dbf b100 49be
00000250: e1d8 c5bf 5e20 a7be cae7 2fbf 759b a2be
00000260: 60bd 3bbe 0f51 20bc 2c38 8cbf 2e22 a1bf
00000270: 5669 9abf f17e cebf cc6b f5be f3cb 6fbd
00000280: db87 62bd 3fda a5bd 1871 103d 9ae3 22be
00000290: 967a 14bf 761f 12be 79be 083f 4ccb fcbf
000002a0: a050 31bf 2229 5bbf de50 5fbe d403 353f
000002b0: 09f8 4ebf 20bb 32be 105c b3bd 64a0 f6be
000002c0: 0de0 733f 04bf 83bf b6b5 bdbf de37 99be
000002d0: 519a 4bbf 0268 94bf eb86 273e 2cde 09bf
000002e0: b9b1 4ebf de16 92bd 4a08 aebf db17 8cbe
000002f0: b99c c5bd fe65 cdbc b787 23be d7f5 2fbe
00000300: a0b1 3ebe 5b9e 01bf 7244 debd f3fb 36bf
00000310: cb87 e8be eb46 6bbf ea30 5ebf 9f58 41be
00000320: 3267 d3be 7aa9 dfbd 9365 8fbf 80c8 503d
00000330: f8fb 96bf 2d6f 8fbe 41ee 863c 2a7b dbbe
00000340: fd49 8abd 61da 4bbe e430 7abf fa17 58bf
00000350: 891a 43be ba35 52bf d95b c8bf 1063 4fbd
00000360: a8f0 683d cc57 70bf 7985 21bf c7c3 5e3f
00000370: 15c3 0abe d48d 11c0 8d7e 0ebf 63d5 69bd
00000380: 1122 3e3e dc4f ac3f a408 333f 067e 5fbf
00000390: bad1 d1bd c5de 02bf eed4 29bf 9f4b a13d
000003a0: a7be acbf 5f33 20be 1768 aebd 3aa6 d2bd
000003b0: a512 06bf 0635 78bf 158b 8bbd 4cb0 86be
000003c0: 80e0 3ebf f368 923e 78d6 323f cc1a 76be
000003d0: f633 3ebf 5bf3 3b3f 8c10 ffbf c652 91bf
000003e0: bdc5 85bd 310d 49bf 105b c2be 16de 92bf
000003f0: b12e 5fbf c150 b0bf b3ab 093f 5630 97bf

l3.weight f4 [6, 300]
0.51321435 -0.54497916 -0.29246143 0.9187528 -0.1535803 -0.10025883 0.124070905 -0.0024584378
-0.020775206 0.5276712 0.98893136 0.47959432 -0.5222862 -3.1013281 0.7864661 -1.8935891
-0.20555726 0.337902 -0.61444694 -0.9834329 -0.8747049 -0.89562625 -0.39316753 1.0665307
-0.44642624 2.507522 -0.29325214 2.139585 1.0743032 -0.20062494 -1.7264739 -0.9504506
-2.9460697 0.41683653 4.200073 0.24579637 -0.22440723 -0.23057139 -0.50579953 -0.03302734
-2.1986742 0.090269 1.8375295 0.4338537 0.16159283 0.021770803 -4.0722413 1.4568223
-0.07148914 0.03566338 -0.5589671 1.5296515 -0.5176306 -1.0997424 0.61028653 0.18216836
-0.00870983 -0.0037827797 -0.34756398 0.8806694 -0.39992723 -5.4881625 -0.09980577 -0.012512515
-0.012905071 0.031189092 1.1193405 -0.08343776 0.36427712 0.02521968 0.29025406 -0.38130024
-0.637073 -0.060534906 0.9982416 -0.023607574 0.59114355 0.5560224 0.24693185 -3.5717282
-0.6630963 0.051833455 1.029099 0.92596495 -3.7733831 -0.5882805 0.029150238 -0.42213425
-0.6444759 0.027150871 0.023219198 0.011524849 -0.06415627 -0.7492609 0.015774945 -0.0023254447
0.1733166 0.008046355 0.009304015 0.17349873 -0.9628961 0.26818556 1.3718189 0.039183762
-0.043462243 0.4495293 -0.0072634383 -0.88515687 1.3242137 -1.6494648 -0.08493629 -0.8932659
0.2833078 -4.28987 -0.07117269 -0.08255475 0.02424887 0.34276575 -0.123848885 0.49130666
-0.39688087 0.29793656 0.011321277 -0.702662 -0.22639802 -0.054242138 -0.058762513 -0.21449794
-0.36126706 -0.015894525 1.2478482 -0.6981797 -0.93785214 1.3706338 0.64625204 0.04090112
-0.22088161 -0.07701299 0.056785025 -0.4833077 0.15174033 0.07807359 1.480366 -1.0642897
-0.5456662 -1.8802066 0.024989923 -0.72812504 0.5651063 -1.8513108 0.6791353 -0.006108922
-0.14041823 -0.07490151 -0.21664967 -0.63709676 -0.18582211 0.37506557 0.055616774 2.0163317
0.07657639 -0.016715208 0.94473505 -0.0829236 -1.8820186 -1.041926 -0.014778703 -0.53082156
-0.30702677 -0.30353993 -1.6601914 -0.122254424 0.30469623 -0.0030088502 -0.028066924 3.5811696
1.1482251 -1.4040437 0.44713122 -1.5130415 1.241387 0.20552382 0.98642695 0.57841
0.4707907 0.068651944 0.41397125 0.25245774 -0.034197077 0.1944546 0.05376605 -0.043679636
-0.0059954417 0.99426407 0.118336946 -0.14719391 -2.941301 1.3817204 -0.20421018 -1.4072387
-0.8368321 -0.008358349 -0.7156558 0.7014146 -0.05965736 -0.39789808 -0.020849833 -0.87351286
-0.0011515465 0.48071492 -0.92119664 0.5408828 0.0888356 -3.5976205 -0.62540233 -1.7227784
-0.39613485 -2.4330401 0.22486413 -0.11610277 0.04271757 0.044430833 -0.3804002 0.011262216
-0.12488403 -0.3177243 -2.0237858 0.010857711 0.08823657 -0.17239319 -1.3757665 -0.043472983
0.08432053 0.02509898 -0.012204342 -0.1086631 0.038984258 -0.019581763 0.012959459 -0.85883886
-1.7204896 -0.037663594 -0.29659 -0.118196875 -0.082773305 -0.06730894 0.02506955 -0.33296078
0.054130383 1.7393008 0.0018992944 -0.7524677 0.18063079 -0.271154 0.3799651 0.3500793
00000000: 0462 033f c183 0bbf 81bd 95be 6233 6b3f
00000010: 2744 1dbe 8054 cdbd e318 fe3d be1d 21bb
00000020: c430 aabc 7615 073f 9b2a 7d3f 638d f53e
00000030: 8cb4 05bf 297c 46c0 d855 493f 2161 f2bf
00000040: 9a7d 52be 7e01 ad3e 654c 1dbf 42c2 7bbf
00000050: a9ec 5fbf c347 65bf 414d c9be 1484 883f
00000060: fb91 e4be 3e7b 2040 2525 96be f6ee 0840
00000070: c482 893f a070 4dbe 19fd dcbf bb50 73bf
00000080: 688c 3cc0 996b d53e ff66 8640 0bb2 7b3e
00000090: 02cb 65be e81a 6cbe 147c 01bf ad47 07bd
000000a0: 14b7 0cc0 f4de b83d 2b34 eb3f 1222 de3e
000000b0: 9778 253e af58 b23c cd4f 82c0 2779 ba3f
000000c0: e668 92bd c413 123d 7818 0fbf 9fcb c33f
000000d0: 7083 04bf 5cc4 8cbf bd3b 1c3f 588a 3a3e
000000e0: adb3 0ebc 83e8 77bb e8f3 b1be 8d73 613f
000000f0: 43c3 ccbe 079f afc0 f866 ccbd 4b01 4dbc
00000100: ca6f 53bc 4480 ff3c 8d46 8f3f 6be1 aabd
00000110: 8882 ba3e 8199 ce3c 2e9c 943e c939 c3be
00000120: 3717 23bf 73f3 77bd c38c 7f3f ac64 c1bc
00000130: 2f55 173f 7c57 0e3f b4db 7c3e 3297 64c0
00000140: aec0 29bf 514f 543d 84b9 833f 0a0c 6d3f
00000150: 1c7f 71c0 8d99 16bf 7bcc ee3c fb21 d8be
00000160: 5ffc 24bf 816b de3c 3036 be3c b8d2 3c3c
00000170: 5d64 83bd 90cf 3fbf 753a 813c 7d66 18bb
00000180: e879 313e dcd4 033c de6f 183c a7a9 313e
00000190: 5c80 76bf 9e4f 893e c397 af3f 277f 203d
000001a0: 7705 32bd b428 e63e 2302 eebb a499 62bf
000001b0: d67f a93f aa21 d3bf 14f3 adbd 13ad 64bf
000001c0: b80d 913e 9d46 89c0 fdc2 91bd 7712 a9bd
000001d0: 91a5 c63c fe7e af3e 7ca4 fdbd 8c8c fb3e
000001e0: f833 cbbe 248b 983e e17c 393c a8e1 33bf
000001f0: e2d4 67be 012d 5ebd f6b0 70bd 59a5 5bbe
00000200: fff7 b8be 3c35 82bc 7db9 9f3f e8bb 32bf
00000210: 1417 70bf ee70 af3f c670 253f ef87 273d
00000220: ca2e 62be fdb8 9dbd 6a97 683d 1b74 f7be
00000230: d161 1b3e 0ce5 9f3d a27c bd3f a53a 88bf
00000240: c8b0 0bbf 9caa f0bf abb7 cc3c 6766 3abf
00000250: ceaa 103f c1f7 ecbf d0db 2d3f 5a2d c8bb
00000260: ccc9 0fbe f665 99bd 69d9 5dbe c618 23bf
00000270: 2748 3ebe 9808 c03e 6ace 633d 940b 0140
00000280: 15d4 9c3d 55ee 88bc 28da 713f d9d3 a9bd
00000290: fce5 f0bf d55d 85bf 6022 72bc ece3 07bf
000002a0: 9d32 9dbe 9669 9bbe 2781 d4bf 8760 fabd
000002b0: 2501 9c3e 2130 45bb 9bec e5bc e231 6540
000002c0: 0af9 923f b4b7 b3bf 62ee e43e 58ab c1bf
000002d0: c5e5 9e3f d674 523e 7a86 7c3f ae12 143f
000002e0: 7b0b f13e 6499 8c3d 0af4 d33e 2442 813e
000002f0: 3c12 0cbd 1b1f 473e ca39 5c3d 6be9 32bd
00000300: 6975 c4bb 1788 7e3f a45a f23d 00ba 16be
00000310: 473e 3cc0 37dc b03f 791c 51be 6620 b4bf
00000320: a13a 56bf 75f1 08bc 3835 37bf e88f 333f
00000330: 475b 74bd 4cb9 cbbe 45cd aabc 8a9e 5fbf
00000340: 7def 96ba 4420 f63e 8bd3 6bbf 4c77 0a3f
00000350: 70ef b53d 6a3f 66c0 5e1a 20bf 0184 dcbf
00000360: 30d2 cabe eeb6 1bc0 c842 663e 4ac7 edbd
00000370: 9ef8 2e3d 1bfd 353d d1c3 c2be 2885 383c
00000380: 33c3 ffbd c2ac a2be b585 01c0 8ae4 313c
00000390: 60b5 b43d d787 30be 1e19 b0bf ba10 32bd
000003a0: 3eb0 ac3d 609c cd3c b8f4 47bc c28a debd
000003b0: f5ad 1f3d ef69 a0bc e953 543c dddc 5bbf
000003c0: 0139 dcbf 2445 1abd a5da 97be 3411 f2bd
000003d0: 0d85 a9bd 45d9 89bd a85e cd3c d679 aabe
000003e0: d2b7 5d3d 69a1 de3f bff1 f83a b9a1 40bf
000003f0: 47f7 383e b2d4 8abe c98a c23e 983d b33e

l3.bias f4 [6]
0.09187992 0.2588529 -0.42864576 -0.28643695 0.1909938 0.6956872
00000000: 8a2b bc3d 5e88 843e 7577 dbbe dda7 92be
00000010: e193 433e 8e18 323f
