Walker2DBulletEnv-v0_SAC/dir_chk_lr0.0003/weights_critic_final_2551.35.pth (torch_old, 589628 bytes, 10 tensors)

linear1.weight f4 [256, 28]
00000000: e40b 373f 4ade 32bd 5543 2cbf 1abc e8c0
00000010: 5ed2 00be 3f2b f73e b9ff 133e 0237 79bf
00000020: f8e2 a13f 0667 9b3f 6010 4bbe ed23 c73f
00000030: c9b2 1dbf 93d4 bd3e 0679 44bf fd6b 0cbf
00000040: 63aa 11bf 7fc8 843f bf08 763d 5780 4bbc
00000050: acb5 513d 359b e4bd 6627 2bbe 2faf e9be
00000060: a2d7 07be fd6b 773e 5d51 f93e ac62 543e
00000070: 0021 de3e 10e4 793d 4173 e2be 5cce d5bf
00000080: 867f a8bd 9f4a b43e 6490 b23d 4bad 5cbf
00000090: fed8 f0be 4fba 7dbf 2a80 243e d4f1 0dbd
000000a0: c787 9abf 56bc b23e 55ed 883f 74bf bbbe
000000b0: baa8 56c0 f632 edbf 9c0c a23e e39d f2bd
000000c0: 39f1 c33e 2cb0 52c0 cb86 debe fe0b 5cbe
000000d0: 3de8 fbbd 323a 3fbd ae4c 08bf 115b 12be
000000e0: f2d4 c43f 60b5 eebb c724 563e 5a05 f0bd
000000f0: d2e5 71bd 2ebe 5b3f e056 353c f66f 45bf
00000100: e880 f4bf 60a6 b9bf 5860 2bbe c65c f93f
00000110: 5acc 60be 010b 673f ec63 dcbf 2954 bbbe
00000120: bb09 a33f f030 84be b94f 1c3e c31b d53e
00000130: 864a 3c3e cfbd dfbe 30ab f6be 88d0 593f
00000140: 1c9d 133f 2e6d bebf 22ec c93e e7ce fb3d
00000150: 3610 613f 6ff0 ebbd 7921 a73f 873a 133f
00000160: 9b5d 80bd a8d3 a83e 40c3 9f3d 64a6 f43f
00000170: 2aa6 05bf e6d7 d9be 1780 07bf 9a18 9bbe
00000180: 18e4 eebd 01c3 1a3d 162c 903e f6b2 a53e
00000190: 2a70 073f 28f4 34bc d8e6 08bd a83f 52be
000001a0: 714b 83be 91ac 8d3d 14f5 4f3c 6c5e a43d
000001b0: e122 4b3e dc34 453c b9df ab3d 07f2 85bd
000001c0: cb46 77bd 04f4 0ebe ca12 263f 2188 10c0
000001d0: 19b6 0d3e 7631 753f c072 b43b bbad 29bf
000001e0: 7260 d9bf 3ef4 e33e 9d17 e33d 9c97 8bbe
000001f0: 4f87 05bf cf77 cbbe 45eb 45bf cf3a f4be
00000200: 112a b73f 4d0c bb3b 8ecd 253d 03a4 023d
00000210: f80b 843e 924a 863e a5dd 033e 0ce4 edbd
00000220: 392d 3ebe 67f6 833e 408d c63d f0a5 493d
00000230: 33b2 c53f ad25 063e 2254 c63e 4469 03c0
00000240: 2cce 0e3d 661a 053f 6056 6ebc 57e0 0e3f
00000250: 6a54 c4be 9f63 a63c 8176 f9bf a90e 173e
00000260: e715 013e b91a 1f3e ccd5 23be 78dd d13e
00000270: f324 0240 639b 483f bb9a 1d3f c058 013f
00000280: f247 9d3e b674 063e b5d2 e93e 61f1 81bd
00000290: b548 b73d f14c c43d ddc6 fbbd 45be 453d
000002a0: 4092 aa3f 9800 54bd 8e9c 43bf be69 173f
000002b0: ee54 c53d b09c 6140 801d 6abb 7e89 9a3f
000002c0: ea1a f0bf 397d dfbd aafe 103d 3848 acbf
000002d0: 8c11 d6bf fde5 ccbf b26d 2cbf cda7 143f
000002e0: 18fc 09c0 2e32 f3bc cc73 d3be e492 653e
000002f0: 9167 2fbf 5dce a5bf 98b0 eabe c524 c73d
00000300: c162 46be 29d2 0dbf 07ad 16bd 3194 54be
00000310: 906f 9ebe 1613 de3d e8e7 9bbd d482 78bf
00000320: 7c4a 6dbd 4907 983e 9e49 f83d 5ab5 58bf
00000330: b0a3 97bf 3c19 edbe 1e96 e63e f1cf 223f
00000340: 0fa9 81be b753 83bf a8ff 34bf a3bd 703f
00000350: 32bb 233f 870d 47be aa87 83be 750b 0dc0
00000360: 3cfd d0bc 56d7 54bf 1f87 bd3e 2d98 123f
00000370: 94f3 ab3e f8de 7ebf 80db c33d a48b e0bd
00000380: f211 14bf f006 75bd 4980 00bf f0e1 0c40
00000390: 8025 e9bb acf9 76c0 79d9 0f3e 84fe 203f
000003a0: 630d bb3e ac8b e43e 6533 b4bf 6860 90bf
000003b0: 6043 3c3e 21be 09bf 6012 e6bf fa72 993e
000003c0: 1c44 cebe ce39 d73e 51ce 52bf cea2 473f
000003d0: 823c cebe e0f4 e7bd a3d9 2c3f c333 b6be
000003e0: 019d 90be d1c0 81bc 9202 6c3d 6d14 adbe
000003f0: b10e ae3e 6cbc 723d 06c4 b9bf 7b91 fabf
0.7150252 -0.043669023 -0.6729024 -7.2729616 -0.12580249 0.48275182 0.14453019 -0.9734956
1.264739 1.2140815 -0.19830465 1.5557839 -0.6160093 0.37076244 -0.7674717 -0.5485228
-0.56900615 1.0373687 0.060066935 -0.012420735 0.051198646 -0.11162416 -0.16714248 -0.45641467
-0.13265851 0.24162288 0.48694888 0.20740765 0.43384552 0.061008513 -0.44228557 -1.6703601
-0.08227448 0.3521318 0.087189466 -0.86201924 -0.47040552 -0.9911241 0.16064516 -0.034654453
-1.2072686 0.34909314 1.0697428 -0.36669505 -3.3540483 -1.8531177 0.31650245 -0.11846521
0.38269976 -3.2920027 -0.43462214 -0.2148895 -0.12300155 -0.04668636 -0.53242004 -0.14292552
1.5377486 -0.007284805 0.20912467 -0.11719771 -0.059057064 0.85837066 0.011068076 -0.77123964
-1.9101839 -1.4503899 -0.16735971 1.9481437 -0.21952954 0.90251166 -1.7217994 -0.36587647
1.2737345 -0.25818586 0.15264787 0.41622743 0.18387803 -0.436995 -0.4817748 0.8508382
0.57661605 -1.4877069 0.39437968 0.12295323 0.8791536 -0.115204684 1.305709 0.5751118
-0.06267854 0.3297398 0.07800913 1.9113278 -0.5220667 -0.4254753 -0.52929825 -0.30292207
-0.11664599 0.037783626 0.28158635 0.323631 0.52905524 -0.0110445395 -0.033423275 -0.20532095
-0.25643495 0.0691768 0.0126927085 0.08025822 0.19837524 0.012036528 0.08392281 -0.06540304
-0.060370248 -0.13960272 0.6487242 -2.2583086 0.13838996 0.95778596 0.0055068433 -0.66280717
-1.6982558 0.4452228 0.11088488 -0.27264106 -0.5215959 -0.39739844 -0.7731212 -0.47701117
1.4309713 0.0057082535 0.040479235 0.031894695 0.2579038 0.26228768 0.1287752 -0.11615762
-0.18571939 0.25773928 0.0969491 0.049230516 1.5445007 0.1310031 0.38736063 -2.0533
0.03486459 0.51993406 -0.014546961 0.55811065 -0.38345653 0.020311175 -1.948929 0.14751686
0.12606011 0.15537538 -0.15999526 0.4098928 2.0335052 0.783621 0.61564225 0.50526047
0.30718952 0.13130459 0.4566857 -0.063448675 0.08949415 0.09584988 -0.122937895 0.04827716
1.3325882 -0.05175838 -0.7641076 0.59145725 0.0963534 3.5251884 -0.003572315 1.2073209
-1.8758214 -0.10912556 0.035399117 -1.345954 -1.6724105 -1.6007687 -0.6735488 0.58068544
-2.1560116 -0.029687013 -0.41299284 0.22419316 -0.68517405 -1.2953602 -0.45837855 0.0972381
-0.19373609 -0.55398804 -0.036786105 -0.20759656 -0.3094449 0.10843484 -0.07612592 -0.9707463
-0.057932362 0.29693058 0.12123416 -0.8465172 -1.1846828 -0.46308315 0.45036405 0.63598543
-0.25324294 -1.0259923 -0.707026 0.9403936 0.6395751 -0.19438754 -0.2568944 -2.2038243
-0.025511377 -0.83141077 0.37017152 0.5726345 0.33584273 -0.99558973 0.09563351 -0.10964134
-0.5783988 -0.05982107 -0.5019575 2.2012901 -0.007115066 -3.8589888 0.14047803 0.6288836
0.3653365 0.4463781 -1.4078184 -1.1279421 0.18385077 -0.5380574 -1.7974358 0.29970533
-0.40286338 0.4203629 -0.82346064 0.77982795 -0.4028054 -0.11326003 0.6751959 -0.35586366
-0.28244784 -0.015839012 0.05761964 -0.33804646 0.33995584 0.059261724 -1.4512947 -1.9575647

linear1.bias f4 [256]
00000000: faf9 37bf 2a93 abbe 6ac6 4a3e 95da 9c3f
00000010: 1e62 063f 7d86 fa3e 2ad3 2dbf 2c85 f1bc
00000020: 7743 24bf 557c aabf 48f6 14bf 1476 df3c
00000030: 1a88 7dbf 4494 c8be eb6a 033f 9194 eabe
00000040: 5c23 afbe 181e 13be e91c 543d 79ae a6be
00000050: d7b2 18bf d32b 073e 5fe5 963e d631 5cbf
00000060: 96ab 2fbd a7dc a6be 24dc 83be c917 47be
00000070: 2a46 09be 73fa e13e edbc 903f 4974 dc3e
00000080: 8b85 133e 4bd6 843f 9b97 e83e e1e3 83be
00000090: b58d edbe 27d4 c73c 6636 bcbf 2b2d 80bf
000000a0: 2e3c 283f bfb5 e1be e4e1 4bbf 1be6 4abf
000000b0: 0a70 61bf 8f73 fdbd 73ac 1abf d283 083f
000000c0: 0194 54be 2570 393f 9395 8f3e c9e9 1cbf
000000d0: 018c ecbe b99f cb3e 7b19 81bf f20b 99bf
000000e0: e544 19bf 3e1e 04bf 0e49 553c 7af6 81be
000000f0: f2f9 543f 58e3 99bf b810 89bf e6a6 3f3f
00000100: 8f38 6dbf 3c8c 6c3e a6de 42be a48e 05bf
00000110: 5781 66bf 7d7f 1e3f 47b0 fb3e b907 833e
00000120: 50ac 883f 2d53 92bf d5b5 41bf df55 083f
00000130: 9859 753f 23b3 183f 6ba8 893f 1df0 653f
00000140: 4efd d83d 6533 3abf 2c6f 0bbf a729 0bbf
00000150: 482f 5abf 4a9d 04bf bc0c fdbe 1eb4 84bf
00000160: 0a41 4abf ff04 46be 81cf ca3d a342 ccbe
00000170: 339d 0bbf 8c6c a33f 3b58 7d3e 9d7b 99be
00000180: 31b2 99bf 8c45 37bf 2c42 42bf 1245 fdbe
00000190: 7ef4 803f 0456 eebd a5fa e63d bc24 0c3f
000001a0: 43c9 793e 1c99 63be ffb6 063f 32aa 93be
000001b0: dfe8 843e 0b66 56bf 04e6 58bf 22d9 42be
000001c0: 2736 bc3e 2670 1fbf e39b 1b3f cf8d 70bf
000001d0: ece4 bbbd 44f5 35bf 4ec7 02bf 51da a1bf
000001e0: 9945 6d3e 29ba f2bd 5d07 3d3e 0001 0bbf
000001f0: a18f e3be 8f9b c43c 583d 75be d298 893f
00000200: d14d 9fbe a0f2 88be 0d67 303f fca1 47bf
00000210: 307f d1be b7ef f63d f61a 3f3f a7bc c53f
00000220: 4c7c 36bf 89a8 923e 2e7a 4c3f b7ca dcbe
00000230: 482a 80bd cd12 6b3d c3af 1f3e 23be a0bf
00000240: 6b6a 46bf 7254 fdbd 238a 48bf 692b 92bf
00000250: 6a05 29bf b0ff 49be 4008 80bf c6e1 8b3e
00000260: 4145 9ebf 489d 10bf eefc 59bf 35ca 72be
00000270: b12b 963d 06c7 f4be 5bb9 93bf 34a5 24bf
00000280: 651e b83e c009 573f d34e 3cbf 1f41 96bf
00000290: 21a5 44be 95df 08bf 59af 58bf f8e5 d7bf
000002a0: af39 ccbf 3af4 f3bd 8349 66bd a5c2 62bf
000002b0: c70d aa3e 19dd 913f 7d64 70be fb69 bfbe
000002c0: c68b 123e b255 a43e 688b 8fbe da54 393c
000002d0: 30a4 26bf 4138 36be e304 78bf 7008 2dbf
000002e0: 46b4 8f3e d9d1 cbbe 2734 22bf 57fa ddbe
000002f0: f8cf 28bf 6be6 78bd 17df 453f 1482 843f
00000300: dc87 59bf f8c6 df3e b34d 12bf 5f4a 73bd
00000310: 2a3b 783e 8701 243e 495e 9fbf f83f 373f
00000320: 3497 883c ecbe 073f 478b 50bf 9486 d2be
00000330: 190f c2be 0f10 3a3c 8b53 99be ba99 a1bf
00000340: 53d2 50bf 4b1b 01be 705c 22bf fdcd 1abf
00000350: fb96 6b3e 11ac 943d a14d 94bf 1de3 1bbf
00000360: f2d9 3a3d 989a a9bf 4692 6cbd aab7 2d3d
00000370: 73d3 12bf 0844 5dbe bcaa 31be 349e 55bf
00000380: fb35 25bf 1b4d c9bd 1435 b43f 04df 703e
00000390: 17fd 81bf 2726 08bd eca8 a8bf 5b82 ea3d
000003a0: 2bd9 18bf 0c22 f03d 21a1 8c3e 3ad0 ca3c
000003b0: 9e47 1e3f e81d 47bf 4e51 be3e 3d4d 92be
000003c0: 27a2 bbbe 94d2 3d3f b31b 53be e52e 713f
000003d0: 182e 58bf a68c 30bf cd2d aa3f 1d14 e23e
000003e0: 4bbc 90be 2ec0 a4bd b124 7b3e 290e 34bf
000003f0: dfa6 19bf 9367 b03e c5e6 b4be 3053 af3e
-0.7186581 -0.33510715 0.19802251 1.2254206 0.52493465 0.4893073 -0.67900336 -0.029482447
-0.64165443 -1.3319193 -0.58188295 0.027277984 -0.990358 -0.39175618 0.5133502 -0.45816472
-0.34206665 -0.14366949 0.051785383 -0.32554987 -0.5964789 0.13200311 0.2947187 -0.86013544
-0.042888246 -0.3259022 -0.2575389 -0.19442667 -0.13405672 0.4413639 1.1307656 0.4305747
0.14406411 1.0377897 0.45428166 -0.25759795 -0.46397176 0.024393154 -1.4704101 -1.0013784
0.65716827 -0.44083974 -0.79641557 -0.79257363 -0.88061583 -0.12375557 -0.60419387 0.5332614
-0.20759584 0.72436744 0.28043804 -0.6129423 -0.46200565 0.39770296 -1.0085901 -1.195677
-0.5987075 -0.51608646 0.013017906 -0.2538336 0.83193886 -1.2022505 -1.0708227 0.7486404
-0.92664427 0.2310037 -0.19030246 -0.5217078 -0.90041107 0.6191328 0.49157926 0.2559183
1.0677586 -1.1431633 -0.7566808 0.5325603 0.95839834 0.5964834 1.0754522 0.8981951
0.10595189 -0.7273467 -0.5446651 -0.5436043 -0.85228395 -0.51802504 -0.49423778 -1.0367467
-0.7900549 -0.19337843 0.099028595 -0.3989459 -0.5453674 1.2767501 0.24740689 -0.29977122
-1.2007505 -0.71590495 -0.7588222 -0.4946676 1.0074613 -0.116375 0.112782754 0.5474355
0.24393182 -0.22226375 0.5262298 -0.28840786 0.25958917 -0.83749455 -0.84725976 -0.19028142
0.36760065 -0.622805 0.6078474 -0.9396638 -0.09174523 -0.7107737 -0.51085365 -1.264475
0.2317108 -0.118519135 0.1845984 -0.542984 -0.44445518 0.023999957 -0.23949182 1.0749762
-0.31114057 -0.26747608 0.68907243 -0.77981544 -0.4091735 0.12057441 0.74650514 1.5448197
-0.7128341 0.28644207 0.7987393 -0.4312341 -0.062580645 0.057390977 0.15594392 -1.2558025
-0.7750613 -0.12369622 -0.7833578 -1.1419498 -0.66023886 -0.19726443 -1.0002518 0.2732069
-1.2364885 -0.5648999 -0.85151565 -0.23709948 0.07332552 -0.47808093 -1.1540941 -0.6431458
0.3596069 0.8399925 -0.73557776 -1.1738623 -0.19203617 -0.5346616 -0.8464256 -1.6867056
-1.5955104 -0.11911817 -0.05622245 -0.88578254 0.33213636 1.1395599 -0.23475833 -0.37385544
0.14311132 0.3209663 -0.28036046 0.011311734 -0.6509428 -0.17794897 -0.96882457 -0.67591
0.28067225 -0.3980854 -0.6336083 -0.43355057 -0.65942335 -0.06076662 0.77293533 1.0352197
-0.8497293 0.4370649 -0.5714981 -0.059397098 0.2424132 0.16016208 -1.2450649 0.71581984
0.016673662 0.530257 -0.8146252 -0.411183 -0.37902144 0.011356368 -0.2994655 -1.2625039
-0.8157093 -0.12608068 -0.634223 -0.60470563 0.23006813 0.072593816 -1.158619 -0.6089342
0.045618005 -1.3250303 -0.057756685 0.042411484 -0.57353896 -0.21607983 -0.17350286 -0.83444524
-0.6453549 -0.0982916 1.4078698 0.23522574 -1.0155362 -0.03323951 -1.3176551 0.114506446
-0.5970637 0.11725244 0.27466682 0.024757493 0.6182803 -0.7778001 0.37171406 -0.28574553
-0.3664715 0.7414944 -0.20616035 0.9421218 -0.84445333 -0.6896461 1.3295227 0.4415597
-0.28268656 -0.08044468 0.24525715 -0.70334107 -0.6002025 0.3445402 -0.35332313 0.34243155

linear2.weight f4 [256, 256]
00000000: b4b0 d13d fedd 733f 0bee a53d 21da ed3d
00000010: 05e7 983b d254 d93e ce32 8c3f 6786 89bb
00000020: 9ab4 dcbf d559 37be a825 52be f356 21bf
00000030: ef54 c4be 1c51 103f 14c6 20bf 14c8 9ebf
00000040: 22a5 853d 1c47 043e 4e59 0abf 005c 173f
00000050: 84f2 78bf b6a7 b63f afd3 d3be 2122 61bc
00000060: 0629 9abe 5f81 38bf 728e bfbf 4db5 cbbf
00000070: 9037 253f 4c08 113d feb3 aebe b5c3 b93d
00000080: 663d 723f 2c30 d4bd 7974 78bf 3ddb 3dc0
00000090: e145 17bf 097c ebbe 54e8 e5be e94c 1f3f
000000a0: 82c1 403f 60eb a93d 3435 5f3f 7e73 8f3e
000000b0: 5daf d2be 4595 b4be 18bb 8ebe 0149 20be
000000c0: 1fd4 023f 40c3 d9be 289e 833d 5f64 83bf
000000d0: 55f4 69bf b917 d6bf d5ff 503f 8a57 e73e
000000e0: 0d1f da3c 9944 60be 3538 c3be aae7 0a3f
000000f0: 7d4f 20bf 4926 c43e 3e1f 233e f728 503e
00000100: 756b 35bf 8396 28c0 6583 bcbf ec6c bb3e
00000110: c0d4 e3be 4746 2dbf caad 423f 46d6 303f
00000120: 4a5d 75be b682 a63f feae a53e 3247 d43f
00000130: 1527 bb3d fa09 d63e 1d69 2cbf 166d cc3e
00000140: addb c0be 7cb0 55bf 0f03 0d3d 93a3 1ebf
00000150: 3ac7 1e3c 4f29 ddbd 9a9b 3a3f 3c07 1fbf
00000160: 1add dabd 5630 1d3f 04ae 27bf 41da 833f
00000170: d901 573e 03f1 ccbe b039 a0bf 9ecb 333f
00000180: 5d5c 1cbf 9ad3 713e c223 d73e 1970 893f
00000190: 9254 0dbf d166 3cbe 1621 71bf 5388 ca3d
000001a0: b4db d0bc d59d 0ac0 8d20 b4bf c3b8 c6bf
000001b0: 4512 7f3c 6d56 b3bd 07b3 0a3f 566a 71bf
000001c0: 02ea 933e 3fc0 88bf 9e22 003f 7e9e 3a3e
000001d0: 70ff 3fbf 286c 963f 23be bc3e f3df a43e
000001e0: d714 cebe 023c babd 822e 1d3d ba99 eb3e
000001f0: 7ba3 b2bd e9e2 5dbf 124d dabe 5aba ebbe
00000200: 89bc e8bc edcb 9bbe 2c45 c4bf aa42 de3e
00000210: fe13 7dbf 4553 823f ce73 a4be 2831 733e
00000220: 150a 57bf 5516 c4bf 25ac e3be a672 08bf
00000230: 852a 8cbf abd0 f53e c21a cc3d 081a 77be
00000240: c82a 613f 9df1 853e 1f1e 10be d3bf 4a3e
00000250: a320 823e 026a 8c3e e8e1 5a3d e286 4dbe
00000260: d345 47bf 5b32 09bf a694 fdbe 6d7d e2bf
00000270: 9223 c63e 5b15 f53e 8b3d 7e3e b607 5cbe
00000280: 2f34 a9bf 5d47 ffbd d139 f3bf 6e8a cbbf
00000290: cc17 633f e736 bdbe 43d7 ae3f 4dc5 1b3f
000002a0: 24cf 7bbe ee70 183f 4c1a 32bf 2520 5c3f
000002b0: 2210 4cbf 7eb3 0cbf f1ee 23c0 26b3 82be
000002c0: 166d d9bf b052 c7bc 8fa0 a6be c611 9e3d
000002d0: de9f 513f 14a8 2ebf e6e6 023f 1c1e 18bf
000002e0: e3e0 c5bf b07c ba3f 8616 1a3e d846 203f
000002f0: d7ee 203e e77c 213f 15b2 ae3e 9835 05bf
00000300: 6cf6 eebe 2083 4dbf 607f c7bf e4a3 b23e
00000310: 5b15 f1bf 6748 293e 8119 c8be 88de d4be
00000320: de59 24bf cd99 c5bf e307 a03f 7ca4 4fbf
00000330: 0df1 0bbf 308f 9a3f b702 8b3f 5e4f c73e
00000340: 97ff fdbd 9b79 2cbf b9de bebf c3fe f13d
00000350: 8a08 65bf b212 d8be 70b2 bf3f 31d5 26bf
00000360: a8e5 4bc0 be42 113f adc1 8b3e e888 873d
00000370: dc4c 8dbe 25cb a3bf c10c de3e f364 52be
00000380: 4512 5a3f e69d 33bf 928f 32bf 8828 8e3e
00000390: 733f 6abf 7fa8 4f3f 50b2 e2bf c2cc f93e
000003a0: ae4f a13f 014c 8b3f 3b6f 623f 881a 573f
000003b0: 8a9f b1bf 447b ee3f 3d15 0fbf f5e6 863d
000003c0: d581 67be 78d1 bb3e db1c 03c0 d0a7 00be
000003d0: 69de b3be 918b 31be 83a7 10bf 6a24 1d3f
000003e0: fc2e 893f 5fff ecbd b321 ff3e 92ab 02bf
000003f0: 6654 10bf 2482 183e 1c6f 9c3f 07fc 713f
0.102387816 0.9526061 0.08102044 0.116138704 0.0046662115 0.42447525 1.0953004 -0.00419693
-1.7242615 -0.17905362 -0.20522177 -0.630233 -0.3834605 0.56373763 -0.62802243 -1.2404809
0.06525637 0.12917751 -0.5404252 0.59124756 -0.9724505 1.4269931 -0.4137244 -0.013741047
-0.30109423 -0.72072405 -1.4965346 -1.5914704 0.64537907 0.035408303 -0.34121698 0.09070531
0.94624937 -0.103607506 -0.97052723 -2.9665062 -0.59091 -0.4599307 -0.44903815 0.6222673
0.7529527 0.08296847 0.87190557 0.280178 -0.41149417 -0.35270134 -0.27877116 -0.15652849
0.5110492 -0.42531776 0.0642665 -1.0265006 -0.91388446 -1.672599 0.8164037 0.45183975
0.026626134 -0.21901168 -0.3812882 0.5425974 -0.6262129 0.3831046 0.15929887 0.20328127
-0.7086709 -2.6341865 -1.4727598 0.36606538 -0.44498253 -0.6768536 0.7604643 0.69076955
-0.23961368 1.300864 0.3236007 1.6584227 0.09138314 0.41804487 -0.6734789 0.39926976
-0.376676 -0.8347242 0.034426745 -0.61968344 0.009691054 -0.107988946 0.7289368 -0.62120414
-0.10686703 0.6140188 -0.654999 1.0300981 0.20996799 -0.40027627 -1.2517605 0.7023257
-0.61078435 0.23615876 0.4201947 1.0737334 -0.5520717 -0.18398596 -0.9419111 0.09889283
-0.025495388 -2.1658833 -1.4072434 -1.5525135 0.015568321 -0.08756719 0.54179424 -0.9430288
0.2888947 -1.0683669 0.5005282 0.18224522 -0.7499914 1.1751757 0.36863813 0.3220211
-0.40250275 -0.09093477 0.03837443 0.46015722 -0.08722588 -0.8667436 -0.42636925 -0.46040612
-0.028410213 -0.3042902 -1.533361 0.43410236 -0.9885863 1.0181662 -0.32119602 0.2374922
-0.8399976 -1.5319315 -0.44467273 -0.5329994 -1.0950476 0.48010764 0.09966041 -0.24131024
0.87955904 0.261609 -0.1407399 0.19799738 0.25415525 0.27424628 0.053438097 -0.20070985
-0.7784092 -0.5359246 -0.49527472 -1.7694527 0.38699013 0.47867855 0.24828164 -0.21487316
-1.321905 -0.12464783 -1.9002019 -1.590162 0.88708186 -0.3695595 1.3659443 0.6084793
-0.24590737 0.5954732 -0.69571376 0.8598655 -0.79712117 -0.54961383 -2.5614588 -0.25527304
-1.6986415 -0.02433142 -0.3254437 0.07718234 0.8188456 -0.68225217 0.51133573 -0.59420943
-1.5459255 1.4569302 0.15047655 0.626081 0.1571611 0.6308121 0.3412024 -0.520349
-0.4667238 -0.80278206 -1.5585747 0.34890664 -1.8834642 0.16531526 -0.39081958 -0.41576028
-0.64199626 -1.5437561 1.2502407 -0.8111036 -0.5466469 1.2074947 1.0860204 0.3892774
-0.124022655 -0.67373055 -1.491172 0.1181617 -0.89466155 -0.42201763 1.497633 -0.65169054
-3.185892 0.56742465 0.272962 0.0661791 -0.27597702 -1.279637 0.43369105 -0.20546322
0.8518413 -0.7016281 -0.6975032 0.27765298 -0.91503066 0.8111648 -1.7710667 0.4878903
1.2602441 1.088257 0.88450974 0.8402486 -1.3876812 1.8631368 -0.5589178 0.0658702
-0.2260812 0.3668325 -2.0486362 -0.12564015 -0.35130623 -0.17338397 -0.565056 0.6138369
1.0717463 -0.11572146 0.49830398 -0.51043046 -0.5637878 0.14893395 1.2221408 0.9452519

linear2.bias f4 [256]
00000000: 71b8 b2be e067 c2bc 9085 143e da94 d4be
00000010: 5b98 b83c 33af 0e3f a7a2 c03f 50e6 a83f
00000020: 8bba 39bf ef37 a6bf bf7a bb3e da66 823f
00000030: f699 a3bf 3d05 7dbe f438 b13f 7d19 65be
00000040: a7c8 ac3f f407 0abf 93a0 643e 2a9c 4ebf
00000050: b500 443e c525 52be 1b7b c1be a18a 81be
00000060: 89a1 ab3f 2578 b43d afb5 aa3e 9fc4 49bf
00000070: d05b 763f 493c ae3f cbd0 973f 67de a83f
00000080: fd2d 69bd ad1d 8abf b040 a73f 01ad 243f
00000090: ac55 ffbc 6cfc 1dbd 6424 313f edd6 1c3e
000000a0: cf1e b83e f318 70bf 6e0e ebbd 3d16 c83d
000000b0: 7e44 11bd 3bcf 4fbf 761d 86be 61c4 4abe
000000c0: f0d1 b73f 46e8 a03e d035 11bf 5e3c ccbd
000000d0: 5b0a a0bf f7f5 a83e 9b9d b53e 0deb 1fbe
000000e0: b975 183e d8c8 a8be dd12 42be a461 a73f
000000f0: 9c5f b33f 3eac 703e 278b 6ebd 87e2 b33f
00000100: 662e 3e3e a4ae 6a3f 6379 393d c592 46bf
00000110: c429 fdbc 84dd 94be 5550 b73c 48e3 a13d
00000120: 1d91 99be 9aed 64be 7e48 b33f 09f9 913e
00000130: 2408 953f ca62 b63f f197 b93f 4292 ec3e
00000140: 9c83 b33e eed8 bb3f 0309 d13e d6c2 90be
00000150: 1855 dc3e 3beb 063e 3f19 753f 5783 5fbe
00000160: c034 ba3f dd0b f93e 6205 9cbe 3685 bdbe
00000170: 260e 7fbc 0c00 2fbf 676f 54be 470a e9bc
00000180: 72d0 4dbd 8e5f 853e 8da4 b83e aaff 893e
00000190: 64d6 b13f dfcb 27bf 6005 d93b 8ac6 39bf
000001a0: a2d0 9f3f 36ce 913f 8193 59bd cf24 983d
000001b0: a2f6 a83f d810 8e3f 7c7c fdbe 6a53 ecbc
000001c0: 8c0f ca3e e3e8 5ebe c087 c23f ff08 45bf
000001d0: 73e8 323f a302 933e cf11 e6bd bbb0 163f
000001e0: 7c3a ad3f fc13 c4be 0012 e63d 22db 5c3f
000001f0: 8370 b43d 7fa9 a93f 9d9e 0bbc 0b0e 8bbc
00000200: 2174 95be 749a 723f de50 8c3d 4202 af3f
00000210: ae4f 143e 3eec 6bbe bbd0 bbbd e58a 9f3e
00000220: 8789 bb3f a1d8 b13e 4a06 39be d7d3 99bc
00000230: 6898 be3f 1263 b03f 2ce0 a33f b3da d83e
00000240: 9140 ba3e 836f b8bc a36a 4fbd 149b 30be
00000250: e2f8 2ebd e27e ad3f 561e 4ebf cbc2 80bd
00000260: 957b cfbe a77b 883e 614a 243f 29b1 d6bc
00000270: 7d50 483e eaed 763f a2c6 98be cf8f 6dbf
00000280: eba8 d5be 4000 34be d19a ac3f 10c2 b9bc
00000290: 9bdb 19bd 1379 b33f 5fd7 57be 9763 8e3f
000002a0: d43d 923f 9a39 aebe f648 95be b820 4bbf
000002b0: d8ad 3bbd 1aa7 873e ac34 a43f 2bff b33f
000002c0: d1a6 5bbf d705 993f 3020 283f 3dbb a73e
000002d0: 8ac3 28bf ec0c be3e 0394 03bf 9c49 9cbe
000002e0: 7f8d a6be 6fab cdbe d49b 2fbf aca3 913f
000002f0: 209d ddbd bcd1 b7be 08be dfbd d0a6 4dbe
00000300: a299 3d3f 6b5a e33e 86cd 25bd 4b12 6fbf
00000310: 147f 9f3e f133 b53f 297e 863f 1dbc c73e
00000320: 8bfd 03be 5741 8c3f 51c6 f3be 2c8c 1f3d
00000330: eb5e d03d 6fdd 963f 5e87 463e 2f82 143f
00000340: 821f bf3f 2656 81bf 0e4f be3f 5f08 c33b
00000350: 5011 a8be 85bd 3f3e 01ce db3d ae3d 04bf
00000360: 9ffd efbe 53ce 56bf 783f 8d3e d80d fc3e
00000370: c032 9d3f 9bc3 b33f 7f7b ad3e 851e b6bd
00000380: 1b62 82be 9e98 efbd 1ecd f1bc ca51 bb3f
00000390: 8cac 453f a21d d6bd 204b 123f 5d31 ecbd
000003a0: 2fa2 09be 1990 2fbf 9c73 853f 08df 643e
000003b0: 0e87 163e 3822 623f f27b 07be 4f4b 61be
000003c0: 1aa5 af3f 8bc2 233f 99aa ba3f 8ccb 6a3e
000003d0: d45d 913e b82c 52be 00fc cd3e d4ac 003f
000003e0: da25 86be 6c89 203f d904 c0bc 1982 eb3e
000003f0: e6f5 4abe fcaf 47bd 027d 053f d535 6c3e
-0.34906343 -0.023731172 0.14504075 -0.41519815 0.022533586 0.5573608 1.5049638 1.3195286
-0.72550267 -1.298582 0.36617085 1.0187638 -1.278136 -0.2470903 1.3845506 -0.22373004
1.3498734 -0.53918386 0.22326879 -0.8070704 0.19140895 -0.2052222 -0.37789235 -0.25301078
1.3408672 0.08811978 0.3334174 -0.78815645 0.96233845 1.3612148 1.1860594 1.3192872
-0.056928623 -1.0790306 1.3066616 0.64326483 -0.031168781 -0.038570806 0.6919615 0.15316363
0.35961005 -0.9378807 -0.114773616 0.097698666 -0.03546571 -0.81175584 -0.26194352 -0.19801475
1.4360943 0.3142721 -0.56722736 -0.099724516 -1.250316 0.33000156 0.35471806 -0.15617009
0.14888658 -0.32965732 -0.18952508 1.3076673 1.4013553 0.23503205 -0.058238175 1.4053506
0.18572387 0.9167273 0.04528178 -0.775677 -0.030903704 -0.29075253 0.022377172 0.079046786
-0.29993525 -0.22356263 1.4006498 0.2851031 1.1643109 1.4248898 1.4499494 0.46205336
0.35061347 1.4675577 0.40827188 -0.28273648 0.4303367 0.13175671 0.9574165 -0.21827446
1.4547348 0.48641863 -0.30472857 -0.37015694 -0.015567338 -0.68359447 -0.20745622 -0.028447283
-0.050247617 0.26049465 0.36063042 0.2695287 1.3893552 -0.6554546 0.006622955 -0.7256857
1.2485545 1.1391056 -0.053119186 0.07428896 1.3200266 1.109889 -0.49509037 -0.028848369
0.39464986 -0.21768527 1.5197678 -0.7696685 0.6988594 0.2871295 -0.112338655 0.5886342
1.3533473 -0.38296497 0.11233902 0.8627187 0.088105224 1.3254851 -0.008521703 -0.01697447
-0.29190162 0.94766927 0.06851362 1.3672564 0.1448352 -0.23039338 -0.091706716 0.31160656
1.4651345 0.34735587 -0.18068805 -0.01877777 1.4890261 1.3780234 1.2802787 0.42354354
0.36377385 -0.02251411 -0.050638806 -0.17246658 -0.042717822 1.3554347 -0.8051504 -0.06287154
-0.40523973 0.2665684 0.64175993 -0.026207523 0.19561954 0.9645678 -0.29839045 -0.9279756
-0.41730437 -0.1757822 1.3484746 -0.022675544 -0.037562948 1.4021324 -0.21078251 1.1124142
1.1425118 -0.34028322 -0.29157227 -0.793468 -0.045820087 0.26494676 1.2828574 1.4062246
-0.85801417 1.1954907 0.65674114 0.3276004 -0.6592337 0.37119234 -0.5139772 -0.3052491
-0.32529828 -0.40169856 -0.6859715 1.1378074 -0.10820985 -0.35902202 -0.109249175 -0.20083165
0.7406255 0.4440492 -0.040479206 -0.9338729 0.3115164 1.4156476 1.0507251 0.39010707
-0.12889688 1.095744 -0.4761224 0.038952038 0.10174354 1.1786326 0.19387576 0.58011144
1.493149 -1.0104415 1.4867876 0.0059519256 -0.32825708 0.1872464 0.107326515 -0.51656616
-0.46873185 -0.83908576 0.27587485 0.49229312 1.2281113 1.4044069 0.33883283 -0.0889254
-0.25465474 -0.11699031 -0.029516753 1.4634335 0.7721641 -0.10454871 0.5714588 -0.11532853
-0.13440774 -0.6857925 1.0425906 0.22350705 0.14699957 0.88333464 -0.13230875 -0.22001384
1.372226 0.63968724 1.4583312 0.2292921 0.28391898 -0.20524871 0.40231323 0.50263715
-0.26200753 0.6270969 -0.023439812 0.45997694 -0.19820365 -0.048751816 0.5214387 0.2306741

linear3.weight f4 [1, 256]
00000000: 5286 2f40 832c e93b a53a 823f 88c4 0cc0
00000010: 6e2e fabf 43ac 843f 9cc5 7d3f 9260 0b3e
00000020: 765f 4ec0 7127 1cbf 40f1 0a3c 185f a33e
00000030: 739c 2fbf e2e4 75c0 fb08 cc3e c677 36c0
00000040: d525 653f 6c7e 8bc0 796e 163a 4365 d3bf
00000050: a03f 5bbb c503 b7c0 6a6a 62be d51f 8cc0
00000060: 0436 2b3e d6da 02c1 37e2 55c0 1c01 92be
00000070: afef 1c3e 9489 1f3f 6181 933e 9a5e 4b3e
00000080: 1706 2ec0 b776 71be d133 723e e52d 553c
00000090: 805c 96bc 5c2c 21bc 58c5 cebd 6ff4 56bf
000000a0: a6a9 67bf f5ab a4bf c0bb 54c0 e804 83c0
000000b0: c655 68c0 47bf 51be 795b 3bc0 13a8 45c0
000000c0: e451 7e3f db80 efbb 6c76 0bbf 3bb4 7dc0
000000d0: 56e2 a1be 3cb6 663f c0f6 b63c 222b cb3f
000000e0: d821 fabe 227c 8ec0 0ff2 56c0 5443 553e
000000f0: d31b 7f3f 7b60 e8bb c3f8 efbf 1a1b 743f
00000100: f889 c938 0959 3f3e ba68 dcc0 1b68 58bf
00000110: 5cc0 44c0 d2db b53f de00 b4bf 3308 d5bf
00000120: 1bf9 02c0 2a0f 4fc0 1108 fc3e b5ff 70bc
00000130: d25c 7f3e b1c4 fb3e aa13 893f 6f70 d43a
00000140: 8dac e5b9 6ef4 693f 113c 383f 6938 f73e
00000150: 1204 c2be 8c5c 45c0 c115 443e e444 0bc0
00000160: fa8b 6e3f 7936 dcbb 548d 76c0 e898 ddc0
00000170: e36d 50c0 32ad 93c0 9c2a adbe f564 94c0
00000180: 575a 95ba aaa8 8f3b 2a91 6e3b 3884 6d3b
00000190: dd3c 5a3e 7199 2ebf c4bb 04c0 d529 2640
000001a0: 6271 fb3d 2181 3f3e 8cd1 27c0 4b21 5640
000001b0: 609f 4b3f 09c5 093e 3757 dabf 1797 1bbc
000001c0: bc98 e13f 7bb8 2dc0 4b89 8e3f ccdb 6bbe
000001d0: 813f 0f40 9daa 0abc 5724 0640 15cc 24bf
000001e0: 18e7 1b3f b47e 643f 204b bf3f b8b6 0b3e
000001f0: 1adf 2ebf f41b 923e 057c 93c0 9d2a b7bc
00000200: d8a5 80c0 7058 8b3e ee5c 30c0 8841 bb3e
00000210: 14f7 06bf fcc4 26c0 483d 82c0 aaac 1fc0
00000220: 4406 753f efb0 03bc 9ed8 d5c0 7f46 7f3c
00000230: a08b 8c3f f4ce d33e 990f bf3e ab42 193b
00000240: d654 9fbe 8960 5ac0 6297 a7bf 138c 14c0
00000250: 0e60 02be 2d12 b53e b147 fc3e 6c86 b5bf
00000260: 7fea 87bf ea54 3c3f e3fa 8b3e 5a1e 64bd
00000270: 1f24 a53c 14a8 4c3e f76e febf 272c adbd
00000280: 7c2f 82bf f540 8bc0 07af 5a3e d04c 063f
00000290: 9fe6 91bd 83d9 893f 2e8e f4bf 3208 cabe
000002a0: 0fde 7c3e be9e 0ac1 ee04 19c0 b7d5 64bf
000002b0: 684f 27bb 624f 13bc 56ab 5e3e 4c86 d73e
000002c0: 5883 73bf fa3c c03e 55cc 6a3e 0247 a9bb
000002d0: 1c50 2040 7c1c a239 5812 81be 3ded c0c0
000002e0: 4c0d 21bf c1be 86be 49c3 97bf 84c3 893e
000002f0: 4d1d 08be 174e 1640 384e 83c0 78bb 103f
00000300: 168b 25bf dee7 e73b e288 80bd aa65 d1bf
00000310: 1096 903b 5aea 8f3f bf26 713e ed96 e73a
00000320: 66c2 42c0 ea7a 323e 0834 8a3f f85e c5c0
00000330: c6ef 0ebf 3a90 c63e 67fe e6be 7ba1 003e
00000340: 28a3 823f b984 26bf 6195 803f 5cf6 913f
00000350: dda3 5c3f c123 923f 1576 513f ee29 8ac0
00000360: 0258 16c1 05b1 44be 8059 113c 817f 353f
00000370: e784 893f 6076 f83e 5eb7 d0be f866 d9c0
00000380: 414e 08c0 e874 5fc0 85f2 69c0 fec8 763f
00000390: 4539 1f3e 6d0f 31c0 2cd4 adbf 5d31 a4c0
000003a0: f4cb cfc0 e84f 72c0 1733 a63e 3067 3abc
000003b0: 8047 debe 8e20 7b3e 7c1b 49c0 963b 81bf
000003c0: 8f8c 843e 7ab3 093e acfa 893f 52a7 113c
000003d0: 2edb 28bf 3880 1ac0 f1ef d8bb d5b6 ffbe
000003e0: 7057 17c0 2840 433f 7a68 6e3d 951d 893e
000003f0: be6e 68c0 1cd2 eabf 77f0 8b3e 601a d1bb
2.7425733 0.007115902 1.0174147 -2.1994953 -1.9545419 1.036507 0.9912965 0.13611057
-3.2245765 -0.6099768 0.00848037 0.31908488 -0.685981 -3.842095 0.39850602 -2.8510604
0.8951085 -4.3591824 0.00057385076 -1.6515278 -0.0033454672 -5.71921 -0.22110906 -4.3788857
0.16719824 -8.178427 -3.341932 -0.2851647 0.15325807 0.623193 0.28809646 0.19860306
-2.7191217 -0.23580442 0.23652579 0.01301143 -0.018354654 -0.009837236 -0.10096234 -0.83966726
-0.9049324 -1.2864977 -3.3239594 -4.094349 -3.6302352 -0.20483123 -2.927458 -3.0883834
0.99343705 -0.007309062 -0.5447757 -3.9641254 -0.31617993 0.9012182 0.022334456 1.5872538
-0.48853946 -4.452653 -3.358524 0.20826465 0.9965183 -0.0070915795 -1.8747791 0.95353854
9.6101256e-05 0.18686308 -6.887784 -0.8453385 -3.0742407 1.4207709 -1.4062765 -1.6643127
-2.0464542 -3.2353005 0.49224904 -0.014709403 0.24937752 0.491735 1.0709126 0.0016207824
-0.00043806844 0.91388595 0.71966654 0.48285225 -0.3789373 -3.0837736 0.19148923 -2.1760798
0.9318234 -0.006720361 -3.852376 -6.9249153 -3.256707 -4.614892 -0.3382157 -4.637324
-0.0011394721 0.00438412 0.0036402442 0.0036242139 0.2131228 -0.68202883 -2.0739603 2.5963032
0.122774854 0.18701603 -2.6221647 3.345782 0.7954006 0.13454069 -1.7057866 -0.009496472
1.7624736 -2.7143848 1.1135648 -0.23033065 2.238251 -0.008463529 2.095968 -0.64373904
0.60899496 0.89255834 1.4944801 0.1364392 -0.68309176 0.28536952 -4.608889 -0.022359187
-4.0202446 0.2721591 -2.755672 0.36573434 -0.5272076 -2.605773 -4.0699806 -2.4949136
0.95712686 -0.00803779 -6.6826925 0.015580772 1.098011 0.4136883 0.37316588 0.0023385684
-0.31119412 -3.412142 -1.3093073 -2.3210495 -0.12731954 0.3536543 0.49273446 -1.4181647
-1.0618438 0.7356707 0.2733985 -0.055693008 0.020158825 0.19985992 -1.9877614 -0.08455687
-1.0170741 -4.3516793 0.2135583 0.52460957 -0.071240656 1.0769504 -1.910589 -0.39459378
0.24694084 -8.663755 -2.390926 -0.893886 -0.0025529508 -0.008991094 0.21745047 0.42094648
-0.9512229 0.3754652 0.22929509 -0.0051659355 2.5048895 0.0003092027 -0.25209308 -6.0289598
-0.62910914 -0.2631741 -1.1856471 0.2690698 -0.13292427 2.3485162 -4.103298 0.56536055
-0.64665353 0.0070772013 -0.06276108 -1.635915 0.00441242 1.1243393 0.23549937 0.0017668881
-3.0431151 0.174297 1.0797129 -6.167843 -0.55834615 0.3878191 -0.4511597 0.125616
1.0206041 -0.6504627 1.0045587 1.1403308 0.86187536 1.1417161 0.81820804 -4.3176184
-9.396486 -0.19208153 0.008871436 0.7089768 1.0743684 0.48527813 -0.40764898 -6.7938194
-2.1297762 -3.4915104 -3.6554272 0.9640044 0.1554919 -2.7665665 -1.3580375 -5.131026
-6.4936466 -3.786127 0.32460853 -0.011377141 -0.43413925 0.24524137 -3.1423025 -1.0096309
0.25888488 0.13447371 1.0779624 0.00888999 -0.6595944 -2.4140759 -0.0066204 -0.49944177
-2.3647118 0.7626977 0.058205105 0.26780382 -3.6317592 -1.834537 0.27331898 -0.006381318

linear4.weight f4 [256, 28]
00000000: 9062 1a3f d094 453c f3d9 1fbf f740 7f3e
00000010: 0843 4abd a5fa 113f d11f 033e 06ce 02bf
00000020: d639 d5bf 6bd0 263f 3e53 88bf af31 a13f
00000030: 9072 0240 9401 9fbe 0c2d 01c0 447b 98bd
00000040: ebbb 3e3f 4fd8 95be 457c 2ac0 c556 b8bf
00000050: 51c7 24bf 19b8 093f 008d e6bc 0235 a93e
00000060: 3352 f7be 7f3b 063e 502e a8bb 2953 3fbe
00000070: 068e f83d 60a7 c0bd 315f 7ebf 1a24 20c0
00000080: 043f 94bd ef61 313f c2e7 e13d 3c4a ccbd
00000090: 381e 993d f12d 2d3f 8c3c 9fbf 61ef a9bf
000000a0: bccf 313e b3b6 1b3f 8c98 39bf 84d0 09c0
000000b0: aa95 233f 3ae3 acbe 4ceb 32bc abd7 5f3e
000000c0: 54cd 41bf 566c 1abe 70c4 543f 3f3f 34bf
000000d0: f6fe 873d 4f9f 0ebf 999b cf3d b081 aa3e
000000e0: ffa9 d73f 0280 b9bd 9a70 8dbf 82f7 4cbf
000000f0: e3ff 0a3e dbee 67be 6852 3a3d a26e d7bf
00000100: e6ea cebe 9bb5 4bbf cce4 243f 6959 053f
00000110: 7932 7d3d c415 db3d f38c 0740 b10f 523f
00000120: 9d6c cc3f 0345 163e 6a7e 573e 5ccd 3fbd
00000130: 0194 a6be 4b70 663e 4c31 0cbd 5053 803e
00000140: a5e7 ed3c 5098 26be b74d b9bc 7e6c cdbd
00000150: 1383 a7be c624 a03d 28b9 59bf 5ba7 86bf
00000160: 5aef a3bd 05d5 01bf 7a2f f63d 6df2 59bf
00000170: 4a4b 9cbe 2d9d 01c0 6424 25be 66a5 9f3f
00000180: 0d1e 363d 3e6b 963f 2f59 67bf 6fcb 90bf
00000190: 39e9 bdbe 3a0f 063f 763c 243e aea4 af3e
000001a0: 32b7 b33d d2c8 163f e24c 36bf 31cc 163e
000001b0: 54be 2e3e 89fc 78be 384d e2bd 84dc 8abf
000001c0: 2409 81bf 40b8 3b3d 1efd bebe 5392 0dc0
000001d0: e8b2 a63d 75dd 8e3f c8ae d1bd 5d20 87bf
000001e0: 24b7 67be 329c 1e3f 5e04 a5bf e005 a93f
000001f0: 0558 5dc0 aba2 97bf b7d0 ca3b 3599 0c3f
00000200: 9f6a 2dbf 3ef8 efbe 5fdc 5c3e c2c1 54be
00000210: 8621 0b3f c94c d33e 9e66 e33e d38c bf3d
00000220: ebe6 dabe 112a 943e ea7a be3e 1520 de3d
00000230: 4171 f43f 4670 f0bd fece 0fbe 323f 8abf
00000240: 8854 263d c7e3 87bf d4f5 113d f0e5 7a3e
00000250: f9cf e03e 6dc4 4dbf db04 143e f35e bbbf
00000260: 0fbf 8fbe c1f0 25c0 ac31 1ebe 6ae2 9ebf
00000270: e8e0 2f3e 8a56 02bf f1e3 45bf 752d 4d3f
00000280: 43df 7f3e c719 e93f a7b4 72bf 8e3b 88bf
00000290: 5a29 f0bf da5a 483f 039c d93b 4654 a83d
000002a0: 1d8d 1840 7f4f a1bd f5a2 873d 2935 1bbf
000002b0: e52d 063e f5d6 d8bf 4208 e63d 0405 a13f
000002c0: b771 98bf bb49 e23e 8900 6d3f 317e d6bf
000002d0: 14d5 4f3f 17b0 9cbf f48a 58be 9630 39be
000002e0: f7c9 8c3f c6a7 e43e a85a 173f 96ba 0740
000002f0: 3b0e bfbe 746f 5d3f 6656 093e 5388 36bc
00000300: 6db3 cbbd 5909 483e bb42 16bf 21ae 653c
00000310: 70d1 913f ba8f dc3d 73cc 28be 7459 83bf
00000320: 18c7 f33c 5e9c 9c3f 90a5 ae3d d16d 463e
00000330: 6cbf a93e 47ed 8c3f 3870 43bf b34d eebe
00000340: e6cf 4bbe 9e04 4a3f abff 93bf c199 3bbf
00000350: f81e 1b3f 582a cb3e 815e 1abf a3ac af3f
00000360: 10f1 da3f a6f5 63bf c05f 0dbe 0e7c 803f
00000370: 96e7 583e 861f e4be c821 98bd 10bd 663e
00000380: 6873 5e3f 367b 9b3d fb46 83bf 9b1b e4c0
00000390: 4ebe bb3d a2b6 6f3f c0aa 323c 69d3 7c3f
000003a0: 127d 253f 9f64 1dbd 7af6 6f3f 50a0 413f
000003b0: b057 3b3f 905a 92bf 3604 173f 112f 0f40
000003c0: 12cf 1b3f 6f0d aa3f c5b4 7a3e 9003 a03f
000003d0: c0b8 07bf e152 883d 3ee9 1a3b e726 43bd
000003e0: 5d03 a8be dfc0 b53e 6f6c 20be 2124 3cbe
000003f0: f752 42bf 60c1 113d d98b 3abf 6f00 e5bf
0.60306644 0.012059405 -0.6244194 0.24927126 -0.049380332 0.5702308 0.12805106 -0.51095617
-1.6658275 0.6516177 -1.0650403 1.2593287 2.0382423 -0.31055892 -2.0183744 -0.07445386
0.7450549 -0.29266593 -2.6638348 -1.440148 -0.6436663 0.53796536 -0.028143406 0.33048254
-0.483049 0.13108633 -0.005132474 -0.18684067 0.12136464 -0.09406924 -0.99364 -2.5022035
-0.07238582 0.6929006 0.110305324 -0.099750966 0.07476467 0.67648226 -1.2440352 -1.3276178
0.173644 0.6082565 -0.72498393 -2.1533518 0.63900244 -0.3376711 -0.010920357 0.21859615
-0.7570393 -0.1508039 0.8311224 -0.70409006 0.06640427 -0.55711836 0.101371 0.3330207
1.6848754 -0.09057619 -1.1049988 -0.80065167 0.13574176 -0.2264971 0.045488745 -1.6830637
-0.40413588 -0.7957398 0.64411616 0.52089554 0.061815713 0.10697511 2.1179779 0.82055193
1.5970646 0.14674763 0.21044317 -0.046826705 -0.32534793 0.22503774 -0.0342267 0.25063562
0.02904112 -0.1626904 -0.022620065 -0.10030459 -0.3271719 0.07819514 -0.8504815 -1.0519823
-0.08004637 -0.50715667 0.12020774 -0.8513554 -0.3052619 -2.0252182 -0.16127163 1.2472351
0.044462252 1.1751478 -0.9037046 -1.1312083 -0.37091997 0.52366984 0.16038689 0.34305328
0.08775176 0.5890018 -0.71211064 0.1472633 0.17064792 -0.24315085 -0.110498846 -1.0848546
-1.0080914 0.04583001 -0.37302488 -2.212056 0.081395924 1.1161333 -0.10238415 -1.0556751
-0.22628456 0.61957085 -1.2891958 1.3204918 -3.4584973 -1.1846517 0.0061894315 0.54921275
-0.67740816 -0.4686908 0.2156844 -0.20777038 0.5434803 0.4126952 0.44414228 0.09353032
-0.427543 0.28938344 0.3720315 0.10845963 1.9097062 -0.117401645 -0.14043805 -1.0800536
0.04060796 -1.0616387 0.03563483 0.24501777 0.4390867 -0.80377847 0.14454977 -1.4638351
-0.28075454 -2.5928195 -0.15448636 -1.2412846 0.17175639 -0.509133 -0.77300936 0.80147487
0.24987511 1.8210992 -0.94806904 -1.0643175 -1.876262 0.7826363 0.0066409125 0.08219199
2.3836129 -0.07876491 0.066228785 -0.6062799 0.13103445 -1.69406 0.11232044 1.2579656
-1.1909703 0.44196877 0.9257894 -1.675726 0.81184506 -1.2241238 -0.21146756 -0.1808494
1.0999135 0.4465925 0.59122705 2.1207633 -0.37315544 0.8649819 0.13411865 -0.011140901
-0.09946332 0.19534816 -0.5869557 0.014018566 1.139204 0.10769601 -0.16484241 -1.0261674
0.029758021 1.223522 0.08527672 0.19377829 0.33153856 1.1009911 -0.7634311 -0.46543655
-0.19903526 0.78913295 -1.1562399 -0.73281485 0.6059413 0.39680743 -0.6030045 1.372456
1.7104816 -0.89046705 -0.13806057 1.0037858 0.21182093 -0.445553 -0.07428318 0.22533059
0.86894846 0.0759186 -1.0256037 -7.12837 0.09167157 0.9363805 0.010904968 0.98760086
0.6464397 -0.038426038 0.9373547 0.7563524 0.73180676 -1.1433887 0.589908 2.2372477
0.6086284 1.328535 0.2448302 1.2501087 -0.5301628 0.06656433 0.0023637558 -0.047644522
-0.32815066 0.3549871 -0.15666364 -0.18373157 -0.75907844 0.035584807 -0.7286964 -1.7890757

linear4.bias f4 [256]
00000000: 1bb1 2abf 218e 7dbf 290d 93bf 16f6 55bf
00000010: db49 8bbe 0b95 8abe 319c 943d e608 96be
00000020: 03b4 7cbf 09f0 18bf deae 3dbe 887b 17bf
00000030: 39d5 06bf f119 983f 1e75 66bf edac 053f
00000040: 6184 e8be 3b16 3bbf cd3e 2bbf 6fce a9be
00000050: e0dd 47bf c749 98bf e76c babf 4e0b c4be
00000060: 0a57 45bf 844a 13be 9abf 933e 82f0 e7be
00000070: 61a8 ac3e 686e a7be 1caf 27bf 5d0d 52bf
00000080: 5265 37bf 21c2 d03f dd8e 9d3f f68a 70bf
00000090: f0bc afbe 073f 8ebe abd6 2fbf 23c2 1fbc
000000a0: 6a9a 8abe 59f0 99bf fa2e b1be e5d9 21bf
000000b0: c0b6 04bf 14c6 703f c837 193e 45b8 15bf
000000c0: aeea 993c f0e6 bfbe 890d 1abd 571a 0bbd
000000d0: cd65 4bbf eb78 d6be a327 19bf 2d95 f4be
000000e0: 4fed 963d 5449 33bf cf49 c6be 3fa7 4cbf
000000f0: 24bc 893f 0d8c 46bf bed3 dfbb a7fe dcbe
00000100: 9f67 0fbf e200 8d3e be74 003d 70fc 5abd
00000110: ed3a d3be 4e80 0d3f 48f5 8cbe 0b5f 52bf
00000120: c418 bebe 8f2d eebe 5ea2 b2be e02f 883f
00000130: 8141 9ebf 85c1 26be 7109 9b3f cc51 8cbd
00000140: cb3a 1b3e d490 b9bd 5d45 2e3d 27a7 08bf
00000150: 6f39 49bf c68d fbbe 6d62 0abf 08ef 45be
00000160: ecbf 28bf 1ce0 bdbe e652 413f 7801 1fbe
00000170: fdc8 91bf 0737 7f3e 0e05 6fbe 84ae 8c3f
00000180: d780 893d 02fe a6be a5bc 90bd 2656 7d3e
00000190: 5172 88bf 357c 2b3f 3036 cfbe e947 56bf
000001a0: 512d 4cbe 09c0 fcbe a3e3 a6be e48b 843e
000001b0: 310e 52bf ce2d 05be 6859 4a3f 7015 febe
000001c0: ec14 0bbf 15d5 353d 4012 5a3c 7cba edbe
000001d0: 3053 ce3d 39b6 13bf e4f7 07bf b6cf 2abd
000001e0: 5c64 cb3e f1a3 86bf 7851 75bd 0854 8c3f
000001f0: 7dbe 91bf 2124 29bf 4e02 92be 03cc ad3e
00000200: eb6c f3be 577e bcbd fe17 cbbe 2774 3abe
00000210: 476c bd3f b772 89be 59c0 33bf 6a68 e8bd
00000220: b699 473e 3d34 b3be 8b73 88bf 0bd5 dbbe
00000230: 7077 4ebf 0093 aa3f eadc d2be 7e24 86bd
00000240: 9966 51be 1feb 63bf fd43 25be d33d 16bf
00000250: e967 313e 95cf 93be fbd3 883e f3fb 0cbf
00000260: d3ce 03bf d039 e33e 222b 85bf b6bd ddbe
00000270: cedd 0dbd a719 cd3d dc1e 0abe ff9a bfbd
00000280: 2e7d b1bd 29b1 ccbd 864d 2abf e036 6cbf
00000290: b184 44bf 76f5 ad3f a6c1 23bc bc08 2d3f
000002a0: 7707 1c3f 01f9 c3be 6bbf b7be 0cac d6bf
000002b0: e4cc 01bf 15ea 86be dae7 6fbe c06a 5d3d
000002c0: 045a 9a3e e535 93bf e607 dc3d 9e9b 8dbf
000002d0: 523b eabe ba0b 893d e167 19be 95fa 8d3e
000002e0: 16dd f8be 14b3 6ebf 3e53 7e3d 634c b0be
000002f0: 56eb 033d 3ae9 4dbf bce2 2abf 66ef e8be
00000300: 3112 fabd 080f 2ebf 65a0 2b3f 960e 16bf
00000310: a863 edbd abce 92bd 041e 7bbe c789 8dbf
00000320: 57c5 e93e 7a2e 883c 333e 82bf f84c 2ebf
00000330: c14b debe 1dd4 58be 1422 3b3c fe74 5ebf
00000340: 7091 1abf 15bc 98bf cfaf 06bf 759a 0d3b
00000350: 2f2c 84bf ca7b 2abe e88f 19bd df12 b63f
00000360: 25e6 1b3f 12d4 263c 836f 153d fef9 4f3e
00000370: 8e00 debe 7d78 71bf d130 40bc 891c dfbe
00000380: 3951 ce3e 7791 cabe de59 5dbf 9dc5 9fbf
00000390: 98d5 96be 913f 61be 041a 20bf 4763 343e
000003a0: ace3 6ebf 74fe 23be b178 233d 2198 28bf
000003b0: d843 983e cb91 6c3d 7c57 44be 1dbf 96be
000003c0: c788 42bf c16b dbbe d576 3dbe 6a6a 5abf
000003d0: 7508 223e bb8e 10bf 2db9 65bf f5a0 fb3e
000003e0: 77ec ddbe f25a d73c b21c 2d3f a58f 53bf
000003f0: 8dfd be3e d441 26bf 315c 103f bb32 953c
-0.6667649 -0.99044997 -1.1488391 -0.8357862 -0.27204785 -0.27066836 0.07256354 -0.29303664
-0.98712176 -0.59741265 -0.18523738 -0.5917287 -0.526691 1.1882917 -0.90022457 0.5221699
-0.45413497 -0.73080796 -0.668927 -0.3316531 -0.7807293 -1.1897515 -1.4564484 -0.38289875
-0.77085936 -0.14383894 0.28857118 -0.4530068 0.33722213 -0.3270142 -0.6550157 -0.8205164
-0.7163898 1.6309243 1.2309223 -0.9396204 -0.34323835 -0.2778246 -0.6868693 -0.009750876
-0.27070934 -1.2026473 -0.34606153 -0.63223106 -0.51841354 0.94052243 0.14962685 -0.584843
0.018788662 -0.3748088 -0.037610564 -0.033960667 -0.7945221 -0.41889128 -0.59826106 -0.47770062
0.07369482 -0.70033765 -0.38728186 -0.799427 1.0760541 -0.7755745 -0.0068306616 -0.43163034
-0.5601749 0.27539736 0.031361334 -0.0534634 -0.41255894 0.552739 -0.27530885 -0.82176274
-0.3712827 -0.46519133 -0.348895 1.063961 -1.236374 -0.1628476 1.2112256 -0.06851539
0.15159146 -0.09060827 0.04254662 -0.53380054 -0.7860326 -0.49131602 -0.54056436 -0.19329464
-0.6591785 -0.37085044 0.7551712 -0.15527904 -1.1389462 0.24923335 -0.23341772 1.0990758
0.067140274 -0.32615668 -0.07067231 0.24739894 -1.0659887 0.669864 -0.4047103 -0.83703476
-0.19939162 -0.4936526 -0.32595548 0.25887978 -0.82052904 -0.13005754 0.79042673 -0.4962573
-0.543288 0.044392664 0.013310015 -0.4643134 0.100744605 -0.57699925 -0.53112626 -0.041701995
0.39725006 -1.0518781 -0.059892148 1.0963144 -1.1386257 -0.66070753 -0.28517383 0.3394471
-0.47544035 -0.09203785 -0.39666742 -0.18208371 1.4798669 -0.26845333 -0.70215374 -0.113480404
0.1949223 -0.35000792 -1.0660261 -0.42935976 -0.80651 1.3326111 -0.4118417 -0.06549929
-0.20449294 -0.8903064 -0.16139217 -0.58688086 0.17324795 -0.2886931 0.26724228 -0.55071944
-0.51487464 0.44380045 -1.0403788 -0.433088 -0.034635358 0.100146584 -0.13488334 -0.09355735
-0.08666454 -0.09994728 -0.6652454 -0.9227123 -0.7676497 1.3590534 -0.0099949 0.6759145
0.6094889 -0.38275912 -0.35888228 -1.6771255 -0.50703263 -0.26350465 -0.23428288 0.054056883
0.301468 -1.1500822 0.10743694 -1.1063116 -0.45748383 0.0669169 -0.14981033 0.2773024
-0.48606175 -0.93242 0.062091105 -0.34433278 0.032206856 -0.80434 -0.6675222 -0.45495147
-0.12210501 -0.67991686 0.6704162 -0.58616006 -0.115912735 -0.07168325 -0.24523169 -1.1057671
0.4565837 0.016623724 -1.0175232 -0.68086195 -0.4341717 -0.21174665 0.011421699 -0.86897266
-0.6037817 -1.1932398 -0.5261201 0.0021606956 -1.0325984 -0.16648784 -0.037490755 1.4224509
0.6089805 0.010182397 0.0364833 0.20310208 -0.43359798 -0.94324476 -0.011730389 -0.43576458
0.40296343 -0.39564106 -0.8646525 -1.2482182 -0.29459834 -0.21996905 -0.62539697 0.17615996
-0.9331615 -0.16015035 0.039910022 -0.6585713 0.2973926 0.057756227 -0.19173998 -0.29442683
-0.75989956 -0.42855647 -0.18502362 -0.85318625 0.15823539 -0.5646779 -0.8973568 0.49146238
-0.4334447 0.026288483 0.6762191 -0.8264106 0.3730282 -0.64944196 0.5639067 0.018212667

linear5.weight f4 [256, 256]
00000000: 29de 7fbd 07f9 b63d be54 f1bc fc47 34bd
00000010: 1b11 2fbd 029e 0bbe 689c cebd 8f0b 013c
00000020: 3ed2 00be ede1 f83c f6a0 8cbd 5051 91bd
00000030: 4e99 a5bd aa6a b2bd ebb6 353d 3c3f 4fbd
00000040: b86d 4fbd 01c2 cdbd e8a0 063d 7e18 233c
00000050: 1a6e d13c d638 c3bd ba84 f8bd fc75 efbd
00000060: e1ee 3f3d aabd 813d 1993 43bd f7b2 45bd
00000070: 24cb 353c f4ba 6ebd 033f 11bd c54c 043d
00000080: 27f4 69bd a7d4 043d 7b55 973d d946 a9bd
00000090: 93f0 b9bd d467 973d eb75 f7bd 4ede 783d
000000a0: e870 353c ba98 923d 19ab ec3b 4343 d03c
000000b0: 90f7 b8bd c7e5 4fbd 4e0a a13d 8aca 7b3d
000000c0: e4ca 03be f4d4 733d 1079 843d edb9 b339
000000d0: c158 8fbd 3129 63bd 3f85 4abd 93af cfbc
000000e0: aff2 e3bc 34ab cdbd 425b ecbd 8177 eebd
000000f0: 86c9 10be ae8f 14bd d983 7cbd d618 813b
00000100: c80a b9bd 9050 0e3c 5040 a63d 92f4 87bc
00000110: 0e9d 07be 1fb5 4a3d 457c cc3c 6251 373b
00000120: c7c3 323d d99e 71bc bf30 7ebd 1112 653d
00000130: c57c 1e3d 0d72 50bd 260f 2a3d 7719 7c3d
00000140: 44d7 58bd 50f2 05be 0478 05be 865f e3bd
00000150: 7058 d3bd 9a93 543d 69e4 313d 0694 403c
00000160: 94bd d33b 03b5 8dbc d7cf 80bd 4b51 a5bd
00000170: 5fd3 dd3c 918c 093d 0530 7e3d 969c 523d
00000180: ec75 b8bd 5c52 1fbd 5326 323d 0ff6 55bd
00000190: 45fb 59bd 1c0e c737 00e4 8abd 6e63 43bc
000001a0: 6ff4 c1bd f536 70bd d384 a7bd 42a4 17bd
000001b0: efb6 903b 6d7d b7bd 87b6 303c 1bc1 53bc
000001c0: c369 8bbd cd5e e0bd 4813 e9bd 44d2 bdbc
000001d0: bf5b 0ebe 79f6 f13c e53c 433d be68 41bd
000001e0: 8620 2f3b cebd acbd 57b9 f7bb 0dac 93bd
000001f0: 34fe c6bc a0d8 b9bd fdb9 b8bd fb45 e4bd
00000200: d83a 3cbd c945 8ebd 8707 f03b be18 3b3d
00000210: 758f ffbd be5b 92bc f5bd 8b3d 47e1 eebc
00000220: 085c fb3c 0590 113d f77f b93d 1463 91bc
00000230: 0719 503d 2235 b8bd dbf8 88bd bff2 c9bd
00000240: 1429 e6bc a9b2 f3bc b7ce 18bd b802 b1bc
00000250: b75d 7fbd c4aa d23c 2195 8ebc 7b2d 30bd
00000260: 9b74 c1bd 10b4 0bbd ae0d c8bc 7727 b3bd
00000270: 3fef e5bd 768e 063d d888 963d f8d6 96bd
00000280: f685 c9bd da67 2cbb 7405 c93c 09f9 9c3d
00000290: 2c79 cc3c 6619 1bb9 3cfa b93c a06b 11be
000002a0: 2302 933d 830b d7ba b952 67bd d5b9 0a3d
000002b0: 86c3 43bd f3c8 bdbd 6fe0 273d 9813 9dbd
000002c0: d311 c9bd f702 383d 59af 233d 87e5 5abd
000002d0: 0232 753c fed0 013b 3515 9cbd 1288 fabc
000002e0: 4ff7 c3bd f7f7 823d ce21 b8bc 2db8 9b3d
000002f0: 538a d9bc f561 c2bd bf44 363d 9c03 d73c
00000300: fcf5 3d3c fef0 21bc 54e5 583d de7c c2bb
00000310: e3b9 26bd 7321 203c da74 03be 6176 1abd
00000320: ff8f f1bd 3bcf 2abd 0a28 05be f197 173d
00000330: 94ab 38bd 8dd9 16be b4ac 52bd d3b1 61bd
00000340: fecb a13c 07a9 ee3c 257e a9bd fea1 21ba
00000350: d811 753d 0596 1dbc 5b07 a2bc 0776 843d
00000360: 0f2a 0ebe 0548 403d 965b d1bc f44b 753d
00000370: f26a 94bd b351 62bd 6842 aabc a765 e5bc
00000380: ca12 4a3d ddc1 873d 30b3 e03c 6303 1b3d
00000390: 55fa e53b bf4d 5c3c da8d 323d f4e7 a23d
000003a0: 9231 9dbd a148 abbd ebc8 a5bd 6bdf 8ebd
000003b0: a16c 65bd 2e29 4d3d 8436 cebc 2b43 e1bd
000003c0: fd9d e4bb 92f3 cfbc 1eb2 82bd 212e 39bd
000003d0: 993a 2a3d 267d 583d fc8f a73d 2edd cebc
000003e0: 3e0a 0bbd c13f 9f3b 2645 5c3d e360 9a3c
000003f0: 322c fabd 446b 283c d450 97bd 4c5f 68bd
-0.062467728 0.08934217 -0.029459354 -0.044013962 -0.042740922 -0.13634494 -0.10088426 0.007876291
-0.12580201 0.030381167 -0.06866638 -0.07095587 -0.08085881 -0.08711751 0.044363897 -0.050597414
-0.050641745 -0.10046769 0.032868296 0.00995457 0.025565196 -0.09532325 -0.121346906 -0.116924256
0.046858672 0.06335004 -0.047747705 -0.048266377 0.011095796 -0.05828376 -0.035460483 0.032299776
-0.057117607 0.032429364 0.07389351 -0.08265466 -0.09079089 0.073928505 -0.12083038 0.06075888
0.011074282 0.071580365 0.007222545 0.025422698 -0.09031594 -0.050756242 0.078632936 0.061472453
-0.12870365 0.05952926 0.06468403 0.00034280066 -0.0699935 -0.055459205 -0.04944348 -0.025352275
-0.027825681 -0.1004242 -0.115408435 -0.11643887 -0.14139375 -0.036269836 -0.061649177 0.0039397283
-0.090352595 0.0086862 0.081177354 -0.016596112 -0.13243505 0.049489137 0.0249616 0.0027972092
0.04364374 -0.014747345 -0.062058207 0.055925433 0.03869321 -0.050890017 0.041518353 0.061547723
-0.05293967 -0.13080716 -0.13034064 -0.11102204 -0.103196025 0.051898576 0.04343072 0.011754042
0.0064618085 -0.017298227 -0.06289642 -0.08072146 0.027078329 0.03358132 0.062057514 0.051418863
-0.09006867 -0.038896903 0.04349358 -0.052236613 -0.053218145 2.3729219e-05 -0.06781769 -0.011925561
-0.0947045 -0.05864616 -0.08179631 -0.037021883 0.0044163386 -0.0895947 0.010785705 -0.012924458
-0.06807282 -0.10955582 -0.11380631 -0.023171552 -0.13902186 0.029536473 0.047665495 -0.04721903
0.0026722266 -0.0843464 -0.007559936 -0.072105505 -0.024291135 -0.09074521 -0.090198494 -0.1114616
-0.045954555 -0.06946904 0.007325116 0.045677893 -0.12478534 -0.017866012 0.06823341 -0.029160155
0.030683532 0.03553774 0.090576105 -0.01774744 0.050805118 -0.08994509 -0.066880904 -0.09860753
-0.02809576 -0.029748278 -0.037306514 -0.021607742 -0.062345233 0.025716193 -0.017405095 -0.043012124
-0.09446069 -0.034107268 -0.024420585 -0.08747762 -0.11227273 0.032850705 0.073503196 -0.07365221
-0.09840004 -0.0026307018 0.024538733 0.07664687 0.024960123 -0.00014791414 0.022702329 -0.14201212
0.07178142 -0.0016406629 -0.056475375 0.03386863 -0.047793888 -0.09266844 0.04098552 -0.07669753
-0.09817853 0.044924702 0.039962146 -0.05344155 0.014965536 0.0019808407 -0.076212324 -0.030582462
-0.09568655 0.06394952 -0.022477057 0.07603488 -0.026555216 -0.0949134 0.044499155 0.026246838
0.011594292 -0.009884117 0.05295308 -0.0059352955 -0.04070462 0.0097736 -0.12837544 -0.03771055
-0.11795043 -0.041701537 -0.13003555 0.037010137 -0.045085505 -0.14731427 -0.051434234 -0.055101227
0.019750591 0.029133333 -0.08276013 -0.00061658013 0.05983147 -0.009618287 -0.019778898 0.064678244
-0.13883232 0.046943683 -0.025556367 0.059886888 -0.07246961 -0.055253696 -0.020783618 -0.028002573
0.049334325 0.06628773 0.027429193 0.037845027 0.0070183673 0.0134462705 0.04359231 0.07954398
-0.076754704 -0.08363462 -0.08094963 -0.06976207 -0.0560118 0.0500881 -0.02517248 -0.109991394
-0.0069768415 -0.025384698 -0.063816294 -0.045210008 0.04155979 0.052853726 0.0818176 -0.025251951
-0.033945315 0.004859895 0.053776883 0.018845027 -0.12215461 0.01027948 -0.073884636 -0.056731507
