Project-3_Collaboration_Competition-Tennis-Maddpg/dir_chk_1700d_episodes/checkpoint_critic_1.pth (torch_old, 31437 bytes, 5 tensors)

fcs1.weight f4 [64, 52]
00000000: b578 703d 7a53 1b3f 386b 30bd 6ce9 ca3d
00000010: 7aac 6dbd 6180 8e3d 35c4 043b 97f5 d1bd
00000020: 23bc 273d 732f 4d3f 154d 2ebd cef0 f13d
00000030: 2268 6e3d fb67 c33e ad08 833d 9d5b 7c3d
00000040: 476a ff3d a059 4f3f 8adb 85bd 523b 863e
00000050: 26bd 163e 8aba 82bf b06f 183e 1cbb 453e
00000060: 4750 873e 92ef 363f 9000 a93d 9c1a 8d3c
00000070: 633b 88bd c24c b63d 9ee0 84bd e23c 183c
00000080: 9568 513e c05e 393e aefd 1abd aa7e 81bc
00000090: f165 8cbd 179b de3e 8a4a 563d fbc0 b3bc
000000a0: 3833 1f3e 3af3 0cbd 3808 183d cbe1 ac3d
000000b0: be46 16be 6f9b 71bf d270 683e c83a a93c
000000c0: 0275 a6be 8c63 1b3d b43c 10bf 2d5a 36bd
000000d0: 2869 e13d 1dc6 bbbe 9d85 303d 7da7 b6bb
000000e0: 1dd9 713e 4053 3b3d a15c e03c 786f 763d
000000f0: 12d8 30bd 81b3 d0be cf44 603d 9da1 13bd
00000100: 8914 973d 28fc f23d bc97 a4bd 23b4 4c39
00000110: bea9 113a 35dd 8cbe 376a d1bd b642 7dbc
00000120: d66c 173e 8d9a 1e3e 0b04 183d 1586 8c3c
00000130: 0e17 fe3c 0aad 0f3e ff8f 173c d2ae 013e
00000140: e506 79bd 50d8 2abe a1f6 05bd a40c 033c
00000150: 96d2 78bc b313 ad3d 769c 01bc 713c 1d3e
00000160: 572e bfbd 58cf 743d 99a1 96bc bdf7 42bc
00000170: 412f d53d f01a a23e f74f 04bd 5b6a 92be
00000180: f50b 9bbd b5a5 a13d 00f7 9e3d 468e 45be
00000190: 8af8 2dbf a68b 9cbc f151 653f f8de 3cbe
000001a0: e323 1abd 3c3d 1d3f 49f9 0c38 44a2 ad3d
000001b0: 829f 963d 5607 573e cd98 89bc 2dbc 07bd
000001c0: 607a b43d 493a 7c3f e558 bbbd 2101 313d
000001d0: b744 e43c a06c d93d daca fabc 10b8 553b
000001e0: 1996 133e 10fa 6b3f c5d0 2b3d 242b 113e
000001f0: 6c3d 5dbc c7d1 843e 7279 70bb 5819 873e
00000200: 09ac 113d 9a32 02bf 47cf 113d a738 fc3d
00000210: 9d1a 68bd 726a 503e 01eb 49bd 5f9a c93d
00000220: 5957 623d 15c0 153c 46e2 4d3b 4b17 3d3c
00000230: 846b e9bd 3fca 783e c557 b03c efc7 753c
00000240: 5892 c63d dadd 91bc c1cc 893d bd86 373d
00000250: 6576 2cbe f182 233e 6c5a 41bd b54c 873d
00000260: aeb2 0f3f 9fd2 993c 4731 f13c ebc1 e8bd
00000270: 30c0 6d3e e1fb c83e 8e91 e3bc f18d a9bd
00000280: b329 a4bd 4606 a8bd b862 e13c e7fe bfbc
00000290: 8444 123e 75b6 933e e68f d3bd aa87 08be
000002a0: bdb3 8dbe 5de1 9e3d 6c89 693d 5784 85bc
000002b0: f252 3e3e 0570 5dbe d2c5 a33b 1ac5 413d
000002c0: 0ff8 89bd 8cb7 1f3e d8d3 5f3d 5188 5b3e
000002d0: ef46 c43d 424d 82bd 5eed 58bc 927b bbbc
000002e0: af6a a33d 6015 4abe 739e fb3c 4fa1 9cbd
000002f0: 1001 863d c34f 893d 2825 51bd 0dbc 913e
00000300: 1b0d ce3e 05b4 91bd 16e7 14bd b316 b43e
00000310: ed7a 8e3a d4c4 b63b 24f6 cbbc 8701 bc3e
00000320: 057b 4bbd 2a1c 973c 4c09 8a3c 9b4e 513e
00000330: e9c8 65bf 65e0 013f 4f36 b23f 483e a0bd
00000340: 6d6d d7bd ab89 273d b34b 9a3d 3c00 c6bd
00000350: 3673 493e caca d5be da85 0abe 094d 08bd
00000360: 12e4 f83c a72d c6be 3ff5 503d 3590 973d
00000370: bceb 22bd c062 87be 15f2 993d fb6f 433a
00000380: ac46 203e 264b 87be 7dd6 9fbd 50eb c53d
00000390: 98c6 48bb 626e e33e e105 bc3d 713b 9b3e
000003a0: bba7 d3bd 0b32 0abe 25c7 e1bd f007 0dbc
000003b0: 3097 2bbe be9f c6be 9fc7 ad3d 3533 993d
000003c0: 862f 29bd e237 fc3c cea8 c23d 92c2 7f3d
000003d0: 3640 0d3d 9b67 d2be e3b1 01be 90e4 653d
000003e0: 1849 1d3d aa3b 1d3e 4123 283c fa85 d03d
000003f0: 0355 e6bd 5a4a b53e cfab 8c3d f8f3 8fbd
0.058708865 0.6067425 -0.043071 0.09907803 -0.058025815 0.0695808 0.002025855 -0.10251921
0.040950906 0.80150527 -0.04255398 0.11813508 0.058204778 0.38165268 0.06398139 0.061610807
0.12471443 0.8099613 -0.065360144 0.26217133 0.14720592 -1.0213177 0.14886355 0.19309658
0.26428434 0.71459305 0.082520604 0.017224602 -0.06651952 0.08901359 -0.06488155 0.009291859
0.20450051 0.1810255 -0.037839584 -0.015807468 -0.06855381 0.434777 0.05231718 -0.021942606
0.15546882 -0.034411646 0.037117213 0.08441504 -0.14675424 -0.943778 0.22699288 0.020657912
-0.32511145 0.037936732 -0.56342626 -0.044519592 0.11006385 -0.36674586 0.043096174 -0.0055741654
0.23617978 0.04573369 0.027387919 0.0601649 -0.04317481 -0.4076195 0.05475312 -0.0360428
0.07376964 0.11864501 -0.080367535 0.00019522062 0.00055566046 -0.27512518 -0.10225337 -0.0154578
0.14787611 0.15488644 0.03711323 0.017153779 0.031016853 0.14030853 0.00925064 0.12664345
-0.06079759 -0.16684079 -0.032705907 0.007998619 -0.015186926 0.08451023 -0.007910838 0.15355088
-0.093350105 0.05976805 -0.018387603 -0.011899886 0.104094036 0.31661177 -0.032302823 -0.28596768
-0.0757064 0.07892934 0.07761955 -0.19292554 -0.67957366 -0.019109558 0.8957816 -0.18444431
-0.03763188 0.6142156 3.3610766e-05 0.08478215 0.073546425 0.20998892 -0.016796494 -0.033138443
0.08812404 0.98526436 -0.09147815 0.043213967 0.027864797 0.10616422 -0.030614305 0.003261093
0.14412726 0.9217844 0.041947145 0.14176613 -0.013503414 0.25941297 -0.003669348 0.26386523
0.035564456 -0.5085846 0.035598066 0.12315493 -0.056666005 0.20353106 -0.049296383 0.09843897
0.055259082 0.009140034 0.0031415387 0.011541198 -0.1139746 0.24295901 0.021526227 0.015001281
0.096958816 -0.017805982 0.06728507 0.04480623 -0.16842039 0.15967919 -0.047205374 0.066064276
0.5613202 0.01877719 0.029442443 -0.11365112 0.23217845 0.39254668 -0.027779367 -0.08279026
-0.08015766 -0.082043216 0.027512893 -0.023436977 0.14283949 0.2885014 -0.10330181 -0.13333002
-0.27676192 0.077578284 0.05701582 -0.016298456 0.18586329 -0.21624763 0.0049979473 0.04730711
-0.067367665 0.15597361 0.05464539 0.2143872 0.09583842 -0.06362392 -0.0132401865 -0.022886071
0.07979333 -0.19734716 0.030715203 -0.07647955 0.065431714 0.067046665 -0.051060826 0.28463784
0.40244374 -0.07114414 -0.036353193 0.35173568 0.0010870375 0.005577663 -0.024897642 0.36719915
-0.049677867 0.018446047 0.016850136 0.20440142 -0.8975969 0.50733024 1.3922824 -0.07824379
-0.10518918 0.040902775 0.0753397 -0.096680135 0.19672856 -0.41756278 -0.13527623 -0.03327659
0.03038219 -0.38706705 0.051015135 0.07400552 -0.039775595 -0.26442528 0.075168766 0.0007455346
0.15651959 -0.2642452 -0.07804582 0.09664023 -0.003063595 0.44420153 0.09180809 0.30318788
-0.103347264 -0.13495652 -0.11024312 -0.0086078495 -0.16756892 -0.3879375 0.0848534 0.0748047
-0.041305088 0.030788366 0.09504853 0.062441416 0.034485064 -0.4109467 -0.12665515 0.056126177
0.038399786 0.15354791 0.010262311 0.10181804 -0.112466834 0.35408288 0.068687074 -0.07028955

fcs1.bias f4 [64]
00000000: 490a e4bc 8d89 6dbe ac51 56be 4985 9a3e
00000010: b903 5bbe f376 70be 619d 00bf c8eb 62bd
00000020: 3bba 8abb b91c dd3d 4ed0 65be c2ed 54be
00000030: a956 1e3e 34dd 39bf 2401 02be 175f 85bd
00000040: 86fb e9bb 9063 c2bc dd81 b73b 9f2b 88bd
00000050: 14d8 36be 0f45 7ebe 8ff4 2fbd 3141 f83e
00000060: c575 aa3d e9b4 4bbc d990 d0bd f57e 133e
00000070: f31c 60be 79ee 1b3d 78b7 4cbe a5a4 31be
00000080: bb61 5bbe 1fca 103d 398d d5be 813c 993d
00000090: 2e57 24be 6756 b1bd 8e1d 59be 4c97 33bf
000000a0: 5a03 193d 14e9 0bbe 0e19 d33c d451 02be
000000b0: e90b dbbd 2f58 4ebe 68dc 063e 83a1 ac3c
000000c0: 871e a4be 3c89 3dbc 1c16 c0bc b142 23be
000000d0: 82b7 8fbc ce77 dabc a281 093e c624 ab3c
000000e0: 854b 69bc 4e5f 90be 0aa7 603d 607d afbd
000000f0: dd77 d23d 6ba7 173d 8d9f 38be 315d fd3c
-0.027836936 -0.23197003 -0.20929593 0.30179814 -0.21388139 -0.23482876 -0.5024014 -0.05540064
-0.004233626 0.10796494 -0.22442743 -0.20793822 0.15462746 -0.72603154 -0.12695748 -0.065122776
-0.0071405796 -0.023729116 0.0056001977 -0.06648945 -0.17855865 -0.24831031 -0.04295784 0.48487237
0.08323244 -0.012433269 -0.101838775 0.14403899 -0.21886043 0.038069222 -0.19991863 -0.17347963
-0.21424 0.035349008 -0.41709307 0.07482243 -0.16048881 -0.08659058 -0.2120268 -0.70152736
0.037356712 -0.13663131 0.025768783 -0.12726527 -0.10695631 -0.20150827 0.13170016 0.021073109
-0.3205454 -0.011568364 -0.023448043 -0.1594341 -0.017543558 -0.026668455 0.13428357 0.020891558
-0.014239197 -0.28197712 0.0548468 -0.08568835 0.10276768 0.037024897 -0.18029614 0.030928226

fc2.weight f4 [64, 64]
00000000: 3057 dcbd 07b9 9e3d 7ead 5f3d 210b 8ebd
00000010: 0167 ecbe 9c68 203d 1174 163e 40c1 c9bc
00000020: fcdf 07be b270 4bbc 665f b6bd 94e7 7bbb
00000030: 1093 893a dbab 3f3d 48cb f4bd ec2e f93c
00000040: 5b11 e63d 9bf6 11be cda7 19bd a7d9 953d
00000050: 50af b63d 4b02 63be 3df0 31be d1ef 283e
00000060: ee4f 943d 188c 6bbd 0968 45be 9dd2 b2bd
00000070: 33fd adbc 0f22 09be 9420 dabd 5470 24be
00000080: f687 09bd 3a2e 523e 7689 14bd c8fe 743d
00000090: 1eee f0bd c83b 28bc f27f ed3d 110b bebd
000000a0: 44f2 353d 9165 41be 7b4e 14be 0afc dcba
000000b0: 6d61 213e c180 f3bd 667b 3e3e 7d7c 333e
000000c0: e9a4 a03d 6d3c 2cbe 90dd 673d fed3 123e
000000d0: 783e 0bbf e9f6 f8bd 18b5 13bd f84b bf3d
000000e0: bc72 4f3d 76c4 693e 6ae6 ba3d a0a4 9fbc
000000f0: 0792 23be 5d5b fd3d efa9 1c3e 650e babc
00000100: fb97 a4bd 6d9b 5bbd 9cad 13bd 4854 06bc
00000110: 3ad2 de3c 853a 3d3c dd8f 223c d7d7 8a3c
00000120: 73c2 3fbd 6613 b3bc 14c4 2ebb 3f29 ebbd
00000130: 9cdc 113e 30b4 ad3b e72d 2f3d 1f26 febd
00000140: d3fc 83bb eb1f 9f3d 07be d53c 8c18 e33d
00000150: 0b4b 35bd c721 983e beb7 cb3d 2c8b ccbc
00000160: 62f7 33be 9428 543c 6cc8 0abe 8f60 0fbc
00000170: a249 f0bd 43df dfbd 1524 eb3c 188e 523c
00000180: a395 033d eb99 433e 5df9 9e3d ce4b 78bd
00000190: 4a69 193c e325 89bd e25f 893d b3f3 7bbd
000001a0: bda7 923d 2013 be3d 9bc5 9b3d 2e95 d8bc
000001b0: 842f 0d3c a1a9 303d 244f 7ebd 93ab b83d
000001c0: ffd4 ac3c d052 d13d 200c 0fbd 6ba5 d4bd
000001d0: a7e4 eb3d 8ce8 083e 28ff 85be 2aa6 483d
000001e0: 750c ae3d b587 a43d 5ea6 aabd f445 b9bc
000001f0: 8326 a2bc fbc5 5cbd d153 2d3e c6af 0c3d
00000200: 7c24 b2bd 0e26 e03d c48f 2abe 3a26 3b39
00000210: 24d5 c23d 37a8 793d cf25 c93d b0cc 7a3c
00000220: 77ee a23d 1dd4 2d3d 7bff cdbd 5e56 85bd
00000230: d49c a83d 7961 3cbd e651 80bd 05a5 8b3d
00000240: 2e95 6fbe 2976 55bd 6a49 8abc 526b 81bd
00000250: a6b0 c13d a293 ee3b 12b4 3dbb ace9 5dbe
00000260: 47a1 49be 300c 003d a7c7 f7bd eeab 0e3e
00000270: 561f 8fbd a014 79bd c358 a23d 807d f03c
00000280: 91a4 bfbd f218 30bc f531 0ebe 99d8 d1bb
00000290: 093b df3d 189d 0cbd 9eee 9b3d 201a 2d3c
000002a0: ffb7 0d3e bda2 68bc dcdf 903e bda7 4fbe
000002b0: 2375 273e 641e 93bd fad8 5b3e d6d6 0a3d
000002c0: 0141 34be c6e8 00be 6582 b5bd bcb3 14be
000002d0: edb5 19bc e413 3dbc 4c05 36bd 2b24 94bd
000002e0: 43e6 a03c 129b 9b3c 7c42 78bd 1848 943d
000002f0: f623 81be 80d6 83bd 5214 0e3e b315 1f3c
00000300: 00fa 8cbe bb06 e2bc 7169 d83d 05ff 5abe
00000310: dc1b 0abc bf5f 2fbd a67b 07be 0da8 a23d
00000320: 1a56 e7bc df56 a43c 6f33 d3bd de9d f53d
00000330: 1094 29bf 79e8 dfbe 1ec3 253e f7a8 b33d
00000340: 06db 51be ebc1 9ebd a7a6 41bd fdd4 8dbe
00000350: b340 133e cf58 6f3e 01a9 a63d 3f90 8dbd
00000360: 0a93 4e3e ee04 ca3d 9c6f d33c 95aa c4bc
00000370: c1ea ec3c 0ded 3b3e 33e9 12bd 8849 f3bd
00000380: 03e0 563d c27d 063e df9b 04bc a340 d33d
00000390: db19 603d 0017 b2bc 45ad 7e3b f34d c03d
000003a0: 98d5 1cbd 489d e83d fca8 b33d f7e1 d2bd
000003b0: 5231 93bd 3e3c 043e ad20 a6bd 9e29 96be
000003c0: 7937 afbe 54be 633c 12e2 26bd 3542 fc3d
000003d0: ef0a 48be 8640 2dbe 93b7 bb3d 31fb cfbd
000003e0: 70cb 10bd 589b 81be 5f95 adbd 7527 80bb
000003f0: 2d99 583d 77d9 a83d 4a86 fbbd 5468 e43c
-0.10758817 0.07750135 0.054608814 -0.069357164 -0.46172336 0.039162263 0.14692713 -0.024628282
-0.13269037 -0.012417005 -0.089049146 -0.0038437592 0.0010496099 0.046794754 -0.11952835 0.030417882
0.11233779 -0.14254229 -0.037513543 0.073169045 0.08920157 -0.22168843 -0.173768 0.16497733
0.07241808 -0.05750665 -0.19277968 -0.087315775 -0.021238899 -0.13391899 -0.10650745 -0.16058475
-0.033576928 0.20525447 -0.036263905 0.05981329 -0.11764167 -0.010268159 0.11596669 -0.092794545
0.044420496 -0.18886401 -0.14483063 -0.0016859781 0.15759821 -0.11889792 0.1860176 0.17527957
0.07843954 -0.16819926 0.056607783 0.14338681 -0.54392195 -0.121564694 -0.036061376 0.09340662
0.05064653 0.2282885 0.09125979 -0.019487679 -0.15973674 0.12370942 0.152992 -0.022711942
-0.080368005 -0.053615022 -0.03605424 -0.008198805 0.027199853 0.011549597 0.009921995 0.016948624
-0.0468163 -0.021859836 -0.0026667165 -0.114824764 0.14244312 0.005301021 0.042768385 -0.12409615
-0.0040279417 0.0776976 0.026091589 0.11088666 -0.04426102 0.2971327 0.099471554 -0.024968706
-0.17574838 0.012949128 -0.13553017 -0.008751049 -0.11732794 -0.10931256 0.028703729 0.012851261
0.032125127 0.19101684 0.07762406 -0.060619168 0.009363482 -0.066966794 0.06707741 -0.061511707
0.071609 0.092809916 0.076060496 -0.026438322 0.008617286 0.04313052 -0.062087193 0.090171
0.021097658 0.10220873 -0.034923673 -0.103831135 0.11518221 0.1336996 -0.2617123 0.04898659
0.0849847 0.080336966 -0.08332513 -0.022616364 -0.019793754 -0.053899746 0.16926505 0.034347318
-0.08698365 0.10944758 -0.16656405 0.0001784795 0.095133096 0.060951438 0.098216645 0.01530759
0.0795564 0.042438615 -0.10058495 -0.06510614 0.082330376 -0.045991395 -0.06265621 0.06818584
-0.23396751 -0.05211464 -0.01688071 -0.06319298 0.09457521 0.007280783 -0.0028946442 -0.2167117
-0.19690429 0.031261623 -0.120986275 0.13932773 -0.06988399 -0.060810685 0.07927086 0.029356718
-0.093575604 -0.010748135 -0.13886245 -0.0064039943 0.10899932 -0.034329504 0.07613872 0.010565311
0.1383972 -0.014198956 0.2829579 -0.20278831 0.16353278 -0.07183531 0.21469489 0.03389629
-0.17602922 -0.12588796 -0.088627614 -0.14521688 -0.009381753 -0.011540387 -0.044438645 -0.07233461
0.019641047 0.018994842 -0.06061028 0.07240313 -0.2522275 -0.06437397 0.13874939 0.009709763
-0.27534485 -0.0275911 0.10566986 -0.21386345 -0.008429494 -0.04281592 -0.13230762 0.079422094
-0.028239299 0.020060955 -0.103125446 0.119930014 -0.6624155 -0.4373205 0.16187713 0.08772462
-0.20493707 -0.07751831 -0.047278073 -0.2770156 0.1438015 0.23373722 0.08137704 -0.069122784
0.20173278 0.098642215 0.025810055 -0.024007121 0.028920533 0.18352146 -0.035866927 -0.11879259
0.052459728 0.1313391 -0.008093803 0.10315063 0.054712158 -0.021739483 0.00388606 0.09389868
-0.038289636 0.11358124 0.087724656 -0.102970056 -0.071871415 0.12913606 -0.08111701 -0.29328626
-0.3422201 0.013900358 -0.04074294 0.123173155 -0.19535421 -0.16919145 0.091658734 -0.10155333
-0.035350263 -0.2531383 -0.08475756 -0.0039109536 0.052880455 0.08244603 -0.12281473 0.027881779

fc2.bias f4 [64]
00000000: 7d55 213e e7f0 923e 0ad9 0e3e 04b7 463d
00000010: f8d5 5a3e d34e 6d3e 4714 0b3e 1636 4e3d
00000020: 1a02 02be 4fd4 74be 6a9d 453e 6488 573e
00000030: ef3f 54bd b04f 143e e2fb 67be 7ace afbe
00000040: 00b0 1a3e fc7d 213d 523f 003d cf88 1c3e
00000050: 6df3 00bd ae77 07be c1e0 9f3e 21b0 ef3d
00000060: 38bf 043e 1b04 163d c4e3 6c3c c4a5 123e
00000070: 163e 97bd 5679 6abe 3ced 733e f4fe 87bd
00000080: cfd9 3bbe 10c8 213e 22c2 25be bfc3 373d
00000090: aeed 8b3d ff4b f13d 22fc a1be d4cd 1abe
000000a0: 5f6d 4fbe ecd4 dabd 4355 12be d246 21be
000000b0: c0e2 8c3e 6dd1 0c3e 9ce0 44bc 74b5 8a3d
000000c0: 06a5 f1bc 8a2b d4bd 5e30 ebbd 842a bb3e
000000d0: 9379 983e a960 3abd 16d3 9a3c 8bec a23d
000000e0: 30c0 3fbd 28ce 193e de28 c83d 3349 b63d
000000f0: 139c 87bb b5e3 8cbe 15a5 633d 8938 a9be
0.15755267 0.2869942 0.13949981 0.04851438 0.21370685 0.231746 0.13581954 0.05034455
-0.12696114 -0.23909114 0.1929833 0.21048123 -0.051818784 0.14483523 -0.2265468 -0.34337217
0.15106201 0.03942679 0.031310387 0.15286563 -0.03148215 -0.13229248 0.3122616 0.11703516
0.12963569 0.03662501 0.0144586 0.14321047 -0.07384889 -0.22897848 0.23820966 -0.06640425
-0.18344806 0.15798974 -0.16187337 0.044864412 0.06832443 0.11782073 -0.31637675 -0.1511758
-0.20256566 -0.10685143 -0.14290337 -0.15749672 0.27516747 0.13751765 -0.012016442 0.06772891
-0.029497635 -0.10359867 -0.11483835 0.36555874 0.29780254 -0.04550234 0.018899482 0.07955273
-0.046814144 0.15020049 0.0977342 0.089006804 -0.0041384785 -0.27517477 0.055577356 -0.33050945

fc3.weight f4 [1, 64]
00000000: 58f4 25bc e1ef 383c 418e e93b bd06 4cbc
00000010: 8bcf 513c 035e 1e3c eaa7 303c 28a8 ec3c
00000020: 7b56 b0bc 31fc 6abc b4ce 363c 235e 143c
00000030: 9822 213d 1559 143c 324f 84bc 9788 29bc
00000040: b9c7 033c 6709 26bc d451 b93b f158 e23b
00000050: 1f9a 853c 0201 1abc 7f00 63bd bd6b 1e3c
00000060: 625a 52bc ced8 063c 5a50 023c 5d82 983c
00000070: 9ab5 15bc 5162 fabb 5448 003c f67e 1bbc
00000080: 9bcd 24bc e484 fa3b 264e 80bd 2d6d 273c
00000090: bd28 113c c515 62bd 6764 37bd cc2a 763c
000000a0: 9724 cebb 2702 b8bc e5d3 96bc d65f 953c
000000b0: 6c88 9d3b 2f05 063c 3585 14bd 0da8 d53c
000000c0: 7b5d 2fbc 8f8d 26bc 44d7 69bc d1c9 2b3c
000000d0: 123e 243c df6e 5e3c 3799 43bc e257 d93b
000000e0: b5fb 37bc f16f 533c 190d 333c 8e54 1d3c
000000f0: 3b28 a03c 8773 fabb 7a31 1e3c 3970 2cbc
-0.010129057 0.01128766 0.0071275537 -0.012452778 0.01280583 0.009665969 0.010782221 0.028888777
-0.021525612 -0.014342354 0.01115768 0.009055647 0.03933963 0.009054442 -0.016151045 -0.010347507
0.008043223 -0.010134078 0.0056555066 0.0069075753 0.016308842 -0.009399654 -0.055420395 0.0096692415
-0.012838932 0.008230401 0.007953728 0.01861685 -0.0091375355 -0.0076411148 0.007829744 -0.009490719
-0.010058786 0.0076452363 -0.06264906 0.010218901 0.00885981 -0.055196542 -0.044773486 0.015024852
-0.006290983 -0.022461964 -0.018411586 0.018234175 0.0048075225 0.008179947 -0.03625985 0.02608111
-0.01070344 -0.010165586 -0.014272515 0.0104851285 0.010024564 0.013576238 -0.011938385 0.006632791
-0.011229445 0.012905107 0.010928416 0.009602679 0.019550433 -0.0076431665 0.009655351 -0.010524803
