Project-3_Collaboration_Competition-Tennis-Maddpg/dir_chk_1700d_episodes/checkpoint_critic_0.pth (torch_old, 31437 bytes, 5 tensors)

fcs1.weight f4 [64, 52]
0	0xbdec79f7	-0.115467004
1	0x3f868a34	1.0510926
2	0xbc64cb27	-0.013964451
3	0x3d32d83e	0.043663256
4	0xbd0dd6d1	-0.034628693
5	0xbedea1a5	-0.434827
6	0x3cff0a5d	0.031132871
7	0xbe21b9dc	-0.15793556
8	0xbe3f350c	-0.1867258
9	0x3eb206e0	0.3477087
10	0xbd6438ab	-0.055718105
11	0xbbd7e68b	-0.006588762
12	0x3c2e80b7	0.010650805
13	0xbf3d60ae	-0.73975646
14	0x3d5025e6	0.050817393
15	0xbd81409c	-0.063111514
16	0xbea0692d	-0.31330243
17	0xbe7b5577	-0.24544321
18	0xbe00382e	-0.12521431
19	0x3e11cbf9	0.14237966
20	0xbd87c882	-0.06630041
21	0xbf9b8900	-1.2151184
22	0x3db64b49	0.08901078
23	0x3d962161	0.07330585
24	0x3e289fa8	0.16467154
25	0xbe8aa4e5	-0.2707893
26	0x3da023d1	0.078193314
27	0x3c824d9a	0.015906144
28	0xbdb82641	-0.08991671
29	0xbed4ae8b	-0.41539416
30	0xbd8dbd7b	-0.06920906
31	0x3c02a194	0.007973094
32	0x3d898c90	0.06716263
33	0xbea78b5a	-0.32723504
34	0xbd142ae2	-0.03617371
35	0x3c8f9588	0.017527357
36	0xbcac07af	-0.020999758
37	0xbf2fc6fc	-0.68663
38	0x3d5d1d66	0.053983115
39	0x3c3aa85b	0.011392678
40	0xbe54e480	-0.20790291
41	0xbe51a294	-0.20472175
42	0xbdb0a8a2	-0.08625914
43	0x3d7b675b	0.061377864
44	0x3d88b546	0.066752
45	0xbf919c41	-1.137581
46	0x3dd43536	0.10361712
47	0xbb1c15ce	-0.0023816708
48	0xc00191d0	-2.0245247
49	0xbe330799	-0.17483367
50	0xbeb3a5fd	-0.35087577
51	0xbe6e0255	-0.23243077
52	0x3d8ed747	0.06974655
53	0x3e3b4fba	0.18292132
54	0x3c20f1bb	0.009823258
55	0xbd8643b8	-0.06555885
56	0x3da3e304	0.08002284
57	0x3d34ca73	0.044138383
58	0xbbc0d9b7	-0.0058853286
59	0x393cdc36	0.00018011112
60	0xbdb3066d	-0.0874146
61	0x3e498a02	0.19681552
62	0x3d8e8509	0.06958968
63	0x3c0acd02	0.008471729
64	0x3db5eefb	0.088834725
65	0xbe1ba6bc	-0.15200323
66	0xbd863498	-0.06553
67	0x3d37214b	0.044709485
68	0xbde57d35	-0.11205522
69	0x3e587b67	0.21140824
70	0xbd96aa96	-0.073567554
71	0x3eefcce4	0.46836007
72	0x3d9bcc2b	0.07607301
73	0xbe4cbb0e	-0.1999323
74	0x3d86c1a2	0.06579901
75	0x3f003f85	0.50096923
76	0xbbf297b1	-0.007403337
77	0x3ef2f4b2	0.47452313
78	0x3ca49eae	0.020095196
79	0xbe4f7d97	-0.20262752
80	0x3dc34d02	0.095361724
81	0xbe2c7a86	-0.16843614
82	0xbcb31674	-0.021861292
83	0xbea47df2	-0.3212734
84	0xbda63719	-0.08115978
85	0x3d2fa85e	0.042885177
86	0x3c3857d4	0.011251409
87	0xbd919441	-0.07108355
88	0xbdde08b1	-0.108415015
89	0xbe57f08a	-0.21087852
90	0x3a4b2521	0.0007749368
91	0xbe723642	-0.2365351
92	0xbe148d3d	-0.14507003
93	0xbc85723d	-0.016289825
94	0xbd6b93dd	-0.05751406
95	0x3c146e62	0.00905952
96	0xbb7fde64	-0.0039042467
97	0xbe8d4199	-0.2758911
98	0x3d56aa29	0.05240837
99	0x3dd11993	0.10209956
100	0xbf1d470e	-0.61436546
101	0xbc5877ca	-0.013212154
102	0xbef1bdb6	-0.4721505
103	0x3bd6da6c	0.0065567996
104	0xbcf9e765	-0.030505845
105	0x3dd0d645	0.10197119
106	0xbcb6430b	-0.022248765
107	0x3d927b92	0.071524754
108	0x3cecae7f	0.0288918
109	0xbe26f9ca	-0.16306224
110	0xbd201138	-0.03907892
111	0xbd3e0900	-0.0463953
112	0x3deb16ac	0.11478934
113	0x3e93b68d	0.28850213
114	0xbd7f1da2	-0.06228412
115	0x3d879f50	0.06622183
116	0xbe1f5317	-0.1555904
117	0xbe3c33df	-0.18379162
118	0xbaba2444	-0.0014201482
119	0x3cd733a7	0.026269747
120	0x3e0c3f67	0.13696061
121	0x3f102ceb	0.5631854
122	0x3c218191	0.009857551
123	0x3eb4a735	0.3528382
124	0xbe59e9f4	-0.21280652
125	0x3e77ea78	0.24210536
126	0xbd127895	-0.035759527
127	0x3ef32a39	0.4749315
128	0xbda7eec2	-0.08199836
129	0xbd8c241f	-0.06842827
130	0x3d3070fb	0.043076497
131	0x3e95805e	0.291995
132	0xbc44c9f4	-0.01201104
133	0xbe2d9688	-0.16951954
134	0xbd2b4903	-0.041817676
135	0x3e88d8e0	0.26727962
136	0xba68f4a2	-0.0008886551
137	0x3e9958c9	0.2995055
138	0xbc84aa35	-0.016194442
139	0x3e123ab6	0.14280209
140	0x3d8e4b3e	0.06947945
141	0xbd407ca3	-0.046993863
142	0x3b0f91c4	0.0021906951
143	0x3e15c5c4	0.14626223
144	0x3df23d2f	0.11828076
145	0x3e5325a0	0.20619822
146	0x3d90f2d7	0.07077568
147	0xbf184387	-0.5947804
148	0x3cfcfc0c	0.030881904
149	0x3e11ca38	0.14237297
150	0xbd3310e7	-0.04371729
151	0xbf12d245	-0.57352096
152	0x3e55c383	0.20875363
153	0xbdba21e4	-0.090884954
154	0xbd686969	-0.056741152
155	0xbeff51b6	-0.49867028
156	0x3c1af968	0.009458877
157	0xbf38ef2f	-0.72239965
158	0xbcfc6ebf	-0.030814527
159	0xbeb8af42	-0.3607121
160	0x3d50ade9	0.050947104
161	0xbed6b03d	-0.41931334
162	0x3cc885be	0.024477836
163	0xbe9a4bb8	-0.30135894
164	0xbdd9f521	-0.10642458
165	0xbf06c9c1	-0.526516
166	0xbdaa3fed	-0.08312974
167	0xbe28f6b4	-0.1650036
168	0xbe2d6cd2	-0.16936043
169	0x3e26ccfe	0.16289136
170	0x3d9e14ff	0.077188484
171	0xbd44803f	-0.047973868
172	0x3e9430a7	0.2894337
173	0x3dfdfa20	0.12401223
174	0xbd1dc954	-0.03852208
175	0xbdc2db50	-0.09514487
176	0xbe1cf651	-0.15328337
177	0x3ed1742f	0.40908954
178	0x3c3643b1	0.011124537
179	0x3d9352b5	0.071935095
180	0xbd5a78a6	-0.053337716
181	0x3d59be86	0.053160213
182	0xbca53df2	-0.02017114
183	0x3cea669a	0.028613377
184	0xbd522bef	-0.05131143
185	0xbf08dcbe	-0.53461826
186	0x3cc2d5ac	0.023783527
187	0xbccca459	-0.02498071
188	0x3cbc4645	0.022982726
189	0xbe9c69db	-0.3054951
190	0xbc6d2083	-0.014473083
191	0x3e5288dd	0.20560022
192	0x3e970f7c	0.29504
193	0x3c6823ee	0.014168723
194	0x3975edee	0.00023453656
195	0x3e8b9edc	0.27269638
196	0x3e96e046	0.29467982
197	0x3e5f237a	0.21790877
198	0xbce2a3c9	-0.02766599
199	0x3f01fead	0.5077923
200	0x3d146f2a	0.036238827
201	0x3e8b09dd	0.27155963
202	0x3c66b882	0.014082076
203	0x3eb0a284	0.3449899
204	0x3d04c01f	0.032409783
205	0xbd821652	-0.063519135
206	0x3efa07e9	0.4883416
207	0xbd700bc3	-0.058604967
208	0xbb8e5b23	-0.0043443604
209	0x3db9926e	0.09061132
210	0x3db880e5	0.0900896
211	0x3c4effd1	0.012634234
212	0xbe548327	-0.20753156
213	0xbf034620	-0.5127888
214	0xbdf6d4da	-0.12052317
215	0x3d9bb9b6	0.07603781
216	0x3d6036e6	0.054739855
217	0xbd4c9cf9	-0.04995439
218	0x3dd0c2cf	0.10193407
219	0xbdae6024	-0.08514431
220	0xbd30b957	-0.043145504
221	0xbe3c072d	-0.18362112
222	0x3e011cb9	0.12608613
223	0xbe2234ba	-0.15840426
224	0x3cefe8fb	0.029285898
225	0xbddb3d79	-0.10705084
226	0xbdd5e510	-0.10444081
227	0x3e21e4b4	0.158099
228	0x3e647647	0.22310744
229	0x3eaaef7f	0.33385846
230	0x3d85f69f	0.0654118
231	0x3ebab348	0.36464906
232	0x3da8d49f	0.08243679
233	0x3e4d3b07	0.20042048
234	0xbdd1b993	-0.102404736
235	0xbe74fa9a	-0.23923722
236	0x3e725eef	0.23669027
237	0xbef76145	-0.48316398
238	0x3dbdd531	0.09269179
239	0xbe1f8fac	-0.1558215
240	0x3c9cd2cf	0.01914349
241	0xbce272a3	-0.027642554
242	0x3df5ca1f	0.12001442
243	0x3c9efa32	0.019406412
244	0x3d1b0dc9	0.037854943
245	0xbea90812	-0.3301397
246	0xbdd042ad	-0.101689674
247	0x3c567b77	0.01309096
248	0xbc872b55	-0.016500155
249	0xbde18cd1	-0.11013187
250	0x3948e479	0.00019158599
251	0x3e27cb45	0.16386135
252	0xbead61d7	-0.33863708
253	0x3e7995b0	0.24373507
254	0x3d7015de	0.058614604
255	0xbc072119	-0.008247637

fcs1.bias f4 [64]
0	0x3ebeb2b5	0.37245718
1	0xbccac41a	-0.024751712
2	0xbedbf444	-0.42959797
3	0xbf225dc5	-0.6342433
4	0x3d297160	0.04136789
5	0xbe47ab66	-0.19498977
6	0xbeb0fab0	-0.3456626
7	0xbd4d59c4	-0.050134435
8	0x3d6dd0bd	0.058060396
9	0x3d909190	0.07059014
10	0x3dab1a7b	0.0835466
11	0x3c6d724c	0.0144925825
12	0xbd8c4167	-0.06848412
13	0xbe6a0577	-0.22853647
14	0xbe837de1	-0.25681975
15	0xbe9b6a15	-0.30354372
16	0xbe61414e	-0.21997568
17	0xbe8b0910	-0.27155352
18	0xbd25b3dd	-0.040454734
19	0xbd8658b0	-0.065598845
20	0xbd8e9e2b	-0.06963762
21	0xbc0b5937	-0.008505157
22	0xbe845abd	-0.25850478
23	0x3d837eb5	0.06420652
24	0xbdef7389	-0.116919585
25	0xbe87cf23	-0.2652522
26	0xbe147826	-0.14498958
27	0xbdeee4ad	-0.1166471
28	0xbc4b202a	-0.012397805
29	0x3bec2589	0.007206623
30	0xbddd01d5	-0.10791365
31	0x3d3f7a49	0.04674748
32	0x3da01ce9	0.07818014
33	0xbd480bfa	-0.048839547
34	0x3d550be9	0.05201331
35	0xbcc26da4	-0.023733921
36	0xbea881e3	-0.32911596
37	0x3c434b69	0.011919835
38	0x3d50ab6e	0.050944738
39	0x3a06a4f0	0.0005136272
40	0xbe38a258	-0.18030679
41	0xbe3aef93	-0.18255453
42	0x3e4f29f5	0.20230849
43	0xbdb5b8ee	-0.08873163
44	0x3c87dbf1	0.016584368
45	0x3e0617a6	0.13094959
46	0xbdd31a3d	-0.10307739
47	0xbe1695d6	-0.14705595
48	0x3e068840	0.13137913
49	0x3df5afa2	0.1199639
50	0xbe0d6774	-0.13808995
51	0xbcabf1bc	-0.020989291
52	0xbd8038af	-0.062608115
53	0xbd944c72	-0.07241143
54	0x3dc468bb	0.09590288
55	0x3cd808ad	0.026371324
56	0xbd069902	-0.032860763
57	0xbd6a931e	-0.057269208
58	0xbcd5eaa8	-0.02611287
59	0xbe0db6d4	-0.13839275
60	0xbeabfde3	-0.33592138
61	0xbd6cb5c2	-0.057790525
62	0x3af0e16f	0.0018377731
63	0x3f0ca974	0.54946065

fc2.weight f4 [64, 64]
0	0x3e949b7c	0.29024875
1	0x3de80c1f	0.11330437
2	0xbbf995a4	-0.0076167155
3	0xbef66190	-0.4812131
4	0xbf0afb0f	-0.54289335
5	0x3cd26cda	0.02568667
6	0x3d87665c	0.066113204
7	0xbdf9c8bf	-0.121964924
8	0x3c2160d5	0.009849747
9	0xbd54f88d	-0.05199485
10	0xbd2bd9b3	-0.04195566
11	0xbcb80d0d	-0.02246716
12	0x3e479ca4	0.19493347
13	0x3e0bf817	0.13668858
14	0x3d000ec1	0.03126407
15	0xbeefc676	-0.468311
16	0x3cd65218	0.026162192
17	0x3e69be00	0.22826385
18	0xbe599330	-0.21247554
19	0x3d239179	0.039933655
20	0x3de442bc	0.11145541
21	0x3db9f4e8	0.09079915
22	0xbd83b979	-0.064318605
23	0x3dc2a4f1	0.09504116
24	0x3da006ff	0.078138344
25	0xbe9981ec	-0.29981935
26	0x3d89bd02	0.067255035
27	0xbe2ae25d	-0.16687913
28	0xbe5e7464	-0.21724087
29	0xbe9de9d1	-0.3084245
30	0xbd81c4a0	-0.06336331
31	0xbd3abdf0	-0.045591295
32	0xbcb97a46	-0.022641312
33	0x3db04f6a	0.08608897
34	0xbeb6bd24	-0.35691178
35	0xbe330551	-0.17482497
36	0x3e5dc101	0.21655656
37	0xbcf92283	-0.030411964
38	0xbe4f46b6	-0.20241818
39	0xbd2dee3b	-0.042463522
40	0x3bedabe0	0.007253155
41	0x3e939011	0.2882085
42	0x3de5614e	0.112002
43	0xbe54203e	-0.20715424
44	0xbe9ca995	-0.3059813
45	0xbf60d25a	-0.8782097
46	0xbf0ae5a9	-0.54256684
47	0xbece15c9	-0.40250996
48	0xbc57534a	-0.013142416
49	0x3e29378e	0.16525099
50	0xbdd70320	-0.10498643
51	0xbe53b13f	-0.20673083
52	0x3d1f068e	0.03882461
53	0xbda68669	-0.081311055
54	0x3e17fff4	0.14843732
55	0xbe95a565	-0.2922775
56	0x3d003c2c	0.031307384
57	0x3d4b5714	0.04964359
58	0xbeef0585	-0.466839
59	0xbd5b429b	-0.053530317
60	0x3bec0de6	0.0072038053
61	0x3dae9d2f	0.08526074
62	0xbdf26cde	-0.11837171
63	0x3b1bfaae	0.002380054
64	0x3e22f47e	0.15913579
65	0x3ccbd59e	0.024882134
66	0x3dea33b4	0.11435643
67	0xbd6f7574	-0.05846162
68	0x3ca6085a	0.020267654
69	0xbd257f53	-0.04040463
70	0x3d39d5d4	0.045369938
71	0x3c8b4c19	0.01700406
72	0x3d8e5d35	0.069513716
73	0x3c3c2fb1	0.01148598
74	0x3db505c1	0.08838988
75	0xbdc10bce	-0.0942608
76	0xbd457eb7	-0.048216548
77	0x3c3c239b	0.011483098
78	0x3c23e61e	0.010003595
79	0xbc9fcfbd	-0.019508237
80	0xbd80147b	-0.06253906
81	0x3e11a257	0.14222084
82	0xbccf92d4	-0.025338568
83	0xbdba4127	-0.09094458
84	0xbd25a07f	-0.040436264
85	0x3cc5d647	0.024150027
86	0x3de10e83	0.10989096
87	0xbe429335	-0.19001468
88	0x3d716b54	0.058940247
89	0xbd8b3ba5	-0.06798486
90	0xbe02b2ba	-0.12763491
91	0xbce569cc	-0.02800455
92	0x3d0ca88e	0.034340434
93	0xbca99236	-0.020699602
94	0xbc9c7db4	-0.019102909
95	0xba83dcaa	-0.001006027
96	0xbb12e203	-0.0022412546
97	0x3d87d255	0.066319145
98	0x3de4a4d0	0.11164248
99	0xbdbec8d8	-0.09315652
100	0xbbccc7e9	-0.006249417
101	0xbd2a5a2f	-0.041589912
102	0x3e1fcb74	0.15604955
103	0xbcf486ea	-0.029849488
104	0x3d51af5a	0.05119262
105	0x3e199e72	0.15001848
106	0xbc80e77b	-0.015735378
107	0x3d39eba0	0.045390725
108	0xbc4e6661	-0.012597651
109	0x3d14e77f	0.036353584
110	0x3ca69d69	0.02033873
111	0xbd9b6354	-0.07587305
112	0x3d3a1cb8	0.045437545
113	0xbf02f72a	-0.5115839
114	0x3e3eb6c1	0.18624403
115	0x3ceff348	0.02929081
116	0xbbe9260c	-0.0071151312
117	0x3d118ab4	0.03553267
118	0xbe3cca7f	-0.18436621
119	0xbd9a830b	-0.07544526
120	0xbd4bb360	-0.049731612
121	0x3d5c2c5f	0.053753253
122	0x3d787bed	0.06066506
123	0x3cd93149	0.026512759
124	0xbe1e5bf9	-0.15464772
125	0xbd038a2d	-0.032114197
126	0x3de87c79	0.11351866
127	0xbdd34406	-0.10315709
128	0xbfac0a03	-1.3440555
129	0x3daa70da	0.08322306
130	0xbd81cc10	-0.0633775
131	0xbc976c4f	-0.018484263
132	0xbcffffa4	-0.031249829
133	0xbe4f34ec	-0.20235032
134	0xbd86584e	-0.065598115
135	0x3d809b6e	0.06279646
136	0x3c9749a3	0.01846773
137	0xbe9fa8dc	-0.31183517
138	0xbd872104	-0.06598094
139	0xbb7562b1	-0.0037442858
140	0x3cd2b04f	0.025718836
141	0xbd8224fb	-0.0635471
142	0x3df90930	0.121599555
143	0x3d90d1d5	0.07071272
144	0xbcd2a75f	-0.025714574
145	0x3c054fc6	0.008136695
146	0xbd533d1d	-0.051571954
147	0xbd0df238	-0.034654826
148	0x3db01a32	0.08598746
149	0x3cd3428a	0.025788564
150	0xbe275a36	-0.16343006
151	0x3e1fecd4	0.15617687
152	0x398361af	0.00025059047
153	0xbc6872b9	-0.014187508
154	0x3cb6a908	0.022297397
155	0x3e20c973	0.15701847
156	0x3c987104	0.018608578
157	0xbe327d5a	-0.1743063
158	0x3e213687	0.15743457
159	0x3dbb6f36	0.09152071
160	0x3e068810	0.13137841
161	0x3df2d519	0.118570514
162	0xbe1e9ce2	-0.15489534
163	0xbd909598	-0.07059783
164	0x3dbce7a5	0.0922387
165	0xbdc2c1ad	-0.09509597
166	0xbea16c68	-0.3152802
167	0xbb104089	-0.0022011122
168	0xbc67ea46	-0.014154976
169	0x3e1cc224	0.15308434
170	0x3bc6c5be	0.006066053
171	0xbe87c718	-0.26519084
172	0xbf0d6fa5	-0.5524848
173	0xbdb4d074	-0.08828822
174	0xbdcb937c	-0.0994024
175	0xbe19b6e5	-0.15011175
176	0xbe266a24	-0.16251427
177	0x3e1554a0	0.14583063
178	0x3d69d169	0.057084475
179	0xbc3f0736	-0.011659434
180	0xbb8a53ea	-0.004221429
181	0xbce6160a	-0.02808668
182	0xbdc243aa	-0.09485562
183	0xbcaddcc0	-0.021223426
184	0xbc9b007f	-0.018921135
185	0x3c2b2c8f	0.010447635
186	0xbc94d840	-0.018169522
187	0xbce51433	-0.027963733
188	0xbd845eef	-0.0646342
189	0xbca88417	-0.020570798
190	0x3cbfe78e	0.023425844
191	0xbe6a254c	-0.2286579
192	0xbf114142	-0.567402
193	0x3c54bb6b	0.012984137
194	0xbd03f6ea	-0.032217897
195	0xbe5f768f	-0.2182257
196	0x3d7df11e	0.061997525
197	0x3e18ecbb	0.14934056
198	0x3c3fe762	0.011712881
199	0xbcd58714	-0.026065387
200	0xbd39d454	-0.045368508
201	0xbd75136d	-0.05983298
202	0x3d84d68c	0.06486234
203	0x3e02cbdd	0.1277308
204	0x3e56b171	0.20966126
205	0xbdbdfb24	-0.09276417
206	0x3e3dc031	0.18530346
207	0xbd30a6da	-0.043127872
208	0xbdc96b9b	-0.09834977
209	0xbd026ac2	-0.031840093
210	0xbd443c46	-0.047909044
211	0xbe31d3b1	-0.1736591
212	0x3e25c1bd	0.16187187
213	0xbe5b0de9	-0.21392025
214	0xbeb9cd0e	-0.36289257
215	0x3e09d779	0.13461103
216	0xbdbbf159	-0.09176893
217	0x3e4519f6	0.19248185
218	0x3e0a0ec6	0.13482198
219	0x3e28f4c4	0.1649962
220	0xbd81754d	-0.063212015
221	0xbe9e3f1a	-0.30907518
222	0x3ca668d6	0.020313662
223	0xbe1313b9	-0.14362992
224	0xbef6ef6e	-0.48229545
225	0x3cb4a321	0.022050442
226	0xbe7fbc61	-0.24974205
227	0xbd769463	-0.060200106
228	0x3df2ac93	0.11849322
229	0xbceed7a2	-0.029155556
230	0xbe834139	-0.25635698
231	0xbc7f4934	-0.015581418
232	0x3df1103d	0.11770675
233	0x3e0d517a	0.13800612
234	0xbeeddb8d	-0.46456566
235	0xbe205928	-0.1565901
236	0xbe633d1c	-0.2219128
237	0x3ddc7df6	0.10766213
238	0x39da9f3a	0.00041698833
239	0x3e0b914b	0.13629644
240	0x3da06e2f	0.07833516
241	0xbe0ab07d	-0.13543887
242	0xbdc1143b	-0.09427687
243	0xbcc7e26a	-0.024399955
244	0x3d7ae2a5	0.0612513
245	0x3d945b34	0.07243958
246	0xbcaef70e	-0.02135804
247	0xbcacc5da	-0.021090437
248	0x3c1ec157	0.0096896505
249	0xbdaca02a	-0.08428986
250	0xbe6d4b4c	-0.23173255
251	0x3e459fc4	0.19299227
252	0x3ddd2d4f	0.107996576
253	0xbbe23350	-0.0069030896
254	0x3d080e5b	0.033216815
255	0xbf6291d4	-0.88503766

fc2.bias f4 [64]
0	0xbdcedf35	-0.10101167
1	0x3e82e0e4	0.25562203
2	0x3ee508d8	0.4473331
3	0xbedf60cf	-0.43628547
4	0xbcaae691	-0.020861896
5	0x3eecfbe4	0.46285927
6	0x3d5bbbf4	0.053646043
7	0xbe429a45	-0.19004162
8	0x3d93e497	0.072213344
9	0xbe1a85f3	-0.1509016
10	0xbe46e481	-0.19423105
11	0x3eabed53	0.33579502
12	0xbe10a4f2	-0.14125422
13	0x3e17779c	0.14791721
14	0xbefc2a64	-0.4925109
15	0xbbd800f3	-0.00659191
16	0x3c934f47	0.017982138
17	0x3e6860f5	0.22693236
18	0x3e230986	0.15921602
19	0x3de93240	0.113865376
20	0xbe6e9bf6	-0.23301682
21	0xbcc70df3	-0.024298644
22	0x3d81a37f	0.063300125
23	0x3e6641b1	0.22485997
24	0x3cafb10c	0.021446727
25	0xbd93fdd9	-0.07226152
26	0xbe59e1af	-0.21277498
27	0x3dcb89cf	0.09938394
28	0x3dfe393b	0.124132596
29	0xbeb12eff	-0.34606168
30	0x3e999f17	0.30004188
31	0xbc8a3a75	-0.016873578
32	0xbee3a6de	-0.44463247
33	0x3d45e1d4	0.04831107
34	0xbe6774a5	-0.2260309
35	0xbd14acbc	-0.036297545
36	0x3e32bc67	0.17454682
37	0x3dba1df9	0.09087748
38	0x3e34915c	0.17633575
39	0xbe80dfab	-0.25170645
40	0xbe2df31e	-0.16987273
41	0x3e659298	0.22419202
42	0x3cd62ecd	0.026145363
43	0xbca7ca05	-0.020482073
44	0x3ec13ef2	0.37743336
45	0xbcd07d69	-0.025450425
46	0xbdc9173b	-0.09818884
47	0x3d4891ea	0.04896728
48	0xbe4f52b3	-0.20246391
49	0x3d02e7c8	0.031959325
50	0x3c280f2c	0.0102575235
51	0x3e42454b	0.18971746
52	0x3e245853	0.16049318
53	0xbec413fb	-0.38296494
54	0x3d0379e0	0.03209865
55	0x3dc8acc9	0.09798581
56	0xbddaa828	-0.106766045
57	0x3ecde9a8	0.40217328
58	0xbe8de14e	-0.27710956
59	0x3e2251f5	0.15851577
60	0x3ea7fc18	0.3280952
61	0xbe1a0a40	-0.15042973
62	0xbd9ac7d2	-0.07557644
63	0xbd9a2a0c	-0.07527551

fc3.weight f4 [1, 64]
0	0xbc518fb8	-0.012790613
1	0x3be1391e	0.006873264
2	0x3ce5d07b	0.028053513
3	0xbc90f9e0	-0.017697275
4	0xbc856d48	-0.01628746
5	0x3cedeb7d	0.029042954
6	0x3c9eb5c8	0.01937379
7	0xbd284710	-0.041083395
8	0x3c5016b7	0.012700728
9	0xbc6a628a	-0.01430572
10	0x3cefa140	0.029251695
11	0x3c259039	0.010105186
12	0x3d2db2db	0.042406898
13	0x3c02f30b	0.007992516
14	0xbd4d45ad	-0.050115276
15	0x3dda8295	0.10669438
16	0x3d6a7dda	0.057248928
17	0x3d01a0cb	0.031647485
18	0x3c886987	0.016651882
19	0x3c35ba96	0.011091849
20	0xbd1474d9	-0.036244247
21	0x3cda1d43	0.026625281
22	0x3d0bfcef	0.034176763
23	0x3cb51f76	0.022109728
24	0xbc72ccd1	-0.01481934
25	0x3d97640c	0.07392129
26	0x3d1bb03b	0.038009863
27	0x3c574c5e	0.013140766
28	0xbc8ef7bb	-0.017452111
29	0xbc2a9c3d	-0.010413227
30	0x3c34cd2e	0.011035247
31	0x3ce1a5a4	0.027544804
32	0xbce5c3d7	-0.028047485
33	0xbc8889d1	-0.016667278
34	0xbc4ba18c	-0.0124286525
35	0x3cced422	0.025247637
36	0x3caedb60	0.02134484
37	0xbd8c7338	-0.06857914
38	0xbd94bad8	-0.072622
39	0xbc86083a	-0.016361345
40	0xbd0279e4	-0.031854525
41	0x3d1adb60	0.03780687
42	0x3ce501af	0.027954904
43	0xbd33d80d	-0.043907214
44	0x3c79cc1b	0.015246416
45	0x3c322a27	0.010874308
46	0x3c29d0ea	0.01036475
47	0x3cbcf9b8	0.023068294
48	0x3c7ecba5	0.015551482
49	0x3cfd7406	0.030939113
50	0x3c6dc5e9	0.0145125175
51	0x3cf905f8	0.030398354
52	0x3c644f49	0.013934919
53	0xbca041c9	-0.019562619
54	0xbc9e9021	-0.019355835
55	0x3d6c6593	0.057714056
56	0xbd28727e	-0.041124813
57	0x3c451c1f	0.01203063
58	0xbce9370c	-0.028468631
59	0x3bd73289	0.0065673036
60	0x3cade48d	0.021227146
61	0xbc526271	-0.012840853
62	0xbab447ba	-0.0013754286
63	0xbc9fb182	-0.019493822
