Cartpole-Deep-Q-Learning/dir_chk_V1/cartpole-v1_target.pth (torch_old, 4323 bytes, 8 tensors)

layer1.0.weight f4 [16, 4]
000000 e8 49 35 be d0 a0 45 3d 78 76 65 be 15 4c 69 be
       -0.17703974 0.048249066 -0.22408473 -0.22782929
000010 d1 bf 05 bf f9 00 dd be a3 ca 4a c0 25 64 68 bf
       -0.52245814 -0.43164805 -3.168618 -0.9077781
000020 05 03 83 3c 65 f9 2c 3d c6 bf 9e bf 1d 2a 63 be
       0.01599265 0.04223003 -1.2402275 -0.22184034
000030 e3 df 34 3f 74 e9 89 3e e2 6c af bd 02 fc 99 bd
       0.70654124 0.26935923 -0.085656896 -0.0751877
000040 ec 25 44 be b3 11 e2 3d b0 48 d6 3f 1f 54 88 bd
       -0.19155091 0.11038532 1.6740932 -0.0665667
000050 4d 92 95 bb 73 bd 92 3d 61 4d 1f c0 17 2d 0a be
       -0.0045645596 0.07165041 -2.4890978 -0.13493763
000060 cf ec 9f 3e 18 b0 51 3d be 15 e5 be 64 30 a3 be
       0.31235358 0.051193327 -0.4474315 -0.31872857
000070 0c ef 91 3e 42 fb 4f be 64 4a 17 bf fb 10 cc be
       0.2850269 -0.20310691 -0.59097886 -0.39856705
000080 76 2c c8 bc 16 ea 11 be d9 a2 20 3f f3 72 5f 3d
       -0.024435263 -0.14249453 0.62748486 0.054552983
000090 ea 06 81 bf e8 1a 05 bd f4 df b0 bf cd c2 8c be
       -1.0080235 -0.032496363 -1.3818345 -0.2749237
0000a0 d1 35 f7 3c 96 15 49 3f 40 6c f1 be 2e 9c 00 3f
       0.030177029 0.7854856 -0.471529 0.5023831
0000b0 4b 76 e1 3e 98 af 55 3e 52 21 2c 40 bd 75 c6 3e
       0.44035563 0.20867765 2.6895337 0.38761702
0000c0 b3 d9 af 3e 37 b0 02 bf 8a b3 9f be 7f c6 ab bd
       0.3434578 -0.5105013 -0.31191665 -0.083874695
0000d0 b1 f7 c1 3e bf f8 a6 be 85 78 1f c0 2b 71 de be
       0.37884286 -0.32611653 -2.491731 -0.43445715
0000e0 fc 8c 8b bf e6 57 0a bf c9 82 96 3f f2 8a ed bd
       -1.09024 -0.5404037 1.1758662 -0.11598767
0000f0 44 ab 5f be 04 06 0b bf fe 71 bb bf 8d 24 c5 be
       -0.21842676 -0.54306054 -1.4644163 -0.3850445

layer1.0.bias f4 [16]
000000 41 23 a3 bf e7 67 9e be a7 5d 6e 3f a1 70 dd be
       -1.2745134 -0.30938646 0.9311165 -0.43249992
000010 ef 42 47 3f 71 aa a1 be c3 cb 9e bf 7e 74 63 3f
       0.7783651 -0.3157535 -1.2405933 0.8884963
000020 b3 f7 5a 3f 74 67 08 bf 87 f8 b6 3e d2 29 b5 be
       0.8553421 -0.53282857 0.35736486 -0.3538347
000030 e7 05 61 3f c0 26 1a 3f 09 68 86 3e db 59 42 3f
       0.8789963 0.6021538 0.26251248 0.7591836

layer2.0.weight f4 [16, 16]
000000 b6 e9 6f bf d7 94 81 3e 51 46 58 bf d7 5c dd 3e
       -0.9371599 0.25308868 -0.84482294 0.43234894
000010 22 3d 13 3e 78 d4 ac be 7b 10 a7 bf 08 f3 98 be
       0.14378789 -0.3375585 -1.3051904 -0.29872918
000020 a0 3e 00 bc bb af 44 3f 87 ae ca 3c fb bf e9 3f
       -0.007827431 0.76830643 0.024741424 1.8261713
000030 d8 e7 2a bf a1 28 f1 3e 7e e2 5e 3f c1 ce 58 be
       -0.66760015 0.4710131 0.8706435 -0.2117262
000040 54 cc 7a bd 7a 76 f4 3e 1e b9 ab be a1 79 81 be
       -0.06123002 0.4774664 -0.3353967 -0.25288108
000050 71 29 a4 bd 78 69 1d 40 00 6b d0 be fc ac 3b be
       -0.08015717 2.4595623 -0.40706635 -0.18327707
000060 91 b4 9e be 47 11 77 be 5f da a0 be a6 e6 d9 3e
       -0.30997136 -0.24127685 -0.31416604 0.42558783
000070 2d 71 ac be ef dc 80 3f 1a d0 b5 bc 1d c7 e6 3d
       -0.33680096 1.0067424 -0.022193957 0.112684466
000080 d8 c8 66 be 8b 14 db be ee 3d c6 be a9 d2 6c 3e
       -0.22537553 -0.4278911 -0.38719124 0.23127235
000090 30 00 77 bd 3e 97 f3 3f 74 b5 49 be 65 9a f4 be
       -0.060302913 1.903053 -0.19698125 -0.47774044
0000a0 30 26 79 bc bb 41 ba 3d a7 ab c3 be f2 64 ae 3d
       -0.0152068585 0.09094568 -0.38216898 0.085153475
0000b0 dd ab db bc c2 a7 41 3f 0b 0a 10 3d c0 1b a0 bd
       -0.02681535 0.75646603 0.035165828 -0.07817793
0000c0 47 df aa 3e 03 4e f0 3e 2d bd 42 3f 5b 60 20 be
       0.33373472 0.46934518 0.7606991 -0.15661757
0000d0 60 d3 b1 3e 9c 57 06 c0 16 5c 7e 3f 4e b4 16 3f
       0.3473158 -2.0990973 0.9935926 0.58868873
0000e0 b7 f1 1a 3f 1a bc 22 3f c3 5b 26 3e 16 04 cc 3e
       0.6052508 0.6356827 0.16245942 0.39846867
0000f0 9a 43 9d 3e 47 80 fb be 87 19 99 3e d3 8d e6 3e
       0.30715638 -0.49121305 0.29902288 0.45030078
000100 e7 5f 17 bf 6e 1a 63 3e 7f aa e9 be ce eb 4f 3f
       -0.5913071 0.22178051 -0.4563789 0.81219184
000110 f4 11 56 bf c4 ef 92 3f 51 70 aa bf d6 73 3b be
       -0.83621144 1.1479421 -1.3315526 -0.18305907
000120 60 83 e5 be c2 bf 9e be 43 37 5e be 81 07 81 3e
       -0.44826794 -0.31005675 -0.21700768 0.25201038
000130 b4 47 8d 3e 9c f0 78 3f 70 28 86 3e 1a 9e 8a bf
       0.27593768 0.9724214 0.26202726 -1.0829499
000140 8e 8b a0 be 53 7c 01 bf cb b8 52 3e 72 34 f9 be
       -0.31356472 -0.5058033 0.20578305 -0.48672825
000150 00 38 90 be 2a 20 06 40 62 74 df be 3d 1f ab 3d
       -0.28167725 2.0957131 -0.4364348 0.083555676
000160 3c 96 10 3e a5 c3 43 bf d7 01 46 3e 7d 71 b6 bf
       0.1411981 -0.76470405 0.1933664 -1.4253384
000170 bd ad aa 3e e4 f2 20 3f 4b de 84 bf b8 55 0f 3f
       0.33335677 0.6287062 -1.0380338 0.5599017
000180 1c f6 3e 3e cf 41 b8 3d 27 a2 c8 3e b9 35 d4 bd
       0.18648571 0.08996927 0.39186212 -0.10361809
000190 37 4e 3d 3e 3c 81 30 c0 c1 ee d3 3e f0 12 0d 3f
       0.18486868 -2.7578878 0.41393092 0.5510702
0001a0 a0 7c c3 3e 78 50 39 bf 63 56 47 3e d0 8d b9 be
       0.3818102 -0.7238841 0.19466548 -0.36241007
0001b0 96 a3 bf 3e 37 0d 26 bf db d8 a1 be 8c 2f a8 3e
       0.37429494 -0.64863914 -0.3161076 0.32848775
0001c0 eb 42 65 3e 62 76 44 3f 4f 44 7a 3f 76 cd 71 bf
       0.22388808 0.7674314 0.9776048 -0.94454134
0001d0 32 68 12 3d 28 52 a8 bf d3 06 10 bf 63 69 cc 3e
       0.0357439 -1.3150072 -0.5626041 0.39924154
0001e0 5a 8b e0 be 56 75 42 3e 51 5f 89 3d 96 dd 86 bf
       -0.43856317 0.18990073 0.06707633 -1.0536373
0001f0 8c 35 48 be 64 be d9 3d 77 2b ba bd 49 d4 5a 3f
       -0.19551677 0.10632017 -0.090903215 0.8548017
000200 f6 f6 f7 3e 2a bd 46 3e 51 a7 3e 3f 46 83 59 bd
       0.48430604 0.19408098 0.74474055 -0.053103708
000210 a3 2a c8 3d 07 80 a8 bf 02 93 42 3f fb 82 37 3f
       0.09773757 -1.3164071 0.76005566 0.71684235
000220 98 6c b8 3e 36 69 f2 3e e1 d9 1b 3f 99 bd 19 be
       0.3602035 0.47345895 0.6087933 -0.15013732
000230 7a b7 67 3f 01 16 a3 be a5 59 86 3e c5 c4 0f 3f
       0.9051434 -0.31852725 0.26240268 0.5615962
000240 79 cc c0 3e d8 5a ec bd 17 2b 2f 3f e6 13 10 3e
       0.37656 -0.115407646 0.68425125 0.1407009
000250 7f 2b c6 3e 7e 83 c2 bf 0e 0f 3b 3f 7a 93 30 3f
       0.3870506 -1.5196378 0.73069847 0.6897503
000260 3f 36 95 3e 69 dc 2d bc d7 20 36 3f c7 52 2f bf
       0.2914295 -0.010611632 0.7114386 -0.68485683
000270 fa 5a 17 3f 76 10 1e bf dd f7 70 bc 55 19 d5 3e
       0.59123194 -0.6174387 -0.014707533 0.4162089
000280 3f 0b d7 be fa 9c f3 3e 67 f9 86 be 21 2d cd be
       -0.42000768 0.475807 -0.26362154 -0.40073493
000290 20 35 a6 3e 52 6a 10 40 66 d4 d8 be 1f f9 87 be
       0.32462406 2.2564893 -0.42349547 -0.26557252
0002a0 13 3b 4a be 06 58 9d be 56 e1 c3 be e7 ed 04 3f
       -0.19749098 -0.3073122 -0.38257855 0.5192551
0002b0 28 5d f0 bd 6f 6d 77 3f 91 4a 1e be 72 a1 08 3e
       -0.11736518 0.9665136 -0.15458132 0.13342836
0002c0 8b f4 70 be 4f 28 a9 3f a2 a7 bd 3e 4e e6 2b 3f
       -0.23530786 1.3215426 0.37041956 0.6714829
0002d0 ae 3a 37 bf 79 61 8a 3f 78 5e 55 bf a1 86 80 3d
       -0.71573913 1.0810996 -0.8334727 0.062756784
0002e0 f7 2b f7 be b1 eb fb 3d 01 60 73 3d ec a4 8e 3f
       -0.4827573 0.12300814 0.05941773 1.114408
0002f0 62 80 42 be a5 71 27 3f 50 4b d0 3d 37 f0 13 be
       -0.18994287 0.6540778 0.10170615 -0.14447103
000300 99 61 74 bf fe 9b bd 3e 6a ec 6a bf 35 02 dc be
       -0.9546142 0.37033075 -0.9176699 -0.42970434
000310 25 25 21 bf a5 7b fe 3e 86 c0 1b bf 08 de 07 bf
       -0.62947303 0.49703708 -0.6084064 -0.5307317
000320 8d af 41 be d6 2e 4b 3f fa ce 10 be 2b 10 e1 3f
       -0.18914624 0.7936834 -0.14141455 1.7583059
000330 b1 45 c9 be 40 29 08 be b4 4b 4b 3f 6c 94 11 bd
       -0.39310983 -0.13296986 0.7941239 -0.035541937
000340 a4 37 cb 3e 1d 29 25 bf 14 3d 26 3f 19 d0 c9 be
       0.39690888 -0.6451586 0.6493695 -0.39416578
000350 f8 ab 74 bc 7c 6c f1 bf 34 6a 8d 3e 7e 3a e4 3e
       -0.014933579 -1.8861232 0.2762009 0.44575876
000360 23 12 c7 3e 5a 92 81 be 95 cf ab 3e 07 d7 5d bf
       0.38881025 -0.2530697 0.3355681 -0.8665623
000370 26 fd f1 3e 74 ce 40 bf b3 20 f1 be 19 08 de 3c
       0.4726345 -0.7531502 -0.4709526 0.02710347
000380 f4 41 de be 71 d0 d7 bd f6 47 5e bf f8 05 a5 3e
       -0.43409693 -0.10537804 -0.86828554 0.32231116
000390 1a 7b af 3e 42 15 d1 3e bc 7e 75 bf 4e d2 34 bf
       0.34273607 0.4083653 -0.95896506 -0.706334
0003a0 55 ad f6 3e ff 55 55 3e fa bd 60 3e 65 44 cf 3f
       0.48179117 0.20833586 0.2194747 1.6192747
0003b0 87 13 1b be f1 e5 c8 3e 96 dc 44 3f d1 ac 1d bf
       -0.15144168 0.3923793 0.7689909 -0.6159182
0003c0 c5 fa 44 3d 70 e9 dd 3e 45 94 13 3d d6 e6 19 3e
       0.048090715 0.4334216 0.036030073 0.15029463
0003d0 f0 dc 37 bf 26 99 10 40 1b 98 72 bf d7 7c f7 3d
       -0.718215 2.2593474 -0.94763345 0.12084358
0003e0 48 f4 ce be 23 4e 3b be 3a 9e 8e 3e 93 71 00 bd
       -0.40420747 -0.18291526 0.27855092 -0.031358313
0003f0 8f 5c 4b 3c b8 e3 8f 3f 51 a9 8e be 63 50 55 be
       0.012412204 1.1241369 -0.27863553 -0.20831446

layer2.0.bias f4 [16]
000000 11 32 06 bf ca 21 59 be 56 d6 02 bf 80 91 2d 3f
       -0.52420145 -0.21204296 -0.511083 0.6780014
000010 59 04 ec be 16 f2 2e 3e 9a c6 e1 3e f1 68 4d 3e
       -0.46097067 0.17084536 0.44096833 0.20059563
000020 97 59 41 3f dd e3 23 3f db 88 f5 be 78 c8 21 bf
       0.7552733 0.64019567 -0.47955975 -0.63196516
000030 ed 67 d7 be ed 41 55 3f fe f0 81 be f2 ff 8e bd
       -0.42071477 0.8330372 -0.25379175 -0.069824114

layer3.0.weight f4 [16, 16]
000000 98 c7 d7 3f 6d 5e 9e 3d 58 c4 2b bf 00 79 eb 3d
       1.6857786 0.07732854 -0.6709647 0.11497688
000010 d4 60 1f 40 4b 75 26 3f c1 a0 1c bf a8 82 99 3f
       2.490285 0.65022725 -0.6118279 1.1992998
000020 fd 64 45 be 01 70 a4 bd 6d 89 3a 3f a1 27 f5 3f
       -0.19276805 -0.080291755 0.72865945 1.9152719
000030 62 97 87 3e 5c fd 78 bf dd 1f 15 3f 15 6d 22 3e
       0.26482683 -0.97261596 0.58251745 0.15861924
000040 84 f7 23 bf 70 95 2e 3f a4 13 64 be 23 a5 52 bf
       -0.64049554 0.68196774 -0.22273117 -0.8228323
000050 94 52 01 40 bf 77 d1 3f e1 d1 a6 be cf 84 99 3e
       2.0206652 1.6364669 -0.32582 0.29984137
000060 fb 49 d4 be 74 9a b9 bd 76 d7 49 3f e7 05 e3 3f
       -0.41462693 -0.09062663 0.7884439 1.7736176
000070 25 27 0b bf f4 0c a1 bd 55 86 2e 3e 2c 95 d2 3f
       -0.54356605 -0.07863799 0.17043431 1.6451774
000080 96 45 92 3f a5 d3 41 3e 39 27 17 bf fe 1f b4 3d
       1.1427486 0.18928392 -0.59044224 0.087951645
000090 e3 dd e5 3f db 76 86 3e bc 26 78 be db cd 8e 3f
       1.795834 0.26262555 -0.24233526 1.1156572
0000a0 13 5a 5e 3d 4e 4b 09 be 5a 1a 20 3f 03 30 85 3f
       0.05428512 -0.13407633 0.6254021 1.0405277
0000b0 83 45 00 bf f0 90 1b bf 06 79 dd 3c c6 01 9d 3f
       -0.50106066 -0.6076803 0.027035248 1.2266166
0000c0 0f 4d a6 bf 65 b0 59 bf 62 57 c3 be 18 dd c8 3e
       -1.2992266 -0.8503478 -0.38152605 0.3923118
0000d0 0c 95 1e c0 f4 6e 8d be 0d 2d 28 3f 4c b2 ac 3d
       -2.477847 -0.27623713 0.6569374 0.08432445
0000e0 66 4b 3c 3f 43 a1 3d 3f b1 bb 67 bf 9b 29 e8 bf
       0.7355255 0.7407419 -0.9052077 -1.8137697
0000f0 3e a3 4d bf c7 da 69 3f ff 0b 3d bf d6 3c e4 be
       -0.8032721 0.9134945 -0.7384643 -0.44577664
000100 b8 c4 00 3e 9b 96 c2 3e 7e 59 27 3e 98 47 41 bf
       0.12575042 0.38005528 0.16342732 -0.7549987
000110 bc d9 af 3f 0d f1 5c 3e c1 e7 24 bf ab 86 3c 3e
       1.3738322 0.21576329 -0.6441613 0.18410747
000120 80 55 51 bf 4e ad 1a bf ab 07 85 3f e5 29 42 3f
       -0.8177109 -0.6042069 1.0392965 0.75845176
000130 3c 95 3b be 58 fa 26 bf d4 86 1c 3f ed 5c c8 3e
       -0.18318647 -0.65225744 0.6114323 0.39133397
000140 7d 3a 20 be 38 0b e5 3e 49 14 94 3e 75 c7 81 bf
       -0.15647312 0.44735122 0.28921726 -1.0138994
000150 6a 50 0d 40 a6 c4 1d 3f 06 4c 22 bf 49 e3 3c 3e
       2.208033 0.61628187 -0.6339725 0.18446077
000160 b2 3f 46 bf f0 62 05 bf 5d b0 0f 3f 74 0f d8 3f
       -0.7744094 -0.5210409 0.56128484 1.6879716
000170 d6 ba d0 be 95 46 ee be f8 ea 0e 3f c2 3f 2a 3f
       -0.40767545 -0.46538225 0.55827284 0.66503537
000180 a1 5c 36 bf 1e 52 0a 3f 9d 26 0c 3c c6 dc 16 bf
       -0.7123509 0.5403155 0.008554128 -0.58930624
000190 f3 8a 49 40 ed 55 60 3f 56 cf e2 be 13 6a ba 3d
       3.1491058 0.8763111 -0.4429881 0.09102263
0001a0 70 30 49 be a5 95 9f be b2 1b cd 3e f3 1e f1 3f
       -0.19647384 -0.31168857 0.40060192 1.883757
0001b0 c4 a6 be bf 37 fb a7 bd 08 3d d2 3d 95 db 0a 40
       -1.4894643 -0.08202212 0.10265547 2.1696522
0001c0 b0 ce 14 bd 0e fd 1a 3f 5e 2b 8e 3e 91 c2 83 bf
       -0.036329925 0.6054238 0.27767462 -1.0293752
0001d0 90 05 d8 3f eb ce e7 3d c2 ad 94 be 0b a4 fa 3d
       1.6876698 0.11318763 -0.29038817 0.1223832
0001e0 d1 97 7c bf 98 4c 41 bf ea 8d 40 3f a7 c8 f8 3e
       -0.98669153 -0.755075 0.75216544 0.48590586
0001f0 e9 52 f4 bd 37 62 4c bf 64 77 07 3f 6e b8 24 3f
       -0.11929876 -0.79837364 0.5291655 0.6434392
000200 9b ab cf bf 7a 54 0e bf a3 e8 4f be a9 88 0a 3f
       -1.6224245 -0.5559765 -0.20303588 0.54114777
000210 79 4a 1b c0 54 7c 12 bf 7c 7e 73 3f 67 87 d0 bd
       -2.4264205 -0.5722096 0.95114875 -0.10182076
000220 63 06 16 3f 81 1c 6b 3f 02 48 3f bf 7b 5d e3 bf
       0.58603495 0.9184037 -0.7471925 -1.7762903
000230 c4 13 b0 bf a2 68 93 3f 98 b7 51 bf 12 c7 01 be
       -1.3756032 1.1516306 -0.81920767 -0.12673596
000240 cd ea eb bd 41 68 23 3f 04 fa 5e 3e 59 f4 64 bf
       -0.11519394 0.63830954 0.21775061 -0.89435345
000250 4d 44 9a 3f 26 cc cd 3d 8e 2f c5 be 62 c1 20 3f
       1.2052094 0.10048704 -0.38512844 0.6279508
000260 9a a7 6b bf 34 f3 62 bf 88 86 4f 3f 6a 8b 0d 3f
       -0.92052615 -0.8865235 0.81064653 0.55290854
000270 78 96 9f be 40 b0 d7 be e4 b2 bd 3d f4 ea 15 3f
       -0.31169486 -0.42126656 0.09262636 0.58561635
000280 02 57 bd bf eb 21 e4 be 86 09 d7 be 86 e3 40 3f
       -1.4792178 -0.44557127 -0.41999453 0.75347173
000290 52 b9 0b c0 3b 5e e1 bd 7d 87 40 3f ab 31 15 3e
       -2.183186 -0.11004301 0.7520674 0.14569728
0002a0 39 a8 18 3f 51 e8 79 3f 09 bf 1a bf 33 a3 bb bf
       0.5963169 0.9762011 -0.60447747 -1.465918
0002b0 67 c7 43 bf 65 f2 81 3f b0 62 94 bf cb 18 26 bf
       -0.7647614 1.0152098 -1.1592617 -0.6488158
0002c0 9e c3 14 c0 12 9b e5 be c4 a7 70 be 3f 46 e5 3e
       -2.3244395 -0.44844872 -0.23501498 0.44780156
0002d0 6f 93 d0 bf 6c e2 6d 3d c7 0b 00 3f c0 72 15 bd
       -1.6294993 0.05807726 0.5001797 -0.036486387
0002e0 39 58 22 3f 3e d0 0b 3f 23 f3 ee be dd 92 fa bf
       0.6341587 0.5461463 -0.46669874 -1.9576069
0002f0 71 bb b5 bf 08 03 75 3f 24 0d f6 bf 75 f7 f6 3d
       -1.4197828 0.9570775 -1.922276 0.120589174
000300 89 03 c2 bd 73 09 03 3f 46 52 8e 3e 47 cc 46 bf
       -0.094733305 0.51186293 0.27797145 -0.7765545
000310 0d 3e 9b 3f 4d cb c5 3e 00 fe a8 be ac 6c 19 3e
       1.2128311 0.3863167 -0.33006287 0.14982861
000320 e6 a3 56 bf bc db 32 bf 70 d8 3f 3f 31 5f 16 3f
       -0.8384384 -0.6986654 0.7493963 0.58739
000330 a8 ea a5 be f9 a8 45 bf a2 db 39 3f 9d bf 17 3f
       -0.3240559 -0.77210957 0.7260076 0.59276754
000340 4c 1d f3 bf 70 0f 39 bf ca 14 e6 3d a1 c9 83 3e
       -1.8993316 -0.7228918 0.11234434 0.25739768
000350 8b 38 e0 bf 36 4c bc be 15 cd 25 3f 52 9c d2 3d
       -1.7517256 -0.36776894 0.64766055 0.10283722
000360 9f 30 13 3f d7 f3 75 3f a5 0a 2f bf 1a cd dc bf
       0.57496065 0.96075195 -0.6837562 -1.7250092
000370 ad c9 77 bf 77 db 8b 3f c5 51 9c bf 9a 71 d9 be
       -0.9679211 1.092635 -1.2212454 -0.42469484
000380 63 78 1f bf a4 9b 3b 3d 7f 72 c3 bd 47 76 29 bf
       -0.6229307 0.045802727 -0.09543323 -0.661961
000390 56 df 27 40 95 b8 82 3f d4 3f 50 bf 9e f7 a6 3e
       2.6230063 1.021258 -0.81347394 0.32610792
0003a0 01 6c 4d 3d e8 48 97 be 4b 9c 6a 3e eb 5a ad 3f
       0.05015183 -0.2954781 0.22911184 1.3543371
0003b0 59 b3 cd bf b0 b3 be be e5 44 02 be ae a0 03 40
       -1.6070358 -0.37246466 -0.12721594 2.056682
0003c0 a4 c8 88 3e 36 9c 20 bf 03 50 da be 06 29 15 3f
       0.26715577 -0.6273836 -0.4263917 0.5826572
0003d0 b4 bc 33 bf 28 17 59 3e 55 3b a6 3e 2b d9 8e bf
       -0.70209813 0.2120024 0.32467142 -1.1160024
0003e0 87 b5 a5 3e 6c 91 09 3f 35 7f bc be 24 72 d9 bd
       0.32365057 0.5373752 -0.368158 -0.10617474
0003f0 13 be 73 3f cf 9e 46 3f 35 dc ca 3f 9d 91 4f bf
       0.95211905 0.7758607 1.5848452 -0.81081563

layer3.0.bias f4 [16]
000000 a5 af 5a be c4 47 22 bf df 2c 42 bc 2a d8 31 3f
       -0.21356066 -0.63390756 -0.011851518 0.69470465
000010 e3 c9 93 bf 8f 97 82 bf 95 75 a2 be c1 8c 9c bf
       -1.1545986 -1.0202502 -0.31730333 -1.2230455
000020 ea 07 59 3f 6c ea 97 bf 08 63 7b 3f cb d6 2c 3f
       0.847777 -1.1868415 0.98197985 0.6751525
000030 b5 22 92 bf c8 b0 10 3f d4 77 1f bf 06 32 61 3f
       -1.1416842 0.56519747 -0.6229222 0.87966955

final.weight f4 [2, 16]
000000 e7 d6 5f bf 1b e0 ae bf 96 ac b3 bd 8a 8e 77 3f
       -0.8743729 -1.3662142 -0.087731525 0.9670187
000010 26 8e 58 bf 50 c3 97 bf 12 13 a3 bf dc 3e 6c bf
       -0.845919 -1.185648 -1.2740195 -0.92283416
000020 2d f0 8c 3f 1b 05 18 bf 53 4c 82 3f 66 03 95 3f
       1.1010796 -0.5938279 1.0179542 1.1641662
000030 3c fb 60 bf 9a 70 8a 3f bd 1c 64 bf a5 b6 84 be
       -0.87883353 1.0815613 -0.8910635 -0.25920597
000040 6d d6 c8 bf 23 66 03 bf f4 08 b3 bf 4e b0 94 3f
       -1.5690438 -0.51327723 -1.3987107 1.1616304
000050 7f c6 0f bf 3c 6c 5f bf 29 8b 26 bf 5d 40 42 bf
       -0.56162256 -0.8727453 -0.6505609 -0.7587946
000060 47 19 8c 3f 02 5f 60 bf fc 25 38 3f bb 97 54 3f
       1.0945214 -0.8764497 0.7193296 0.8304402
000070 2c 0a 2f bf 83 a5 81 3f 70 ba c2 be ba 4f ad 3f
       -0.68374896 1.0128635 -0.38032866 1.3539956

final.bias f4 [2]
000000 30 36 6a 3f 0c 13 64 3f
       0.91488934 0.89091563
