Cartpole-Deep-Q-Learning/dir_chk_V0/cartpole-v0_local.pth (torch_old, 4323 bytes, 8 tensors)

layer1.0.weight f4 [16, 4]
00000000: 6349 773f bc04 8e3c b3c1 0bbf f28b cfbc
00000010: 3aee 27bd 70a8 8e3d 1e71 573f f156 183e
00000020: 678c ca3e b403 95bd a50b 2abf 8055 6dbe
00000030: 1bc4 a3be 548c 973b f231 25c0 497a 9abe
00000040: d32c 9abe 1da2 db3e 553d fe3e 26de 663e
00000050: 7791 5e3e 9ab5 c6be 65a4 05bf cd0a 5abe
00000060: 2bd5 1b3f 164f 0e3e 84ec 8bbe ae3f d9bd
00000070: 20c4 073f 6640 63bd e67b 303d 163a f5bd
00000080: 2938 62bd abf4 8cbd 7c33 18c0 d944 7bbe
00000090: 0b5f 833f 88d3 ae3e 2a19 6f3f 873f a63e
000000a0: 6df1 7dbe 3b26 debe 078d 93bf 1c83 a0be
000000b0: 3652 143f cdb9 90be 9e12 373e 549c eabe
000000c0: 5f46 a1bd 0faa 4e3e c497 e33f d848 e33e
000000d0: 5e5b 2cbf de64 03bf a9ac f3bf dead 0cbf
000000e0: baf1 5e3e baf1 363e 0673 f83f 71de 8d3e
000000f0: a296 62bf a24f 8dbe 8e01 e7bd c848 94bd
0.96596354 0.017336242 -0.54592437 -0.025335286 -0.040998675 0.06965721 0.8415698 0.14876916
0.39560243 -0.07276097 -0.6642402 -0.23177147 -0.31985554 0.0046248827 -2.5811734 -0.3017142
-0.30112323 0.4289712 0.49656168 0.2254568 0.21735178 -0.38810426 -0.5220397 -0.21293183
0.60872144 0.13897356 -0.27328885 -0.10607849 0.5303364 -0.055481337 0.04308691 -0.1197397
-0.05522934 -0.06882604 -2.3781424 -0.24537982 1.026338 0.3414576 0.9339777 0.32470343
-0.24799128 -0.43388543 -1.1527413 -0.3135003 0.57937944 -0.28266755 0.17878196 -0.45822394
-0.0787475 0.2018206 1.778069 0.44391513 -0.67326915 -0.51325786 -1.9037067 -0.549528
0.21771899 0.17865649 1.9410102 0.27708772 -0.885111 -0.27599818 -0.112795934 -0.072404444

layer1.0.bias f4 [16]
00000000: 6cc2 bebe 2a32 183f 32ef 313f d9a5 f9be
00000010: f514 933e 152d f93e e617 f9be 8101 0f3f
00000020: 8e88 e1be 6912 cdbd bb63 663e 1a68 16bf
00000030: 2429 cbbe 0d4d e5bd 4fa5 cebe b08f 203e
-0.37257707 0.59451544 0.6950561 -0.48759344 0.28726926 0.48667207 -0.48651046 0.5586167
-0.44049495 -0.10013277 0.22498982 -0.58752596 -0.39679825 -0.11196337 -0.40360495 0.15679812

layer2.0.weight f4 [16, 16]
00000000: 781e bfbe 36e7 213d 8443 343e ee0e b5be
00000010: a940 64be 4551 b03e 86c2 c53e 71fb f8bb
00000020: 68dd 2cc0 ceb9 3bbf ee10 fcbd 97d5 063f
00000030: 5a32 95bf 9d92 9e3d 5dfc 3ebe 2b41 df3d
00000040: dfe7 63be 821c 523e e1e5 fdbe 33da 0dc0
00000050: 27a4 823d 8666 503b 4573 793e e320 e1be
00000060: 212a 28bf c3c6 47be b88b a3be 54cd 63bf
00000070: 1230 6d3f f2ec 003f d336 6a3f 602e f9be
00000080: de9b 44bf dd8d ca3e bcfb 14bf aa8a 60bf
00000090: f7f5 e9bd 9161 f8be f608 86bf ed82 3abe
000000a0: 66cc c23b 04b8 85be 9e48 87bf c1d1 93be
000000b0: 4306 9e3f ad5d cb3e 2656 3640 e1bd f23e
000000c0: 1812 803d 55c2 333e 33e5 103e 68c0 9ebe
000000d0: 75ab 7a3e e4b5 c8bd 28ff 46be 5f11 b33e
000000e0: c853 fdbf 3099 933d d5d1 9bbe c10f 81be
000000f0: 2a9e 10bf 6b3b 14bf 9ce1 7fbf 25cd 3fbe
00000100: 1f57 103f 210b b6be 70ce fabd da84 aebe
00000110: 5043 3f3e 6e3f 743e b896 803f f413 6ebe
00000120: 9e28 413f 772d fa3e f191 1f3f 634a 893e
00000130: 5ccf 663e 0208 123f dd6d aa3e 2e89 c5bd
00000140: e79a de3e 74b8 29bf 3534 ae3b 351f 243f
00000150: cac1 17be a423 c83e d186 6a3f 0358 59be
00000160: 8fc7 d73f a389 b53c 2b2c 193e d8cd 193f
00000170: 2db5 b5bd 3b31 1c3f 39e0 90be abb5 c1be
00000180: 9a51 0abf 8539 663e 2f5d 9d3d c620 2d3e
00000190: 68f5 fc3c bc93 b53d 953b e3be 6d46 353e
000001a0: cef5 32c0 9179 53bd 695f 10be 5eda 193f
000001b0: abc0 06bf ba20 85be f3ab 60bf 510c c6bd
000001c0: 0ddf 18be fc54 423e 76b7 7f3e 938c aabe
000001d0: f029 ba3e 863e 933e e79a 0ebf ff2b 443e
000001e0: 6a98 29c0 ab36 90be 641d 9dbe 4b7f d03e
000001f0: 8578 50be 2451 20bf 10fd 7bbf a817 b0be
00000200: fb31 b0bd 025c 25be ed54 a8bd 9a55 9fbe
00000210: 4647 acbe 97d9 b13e 03e5 323e 5375 643e
00000220: b1e7 05c0 d2df aebf 5b70 8e3e c5b9 113f
00000230: bdb9 d2bd 1cd9 5dbe 7a1c 98bf 4b19 b33e
00000240: 2bf0 06be 6f40 c53b 92ae 91be 0368 e1be
00000250: 490a 9c3c be3b 87be abc2 cabd 53d0 82be
00000260: 993a 3ebe 5197 c03d 4484 76be b906 50be
00000270: aa93 533f 6d69 363f 6e21 df3f e157 623e
00000280: e9a5 7abb dfa6 003f a0bb e43e b9f9 67bf
00000290: 9c93 ad3e 95f5 d23e bc87 33bf f825 093f
000002a0: 6fe7 31c0 c3c2 1dbe b7f1 d53e e9d2 b4be
000002b0: 7895 b73e becc e239 4d36 3cbf 2013 143f
000002c0: 8f6b f8be a748 a53e a36c b53d e5a3 20bf
000002d0: 1305 e1bd fe33 8fbd eb71 4cbe 31d0 c33e
000002e0: c982 09c0 d524 a0be b90c d73c 448b a63e
000002f0: 5772 2c3e 1b00 23bf 5907 30bf 9770 56bf
00000300: 0bea 95be a277 c4bd 432b a13e c534 ec3f
00000310: bccd 9a3e 0b10 0d3f f928 5f3f 811c 6e3e
00000320: 9922 1b40 e700 75bd f3d1 0b3f cef3 8d3e
00000330: 3435 77c0 223c 363e 5e87 96bf f0f6 853e
00000340: fee0 dabe 521f 833e d634 c63e 88a7 adbd
00000350: c7ac 963e c9d3 3abe bbbb a8be 67e2 273e
00000360: f01c 20c0 9084 83be e224 c1be 392a 483e
00000370: a94b 93bf 93db aebe 8a23 8dbf 4845 963d
00000380: b3c3 74bd dfe5 a83d 0daa 1d3f f26d 5cbe
00000390: b15b b83e b43a 1e3d 925d 8cbe caad 423e
000003a0: 62a5 26c0 3ad8 7a3e 6392 243d 71e9 0e3f
000003b0: 348e 6cbf b372 7abe a6aa 20bf 51b7 903d
000003c0: fe7f 84bf fc5f 483e 75a0 7c3e c6a7 59bf
000003d0: c367 16bf aba6 973e 36b1 e2be 8bd1 30be
000003e0: 91ae 2cc0 1879 74bf 5a5c 043f 7004 1f3f
000003f0: 6e7f e1bc 3ec1 b8bd 9fc9 3bbf 4299 6e3e
-0.37327933 0.03952714 0.1760388 -0.35362953 -0.22290291 0.34437004 0.38624972 -0.0075983335
-2.7010136 -0.7333039 -0.123079166 0.5266966 -1.1655991 0.07742808 -0.18650956 0.10901102
-0.2225642 0.20518687 -0.49589446 -2.2164428 0.06378966 0.003179939 0.24360378 -0.43970403
-0.65689284 -0.19509415 -0.31942534 -0.8898518 0.92651474 0.5036155 0.91489905 -0.48668194
-0.76800334 0.39561358 -0.58196616 -0.87711585 -0.11423867 -0.48511937 -1.0471485 -0.18214007
0.0059447763 -0.26116955 -1.0569036 -0.28870967 1.2345661 0.39719906 2.849008 0.4741049
0.06253451 0.175546 0.14149933 -0.3100617 0.24479468 -0.09800318 -0.19433272 0.3497419
-1.9791193 0.072069526 -0.30433527 -0.25207332 -0.5649134 -0.57903165 -0.9995363 -0.187306
0.56382936 -0.35555366 -0.12246406 -0.34085733 0.18678021 0.23852322 1.0045996 -0.23249799
0.754526 0.48862812 0.62332064 0.26814565 0.22540039 0.5704347 0.33286944 -0.096453056
0.43477556 -0.6629708 0.005316282 0.6411012 -0.14820018 0.39089692 0.91611964 -0.2122498
1.6857775 0.022160357 0.14958255 0.6007972 -0.08872447 0.6101262 -0.28296068 -0.37833914
-0.54030764 0.2248288 0.07683789 0.16907033 0.030878738 0.08866069 -0.44381395 0.17702647
-2.7962527 -0.051629607 -0.14098896 0.60098827 -0.5263774 -0.2600153 -0.87762374 -0.09670318
-0.14928837 0.18977731 0.24972329 -0.33310375 0.3636012 0.2875864 -0.5570511 0.19157408
-2.6499276 -0.28166708 -0.30686486 0.40722117 -0.20358475 -0.6262381 -0.9843302 -0.34393048
-0.08603283 -0.1614838 -0.08219323 -0.31119996 -0.33648127 0.3473632 0.17470174 0.2231038
-2.0922663 -1.3662055 0.27820095 0.56924087 -0.10289333 -0.21664852 -1.188369 0.34980235
-0.13177554 0.006019644 -0.284535 -0.44024667 0.019047873 -0.26412767 -0.09900411 -0.25549564
-0.1857704 0.09403861 -0.24073893 -0.20315064 0.8264719 0.71254617 1.7432077 0.22103836
-0.0038245863 0.50254625 0.44674397 -0.9061542 0.3390168 0.4120299 -0.7012899 0.5357356
-2.7797506 -0.15406327 0.41785976 -0.35317162 0.35856223 0.00043258624 -0.73520356 0.5784168
-0.4851956 0.32281992 0.088586114 -0.62750083 -0.10987296 -0.069923386 -0.19965331 0.38244775
-2.1486075 -0.312781 0.026251184 0.32528126 0.16840492 -0.63672036 -0.6876121 -0.8376555
-0.29280123 -0.09593131 0.3147832 1.8453604 0.30235088 0.55102605 0.87171894 0.23253061
2.4239867 -0.059815314 0.5461723 0.2772507 -3.8626223 0.17796376 -1.1760061 0.2616496
-0.4274978 0.25609833 0.38712186 -0.0847922 0.29428694 -0.18244852 -0.32955727 0.1639496
-2.5017662 -0.25687075 -0.37723452 0.19547357 -1.1507465 -0.34151897 -1.1026471 0.07337433
-0.059756946 0.082469694 0.615876 -0.21526316 0.36007455 0.038630202 -0.27415138 0.19011608
-2.6038442 0.24496546 0.040178668 0.55824953 -0.92404485 -0.24457817 -0.6276039 0.07066215
-1.035156 0.19567865 0.24670584 -0.85021627 -0.5875208 0.29619345 -0.44275826 -0.17267434
-2.6981547 -0.95497274 0.5170342 0.62116146 -0.027526584 -0.09021233 -0.73354524 0.2330065

layer2.0.bias f4 [16]
00000000: 1d55 c43e ea8e 82be 32d6 e63d 6753 d73e
00000010: 3825 05bf 5df4 06bf 3853 ab3e 4ebe c53d
00000020: 931d c73e b750 25be 527d 043f 9b80 b93e
00000030: dc5d 87be f8fc 6c3e 7056 083f f0e6 fd3e
0.38346186 -0.2549966 0.11271323 0.42055818 -0.52009916 -0.5271662 0.33461928 0.09655438
0.3888975 -0.16144072 0.51753724 0.3623093 -0.26438797 0.23143375 0.53256893 0.49590254

layer3.0.weight f4 [16, 16]
00000000: 3535 31bf 73d3 803f 4130 873f c647 21bf
00000010: 209b 313f 7516 20be 478c b7be 8d4a dfbe
00000020: db9b b2be 1002 843f 5b5a c4bd 259c c8be
00000030: 6db6 9f3f 77dc 5bbe cf1a d9be 52be d6be
00000040: f5b2 4e3e 3c8e ca3e 8637 49bd e656 03be
00000050: bb7b 6bbe ab06 25bf bea7 ad3e 1c0b 59bf
00000060: 6256 373e 9e8b 203f f2de 70be 00d9 94bf
00000070: 4bb5 fe3f adf5 273f 6bc2 f13e 513d 00bf
00000080: b769 fdbe 6f66 9d3e 738f f63d 576d dcbe
00000090: 96db 703f 0443 143b ae6c 51be fff3 21bf
000000a0: ea69 18bf 9fb2 ba3e ca67 cebe b05e 79bf
000000b0: 325d 8c3f 1ecb b0be 4c20 30bf 7f6d 28bf
000000c0: 1ff2 2dbf 89f6 9d3e fda4 bb3f 1bdc 13bf
000000d0: d5d6 a13f 99d0 f23e 9ce8 6bbf cf8c e9be
000000e0: 57d8 52bf cf0a 013f 7838 52bf fa40 3abf
000000f0: 3469 f83e 96b8 55bf df03 62bf 28d4 34bf
00000100: 60b8 543f e9f8 f1be 915f bebf e776 cb3e
00000110: 8443 c3bf 50d3 3fbf 998c 673f ba46 623f
00000120: 8921 4a3f 7f22 0fbf 2cd5 1f3f 45a7 113f
00000130: a209 88be 60f3 773f 30d7 413f f05b 0f3f
00000140: aefc 8c3f d0d8 b53b 0c7f 06c0 6e60 d73e
00000150: 7f96 91bf dda8 febe 793c 773f e343 073f
00000160: d3df 3b3f a12f 01bf a97c a43e 8048 7a3e
00000170: 71ef 45be 885d 543f 96dc 953f 9164 253f
00000180: 66bf 55bf bfa7 6fbe 4b49 0e40 a268 cbbd
00000190: 06b3 5d3f c8e9 ec3e 2082 74bf 3128 27bd
000001a0: d0e4 27bf 5f6f 353d 53b1 2ebc a4e7 b73e
000001b0: 6438 aebe 7336 62bf 6f5c 58bf 133f 80be
000001c0: 7472 e33e 0b61 03bf e09c 96be 1e74 013f
000001d0: 2793 4cbf 8fb9 8ebe e271 0c3f 6268 473f
000001e0: 6df5 383f c23c e3be eb37 4d3f f272 813f
000001f0: a02c b8bf 5499 333e c622 c13e 9f42 163f
00000200: e646 71bf b832 883e 49ca a63f 089d 04bf
00000210: 6688 563f 8b95 e63d aeea 63bf d7fd 55bf
00000220: 8ea8 04bf 1113 273f 3913 1abf 19d2 22bf
00000230: 1e40 b23e d2ce e4be 23dd 58bf f0f6 f7be
00000240: dac0 4fbf 1b69 6e3e 0c49 b53f a10c 14bf
00000250: b0b8 9a3f 8528 d53e ae24 3cbf 05a6 1cbf
00000260: 8ee1 32bf 11c6 9f3e 0949 07bf 99ef 13bf
00000270: 3fb4 d93e 3bc1 4ebf a4d6 1abf 3d6c 4abf
00000280: 8652 7bbf 7bcb c13e eb62 933f 0f85 b5be
00000290: 4a06 ac3f 34e3 c43e fe3b 1ebf 03c1 55bf
000002a0: cfc4 13bf 1313 a73e 6cd6 2abf 65e6 ffbe
000002b0: 07e0 103f fef3 c1be 8d16 54bf 8d3e 04bf
000002c0: 9078 37bf 24c9 d3be ec03 0f40 c294 6fbe
000002d0: e3ee 433f 0e66 533d 0e31 42bf 03c6 81be
000002e0: 2555 f6be 2f03 ffbd 7387 8ebe a6a6 783e
000002f0: 4776 cebe d8d4 85bf b822 88bf 1e04 c1be
00000300: 7e6a 443f 938f 49bf ce3c 27bf 1820 213f
00000310: db67 62bf bd31 dbbe 2993 123f 13f0 633f
00000320: f17a 063f fe97 1abf 5aba 383f 66b1 833f
00000330: 37f5 9bbf 3aae e73e 0734 243f 2e5f 303f
00000340: 0161 11bf 9305 db3e 470d 2e3f d51e 17bf
00000350: 8360 a93f 6e83 203f 35a6 1dbf a75c 57bf
00000360: 6a6e 2bbf 0f76 ef3e 41bc 9ebe 8a35 b7be
00000370: d201 ae3f 467d c7be 41f2 26bf 03fa 4abf
00000380: 2142 33bf 8e49 b03e 7f81 b33f 0347 0bbf
00000390: e7dd a03f 3e3c bc3e a800 7fbf dcca 5abf
000003a0: c2f5 16bf e8ee d23e a405 a8be b867 f0be
000003b0: 4861 c33e 2a6f 57bf a923 40bf 4550 bebe
000003c0: e173 12bf 31b6 66be a132 e43f f675 f5be
000003d0: 6ebe 8b3f 34d5 c43e 21a6 33bf 27e9 b6be
000003e0: 1a6a 3cbf 98bb 263d bfb7 cfbe a96b 44be
000003f0: 5b86 1abe c3c7 77bf f224 6cbf 2a1f 0fbf
-0.6922181 1.0064529 1.0561601 -0.6300014 0.69377327 -0.15633567 -0.3584921 -0.43611565
-0.34884533 1.031313 -0.095875464 -0.3918163 1.2477547 -0.2147082 -0.42403266 -0.41942078
0.20185454 0.3956164 -0.049125217 -0.12826118 -0.22996418 -0.644633 0.3391704 -0.84782577
0.17904046 0.6271304 -0.23522547 -1.1628723 1.9899076 0.65609246 0.47218642 -0.5009356
-0.49494717 0.30742213 0.120390795 -0.4305217 0.9408506 0.0022622952 -0.20451614 -0.63262933
-0.5953661 0.36464402 -0.4031356 -0.97410107 1.0965941 -0.34529966 -0.6879928 -0.6579208
-0.6794757 0.30852154 1.4659725 -0.5775773 1.2643687 0.47424772 -0.9215181 -0.4561524
-0.8236136 0.5040712 -0.82117414 -0.72755396 0.48517764 -0.8348478 -0.88287157 -0.70636225
0.83093834 -0.47260216 -1.4872915 0.39739153 -1.5254979 -0.7493181 0.9044891 0.8838917
0.7895742 -0.5591201 0.6243465 0.5689586 -0.2656985 0.96855736 0.75718975 0.5599966
1.1014612 0.0055495277 -2.1015043 0.42065758 -1.1374053 -0.49738207 0.9657665 0.5283796
0.73388404 -0.504633 0.32126358 0.24441719 -0.19329621 0.8295522 1.1707942 0.6460658
-0.83495176 -0.23403834 2.2232234 -0.099320665 0.86601293 0.4627211 -0.95511055 -0.040809814
-0.65583515 0.044295665 -0.010662395 0.35918915 -0.34027398 -0.8836433 -0.8451604 -0.25048122
0.44423258 -0.5131995 -0.2941656 0.50567806 -0.79912037 -0.27875945 0.5486127 0.7789365
0.7224949 -0.44382292 0.8016345 1.0113204 -1.4388618 0.17538959 0.37721843 0.58695406
-0.9424881 0.26601195 1.3030483 -0.5180211 0.8380188 0.11258992 -0.8902997 -0.83590454
-0.51819694 0.6526347 -0.6018558 -0.63601834 0.34814543 -0.4468904 -0.8471243 -0.48430586
-0.81153643 0.23282282 1.4162917 -0.5783177 1.2087612 0.41632476 -0.7349347 -0.61190826
-0.6987542 0.312058 -0.5284582 -0.5778747 0.4252033 -0.80763596 -0.60483766 -0.7907141
-0.98172796 0.37850556 1.1514562 -0.35453078 1.3439419 0.38454592 -0.6181029 -0.8349764
-0.5772218 0.3263174 -0.6673343 -0.49980465 0.5659184 -0.37881464 -0.8284691 -0.51657945
-0.7166834 -0.41364396 2.2346144 -0.2339659 0.7653639 0.051611 -0.758561 -0.25346383
-0.48111835 -0.12451779 -0.27837715 0.24282321 -0.40324613 -1.045558 -1.0635595 -0.37698454
0.76724994 -0.787347 -0.65327156 0.62939596 -0.8843972 -0.42811385 0.572558 0.890382
0.52531344 -0.6038817 0.7215935 1.0288513 -1.2184209 0.45250112 0.6414189 0.6889523
-0.5678864 0.4277769 0.6798901 -0.5903142 1.3232578 0.62700546 -0.61581737 -0.8412575
-0.66965353 0.4676976 -0.31003 -0.35783035 1.3594306 -0.38962764 -0.652134 -0.7928774
-0.7002278 0.34431118 1.4023894 -0.5440523 1.2567719 0.3676471 -0.99610376 -0.8546579
-0.58968747 0.41197896 -0.32816803 -0.4695413 0.38160157 -0.84154 -0.75054413 -0.37170616
-0.5720807 -0.22530438 1.7827951 -0.4794156 1.091749 0.3844391 -0.7017537 -0.35724756
-0.735994 0.040706247 -0.40569875 -0.19181694 -0.15090315 -0.9678919 -0.92243874 -0.5590693

layer3.0.bias f4 [16]
00000000: 68d5 26bf 85db f2bd 8eec 6fbf 0a6f 30bf
00000010: 5141 293f 9021 073f b6d6 efbd 2a22 553f
00000020: b169 f9be af8c 31bf 92bf 44bf 0f0e 7dbe
00000030: 8b79 1e3f 5acc 00bf 79e7 03bf 4a95 9abe
-0.6516938 -0.11858276 -0.9372033 -0.6891943 0.6611529 0.5278559 -0.11710875 0.83255255
-0.4871345 -0.6935529 -0.76854813 -0.24712394 0.6190421 -0.50311816 -0.51525074 -0.30192024

final.weight f4 [2, 16]
00000000: 7c95 e8be 4457 5b3f 380b ddbe 0e55 52bf
00000010: 79ef 563f 6e22 653f 13e9 80bf a345 c43e
00000020: 43ba 49bf 5e9e 32bf 4496 3bbf f1e6 5ebf
00000030: 0dfc 043f c171 37bf a0c7 42bf 645a 43bf
00000040: d3f5 a9bf f9a3 83bf 621b 84bf 7d3f 3dbf
00000050: 1609 393f d96a ff3e ff80 f9bd 0d18 8d3f
00000060: 2d34 4bbf 9ca2 2cbf b3b5 49bf d812 4dbe
00000070: 276b 8b3f 0540 6dbf 9440 16bf 2b77 afbe
-0.45426548 0.8568003 -0.43172622 -0.82161033 0.83959156 0.8950566 -1.0071129 0.3833438
-0.7879984 -0.697729 -0.7327616 -0.8707114 0.519471 -0.7165795 -0.76085854 -0.763098
-1.3278145 -1.0284415 -1.0320857 -0.73925 0.7227949 0.49886206 -0.12182807 1.1022965
-0.7937649 -0.6743562 -0.78792876 -0.2002672 1.0892075 -0.9267581 -0.5869229 -0.34270605

final.bias f4 [2]
00000000: c25a 923e b1b0 6d3f
0.28584868 0.92847735
