BipedalWalker-Soft-Actor-Critic/dir_chk/weights_actor_lr0001.pth (torch_old, 298369 bytes, 8 tensors)

linear1.weight f4 [256, 24]
000000 89 f0 38 3e f5 13 ec be 33 85 47 3f ab 52 8c 3f
       0.18060507 -0.46108976 0.7793762 1.0962728
000010 63 cc 40 bd 66 cd 83 bd e6 31 1c 3e 68 ba 3a be
       -0.04706992 -0.06435661 0.1525341 -0.18235171
000020 15 b5 0c be 21 2d 96 bd fe 6d 00 3e a0 16 00 3f
       -0.13740952 -0.073328264 0.12541959 0.50034523
000030 2b 7c 10 3f cf d1 b6 bb b7 9b e3 bc 6d 94 02 bd
       0.56439465 -0.0055792104 -0.027784212 -0.03187983
000040 55 58 7e be 77 78 17 bd 8a b8 97 3d fb d5 48 3d
       -0.24838383 -0.03698012 0.07408245 0.049032193
000050 8c 6a 61 3d a7 c2 0f 3d fd bc 6e bd 61 03 86 be
       0.05503325 0.035097744 -0.058285702 -0.26174453
000060 e4 21 63 3d e7 c4 53 3f 1f 35 a5 be 8b 12 a7 3f
       0.055452242 0.82722324 -0.3226709 1.3052534
000070 77 c1 9f 3c f8 2c 50 3e 7e a4 68 bd e3 97 50 bd
       0.01950143 0.20329654 -0.056797497 -0.0509261
000080 bd f7 2e 3e 26 47 6c be 65 2f 12 3c 9e 45 f8 3e
       0.17086692 -0.23074016 0.008922433 0.48490614
000090 5c 31 89 bd 04 0e dd 3c b5 ac 2a bd 31 9a f1 bd
       -0.06698868 0.026984222 -0.041668613 -0.11796988
0000a0 a9 bc 47 bd d5 20 ae bd 18 7c 06 3e 01 5c ba 3d
       -0.048763905 -0.08502356 0.13133276 0.090995796
0000b0 6f cf 62 bd 76 60 fe 3d a8 db dc 3c da 5a a8 bd
       -0.055373605 0.12420742 0.026960209 -0.082204536
0000c0 f0 5a 86 bc 85 6b 09 3e 7a ce 9a be bc 7e 0b 40
       -0.016400784 0.13419922 -0.30235654 2.1796103
0000d0 df 10 3f be 0e ff 58 be 8c d1 55 be 78 47 0a be
       -0.1865878 -0.21191046 -0.20880717 -0.13503826
0000e0 28 eb 82 3c 21 6c 87 be 72 2f 0b bd d3 f0 d0 bd
       0.015981272 -0.26449683 -0.033980794 -0.102021836
0000f0 a7 0a be bc be d6 4b 3d e5 0f 26 3e 95 5c 25 3e
       -0.023198439 0.04976534 0.16217001 0.16148598
000100 af 77 20 3e a9 20 cd bd 04 af 5d bd 8d c4 5b bd
       0.15670656 -0.10015995 -0.054121986 -0.053654242
000110 17 42 60 3d 63 16 4e 3e f7 9f 8a 3d 86 be 01 be
       0.05475053 0.20125727 0.06768792 -0.12670335
000120 39 68 21 bf 34 db 4b bf 35 f5 01 3d b2 d6 24 40
       -0.63049656 -0.7963135 0.03172799 2.575604
000130 37 b7 ec bd c0 c4 f9 bc 8d d3 92 be 99 f1 bf 3b
       -0.11558383 -0.030489326 -0.28677025 0.005857658
000140 3d 36 27 3e f4 ab 4a be 9e 07 f1 3c 6e 32 b2 3e
       0.16329284 -0.19792157 0.029422577 0.348041
000150 47 2b c4 bd 50 e9 05 be 28 f1 07 be 16 87 93 3d
       -0.09578567 -0.13077283 -0.13275588 0.072035
000160 94 76 eb 3c dc 0f 1d 3e 3d d9 24 3d 49 1b 42 3e
       0.028743066 0.15338081 0.040246237 0.18955721
000170 56 c7 8e 3e 76 77 49 3e c4 c3 71 3d aa a5 97 be
       0.27886456 0.19674477 0.059024587 -0.2961858
000180 5c 30 3f be 4f 90 1f be 19 db 5f 3d 76 b8 d5 be
       -0.18670791 -0.15582393 0.054652307 -0.41742295
000190 c1 1d f6 3c 3c eb 57 be 38 48 9a be 02 41 1f 3f
       0.030043485 -0.21085829 -0.30133224 0.6220857
0001a0 3e 41 26 3e 26 44 90 3e f9 b0 8d 3e ae 92 ff 3d
       0.16235825 0.28176993 0.27674082 0.12479149
0001b0 12 db 60 be a2 72 f3 3d 03 43 3f bd 15 3a 4a be
       -0.21958569 0.11887099 -0.046694767 -0.19748719
0001c0 00 da ec bd de d1 40 be fa 88 1b be 19 b3 30 be
       -0.11565018 -0.18830058 -0.15188971 -0.1725582
0001d0 1b be 78 be 85 c4 e7 bc 09 00 1d 3c 83 ca a3 3b
       -0.2429127 -0.02829195 0.009582528 0.0049985065
0001e0 4b 73 eb 3e f9 a4 e5 3e 7a ff 8a 3e 89 25 c4 3f
       0.459864 0.44852427 0.27148038 1.5323955
0001f0 a5 48 3d 3e e3 02 50 3e 7c a8 ff bd 00 64 a0 3d
       0.18484743 0.20313601 -0.12483308 0.078315735
000200 bb 60 9e bb a8 e5 35 3d 25 79 d2 3c ea 98 a8 3e
       -0.0048333085 0.04440847 0.025692532 0.32929164
000210 ca 5e 7d bc 66 e1 0c 3d 80 be 15 3c 94 38 b4 3d
       -0.015464494 0.034394644 0.009139657 0.08799854
000220 db ca 10 be 45 d6 91 bd 29 2b 10 bd 57 95 66 bd
       -0.14139883 -0.07120947 -0.03519741 -0.056294765
000230 af 04 f0 3c 41 71 02 3d 80 42 01 3e cf 82 30 be
       0.029299108 0.03184629 0.12623024 -0.172374
000240 32 fd e5 bd a1 d5 f3 be a5 e1 8d be 5f 5d 19 3e
       -0.11229934 -0.47623923 -0.27711216 0.14977024
000250 9c 7e 22 bd 36 c0 08 3d 3c af 97 bd 71 8b 41 3d
       -0.039671525 0.03338643 -0.0740647 0.047252122
000260 41 74 d9 be bb de 26 3d 57 3f dc 3d 75 05 85 3c
       -0.42471507 0.040739756 0.107542686 0.016237954
000270 49 e5 06 be e9 f6 66 3e 01 10 1a 3e 4e a9 8c bd
       -0.13173403 0.22555126 0.15045168 -0.0686823
000280 2c 55 32 3e 99 48 bb 3d db 33 12 3e 9d a7 d7 3d
       0.17415303 0.09144706 0.14277594 0.105300166
000290 0e b6 a3 bd 04 9c f5 3d 69 3d 4b 3d fe 1d ce bd
       -0.079937086 0.11992648 0.049619112 -0.10064314
0002a0 25 f7 3e 3e f7 bb 16 be d3 6c c4 3d bd b2 41 be
       0.18648966 -0.1472014 0.09591069 -0.1891584
0002b0 93 9e 2f 3d 06 34 eb 3e 67 a2 80 bd 15 4d c5 be
       0.042875838 0.45938128 -0.06280976 -0.3853537
0002c0 4c 2c 8f ba 8a a1 67 3c 58 24 a3 be ee 05 56 be
       -0.0010923236 0.014137635 -0.31863666 -0.209007
0002d0 f7 48 77 3e 34 a8 47 3e d0 b6 60 be 3c b5 82 be
       0.24148928 0.19497758 -0.21944737 -0.25528896
0002e0 10 94 bb bb 83 61 15 be b0 9e 68 be ab 80 1f bc
       -0.0057244375 -0.14587979 -0.22716784 -0.009735267
0002f0 70 56 45 bc 56 fa 17 be e5 74 53 be 88 2f 59 3d
       -0.012044534 -0.1484159 -0.2065006 0.053023845
000300 48 fc 7b bf 4d cd 1a be 93 ae 0f 3f ed 9a 19 3f
       -0.98431826 -0.15117379 0.56125754 0.60002023
000310 4d 0d 90 be 15 0e 94 3d 82 a4 d5 3d ff 8b e0 bc
       -0.28135148 0.072292484 0.10431768 -0.027410505
000320 42 ca ad 3e 8d ed a4 be b8 1a 1d be e6 82 f0 3e
       0.33943373 -0.32212487 -0.15342224 0.46974868
000330 f9 62 34 3d 48 36 d6 bd 58 69 19 3d 53 1e 54 be
       0.0440397 -0.10459572 0.03745398 -0.20714693
000340 77 d6 1a be bf e8 2f 3d 8e 18 0e 3c 3d ac 22 bd
       -0.15120874 0.042946573 0.0086728465 -0.03971504
000350 29 91 9c 3d 5f fc c8 bc 49 0c 53 be 2f a8 b9 bc
       0.076448746 -0.024534402 -0.20610155 -0.022663204
000360 56 7e 5d be 71 e9 63 be 89 ed 67 3f 5f 1b a4 be
       -0.21630225 -0.2225702 0.90596825 -0.32052132
000370 4b ea 92 be df 8d 13 3e 38 10 68 be cd ae b1 3e
       -0.28694376 0.14409588 -0.22662437 0.34703675
000380 45 1d a9 bd 77 90 96 be 7d 1c c7 3c 02 4a b3 3b
       -0.08257536 -0.29407093 0.024305576 0.005471469
000390 d0 9d 10 bc f1 9a 12 be 1f ee 36 3d 76 c7 85 bd
       -0.008826688 -0.14316918 0.044660684 -0.06532185
0003a0 96 60 b3 3d 54 3a dc bd 13 23 a4 3d b2 13 16 3d
       0.08758657 -0.10753313 0.080145024 0.036639877
0003b0 97 52 e1 bd 6f dd 76 3d f6 05 5e bd 60 c2 2d 3d
       -0.11002081 0.06026977 -0.054204904 0.0424217
0003c0 c2 4a a5 be 23 91 e4 bd 2e bf 2d 3f cc dd 05 bf
       -0.32283598 -0.11160495 0.6786984 -0.5229156
0003d0 5a 28 c3 3e 67 18 e4 3d a7 f8 98 3e ab eb b9 bc
       0.38116723 0.11137467 0.29877207 -0.022695383
0003e0 e2 a5 3a be d1 dd 8e 3e e4 ed f5 3b c4 c0 a0 3d
       -0.18227342 0.27903607 0.0075051654 0.07849267
0003f0 79 15 0e bd 44 44 b4 3d 88 ef 6b bd d1 d6 93 3d
       -0.034688447 0.08802083 -0.05760148 0.07218707

linear1.bias f4 [256]
000000 12 3c 82 be 5b 10 42 be 23 cd 1c bb a7 b2 01 be
       -0.25436455 -0.18951552 -0.0023925982 -0.12665807
000010 78 db d2 bd a8 b3 3d be 94 21 d7 bd 6d 38 58 bd
       -0.102957666 -0.18525565 -0.105044514 -0.052788187
000020 b8 53 4c bd a1 e2 83 bd b0 c3 52 3c 5c 1a c7 3d
       -0.049884528 -0.064397104 0.012864038 0.097218245
000030 13 b8 32 be e1 3c 1e be 6f b4 88 bd 32 e0 92 3d
       -0.17453031 -0.15452911 -0.0667504 0.07171668
000040 7d 69 90 3d 54 20 88 bd c7 39 3b 3e f6 62 12 3a
       0.0705137 -0.06646791 0.18283759 0.00055842043
000050 69 47 6e be 99 30 29 3d 30 f0 64 be 8f 18 1e bd
       -0.23269428 0.041306112 -0.2235725 -0.03859764
000060 dc db 2c 3d 4f 98 07 bc ab 13 e5 bd 06 61 95 bc
       0.04220186 -0.008276059 -0.11185392 -0.018234741
000070 a6 a7 bd bd 0b 7b bf bd 82 94 f9 bd 21 0e 18 be
       -0.09260492 -0.093496405 -0.12186529 -0.1484914
000080 c3 13 eb bd d3 d2 ee bd 9f 98 f1 bd d1 69 17 3d
       -0.114783786 -0.11661305 -0.11796688 0.03696615
000090 4a 7b 8b be c6 a4 92 3c f6 e4 98 3d f3 f8 1c be
       -0.272425 0.017900836 0.07465546 -0.15329342
0000a0 ec a2 86 bc e3 96 d8 bc 1f 81 4e bd 8d d4 0b bc
       -0.01643511 -0.026439136 -0.05041611 -0.008534563
0000b0 5c 55 81 bd e8 b3 d1 bc 59 1d 29 be e9 0b 77 bd
       -0.06315109 -0.025598481 -0.16515101 -0.060314093
0000c0 7a 6c a0 3c 04 e9 0a be 51 c6 4b be 68 00 f2 bd
       0.019582976 -0.13565451 -0.1989987 -0.11816484
0000d0 96 57 42 bd 85 ac 1b 3e 95 0f 96 bd c3 70 4b bd
       -0.04744681 0.1520253 -0.07327191 -0.049668085
0000e0 9b 35 1b 3c c1 67 0c 3d 3b 78 37 be 41 a3 8c be
       0.00947323 0.034278635 -0.17916958 -0.27468303
0000f0 f6 b5 81 3c a8 0e 9d 3d 84 fb a2 bb 2f 5a df 3c
       0.015833836 0.07668811 -0.0049738307 0.027264683
000100 4a e7 a3 3d 01 ad a0 3d ee 71 92 bc 92 df 05 be
       0.08003099 0.07845498 -0.017876592 -0.13073567
000110 e8 79 82 bb 82 6c d4 3b 55 42 29 3c bb a8 47 be
       -0.0039818175 0.0064826617 0.010330756 -0.1949796
000120 e0 9b c1 bd a5 1b 84 be b4 b4 9d bb 9a d2 20 3d
       -0.09453559 -0.2580234 -0.0048128013 0.039263345
000130 20 52 85 3d 41 e9 fa bd c6 dd d5 3d f9 f1 4e bb
       0.06509805 -0.12251521 0.104426906 -0.0031577332
000140 c1 6b 2f be 9c 31 a4 bd c5 03 4a be 74 ae 66 bd
       -0.17130949 -0.08017275 -0.19728 -0.056318715
000150 77 c4 44 ba 19 bc 20 be a4 62 ad 3b 2c cd 52 be
       -0.0007506082 -0.15696754 0.0052913 -0.2058608
000160 af 03 dd bb 5b a5 f8 ba 70 c0 20 bc e1 0b 08 be
       -0.006744824 -0.0018970178 -0.009811506 -0.13285781
000170 f9 ef 2c bd b7 66 97 bd 73 33 e1 3b 97 2a 8c bd
       -0.042221043 -0.07392638 0.0068725883 -0.06844061
000180 b2 18 87 bd 6f 5f e9 bd a3 a0 bd bd 14 14 e3 bb
       -0.06596507 -0.11395156 -0.09259155 -0.0069298837
000190 f3 ed 20 3e 5a 95 3d be bd e3 d5 3c 17 33 c6 3c
       0.1571577 -0.18514004 0.02610957 0.024194283
0001a0 23 03 d1 bd a7 69 57 3c 5b 09 09 3e e2 c1 07 be
       -0.102056764 0.013147748 0.13382475 -0.13257554
0001b0 80 06 af bd b6 e1 06 bd 44 05 1b bc 7f be 26 be
       -0.08546162 -0.0329301 -0.009461705 -0.16283606
0001c0 48 86 c7 bd 7d ee 4b bd 4f 9a 19 3d de fb 2b be
       -0.09742409 -0.049787987 0.037500676 -0.16795298
0001d0 35 6c 98 bc e5 fa d1 bd 8c 53 6e bd 01 89 cb bb
       -0.018606285 -0.102529325 -0.058185145 -0.0062114005
0001e0 37 1b 01 be d5 98 d6 bd c4 af ef 3c b9 e9 23 3d
       -0.12608038 -0.10478369 0.029258616 0.040017817
0001f0 ae 61 04 bd ab 47 88 bd 15 fe da 3d 8e 3b bb bd
       -0.032319717 -0.066542946 0.106929936 -0.091422185
000200 c2 e1 1b 3e 25 cf 47 be fb b3 c4 3d d9 58 1e 3d
       0.15222839 -0.19512613 0.09604641 0.03865895
000210 ba a2 5a 3d 7b 01 52 bc bf fe a4 bd 36 d1 34 be
       0.053377844 -0.012817736 -0.080564015 -0.17657933
000220 cf 3b 3f be 8e 01 ba ba a9 28 96 bd b1 da df bc
       -0.18675159 -0.0014191137 -0.07331974 -0.02732596
000230 45 de f2 bd 65 e5 b1 3b 9e 1d 08 be 44 4b 9d bd
       -0.11858801 0.0054289573 -0.13292548 -0.076803714
000240 ff 5b 67 be 0d 20 87 bd a6 f8 90 bd c4 e6 10 be
       -0.22593687 -0.0659791 -0.07078676 -0.1415053
000250 8c ae ba bd b8 7e 10 3d 0f e1 b6 3c 99 75 90 3d
       -0.091153234 0.0352771 0.022324113 0.0705368
000260 00 54 b5 bc 17 cc e7 bd ab d1 39 bd 1a 40 8e 3c
       -0.02213478 -0.11318224 -0.04536597 0.01736455
000270 8d d6 95 bd cf 77 11 be e0 67 db bd 30 01 58 3e
       -0.07316313 -0.1420586 -0.10713172 0.21094203
000280 bc fb ae 3b 45 69 0d be 09 61 9c bd 32 f3 b9 3c
       0.0053400677 -0.13809688 -0.076356955 0.022698972
000290 44 64 28 3d a9 ad 63 bd 33 6b 45 3d 69 b9 b2 bd
       0.041111246 -0.055585537 0.048197936 -0.087267704
0002a0 b0 cb aa bc 43 e6 5e 3d f6 39 fd 3c c1 57 20 be
       -0.020849079 0.054418813 0.030911427 -0.15658475
0002b0 b1 8f 06 be 96 cd 66 be 89 b5 c2 bd c8 16 75 be
       -0.13140751 -0.22539362 -0.09507281 -0.23934472
0002c0 0b 48 82 bd f9 0c 20 bb 4c 86 de bc 8e 51 a5 bd
       -0.06361397 -0.0024421795 -0.027163647 -0.08072196
0002d0 eb 12 13 be f7 c1 ac be dc 20 cc 3d 7f 57 a6 3c
       -0.14362685 -0.33741733 0.09967205 0.020305393
0002e0 2f 04 23 be c9 1c f6 bd ef b4 45 3d ac fb 09 3d
       -0.15919565 -0.12017209 0.048268255 0.03368728
0002f0 1c 6b 64 3d a3 89 32 bd a0 d0 e6 3b 57 02 17 be
       0.05576621 -0.04358829 0.007043913 -0.14746986
000300 b8 9b 55 be 50 8d 64 bd 3d f5 24 3d e3 3b 69 bd
       -0.20860183 -0.05579883 0.04027294 -0.056941878
000310 de 0c f8 3c c8 ce 77 bd f2 46 c6 bd dc 48 ba bd
       0.030279573 -0.060499936 -0.096815005 -0.09095928
000320 a5 a2 3d bd 12 18 bd bd b7 e5 be 3c 04 ce 4a be
       -0.046297688 -0.09233107 0.023302896 -0.19805151
000330 33 b1 3e bd 01 18 31 be 0f e4 02 be 06 f5 a8 bd
       -0.04655571 -0.17294313 -0.1278231 -0.082498595
000340 6e 42 a5 bd bd 69 4f bc 5d 88 b6 be d7 57 2e 3e
       -0.08069311 -0.012659487 -0.35650912 0.17025696
000350 de 48 38 be c0 b9 02 bd 6b 68 11 3c 05 d5 18 3e
       -0.17996547 -0.031915426 0.008874993 0.1492501
000360 18 ce 62 3d 96 b4 8d 3d 9d 41 ee bb 50 e8 10 be
       0.055372328 0.0691921 -0.0072710053 -0.1415112
000370 87 b9 5e be 1d c9 10 be a1 64 ca bd 66 90 42 be
       -0.2175046 -0.14139219 -0.09882475 -0.19000396
000380 60 2a 94 3d 92 5d 3a be db c6 b4 bd 06 90 70 bc
       0.07234645 -0.18199757 -0.08826991 -0.014682775
000390 d9 55 0b 3d 84 86 fe bc 95 88 81 bd 5c 40 e3 bd
       0.034017418 -0.031070001 -0.06324879 -0.1109626
0003a0 05 4e 5f bd 13 ec 6f 3d 1b d0 c8 bd e3 a3 3b 3d
       -0.054517765 0.058574747 -0.09805318 0.04581059
0003b0 a1 a0 1a bd 68 a9 22 be e4 6d 5a 3d ec f5 99 3b
       -0.037750844 -0.15884936 0.053327456 0.0046985056
0003c0 c6 7c 82 3c 94 59 24 be 1c b5 c3 3d 69 2d e9 bd
       0.015928637 -0.16049796 0.09556028 -0.113856144
0003d0 04 2d 4d be ef ff 14 3b 6c 54 93 bd 05 01 d3 bd
       -0.20036703 0.0022735556 -0.071938366 -0.10302929
0003e0 d8 d2 e8 bd c0 25 81 3d 43 8b be b9 e6 2e 7b bd
       -0.1136834 0.06306028 -0.00036343382 -0.061324023
0003f0 5f 5a 4c bd 93 87 c3 3c 5b 74 74 3c 01 8d 0c be
       -0.049890872 0.023868358 0.014920319 -0.13725664

linear2.weight f4 [256, 256]
000000 77 b3 5f bd dc b6 1d 3d 59 a4 44 bd 3b 47 cb 3d
       -0.05461451 0.038504466 -0.048008297 0.099256955
000010 6c a9 b6 3d b1 22 c2 bd 48 02 e8 3d c6 59 f2 3c
       0.089190334 -0.09479273 0.1132856 0.029583823
000020 02 94 e7 3c 63 cc 88 3d 97 7a 2b 3e cd 9e 14 be
       0.028268818 0.06679609 0.16745983 -0.14513703
000030 71 56 4c be 2a 18 55 be 7a d8 c0 3d d6 42 21 3d
       -0.1995485 -0.20809999 0.0941629 0.03937038
000040 1f a4 a6 bd 2a 8c 7c 3d 08 5d 59 bc 27 02 62 3b
       -0.08136772 0.06165711 -0.013266809 0.0034486146
000050 3a bd 57 bd 2c 03 36 bd cb 2d e4 bd 80 c6 11 bd
       -0.052670695 -0.04443662 -0.11141547 -0.035589695
000060 4c c2 d4 3d 58 b5 be bc 6c 64 33 3e cb e0 6a 3e
       0.10388622 -0.02327983 0.17518777 0.22937314
000070 85 8f b0 bc b2 84 27 bd 46 c1 ed 3d ce 28 aa 3e
       -0.02155281 -0.040898032 0.116091296 0.33234257
000080 9c 15 62 be 4c 2e c5 3c 2d 79 4e 3e 84 bc b7 be
       -0.22078556 0.024069928 0.20163412 -0.35886014
000090 71 d7 08 3e 72 68 b8 be c2 d2 86 bd c1 ed 7d 3d
       0.13363434 -0.36017185 -0.065831676 0.061994318
0000a0 70 bf eb 3d 34 c3 2a 3e 97 90 07 be a0 b4 29 bf
       0.11511123 0.16676027 -0.1323875 -0.66291237
0000b0 40 7a e2 3d 67 73 aa bc ed d7 0b 3e a7 0b 67 be
       0.110584736 -0.020806981 0.13656588 -0.22563039
0000c0 1c 45 2d bd 47 c7 2c bd a1 5e 61 bd 18 91 b5 3d
       -0.042302236 -0.042182233 -0.055021886 0.08865565
0000d0 b3 55 59 be 88 b9 2f 3e b5 97 d7 3d eb 77 0c 3d
       -0.21224098 0.17160618 0.10526983 0.03429405
0000e0 11 0b 0e 3e 91 35 4e 3e 7b 8b 0f 3e 4c 47 91 3e
       0.13871409 0.20137621 0.14018051 0.28374708
0000f0 db c7 19 bf 99 e2 36 bd 41 bb 0f 3e ba d1 91 be
       -0.6007058 -0.044649694 0.14036275 -0.2848032
000100 3f ff 88 bd 0c 38 7a 3e ee 0f 66 3e a1 53 d1 be
       -0.06689309 0.24435443 0.22467014 -0.40884116
000110 e7 2a 13 bd 35 4b 20 be 5b d9 79 be 00 d5 88 3d
       -0.035929587 -0.15653689 -0.24399321 0.066812515
000120 c9 a2 a4 bd ea 5c f9 bd 0e ba 1c 3e 3c 1b ec 3d
       -0.08038861 -0.12175925 0.15305349 0.11528632
000130 7b a8 62 3e 6a 0b 5c bd 6c 98 80 3d b7 00 c6 3e
       0.22134583 -0.053721823 0.06279072 0.3867242
000140 f5 89 c5 3c ac 35 a0 bd 61 b9 e2 be 43 15 13 3e
       0.024113635 -0.07822737 -0.44282058 0.1436358
000150 7d df 9b bd 1e ff 68 be b4 0f 7f 3c df 50 34 be
       -0.076109864 -0.2275357 0.015567709 -0.17608975
000160 1b 55 ed 3c a8 41 59 3e f8 42 ed 3c bf 6e 76 37
       0.028971246 0.21216452 0.028962597 1.4688528e-05
000170 21 a7 ff 3c 17 c7 d3 3e 80 47 96 be 3a e0 4e 3c
       0.031207623 0.4136283 -0.29351425 0.012626702
000180 05 0c 71 3d 02 d6 20 bd 46 c6 19 be 33 12 4e bc
       0.058849353 -0.039266594 -0.15017042 -0.012577581
000190 ae d5 6f 3e 40 84 2d 3e c4 87 4b bd dd 09 08 3d
       0.23421356 0.1694498 -0.049690023 0.03321253
0001a0 88 de bd bd b3 8f 00 3e 3d 0d 4a 3e 4c c9 02 3e
       -0.0927096 0.12554817 0.19731613 0.12772101
0001b0 9f ab 72 be 66 57 15 bd 0d fe 72 3d 3b b5 d3 bc
       -0.23698281 -0.036460303 0.059324313 -0.025843253
0001c0 2c 17 8e 3e 35 fb bb be 28 f8 9b 3d 6d b5 59 3e
       0.27752054 -0.36715093 0.076156914 0.21260615
0001d0 4d 17 a6 bd ed 81 1b bf 1d df e0 3d 43 9f 3a be
       -0.08109913 -0.60745126 0.109800555 -0.18224816
0001e0 81 01 98 bc fe 86 92 3e e7 5f 89 3c 70 d1 08 3e
       -0.018555405 0.28618616 0.016769363 0.13361144
0001f0 55 9c 87 be e6 30 40 3d 96 5a 52 bc 5f 8c 62 3d
       -0.2648646 0.046921633 -0.01283898 0.05530965
000200 5a 44 9b 3d 21 07 9b 3e e4 4c 54 3d 8d 04 0a 3d
       0.075813964 0.30278876 0.05183114 0.033695746
000210 12 4c 39 be b2 41 49 3b 96 52 22 bd 91 c6 55 bf
       -0.18095425 0.0030709323 -0.03962954 -0.83506113
000220 5a b0 3c be 1c 4f 4a 3e 0f 24 5a 3e a6 67 9f 3d
       -0.18426648 0.1975674 0.21302818 0.07783441
000230 ce 42 8c 3d 39 85 af be f3 b7 34 bc 56 65 87 be
       0.068486795 -0.34281328 -0.011030185 -0.264445
000240 06 f6 b6 ba a8 bf 66 3d fc 63 fa bc a5 d4 c6 bd
       -0.0013958819 0.05633512 -0.030565254 -0.097085275
000250 f6 59 cb 3c c6 00 06 3e 4d d2 04 be 3a 4c 13 bd
       0.02482317 0.13086233 -0.12970848 -0.035961367
000260 f6 eb 8a bd 91 b8 f7 be c3 3f de bc f1 84 80 3c
       -0.06783287 -0.48383 -0.027130013 0.015688391
000270 34 5d f1 3d 32 7e 06 3d e6 ce 91 3e 10 34 a4 3e
       0.11785355 0.032835193 0.28478163 0.3207097
000280 d2 7a c4 be 54 14 4b bd 77 b7 31 bd 34 64 fe bd
       -0.38374954 -0.049579933 -0.043387856 -0.12421456
000290 10 e7 3d bd c6 79 f9 3d 4c ec 5d be be 22 18 3d
       -0.046362936 0.121814296 -0.21672171 0.037142508
0002a0 6b 68 2f be 28 e1 35 3d 11 e2 33 3e 8d bf ff 3d
       -0.17129676 0.04440418 0.17566706 0.12487707
0002b0 85 e4 d1 3c 3d fe fe bb 38 58 f9 bc 89 23 c4 bd
       0.025621662 -0.0077817724 -0.030437574 -0.0957709
0002c0 40 4d 09 3e b9 38 80 3c 14 a1 66 3d d2 b4 cc 3d
       0.13408375 0.015652047 0.05630596 0.09995426
0002d0 7c 80 c9 bf 20 ba e7 bd c1 5b 92 3d 01 43 a4 bd
       -1.5742335 -0.113147974 0.07146407 -0.080205925
0002e0 b2 7a a8 3d fc 74 c8 bb 38 e3 6f bd f4 b3 86 3e
       0.08226527 -0.0061174612 -0.058566302 0.26309168
0002f0 65 ed 0c bd 01 c2 1c bc e0 85 c5 ba 05 c4 e1 bc
       -0.034406085 -0.0095677385 -0.0015069805 -0.02755929
000300 34 38 fd 3c 79 cb a5 bd 7e c3 0a 3e 69 2a 0c 3d
       0.030910589 -0.0809545 0.13551137 0.034220133
000310 08 68 50 3d 0e ef e5 be ed 63 33 3e 14 74 91 3e
       0.050880462 -0.44908947 0.17518587 0.28408873
000320 e9 96 d6 bd 71 2f 47 3e 1c c0 0a bd 18 34 08 be
       -0.104780026 0.19451691 -0.033874616 -0.13301122
000330 b6 e5 9a 3e 97 37 d8 be 8b ab 91 bd 77 5d 46 3d
       0.3025338 -0.42229912 -0.07112797 0.04842898
000340 55 6b b3 3d eb 83 e2 bd f1 48 66 3c 9a 0a b6 3c
       0.08760706 -0.110603176 0.0140554765 0.022221852
000350 8f b3 e4 3d 0f e8 8f 3c 85 a7 27 3e e3 e1 03 be
       0.111670606 0.017566709 0.16372497 -0.12879138
000360 08 6b ab bd 86 2f f7 3d 67 9d 9e 3d 14 3c 2e be
       -0.08370024 0.12069611 0.07744866 -0.17015105
000370 fc ca f2 3c 55 5c 53 3d 25 13 98 bd 0b 33 a3 3e
       0.029637806 0.051601727 -0.074255265 0.3187488
000380 79 9f 89 3d 0e fa 82 3e ec 0b 13 3e bb 4c 66 be
       0.0671987 0.25581402 0.14360017 -0.22490208
000390 e1 8a 5f 3e 1f 26 aa 3d 4d bd 21 3e cd 43 33 3e
       0.21830322 0.08308052 0.15794869 0.17506333
0003a0 45 26 26 3e bb 5c be bd 8b 5f a7 bd 29 09 e0 3d
       0.16225536 -0.09295031 -0.0817252 0.10939247
0003b0 e1 d7 1d 3d c8 bd 61 bd b7 23 64 3e 8e 6c fa 3c
       0.038535956 -0.05511263 0.22279249 0.030569341
0003c0 57 34 4a bd 24 24 a4 bd 0d ab b5 3e 34 d0 78 bd
       -0.04936632 -0.08014706 0.35482064 -0.060745433
0003d0 fa 37 7c be 01 7f 11 bd 59 35 65 3c 36 44 b2 bd
       -0.24630728 -0.03552151 0.01398977 -0.087044165
0003e0 6d 5b b4 bd 53 c3 36 3e 6e 51 94 3c 12 6f 87 3c
       -0.088065006 0.17847948 0.018105235 0.016532455
0003f0 29 a2 d6 3d 35 fd 26 3e 97 3e 60 be 8a c7 f5 3c
       0.10480148 0.16307528 -0.21898876 0.030002374

linear2.bias f4 [256]
000000 7d a6 a6 3d 2f 86 46 bd d0 51 c9 bc be af 91 bc
       0.08137224 -0.04846781 -0.024575144 -0.017783996
000010 24 36 1d 3c d8 fd 0f be 7d e8 9d bd d6 df b9 3d
       0.009595428 -0.14061677 -0.07710359 0.090758964
000020 cc 8a 86 3d 9d be 75 3e 4f ba 6c bd 99 52 f8 bc
       0.06569442 0.23998494 -0.057794865 -0.030312823
000030 05 71 e7 3c b8 7c 2f 3d 97 ee f9 bc 51 5d 36 bd
       0.028252134 0.04284355 -0.030509276 -0.044522587
000040 bd bd 03 3e c6 10 0e bd 4d 1a b7 bd ee 9a 4b 3c
       0.12865348 -0.034683965 -0.08940563 0.012427075
000050 ff b7 52 bd 78 92 c8 3a 0b 1a ce bb aa 16 e7 bd
       -0.051445004 0.001530244 -0.0062897257 -0.1128362
000060 5e 2d e0 bc 20 95 9b 3d 72 9a 84 3d 91 e6 a9 bc
       -0.027365383 0.07596803 0.064747706 -0.020739825
000070 2b e9 54 3d cd cc 5a 3d e9 bf 4c bd 1c 09 43 bd
       0.05198018 0.05341797 -0.049987707 -0.04761611
000080 ba fe 20 bc 33 c1 63 3c c5 7f 75 bd 8d 3a 1f bd
       -0.009826357 0.013901043 -0.059936304 -0.038874198
000090 1a c1 2c bd 57 a3 c0 bd 0f 68 62 bd e4 17 55 3d
       -0.042176344 -0.094061546 -0.05527502 0.052024737
0000a0 57 be 82 3d 42 18 06 be 97 bd 14 3e a9 eb 39 be
       0.06383961 -0.13095191 0.14525448 -0.18156303
0000b0 ac 56 75 3c 8a 96 f0 bc bf 71 c7 3d f5 a3 16 3e
       0.0149742775 -0.029368658 0.09738492 0.14710982
0000c0 fe 22 df bd d6 6d c1 bd 46 fe 30 ba 2a 5a 90 3d
       -0.10895346 -0.09444778 -0.0006751757 0.070484474
0000d0 1b b9 91 3b f9 9d b3 3d 50 ef 8c bc 15 0e 11 bb
       0.004447115 0.08770365 -0.017203957 -0.0022133638
0000e0 4e 11 eb 3c 04 90 75 3d 15 81 ac bc c4 2c d5 bc
       0.028694775 0.059951797 -0.021057645 -0.026022322
0000f0 85 87 84 bd ee 09 22 bb f6 d4 01 bd 32 ab 39 ba
       -0.06471161 -0.0024725157 -0.031697236 -0.00070827
000100 c8 64 e5 bd a1 2e 00 be ad 14 ec bd b1 e3 82 bd
       -0.11200863 -0.12517788 -0.11527381 -0.06391085
000110 4f e3 9d bd aa 86 09 3e 3b 59 87 3d 1b a0 a6 bd
       -0.07709371 0.13430277 0.06608816 -0.081360064
000120 5e df bd 3d 77 5b fa bc ad 36 fb bd 60 c5 0e be
       0.092711195 -0.030561192 -0.12266288 -0.1394248
000130 ff fb 45 bd 13 73 75 bd 67 ae 02 3d 5d 71 a6 3d
       -0.048336025 -0.059924196 0.031904604 0.08127091
000140 32 3c 11 3e 69 82 f0 bd d5 7a b3 bd 97 ba b2 3c
       0.14183119 -0.11743624 -0.08763663 0.021817489
000150 7e cd 92 3d e2 cb ee bc cc a1 f3 3b e2 70 6c bd
       0.07168101 -0.029149953 0.007435059 -0.05772484
000160 9b c1 21 bd 03 ce 41 3e df 17 9d bd b3 d9 ee bd
       -0.039491277 0.18926243 -0.07670569 -0.116626166
000170 91 30 00 3e 0f 34 a6 bd 66 53 f8 3d ba 23 a6 bc
       0.12518527 -0.08115398 0.12125282 -0.020280708
000180 be 07 2d bd 0a 7d 34 bd 32 e2 9a bd 3f ce 04 be
       -0.04224371 -0.04406456 -0.075626746 -0.12969302
000190 a7 02 83 bd 6a 29 88 bd 63 5b 0e bd 15 be 64 bd
       -0.0639699 -0.06648524 -0.034755122 -0.05584534
0001a0 f4 b1 da bc 81 48 8c 3c b6 73 cc 3e 56 5f e3 bc
       -0.026696183 0.017124416 0.3993203 -0.02775542
0001b0 bf 57 27 be 9e ac 8a 3d fc 12 0b 3d 89 68 58 ba
       -0.16342066 0.06771205 0.03395365 -0.0008255323
0001c0 02 79 8d bd 4e 18 b7 3c 32 37 85 bd 32 ed e5 3d
       -0.06907846 0.022350457 -0.06504668 0.11226882
0001d0 3c ee b4 bc 17 dc a5 bd 35 a4 8a bc 4c 0d 9e bd
       -0.022086255 -0.080986194 -0.016924003 -0.0771738
0001e0 20 16 f8 3d 76 79 c4 bd f8 6c 68 3d 06 1d 81 bd
       0.12113595 -0.09593479 0.056744546 -0.06304364
0001f0 7d 17 3f 3d e5 62 a3 bb 52 8c 45 3c 8a 4b 35 3e
       0.04665326 -0.0049861544 0.012057381 0.17704597
000200 86 ff 94 3d 7a e9 9a 3d de f9 79 bd ec 5e 28 bb
       0.072753 0.07564063 -0.061029308 -0.0025691343
000210 37 0d b8 3d 95 3f 38 bc c0 15 36 bd 9a 9e 9f 3d
       0.089868955 -0.011245628 -0.044454336 0.07793923
000220 6e 13 44 bd 87 7a 59 3d 10 26 35 3e a4 19 24 be
       -0.047870092 0.053095367 0.17690301 -0.16025406
000230 3f e2 df 3c 08 64 9b bd 43 24 b9 bd 5b 09 6c 3d
       0.027329562 -0.07587439 -0.090401195 0.05762611
000240 a6 94 40 3e 65 bc 97 bd 37 cf 76 bc 12 64 07 3d
       0.18806705 -0.0740898 -0.015064052 0.03305442
000250 1a 67 db 3d 31 ba 3d bd 2e fd 95 3d dc 7c e6 bd
       0.107130244 -0.046320144 0.07323681 -0.11254284
000260 f4 4f 80 3c 8c 67 7b bd b7 f1 24 be 0c b7 b7 bc
       0.015663125 -0.061378047 -0.16107832 -0.02242615
000270 af 3c 5c ba f8 4e d0 3d 14 fe 69 bd 25 08 44 bd
       -0.00084013765 0.10171312 -0.057127073 -0.04785933
000280 b6 01 17 bd e2 df f5 bc c6 a0 5b bd 73 98 a8 bc
       -0.036866866 -0.030013982 -0.053620122 -0.020580506
000290 52 b7 9a bc e1 05 16 be 54 64 d1 3d 80 71 18 be
       -0.018886242 -0.1465068 0.10224214 -0.14887047
0002a0 1f 48 aa 3c 75 94 66 bb f7 fd 9f 3c eb 58 8d bd
       0.020786343 -0.0035183702 0.01953028 -0.069017254
0002b0 be f2 8e bd 13 f0 65 3c f8 90 9b 3d 38 2c 80 bb
       -0.06979893 0.014034289 0.0759601 -0.0039115213
0002c0 b6 e4 a5 bc 01 3b c8 3b f3 d5 8c 3c 04 0e bc 3d
       -0.02025066 0.0061105494 0.017191863 0.09182361
0002d0 16 32 2b bd a1 f6 17 3e a0 20 74 3d b3 06 84 bd
       -0.041795813 0.14840175 0.059601426 -0.0644659
0002e0 2f f1 b2 3c f9 d4 93 bd 6d 87 e9 3c a0 c7 9e bc
       0.02184352 -0.07218356 0.028506959 -0.019382298
0002f0 b7 0a d9 bc 21 b9 57 39 7c e5 b8 ba 7b ef b1 bd
       -0.026494367 0.00020572964 -0.0014106478 -0.086882554
000300 ff 40 31 bc f5 2c b1 3c b6 35 07 be a8 ba 98 3d
       -0.010818719 0.021627882 -0.13204083 0.07457477
000310 85 74 a3 3d b4 a1 84 bd 67 6e 7c 3d cc 2b 03 be
       0.07981209 -0.06476155 0.061628725 -0.12809676
000320 54 20 9e 3d 25 92 58 3d e0 ce c8 bd 19 5a be 3a
       0.0772101 0.05287375 -0.09805083 0.0014522701
000330 8b 3b af bb 40 d4 2f bd 40 00 e7 bd a2 77 cd bd
       -0.0053476742 -0.042927027 -0.112793446 -0.10032584
000340 fd 96 65 3d 3c cb c0 bd 29 91 f2 bc 14 80 8c bd
       0.056052197 -0.09413764 -0.029610233 -0.068603665
000350 c5 a7 0f bd cd b9 cd 3d a4 f3 1e bd 34 90 37 3d
       -0.035072107 0.10045204 -0.038806573 0.044815257
000360 08 a1 8c bd 3c a1 74 bd 55 66 0b 3c 8a 03 18 bd
       -0.06866652 -0.059724078 0.008508285 -0.03711275
000370 db 33 b5 bd 22 3c d0 3c 1c 7a 74 3d b1 96 f0 39
       -0.08847781 0.025419299 0.059686765 0.0004588864
000380 c9 22 79 3c 87 9e 16 3e c0 c6 87 bd 19 aa 76 bc
       0.015206047 0.14708911 -0.066297054 -0.015055203
000390 0b d3 56 3d f1 9a af 3d af ae 8d 3d ad 48 95 bc
       0.05244736 0.085744746 0.06918084 -0.018223131
0003a0 e2 e9 8a bd c4 91 0a be e7 bf d2 bd 1e 1e 94 bd
       -0.06782891 -0.13532168 -0.10290509 -0.07232307
0003b0 37 39 dc bb 12 94 0d 3d bb 8e ff bd af d6 e4 bc
       -0.0067206877 0.03456504 -0.124783956 -0.0279344
0003c0 e2 c6 2d be cc 3e 4c 3c 32 1d 5f bd c1 fa 94 bd
       -0.16970399 0.012466144 -0.054471202 -0.0727439
0003d0 29 38 a9 3d c7 ff 4d 3c 75 f1 f9 bc e5 9b ad bd
       0.08262665 0.012573189 -0.030510643 -0.08477
0003e0 4a 18 2a 3d d3 e6 48 be fb 59 82 3c 7b da e6 bc
       0.04152707 -0.19619302 0.015912047 -0.028180351
0003f0 90 7d c4 bd 72 eb c6 bd 90 38 7d bd d9 49 5f 3d
       -0.09594262 -0.097128764 -0.06182152 0.054513786

mean_linear.weight f4 [4, 256]
000000 c6 5e 6d bd 7d f2 48 bf ac f5 e9 be 14 50 b0 be
       -0.05795171 -0.7849501 -0.45695245 -0.34436095
000010 cf 28 85 3f da 63 7d 3e de 28 b7 bf 48 bf 59 3f
       1.0403079 0.24745122 -1.4309347 0.850575
000020 c5 f1 46 3f ae 63 ac 3e 74 da 14 bf fd be 53 3f
       0.7771266 0.336698 -0.58145833 0.827133
000030 9c b6 85 3e a6 a8 3a bd 1e 19 d2 3d f1 db 87 be
       0.26115882 -0.045570992 0.10258697 -0.2653499
000040 cd 2a ca 3d e5 84 3f be ad 1d 61 bf b1 8d 18 3f
       0.09871445 -0.18703039 -0.87935907 0.59591204
000050 50 36 c1 3d ec 40 bf 3e bd 4b 1a 3f 57 ab 4c be
       0.094341874 0.3735422 0.6027182 -0.19987236
000060 b7 a3 46 be 3b 6a b7 3e 22 d1 97 be 6a 21 c3 bd
       -0.1939839 0.35823235 -0.29651743 -0.095278576
000070 c0 8c 33 bd 02 32 1e be f0 48 03 bf 04 20 2d be
       -0.0438354 -0.15448764 -0.5128317 -0.16906744
000080 6b 72 34 be 36 6b a5 be 66 0f ea 3e 60 00 21 be
       -0.17621772 -0.32308358 0.45714873 -0.157228
000090 e9 40 10 3f 75 8c 95 be da 55 8a be a4 73 a1 3f
       0.56349045 -0.29208723 -0.27018625 1.2613416
0000a0 90 63 11 bd 96 05 13 bf e3 69 11 3c d2 f1 32 3e
       -0.03549534 -0.574304 0.008875343 0.1747506
0000b0 08 35 a9 be 98 a8 34 bd ac 61 3b be 4b aa 8e 3e
       -0.33048272 -0.044106096 -0.18298978 0.27864298
0000c0 3e 9a 88 3e 99 f0 a3 3c b9 d3 2d be 0c 86 c6 be
       0.26680177 0.020012187 -0.16975297 -0.38774145
0000d0 4b e6 4d 3f 5e 73 00 be 52 d0 93 3c 81 30 ed be
       0.80429524 -0.12544009 0.01804367 -0.46326068
0000e0 3a 43 f3 3e 82 f5 0e bd 12 c7 21 3f f3 e8 79 3d
       0.47512227 -0.034902103 0.6319438 0.061013173
0000f0 bf 27 43 3c 6e 77 93 bd db b8 d2 3d 85 8d 70 be
       0.011911332 -0.07200514 0.10289165 -0.23491485
000100 c1 93 e3 be 9e b1 46 bf f3 6e 45 3f 56 8b cb 3e
       -0.44448665 -0.7761477 0.7712242 0.39754742
000110 9d c6 08 bf 8c 1b 7c ba ad fe 7c 3e 16 44 05 3f
       -0.5342806 -0.0009617142 0.24706526 0.52057016
000120 ad 89 80 3d 6b 13 d3 3e 04 12 c1 bb 90 53 c6 3e
       0.062762596 0.41225752 -0.00589204 0.38735628
000130 2a 51 d4 3e 71 d4 4a 3e 25 37 51 be 00 dc 05 be
       0.41468173 0.19807602 -0.20431192 -0.13072205
000140 c6 98 3c 3f c6 a4 23 3e 77 91 8f 3f b7 75 1a be
       0.73670614 0.15980825 1.1216267 -0.15083967
000150 4c e3 59 bd 6c b9 33 3f 0e 4f ad bd 95 37 a5 be
       -0.053195283 0.70204806 -0.08462344 -0.32268968
000160 1a a0 39 bf b1 fc d6 3e 24 86 b4 be 05 03 ba bb
       -0.7250992 0.41989663 -0.3525859 -0.0056766295
000170 10 e5 8b be 31 d3 04 3f 19 88 fb be df a4 d5 be
       -0.27323198 0.5188475 -0.49127272 -0.4172735
000180 ad 40 d2 bd 45 6d af 3d 67 68 e5 be cd 08 4d bf
       -0.10266242 0.085657634 -0.44806215 -0.80091554
000190 d4 53 66 3e 85 f7 96 bd 2c 58 8c 3e 40 99 43 be
       0.22492915 -0.07371429 0.2741102 -0.19101429
0001a0 c5 5b 56 3f 69 5b 75 bf 04 fe cd bd 0c 5e ad 3f
       0.8373378 -0.95842606 -0.10058215 1.3544326
0001b0 74 70 02 3e 5b 94 05 3f 67 32 90 3b 71 a4 d6 bd
       0.1273821 0.521795 0.0044005397 -0.104805835
0001c0 76 26 8f 3e 35 a5 1d bd 6c 16 67 3e 68 fb 69 be
       0.2795903 -0.03848763 0.22567147 -0.2284981
0001d0 f0 bd 30 be 8c 75 6e be 5f 7e 28 3e dd d8 1d 3d
       -0.17259955 -0.23287028 0.16454457 0.038536895
0001e0 d4 1f 05 bf d4 01 2c 3f 0e 09 d9 be b0 50 40 bf
       -0.5200169 0.6719029 -0.4238972 -0.7512312
0001f0 9b 68 cd 3e a0 3e 48 be ce 3a 56 3d 3b c4 f3 bc
       0.4011887 -0.1955514 0.052302174 -0.029756656
000200 e8 36 7b 3e 94 97 09 3e 93 86 f2 be 04 a1 4e 3e
       0.24532664 0.13436729 -0.47368297 0.2017861
000210 5a 77 e5 3d da 3f 03 3e 96 6d 1f 3e a6 a7 25 be
       0.11204405 0.12817326 0.15569147 -0.16177234
000220 06 5c 67 3e 63 8e 7f be 81 59 76 be ba 43 48 3e
       0.22593698 -0.2495666 -0.2405758 0.19557086
000230 ee 95 81 3e b9 95 25 3b 4d 6a da 3d e5 72 23 3e
       0.253097 0.0025266244 0.106648065 0.15961798
000240 06 26 b7 3e 46 b0 1e 3f bf bb 64 bf 53 4f d4 3d
       0.35771197 0.6198772 -0.8934898 0.103666924
000250 bb 0c 6f be 94 25 cf 3e 48 73 88 3e a7 28 cc 3e
       -0.233447 0.40458357 0.26650453 0.39874765
000260 0f 28 70 bb 29 3c 66 3f ee f0 59 3e 37 5f 06 bf
       -0.003664497 0.8993555 0.21283314 -0.52489036
000270 95 59 90 3e ea cf 5f be 64 0f 97 bd 09 ec 8a 3f
       0.28193346 -0.21856657 -0.073759824 1.0853282
000280 a6 8f 32 3e 73 ac 87 bd 1e b8 75 3e c6 62 24 bf
       0.1743761 -0.06624689 0.23996016 -0.64213216
000290 4d b7 92 bf d8 82 b2 3e 0b 0c 2d 3d 6e e1 88 be
       -1.1462189 0.3486545 0.042247813 -0.2673449
0002a0 9b e7 8f 3c a1 f6 dc be c9 e5 00 bf 52 c3 29 3f
       0.017566493 -0.43156913 -0.50350624 0.6631366
0002b0 af 81 e2 be a3 e9 b7 be 47 15 ba 3d dc 52 9c be
       -0.44239566 -0.35920438 0.090860896 -0.30531967
0002c0 85 7f a8 be 70 47 33 be c8 10 04 3e 0c b8 ab 3e
       -0.3290979 -0.1750772 0.12897027 0.33538854
0002d0 65 0a a3 be 5a 72 84 3e 96 08 3e 3d 16 0d a7 3e
       -0.31843868 0.25868493 0.046394907 0.3262717
0002e0 45 b4 f4 be 60 ab 01 bf b8 7a bc 3e 69 54 25 3f
       -0.47793785 -0.5065212 0.36812377 0.64581925
0002f0 d2 78 52 be 89 54 24 be e0 91 1d 3f 32 19 37 bf
       -0.20553902 -0.16047873 0.6155071 -0.7152282
000300 6a 0c 57 3e 06 9d 3e 3f 22 cb 71 3e aa 71 a0 be
       0.2100083 0.7445835 0.23612645 -0.3133672
000310 75 f3 27 bf 83 f0 e1 be b8 d9 10 be c4 15 46 3f
       -0.6560586 -0.44128808 -0.14145553 0.7737696
000320 d2 f1 41 3e 05 b6 a3 3e a5 be bb 3e 93 05 a9 3f
       0.18939903 0.31974807 0.36668888 1.3204826
000330 a5 1a 98 3e e7 5f 14 3d 2e dd 2c bf dc df 02 3f
       0.29707828 0.036224272 -0.67524993 0.5112283
000340 88 45 13 bf 94 73 86 3d 60 2b b9 be df 21 77 3e
       -0.5752797 0.065650135 -0.36165905 0.24134015
000350 c2 45 b3 bd 3d ba 69 be 33 4d df be 77 80 b3 be
       -0.087535396 -0.2282495 -0.43613586 -0.35058948
000360 4b 70 1b be 73 66 2e be 03 32 cb 3e 64 c6 75 3e
       -0.15179555 -0.17031269 0.39686593 0.24001461
000370 44 9e 5a bd d3 1f 10 bd d8 36 82 3e e8 d9 7e 3e
       -0.05337359 -0.0351866 0.25432467 0.24887812
000380 cc 68 89 bd fa 2e 20 3e b5 ea 94 3e 05 39 57 3e
       -0.067094415 0.1564292 0.29085317 0.21017845
000390 da b2 ba 3e 9a 73 5a 3f 75 35 a4 be 7e 94 59 bf
       0.36464578 0.85332644 -0.32072034 -0.84992206
0003a0 09 d4 19 be 80 b4 62 3e fc 06 1d bf de f0 19 bd
       -0.15022291 0.22139168 -0.6133878 -0.037583224
0003b0 87 74 21 be e2 b2 0d bf 66 cd c9 3e 8d c4 a1 3e
       -0.15767108 -0.5535108 0.3941452 0.3159527
0003c0 f4 e4 1a 3e f8 4b 5c 3e a0 f3 d5 bd 5a 44 4f be
       0.15126401 0.21513355 -0.104468584 -0.20240918
0003d0 0f 68 a7 3f 5e d0 96 bd f1 62 b2 bd 5c 2b 0e bd
       1.3078631 -0.07363962 -0.08710278 -0.03470932
0003e0 76 e3 26 bf a7 59 0d 3f f3 de 8f 3f fc 7e 7e bd
       -0.6519083 0.55214924 1.1239914 -0.06213282
0003f0 40 94 3b 3f c5 f8 66 bf a9 de 48 3e ff c4 ec 3e
       0.73273087 -0.9022334 0.19616188 0.46244046

mean_linear.bias f4 [4]
000000 2f 5a f2 3c cf 01 ea 3c cc 4b a2 3d b1 9c 74 3d
       0.029584019 0.028565316 0.07924613 0.059719745

log_std_linear.weight f4 [4, 256]
000000 c8 5a b8 3c 59 f9 84 3e 8f 47 ec bd ee 43 9d 3d
       0.022504225 0.25971487 -0.11537086 0.07678972
000010 98 59 87 3e 8c 77 eb 3b c3 07 5d bd 9f ed de 3d
       0.26435542 0.007185882 -0.05396248 0.108851664
000020 b6 31 82 3e 07 da 2b 3e 08 e8 42 3e 91 b9 36 3e
       0.2542855 0.1678239 0.19033825 0.17844225
000030 b5 25 9a bd a3 a1 72 bc 45 04 f6 3b 91 37 46 bd
       -0.07526723 -0.014809045 0.007507833 -0.048392836
000040 ba ee 02 be cb 1c f6 bd ef 81 15 bc 6a b2 91 3e
       -0.1278638 -0.120172106 -0.009125217 0.28456432
000050 aa 9a a9 bd 7f 70 cf 3d 27 c1 42 3c 84 13 b8 3d
       -0.08281453 0.10128879 0.011886871 0.08988097
000060 8e 50 da 3d 4b d6 d5 3d b1 19 98 3c 24 61 be bd
       0.10659896 0.10441264 0.018566938 -0.09295872
000070 21 7c 8a bd a0 9d 8d 3c ef ca 30 be 56 03 f8 bc
       -0.06761957 0.017287076 -0.17264913 -0.030275028
000080 d2 b8 a7 3b c0 d1 ca 3d 54 ed e9 3d 94 6e a9 3c
       0.005118468 0.09903288 0.1142222 0.02068261
000090 54 9f 29 3e ec 4b eb 3c b1 0d 61 bd e6 60 ba 3e
       0.16564685 0.028722726 -0.054944698 0.36402053
0000a0 fb 8b 73 3d c3 13 16 bc ac 4c 22 bd 95 80 6c bd
       0.059459668 -0.009159985 -0.0396239 -0.057739813
0000b0 c3 5d d2 3d 38 53 35 be 23 95 59 bb b2 08 82 bd
       0.1027179 -0.17707527 -0.0033200465 -0.06349315
0000c0 8f eb 8d bd 38 9d 4a 3e 02 2a 3f be 4c 16 04 be
       -0.06929695 0.19786537 -0.18668368 -0.1289913
0000d0 38 fa 75 3e 59 b3 e1 bd ca b4 6f 3d c3 ce 3d bd
       0.24021232 -0.11020536 0.058522023 -0.04633976
0000e0 63 e1 59 3e 9e e0 db bd 85 d7 9c 3e 72 08 f8 bd
       0.21277384 -0.10736202 0.30633178 -0.12110986
0000f0 7c e4 20 3d 2e 1e 64 bd 80 97 36 3e dd d4 9f bd
       0.0392804 -0.055692844 0.1783123 -0.07804272
000100 65 17 e5 3b c0 6d 24 be 21 fb 79 3d 0e b6 a5 bc
       0.0069913142 -0.16057491 0.06103051 -0.020228412
000110 90 51 ea 3d cf b8 2e be cb 54 9e be 7e ea 12 3e
       0.11441338 -0.17062686 -0.30924067 0.14347264
000120 ca 6d e8 3c 4e 02 45 bd 26 8f 19 3d be 60 7a 3e
       0.028372664 -0.0480979 0.037490033 0.24450967
000130 44 6f 40 3e fe 64 31 3e 77 8b c7 bd 34 52 c0 bc
       0.18792444 0.17323682 -0.09743398 -0.023476698
000140 0a 22 a7 3e 45 e7 2d 3e 18 8c ff 3e aa 6c c2 bd
       0.32643157 0.16982754 0.4991157 -0.09493382
000150 28 50 17 be 93 d8 e5 3d 00 58 02 be ac 39 3c be
       -0.14776671 0.11222949 -0.12728882 -0.18381375
000160 ae 53 b7 3d 7c 46 cb 3d d2 81 29 3d 45 41 72 3e
       0.089515075 0.09925553 0.041383572 0.23657711
000170 8c 6d cb bc a7 5d ad 3d 6f be 47 bb 7e 6f 8c 3d
       -0.02483251 0.084651284 -0.0030478498 0.06857203
000180 7c 41 2a 3e 5a 6d b5 bd c3 b0 5b be 34 6a 1b be
       0.16626543 -0.08858748 -0.21454148 -0.15177232
000190 a0 f0 15 3d 59 60 02 be 74 23 d0 3d d8 d3 c1 3d
       0.03660643 -0.12732066 0.10163012 0.09464234
0001a0 80 c5 ad 3e da 7b 17 3f e1 f4 0f bf cd 32 f6 bc
       0.33939743 0.5917336 -0.5623303 -0.03005352
0001b0 4f 64 7d 3e 0f 5a d8 3d ce 02 50 be 0d 5e 3a 3c
       0.24745296 0.10564052 -0.2031357 0.0113749625
0001c0 89 34 eb bc aa 93 83 3e 7f 30 1f bc 80 b7 02 be
       -0.028711574 0.25698596 -0.009716152 -0.12765312
0001d0 c6 77 bd bc 2d 76 ec 3d fb 20 7b bd 5b 44 d9 3d
       -0.023128401 0.11545978 -0.06131075 0.10608741
0001e0 02 a0 6b be d2 61 20 be 04 bf 52 bd cc 2a ac 3d
       -0.23010257 -0.15662315 -0.051451698 0.084066
0001f0 b3 7b 6a 3d 23 c7 6c be 5d 58 64 3d c3 9b 90 bd
       0.057246875 -0.2312284 0.055748332 -0.07060959
000200 2c 0f 76 3d a6 d5 63 be 17 cc 9a 3e 8e 81 0c 3d
       0.060073063 -0.22249469 0.30233833 0.03430324
000210 ad ac ff 3d 75 d9 3a be 57 a9 d9 3c 36 85 50 bd
       0.12484107 -0.18247016 0.026570005 -0.05090829
000220 dc 19 27 3e e9 0b 30 be 66 01 78 3d bb 2a 8a 3d
       0.16318458 -0.17192043 0.06054821 0.067464314
000230 71 47 8b bd e9 7b 11 bd e9 0c 04 be ab f1 e2 3c
       -0.06800736 -0.03551856 -0.1289555 0.027703127
000240 dd 0a 43 3d 16 43 d2 3d c6 36 99 3c b6 36 84 3d
       0.047617782 0.10266702 0.018702876 0.06455748
000250 f7 08 9f 3d 1d f6 0b be 25 74 58 3d 2f e9 7e bd
       0.07765382 -0.13668104 0.05284514 -0.0622341
000260 e1 87 0f 3d 56 86 31 3e ab 7d f1 bb 73 9b b6 bd
       0.035041694 0.17336401 -0.007369717 -0.08916368
000270 74 f1 6b 3e 6a 73 b6 bd dc 2b 36 bd 87 3e 06 3f
       0.23041326 -0.08908732 -0.04447542 0.5243916
000280 68 e6 5f 3e 61 d1 ae 3c c7 6e 24 bd ac 62 8c be
       0.21865237 0.021340074 -0.040144708 -0.2741903
000290 1c 04 a0 3e 3d c9 1b 3e 62 db d9 bd 94 19 b0 3c
       0.31253135 0.15213485 -0.10637547 0.021496572
0002a0 f5 68 0a 3d 8d 2c a0 bc dc 14 df bd 51 22 d7 3d
       0.0337915 -0.019552493 -0.108926505 0.10504592
0002b0 c4 03 a3 3d c8 4d b3 bd 1b cb 11 3c 85 93 d3 bd
       0.079597026 -0.0875507 0.008898522 -0.103308715
0002c0 7d b9 ea 3d dd d3 e8 3d 11 d1 d5 3c 3a 8a e4 bc
       0.1146116 0.11368535 0.026100667 -0.027897943
0002d0 d7 43 83 be eb 2e 38 3e 3d c7 35 3d 71 58 19 bd
       -0.25637695 0.17986648 0.04437946 -0.03743786
0002e0 1b 78 fb 3d 26 82 2c 3e 3f 29 11 3d 01 c6 1f 3e
       0.12278768 0.16846523 0.035439726 0.15602876
0002f0 b8 f0 b0 bd 09 cc 24 bd 0d 72 ec bc 65 03 1b 3d
       -0.086396635 -0.040233646 -0.028862977 0.037845034
000300 1d 7d 47 3e b4 ce 36 be 63 8b 56 3d df e5 9e 3d
       0.1948132 -0.17852288 0.052379023 0.07758688
000310 ee 03 8a be 23 6a 10 3d 0b b4 56 be 9f 36 b5 3e
       -0.26956123 0.03525747 -0.20967118 0.35393235
000320 15 ce e7 3d 45 17 03 3d 68 65 52 3d 8d 3e f1 3e
       0.11318604 0.032004613 0.05136624 0.47118035
000330 8a 88 87 3d 95 52 40 bd e0 ff 20 be f9 92 be 3d
       0.0661784 -0.046953756 -0.15722609 0.093053766
000340 d4 76 21 bd 0c a5 95 3e 70 60 6a be 7e e7 62 3e
       -0.039419964 0.29227483 -0.2288835 0.2215862
000350 9e 04 99 bd 07 93 8e be 10 75 fa bd d2 5f 76 bd
       -0.07471584 -0.27846548 -0.12229359 -0.060149975
000360 04 42 0f bd db a2 df 3d 44 8b a1 bd b6 b7 ea bd
       -0.034975067 0.10919734 -0.07887891 -0.11460821
000370 3c 40 6a bc d3 32 0d bd eb 88 e4 3d 26 93 84 be
       -0.014297541 -0.034472298 0.111589275 -0.25893515
000380 4c 01 3a bc 30 91 25 be 31 f1 7a 3d 67 6a d2 bc
       -0.011352848 -0.16168666 0.061265174 -0.025685502
000390 ae 0e bb 3c e3 a1 7b bd 69 ae 96 be 3d 7c 3b be
       0.022834148 -0.061433684 -0.2942994 -0.18309112
0003a0 88 27 06 3e e2 1c 3e 3e ef ff 24 3e bf 74 9c bd
       0.13101017 0.18565705 0.16113256 -0.07639455
0003b0 d5 78 dd bc ea 5b 1f bd e3 70 8d 3d a8 67 d1 bd
       -0.027035156 -0.038906015 0.06906297 -0.10224849
0003c0 96 7a 4a bc e4 29 67 3d 5e 91 98 3d 87 70 19 bd
       -0.012358328 0.056436434 0.074496016 -0.03746083
0003d0 f6 b9 e4 3e 74 5d 29 be 6f 54 ca bc c5 13 24 bd
       0.44673127 -0.16539556 -0.024698464 -0.040057916
0003e0 65 04 1d 3e 01 10 5e 3d 1e e1 9b 3e aa e3 9c bd
       0.15333708 0.05421448 0.30445188 -0.07660611
0003f0 31 6e b3 3c 4e 66 43 3b 64 c1 51 3d 74 e4 88 bd
       0.02190313 0.0029815617 0.051209822 -0.06684199

log_std_linear.bias f4 [4]
000000 aa d0 4f bf 88 20 56 bf f0 07 32 bf df 4e 22 bf
       -0.8117777 -0.8364339 -0.6954336 -0.634016
