BipedalWalker-Soft-Actor-Critic/dir_chk/weights_actor_lr00008.pth (torch_old, 298369 bytes, 8 tensors)

linear1.weight f4 [256, 24]
00000000: d38b b23e 45d8 8d3e bafb 9cbe 84d5 33bc
00000010: 6b3c 153e 3661 96bc 5204 183e 858e 6bbd
00000020: 438d f2bd f303 86be 700a bb3e 17e2 003f
00000030: 2ae1 bdbd 2196 0b3d 0dec d53d 7c79 9c3d
00000040: 3e5a 29be 9534 973c 65dd cc3d d7f0 233d
00000050: 26b4 803c bb6c 15bd 0240 35bd c364 c6bc
00000060: b6ef ed3e 8458 9b3e f80d 513f 028e 063d
00000070: 6522 f8bd 4172 073e de6b dcbd ec65 a53d
00000080: 3273 ba3e b516 73be 935b 133e 0cf3 3ebd
00000090: 5183 883d db9d 123d 67c7 66bd 8b84 20be
000000a0: 4015 e5bd c926 2dbe d8bc d63c b36d 00bd
000000b0: f3c2 41be 97ad 133c 52dd 813d 5aaf 843c
000000c0: f4f9 3ebe 8ef4 e2be 6424 433e 81eb 283e
000000d0: 94e4 99be 6e93 533d 3dd7 e4bb 5d05 9ebc
000000e0: a0ff a93d 3c87 9dbe afdc d8be ed2a 66be
000000f0: 0d59 853e ca62 21bc 73ca 2c3e 80f0 2c3e
00000100: 76ec 263e e2d4 c5bd 049d 65bd 4736 93bd
00000110: 60c2 363b 6f26 c13d bd31 74bc 7a6f e3bd
00000120: a89f bebe 2308 ffbe 9d63 00be e8d1 c03e
00000130: 5f07 d5bd 70ac fa3c afe6 63be 1a86 93bc
00000140: d32f 113e a54d 953e 8b1b d83d 7b07 973c
00000150: 7da3 b8ba 8a6e b7be 8531 aabd 987b c63d
00000160: c1cd ed3c 4398 023e bade 97bc 8416 ca3d
00000170: de58 243e 6540 5a3d 3c8b 8ebb 61b0 dabd
00000180: 7f3d 08bc 2df6 36be 6ce5 a53e 8502 29be
00000190: 74ab eb3c 067a c7bd 6584 f2be db68 7d3d
000001a0: 6694 dcbd d048 743e b190 483e 9d83 a5bc
000001b0: 5e36 963d 4bc1 3ebe 10eb 3a3d c5df e0bd
000001c0: 65ea ffbc 776a d9bd e179 8ebd 3738 b5bd
000001d0: f151 22be 56bf 633d 7deb ba3d 5aaf 293e
000001e0: 3a54 293f bcd5 d93e b848 a5be 9a39 c1be
000001f0: b694 803c 61e4 303e e673 d43d bc90 393e
00000200: c012 27be ecc8 2cbe cdf8 f6bd 1a7a ab3e
00000210: b8c3 833d eec1 09be a861 ba3c 0251 ca3d
00000220: 5bfa 06be 9e1d 83bd ec16 fcbc 0b16 52bd
00000230: f2fe 083d 6266 27bb b521 223d 8fbe 46bd
00000240: 9388 3dbd c3b2 c3bd aad6 193d 7ca3 5a3e
00000250: e1d5 8ebc 8076 20be 9aca ad3e 2e62 1f3e
00000260: 8415 cebe 9503 d03d c64a e83d 1d45 573d
00000270: 950e 273e bff4 03be cffc f43d af38 c5bd
00000280: 94fd 193e 0675 953d a606 073e 4040 ca3d
00000290: 06e2 b2bd 99fe b03d f058 813d 6ddb e1bd
000002a0: 6c8e e73d 969a 0d3f 898a 45be c51a ef3d
000002b0: 03cb 8f3e 72e8 de3c 5fb9 a53d 5e40 56bd
000002c0: a00f 78bd fa6f 5abe 6dce 06be e42d a8bc
000002d0: 7d3e a7bc bae0 26bd 7a27 dc3c b2e9 e4bc
000002e0: d2b3 4f3e 0576 343d 6c2b 59bd 37b1 133e
000002f0: 4978 003e e828 93bc 5646 98bd 7410 923d
00000300: 0013 24bf 2614 9abf 7b1f 283f 6079 bbbe
00000310: 921e 44bd 2568 cebd 5e56 ff3c 8c4e af3c
00000320: d8d0 d23c 2e0f e3be 49b9 2c3d fd69 a0be
00000330: c5ff d03c 040c a83d 0ae3 cb3d 4af2 1fbe
00000340: 7c89 e5bd 431c 8d3d 2f96 a13c 3fe9 26bd
00000350: 480b 963d 3eb8 06bb 0122 ebbd ec62 073d
00000360: 6f10 3bbe 48cf 34bf f8b0 d2be 722a 313f
00000370: 058d f2bd 58d6 b93d fd12 09bf ff03 b6ba
00000380: 72bb 213e 5a40 b0be 666d 0a3d bc2d 583e
00000390: 1329 cbbd ea90 003e 3e78 c53d 984f 5abc
000003a0: f714 103e bae8 4ebd 131b 123e 3b49 cb3d
000003b0: 9c60 1cbd 5547 153e fd79 0b3d 8c02 3f3c
000003c0: 3b2d a93d f861 a03e 9246 c7be 1b3b 9cbe
000003d0: 1cd1 093e 98e8 843c 54b5 b8bd 3d51 54bd
000003e0: b47a b6be 28e6 ab3e 25eb 023d f127 b33e
000003f0: bc8c 533b 5e73 cb3d 3eee f93c d43a 293e
0.34872302 0.27704063 -0.30660802 -0.010976199 0.14573829 -0.0183569 0.14845398 -0.057508964
-0.1184335 -0.26174888 0.365314 0.50344986 -0.09271462 0.03407872 0.10445414 0.07640359
-0.16538331 0.01845769 0.10003165 0.040024605 0.015710901 -0.036480647 -0.044250496 -0.024217969
0.46471947 0.3034097 0.8166194 0.032850273 -0.12115935 0.13227178 -0.107627615 0.08076081
0.36416012 -0.23739131 0.14390402 -0.046618506 0.066656716 0.035795074 -0.05634251 -0.15675561
-0.11185694 -0.16909327 0.026213095 -0.031354617 -0.18922023 0.009013555 0.063410416 0.016196895
-0.18650037 -0.44327205 0.1905685 0.16496088 -0.30057204 0.05165427 -0.006983666 -0.019289667
0.0830071 -0.30767238 -0.42355868 -0.22477312 0.26044503 -0.009850213 0.16874103 0.16888618
0.1630114 -0.09659745 -0.056057945 -0.07188087 0.0027886853 0.09431159 -0.014904437 -0.11105247
-0.37231183 -0.49810895 -0.12538 0.37660146 -0.104017965 0.030599803 -0.22255968 -0.01800828
0.141784 0.291608 0.105521284 0.018436184 -0.0014086809 -0.35826522 -0.08310226 0.096915424
0.029028775 0.12753396 -0.018538821 0.09867576 0.16049525 0.053284068 -0.004350094 -0.10678173
-0.008315443 -0.17867346 0.32401597 -0.16504867 0.028768279 -0.09740071 -0.47366634 0.061867576
-0.10770492 0.23855901 0.19586445 -0.02020436 0.073345885 -0.18628423 0.04563433 -0.10980181
-0.031239698 -0.1061601 -0.0695684 -0.08848613 -0.1585157 0.055602394 0.09126947 0.16570798
0.66144145 0.4254588 -0.32282043 -0.3773926 0.01569591 0.1727462 0.103736684 0.18121618
-0.16315746 -0.1687352 -0.12059174 0.33491594 0.06433815 -0.13452885 0.022751644 0.09878732
-0.1318144 -0.064021334 -0.030772649 -0.051290553 0.03344626 -0.0025543203 0.039582927 -0.048521575
-0.046272825 -0.095555805 0.037558235 0.21351427 -0.01743597 -0.15670204 0.33943635 0.15564796
-0.4025079 0.10156933 0.11342387 0.052556146 0.16314156 -0.12886332 0.11962282 -0.09629952
0.15038139 0.07297711 0.1318613 0.09875536 -0.08734517 0.08642311 0.063157916 -0.1102818
0.11306462 0.55314004 -0.19291128 0.11675028 0.28084573 0.027210448 0.08091997 -0.05230748
-0.060561776 -0.21331778 -0.13164683 -0.020529695 -0.020415539 -0.04074166 0.026874293 -0.027943466
0.2028344 0.044057865 -0.053019926 0.14423071 0.12545885 -0.017963842 -0.074352905 0.071320444
-0.6409149 -1.2037399 0.65673035 -0.3661604 -0.047880717 -0.10078458 0.031169113 0.021399759
0.02573435 -0.4434752 0.04216889 -0.31330863 0.025512585 0.08205417 0.09955414 -0.1561977
-0.11207864 0.06890156 0.019724933 -0.040749785 0.073263705 -0.0020556594 -0.11481095 0.033053324
-0.18267988 -0.70628786 -0.4115064 0.6920539 -0.118433036 0.09074086 -0.535446 -0.0013886689
0.15794161 -0.34424096 0.033795737 0.21111196 -0.09919944 0.1255528 0.09642075 -0.013324641
0.14070497 -0.050514914 0.1426814 0.09926077 -0.03817807 0.14577992 0.034051884 0.011658322
0.0826058 0.31324744 -0.38921028 -0.30513844 0.13458675 0.01622419 -0.090189606 -0.051835287
-0.3564049 0.33574033 0.031962533 0.3499141 0.003227993 0.09934114 0.03050911 0.16526347

linear1.bias f4 [256]
00000000: 4fd9 fabc 6c2d 9cbd 998d 07bd 8024 603d
00000010: 4089 8f3d 4acd 3fbd a0d0 13be 3681 12bd
00000020: a0cc bc3c d9be 6fbd 5549 e5bc 95c0 ae3d
00000030: 4591 0fbd 0c61 0fbd 3209 2d3d 83b6 023d
00000040: ed07 973d 8848 e0bd 7fc3 82bb b417 bb3c
00000050: b8ad 69bd 7792 963c af70 4c3b 1812 393d
00000060: c2df c0bc adff 27bd 0ec2 58bd 932d 783d
00000070: c507 f6bb 711c 2cbe 9aff 5a3d f7b8 51bd
00000080: 4b0f 3abd ffbe f03c 9c70 93bd 7959 b9bb
00000090: 0e48 1fbe 0a43 81bd 9c56 44bd a02a 88bc
000000a0: 6c4d 28be a93a 30bd ff58 9cbd 373d bf3c
000000b0: 1217 723d b282 f9bc b2f0 a7bd 813c 8d3d
000000c0: 273c f53d 9c9f e9bd 6a6a 583d e526 81bd
000000d0: 4ac3 30bb 1cc8 e03c c445 0d3d 377f db3c
000000e0: bb2a 2abd 8caa 21bd 137f af3c 6fa0 65bd
000000f0: b8b8 293d be04 293c 8693 653c 5814 c6bc
00000100: 78e4 063d b757 953c fdc1 333d a9c0 a0bd
00000110: 6857 83bc 5b92 2c3d 6c05 cc3d 52b9 5fbd
00000120: 17f8 cc3b 638c 943c 13de 663c ec11 96bc
00000130: d7c8 73bb 347c 02bd c755 dcbc 2ba8 abbb
00000140: b790 f4bd f1c1 643d 915a 61bd baa3 5f3b
00000150: 20e1 66bd 3a70 7abd bc65 ac3d 3cc0 b2bc
00000160: beb7 053d 1022 6b3b d967 f9ba e8bc 85bc
00000170: ffc8 ac3c b2ff 2c3d 2099 40bd c928 98bb
00000180: 7ed2 76bc 199d 3abe 66a8 543c 9701 09bd
00000190: df9a 873d f2e2 fdbc adc3 84bd 67cd 1e3d
000001a0: 5ed5 88bb f104 533d 3a47 69bd 659b 4e3d
000001b0: 24d3 4fbd 2f9f c4bd d7d1 5cbd 046a 47bd
000001c0: 8945 64bd 020c 8c3d 7709 6d3d 83ae f63b
000001d0: 494d 9bbc b778 adbd e3ea 0dbd 2814 0ebd
000001e0: 166d 21be fc67 9b3b 6f9a b2bd 7ad4 bd3d
000001f0: db39 263c 1b70 0a3c ee81 1f3d 81bb 2fbc
00000200: c6a3 0ebe d2e3 37bd cf53 a43d 4d3e c73c
00000210: d5fb 9c3c 9a8d 24bd bfc0 a23c 436e 583a
00000220: 7dde 1abd 70fc 2b3a 8917 873c 8a4d 9cbd
00000230: 4f36 e3bc 2856 5a3d 3024 dabd a129 763d
00000240: 5a92 c9bd f748 1f3d a7b7 02bd 6ad0 6f3d
00000250: aa0a 7dbb 2f35 a3bd 50e9 d03d be04 473d
00000260: 19fb 81bd 1cc7 86bd a91f e4bc edb3 543d
00000270: b2b2 923c 460f 9cbd e4cc edbc 5c8a 81bd
00000280: b3fd d9bb be34 a5bd c299 81b9 c093 333d
00000290: 14f2 ae3c aa55 42bd 07bf 06bc 7bae 47bd
000002a0: dd9a 46bd 6dad b9bc c9f8 9e3d 362e 20bd
000002b0: 2b91 b2bc c204 bcbd b1b5 bfbc edd4 173d
000002c0: 93b8 763d 2fca 9abc 7414 8dbd 133b 09bd
000002d0: cb34 8fbd a09d a3bd ceab ee3c 985b debd
000002e0: 1d1a 113d 8e4a 7dbd 386f 0d3c c200 c6bd
000002f0: fc1c a7bd b289 c7bd 1722 64be 297a a8ba
00000300: a5df cabd d321 c438 40c4 ef3d 23db eabb
00000310: 7ed4 99bc fb5e ba3c 2cf2 b5bc 7142 133c
00000320: 863d 58bd a26f 3abd cf28 d33d d5ad 98bd
00000330: 5d00 3dbb d6f8 85bd eec0 143d 3dec ceb9
00000340: bdb5 a1bd f74b c0bc 1340 09be 12c3 8b3d
00000350: f3fb 023d 3690 e1bb 65da 22be 31c3 e43c
00000360: 8f13 593d a8c0 3bbd a13c 973d a5db 7cbd
00000370: 7bec 613d c785 9dbc b1b4 44bd 7643 06be
00000380: 66b1 8bbc 57c8 ddbd 087e 8abd fb33 80bd
00000390: 9e52 153d b025 7fbd 077e ae3d 2048 653c
000003a0: 915e 64bd 7162 943c 3e7e e7bc 90bd 133d
000003b0: 9c03 9abc e432 78bd 517e 063d 1027 7cbd
000003c0: 2647 5e3c ae7b afbd db7f 91bd c903 61bd
000003d0: 36de 213d ba91 9b3d 3b31 993c 8a37 56bd
000003e0: b591 56bd ea0e f2ba cb87 f0b9 56a3 cebc
000003f0: 1326 5ebd 0e7d 36bd 426e f03c 3486 64bd
-0.030621199 -0.07625851 -0.033094022 0.05472231 0.070086 -0.04682664 -0.14435053 -0.035767756
0.023046792 -0.058531616 -0.027989069 0.08532826 -0.03505065 -0.03500466 0.042245097 0.031912338
0.073745586 -0.10951334 -0.00399059 0.022838451 -0.057050437 0.018380387 0.0031195094 0.04518327
-0.023544196 -0.041015316 -0.05291944 0.060590338 -0.0075082504 -0.16807725 0.053466417 -0.051201787
-0.04542474 0.029387949 -0.07199213 -0.005656418 -0.1555483 -0.06311615 -0.04793416 -0.016621888
-0.16435784 -0.043024693 -0.07634162 0.02334462 0.059104033 -0.030457828 -0.08200206 0.06896306
0.11974364 -0.11407396 0.05283586 -0.06306247 -0.002697187 0.02743917 0.03449036 0.02679406
-0.041544657 -0.039469287 0.021422898 -0.056061205 0.041435927 0.010316072 0.014012223 -0.024179623
0.03293273 0.018230302 0.043886174 -0.07849247 -0.01603289 0.042131763 0.09961972 -0.054620095
0.0062551606 0.018133348 0.014091033 -0.018319093 -0.0037198567 -0.03185673 -0.02689637 -0.005238553
-0.11941665 0.05584902 -0.05501801 0.0034124688 -0.05636704 -0.061142184 0.08417842 -0.02182018
0.032645933 0.0035878457 -0.0019028141 -0.01632543 0.021091936 0.042236038 -0.04702103 -0.004643534
-0.015064834 -0.1822399 0.012979602 -0.03344878 0.06621336 -0.030992005 -0.06482635 0.038770106
-0.004175826 0.051518384 -0.056952693 0.050441165 -0.05073847 -0.09600674 -0.053911056 -0.04868509
-0.055730376 0.06838228 0.057870355 0.0075281276 -0.01895775 -0.0847029 -0.034647834 -0.03468719
-0.15764269 0.0047426205 -0.08720862 0.09269042 0.01014563 0.00844958 0.03894227 -0.010725857
-0.13929662 -0.044895 0.08023798 0.0243217 0.019163052 -0.040174104 0.0198673 0.00082561764
-0.037809838 0.00065607484 0.016490715 -0.07631977 -0.027735857 0.05330482 -0.106514335 0.060098294
-0.098423675 0.038887944 -0.031913426 0.05854837 -0.0038611093 -0.07969128 0.10200751 0.048588507
-0.06346721 -0.06580946 -0.027847128 0.051929403 0.017907474 -0.07620101 -0.029028364 -0.06325218
-0.0066525578 -0.080667004 -0.00024719356 0.043842077 0.021355666 -0.047444977 -0.008224255 -0.048750382
-0.048487533 -0.022665704 0.07762296 -0.03910657 -0.021797737 -0.09180595 -0.023402067 0.037068296
0.060234617 -0.018895237 -0.06888667 -0.033503603 -0.06992491 -0.07989049 0.029134657 -0.10857314
0.035425294 -0.06183868 0.008632474 -0.09668113 -0.08159825 -0.0974306 -0.22278629 -0.0012853789
-0.09905938 9.3523086e-05 0.117073536 -0.0071672364 -0.018778082 0.022750368 -0.022210203 0.008988009
-0.05279305 -0.045516618 0.10310518 -0.07455031 -0.0028839328 -0.06541602 0.036316805 -0.00039467393
-0.07895992 -0.023473723 -0.13403349 0.06824316 0.03197856 -0.0068836464 -0.15903623 0.027925106
0.05299717 -0.04583803 0.07384611 -0.061732907 0.055157166 -0.01922883 -0.048023883 -0.13111672
-0.017052364 -0.108292274 -0.0676232 -0.062599145 0.036455743 -0.0622918 0.085201316 0.013994247
-0.055754248 0.018113347 -0.02825844 0.036069453 -0.01880055 -0.060595408 0.03283531 -0.06156069
0.013566768 -0.08568512 -0.071044646 -0.05493525 0.039518557 0.075961545 0.018700233 -0.05229906
-0.05238505 -0.001846758 -0.0004587754 -0.025224369 -0.05423553 -0.044552855 0.02934945 -0.05579205

linear2.weight f4 [256, 256]
00000000: 6c35 a0bd 4e98 6ebe 5bc4 f2bd d5d6 153e
00000010: 150f 7abd 98ee 33bd c5a6 25bd b111 a53d
00000020: f796 aebd 288d 3dbe dd3a 263d c242 953d
00000030: cf8e 80bb 5549 7abe 0ad2 2abb 0f12 7a3c
00000040: cead 713d 3af2 ddbd 5740 c1bd dff2 60bd
00000050: a162 633d 0c7b edbc 548c 1ebb 75ac 06be
00000060: afbf a43b cb37 0cbd cb8a abbc 500f e9bd
00000070: 6844 783d 0fc9 33bd 8fed a93e 8caf 84bc
00000080: 88b8 0f3d 8093 b9bd 441f 2f3e c1f0 e0bd
00000090: 5539 97bd f8f7 203d fb95 77bd 2387 3e3d
000000a0: a860 df3d 7607 2cbc 2839 3f3e 17be 793a
000000b0: b327 663e af70 30be 98d4 13bc ac1a 933d
000000c0: 9f0c 643e 84c8 09be 0ca7 22bd d083 243e
000000d0: e313 31bd 6b98 123e 0f82 2abe b1a2 ff3c
000000e0: 6907 82be 2b88 b13c c969 c8bc e3d5 ed3c
000000f0: bda8 07bd a9d5 da3d cfd8 743d fe11 71bd
00000100: ab0d 023c 1ed3 233e d9e0 f23d 466a 0ebc
00000110: 928f 39bc 8641 b63d 22f1 be3d 5636 773b
00000120: 9bcf 2f3d e56d d6bd 9949 47bd 592c bdbd
00000130: 2cf7 a03e 5152 01be b55c 0f3d 93bb 1c3d
00000140: d912 4a39 174b 073e f69c bc3c 1026 983d
00000150: 8cb8 28be 151d d4bd b546 bdbd 7800 9cbc
00000160: ba3b b9bd a118 39bd 1713 3a3c 6042 9f3b
00000170: f40e 163e f05c 743c 183b 3a3d a268 d43d
00000180: 6923 60bd bbbf b5bd a157 ffbd fca0 453d
00000190: 57d8 1c3d 9c16 99bd 1264 fd3d cc30 35bd
000001a0: d3f5 25be 7839 d0be 2468 af3c c69f 61bd
000001b0: e439 3b3d a98a 133d d7fe b93c 2880 8fbd
000001c0: 3e2d c63d 884c 93bb 00c2 4c3d 5019 94bc
000001d0: d587 60ba a30a 99be 240a f83d 86c4 e23d
000001e0: f44b 6e3d b1b9 ffbb b749 8d3e 2d02 673e
000001f0: 274b 0abe e728 503d 88be 3bbe 336e 353d
00000200: bf94 4f3c a0a4 033e 4633 bbbc 2cb9 64be
00000210: 2c05 673c 21c8 7d3b 3b3d 4b3e a28e 13bd
00000220: cbf6 533d 4bcb dd3d 6c90 0ebd 91f5 81bd
00000230: 5bbd 7e3d c11f 13be 2d63 6cbc 469f 153d
00000240: 3fe4 6bbe 07ab f0bd 503f ebbd 138a 2f3d
00000250: c58c 2c3c e61a bfba 078a 46be 58af 2c3e
00000260: 1e95 233d c79b 78be 5fc0 e0bb 0ea1 3f3c
00000270: 13c0 053d f53f 05be f2bf 27be 7493 e03d
00000280: 3671 21be 5d46 d43d aa45 743d e5f5 f1bd
00000290: cfa6 71bd 5086 c5bc 2b6f 1abe 7e9e 263e
000002a0: 1902 29be 6ce9 3c3a 5da0 3c3d aac1 19bd
000002b0: 6fe2 013d 678e dcbc edb7 053d 2843 ba3d
000002c0: a6e5 db3c ce00 85bd d010 cfbc e10f 68bd
000002d0: b283 453e 2832 5cbe f62d 873d d19d a53d
000002e0: f335 4b3d 80e5 35be 0818 e0bd abae 093e
000002f0: c933 3e3d f586 4d3d 8333 003e fe55 423d
00000300: 111a b5bc fc0d 023e 1161 c6bd b265 a4bd
00000310: dc6b ef3d 2330 bd3d b9a9 053e 602c 80bd
00000320: f176 e2bd 6085 7c3d 28ad f4bc 75e2 fe3d
00000330: 6ad5 79be b468 edbe 704d f43c 4414 053b
00000340: 5875 1bbd 4e0c 053e c9b7 10bc 7986 95bc
00000350: d894 68bb 5755 9a3d face 5cbc ccc2 16be
00000360: 2e96 67be 657a e63c 4646 07bd cbce d1bd
00000370: a9e2 c5bd 8b1a e23d 45eb 653d 7391 9e3d
00000380: 6213 69be 2d3d 333a e286 14be 3bd7 81bd
00000390: db3e 743d 620f 043e 7d20 24be ed17 15bd
000003a0: 0f28 b03a d821 30be 0a42 3bbe c8d4 bb3d
000003b0: 3a15 f73c f7a9 9c3d 02d1 ad3d 4fc5 11be
000003c0: ae62 f73d ec62 f9bd b14e fb3d 3e71 22be
000003d0: 4ff4 e0bd 42a4 7b3c 026b 933c 1977 733d
000003e0: 8192 21bd 258c 08be e8ad 6fbd 50ec 65bd
000003f0: b33b d63d 8b3c 413e 6919 7a3d a7cc 663d
-0.078226894 -0.23300287 -0.11853858 0.14632733 -0.06104954 -0.043928713 -0.040442247 0.08060015
-0.08524888 -0.18510878 0.04058348 0.07288124 -0.003923274 -0.24442036 -0.0026065134 0.015263095
0.059003644 -0.10837217 -0.094361 -0.05491912 0.05551398 -0.028989337 -0.0024192529 -0.13151725
0.0050277333 -0.034232896 -0.020940205 -0.11379874 0.060612112 -0.043892916 0.33189055 -0.016196989
0.035088092 -0.090613365 0.1710177 -0.1098342 -0.07383982 0.03929898 -0.060445767 0.046515595
0.109071076 -0.010499826 0.18674147 0.0009526922 0.22476082 -0.17230485 -0.009022854 0.07182822
0.2227044 -0.13455397 -0.03971009 0.16065907 -0.043231856 0.14315955 -0.16651176 0.031205507
-0.25396279 0.021671375 -0.024464505 0.029032653 -0.033119906 0.10685284 0.059777077 -0.05885505
0.007937829 0.15998504 0.118592925 -0.00869233 -0.011325734 0.08899216 0.09323336 0.0037721596
0.042922597 -0.104701795 -0.048654173 -0.09236974 0.31438577 -0.12629057 0.03500052 0.038264822
0.00019271242 0.13212238 0.023024064 0.07429135 -0.16476649 -0.103571095 -0.09242002 -0.019043192
-0.09044595 -0.045189504 0.01135709 0.0048602074 0.14654142 0.014914736 0.045466512 0.103715196
-0.05472127 -0.0887446 -0.12467886 0.04824923 0.038292255 -0.074750155 0.123726025 -0.04423599
-0.16207056 -0.40668845 0.021411963 -0.055084012 0.045709506 0.03602091 0.022704525 -0.07006866
0.09676598 -0.004495207 0.0499897 -0.018078476 -0.00085651624 -0.29890928 0.12111309 0.1107264
0.058177903 -0.0078041186 0.27595302 0.22559424 -0.13505231 0.050820258 -0.183344 0.044294547
0.012669741 0.12855768 -0.022851598 -0.22336262 0.014100354 0.0038724022 0.19847576 -0.036024697
0.051749032 0.10829791 -0.0348057 -0.06345666 0.062192302 -0.14367582 -0.014427942 0.036528848
-0.23036288 -0.11751371 -0.11486685 0.042856287 0.010531609 -0.001458016 -0.19388591 0.16863763
0.03993713 -0.24278174 -0.00685887 0.011696113 0.03265388 -0.13012679 -0.16381815 0.109656245
-0.15765843 0.10364983 0.05963675 -0.11814479 -0.05899697 -0.024111897 -0.1508147 0.16271397
-0.16504706 0.00072064134 0.04605137 -0.037538208 0.031710085 -0.026923371 0.03264611 0.0909484
0.026842903 -0.06494294 -0.025276572 -0.05665577 0.19288519 -0.21503508 0.06600563 0.08086742
0.049611997 -0.17763329 -0.109420836 0.13445537 0.046436105 0.050177533 0.1251965 0.04744529
-0.022107156 0.12700647 -0.09686483 -0.08027209 0.116904944 0.09237697 0.13053025 -0.06258464
-0.110578425 0.061650634 -0.029867724 0.12445537 -0.24397817 -0.46368945 0.029822081 0.0020306269
-0.037953705 0.12992975 -0.00883288 -0.018252598 -0.0035489108 0.075358085 -0.013477081 -0.14722747
-0.22615883 0.028134534 -0.033026002 -0.10244521 -0.096623726 0.11040219 0.056132574 0.07742586
-0.227613 0.0006837424 -0.14504579 -0.0633988 0.059630256 0.12896493 -0.16028018 -0.03639977
0.0013439673 -0.1720041 -0.1828691 0.09171444 0.030161489 0.07649606 0.08487131 -0.14235424
0.120793685 -0.12177071 0.122708686 -0.15863511 -0.10984098 0.015358986 0.017995361 0.059439752
-0.039446358 -0.13334711 -0.05851546 -0.05613357 0.104606055 0.18870752 0.06105939 0.056347515

linear2.bias f4 [256]
00000000: 512a 0abc cd15 893c 99be d13c b4a7 133d
00000010: b42e 1a3d 10c2 14bd 5889 afbd a49e f5ba
00000020: cd10 5dbd c12d af3d 5239 1c3d 3b5c 9fbd
00000030: 5fcd 843d 562c 80bd 45c1 84bd 77ba 0d3d
00000040: f0fd f23c 60cb 403d c95f a539 be22 5d3d
00000050: 3c5c 9fbd ace2 a53d 4ea3 843c 744a 793d
00000060: b06c febc 5fb3 0ebc 8c42 783d f51a 85bd
00000070: 92fd c13c 8646 bbbc 9944 75bb 2691 c8bd
00000080: 5900 833b 1031 e83b 8a60 a53c e229 50bc
00000090: c87a f33d 7d7b 94bd a2ba 48bd 8d6b 00bc
000000a0: 5857 813d d297 43bd 4a41 983d d644 6cbd
000000b0: 9525 14bd eff6 30bd e156 06bc 3da9 14be
000000c0: d369 8ebd ca74 ed3b c73e bebc c351 f63c
000000d0: 3f69 13bc a522 cebb 85d0 ac3d b36d 11bd
000000e0: ebcc b6bc 9753 5f3d c0bf 18bd 3741 383d
000000f0: 3a86 30bd 487c ce3c e6fd 2cbd 8ff9 63bc
00000100: 8e28 97bd aecd 7bbc 1e4c 163d a008 37bd
00000110: 4ef3 cf3c 16d7 a33d 4a2a d93d d7ff 513d
00000120: d554 e2bc a7d5 22bc 2ad8 95bd 6079 4abd
00000130: e583 91bc 4d75 33bd 6e66 0dbd 0718 eabc
00000140: e788 59bd 458d a2bb 73af 343b 5908 adbb
00000150: caa6 c5bd 12db c3bc 3a2d b43c 047c acbd
00000160: daef ecbd 3dac c83d 1eb3 9cbd 478c eabd
00000170: b65f aebd fd84 3e3a 6e10 e43a 3100 803c
00000180: 3864 933d fdf3 293e a774 493d f99f 04bd
00000190: 4ef9 173e f21a a33c 3388 e43c f507 d63c
000001a0: 9726 67bd 141f 71bd 47b8 343e 9e0b 223d
000001b0: f58c bd3d dabe 0dbd ada6 35bc babe 88bd
000001c0: d26f 213d 4cb1 6cbd 1fe5 24be 8d46 40bc
000001d0: a1da ff3c da9b 23bc b697 ae3c 6785 343d
000001e0: eb83 8bbd 3d3c 6c3d 2082 81bd 3a08 23bd
000001f0: f0b9 9d3c ed9e 14bd fd0d 0e3d 8072 2e3c
00000200: 5382 a53d ba10 123e 098d 1dbd 5c86 a3bc
00000210: 5770 fabc ee67 0b3e 5ed5 1abc 0bf9 513d
00000220: 80c1 183d 7bae d93c 459d 0abc 7d28 88bc
00000230: 8ba6 0fbd f382 a43c dcd7 f1bd 9147 adbd
00000240: d6b1 c0bc b593 053d d8be 573d 72c7 c5bc
00000250: dad0 f33b 34e3 1cbd 0f8c f73d 0198 193e
00000260: 69c6 01bd c4db 94bc 162e 963c a7c9 20bd
00000270: 8b2e bcbb c231 2a3d 87be 23bd c123 5abd
00000280: c445 a239 6792 4a3d e4ff 103d e546 c5bd
00000290: 454d 3cbd 77aa a33d cf38 adb9 6d5f edbc
000002a0: 45c9 c23c 28df cd3b 424b 693d 2891 a7bc
000002b0: e081 e33c c8d6 dbbc a17d b73c b2ca d1bc
000002c0: 99dc 883c 5f6f 3fba ab98 253a 7cc1 813c
000002d0: a569 37bd a01c 27bd a9be 3c3c ebd3 d83b
000002e0: 0b54 d4bd 90d8 cabb 2646 113d 0098 ae3d
000002f0: 254c bf3b e9c6 86bd 8f99 1ebd 0955 f9bd
00000300: d253 67bd 9b86 82bc d401 19bd 9e3d 92ba
00000310: 8dae 41be 1503 1ebd b63d 223e e5d4 59bc
00000320: d75a 303d 9563 f2bc 195b 963d 75ef 443c
00000330: 7a79 333d 8bf6 403d 174d 26bb c24e 2b3e
00000340: 16b8 d43b 16fd 5d3b a154 31bd f202 e93c
00000350: d091 5abd b937 dc3c 946d b9bd c806 1dbd
00000360: ea34 adbd 2f29 adbd d3a2 ab3d d6cd 413c
00000370: a38e 483d 1321 c9bc a328 b5bc 592a 043c
00000380: 2857 f6bc ff19 ee3b 4afe 2d3d 267a 873d
00000390: bd81 483d 0b69 743b 45e6 d33c d9d1 483b
000003a0: a97e fabb a001 733a af42 8c3d 67e6 e5bc
000003b0: ffdf a5bb 7899 c5bb f7a1 3f3c b477 65bc
000003c0: 5bf4 0b3d 92eb d6ba b17a 64bd 946a 83bd
000003d0: 299e 43bd 7a47 fe3d edf8 5fbd 947a 0b3d
000003e0: 4a4c 0b3d c9c1 91bd 3f38 76bc 0748 e1bc
000003f0: 5cc6 fdbb 8542 523d 1e1c d9bc 3fcd b5bc
-0.008432941 0.016734028 0.02560358 0.036048606 0.037642196 -0.036317885 -0.08571118 -0.0018739295
-0.0539711 0.08553649 0.038140602 -0.077812634 0.06484484 -0.062584564 -0.06482176 0.034601655
0.029662102 0.047068954 0.00031542618 0.05398821 -0.07781264 0.08099875 0.016191151 0.06086202
-0.031057686 -0.008709758 0.06061034 -0.06499282 0.023680482 -0.022860777 -0.003742492 -0.0979331
0.003997844 0.007085927 0.020187635 -0.012705298 0.11888653 -0.07250116 -0.049006112 -0.007838142
0.063154876 -0.04775221 0.07434328 -0.057682835 -0.036168654 -0.043204244 -0.0081994245 -0.14517684
-0.06953778 0.0072465884 -0.023223294 0.030068284 -0.008997261 -0.006290751 0.084382094 -0.035505008
-0.02231451 0.054523077 -0.037292242 0.04498407 -0.04309676 0.025205746 -0.042234324 -0.01391448
-0.07380782 -0.015368862 0.036693685 -0.04468596 0.025384571 0.08000009 0.10603769 0.05126938
-0.027628342 -0.009938634 -0.07316621 -0.04943216 -0.017763088 -0.04381304 -0.034521513 -0.02857591
-0.053109076 -0.0049606883 0.0027570396 -0.005280536 -0.09650953 -0.023908172 0.021994222 -0.084220916
-0.115691856 0.09798477 -0.076513514 -0.11452537 -0.08514349 0.00072677416 0.0017399916 0.015625091
0.071968496 0.1659698 0.049183514 -0.032379124 0.14841196 0.01991031 0.027896976 0.026126841
-0.056433287 -0.05886753 0.17648421 0.03956186 0.09255401 -0.03460584 -0.011087102 -0.06677003
0.03941328 -0.05778627 -0.16103028 -0.011735571 0.03123218 -0.009985888 0.021312576 0.044072535
-0.06812271 0.057674635 -0.063236475 -0.039802767 0.019253701 -0.036284376 0.03468131 0.010647416
0.08081498 0.14264193 -0.03846458 -0.019961528 -0.030571146 0.13613865 -0.009450285 0.051262897
0.03729391 0.026572457 -0.008460348 -0.016620869 -0.035070937 0.020081973 -0.1180875 -0.08460916
-0.023522299 0.032611568 0.052672237 -0.024142954 0.0074406685 -0.038302615 0.12087261 0.14999391
-0.03168336 -0.018171199 0.018332522 -0.03925481 -0.005742853 0.04155136 -0.039976623 -0.053256754
0.00030951027 0.049456026 0.035400286 -0.09632663 -0.045972127 0.07991498 -0.00033039457 -0.028976167
0.023777613 0.006282706 0.056956537 -0.020454958 0.02777189 -0.026835814 0.022398772 -0.025609348
0.016706752 -0.00073026674 0.0006317 0.01583933 -0.044778485 -0.040798783 0.011520066 0.0066170595
-0.103675924 -0.006190367 0.03546729 0.085250854 0.0058379346 -0.06580908 -0.038720664 -0.12174422
-0.05647642 -0.015933326 -0.03735526 -0.0011157279 -0.18914242 -0.038577158 0.15843853 -0.013295387
0.04305538 -0.0295885 0.07341594 0.012019982 0.04381702 0.04711012 -0.002537554 0.16729262
0.0064916713 0.0033872775 -0.0432936 0.028443787 -0.053361714 0.02688204 -0.090541035 -0.038336545
-0.08457358 -0.08455121 0.08380666 0.01182886 0.048964154 -0.024551904 -0.022114104 0.008066737
-0.030070856 0.0072662826 0.042478837 0.06615095 0.048951853 0.0037294056 0.025866637 0.0030642657
-0.0076444936 0.00092699565 0.068486564 -0.028063966 -0.005062103 -0.006030258 0.01169633 -0.01400559
0.034168582 -0.001639711 -0.05578107 -0.064168125 -0.047758255 0.12415977 -0.054680753 0.034052446
0.0340083 -0.0711704 -0.015028059 -0.027500166 -0.0077445935 0.05133297 -0.026502665 -0.022192596

mean_linear.weight f4 [4, 256]
00000000: bb93 d93c 6426 9bbe 623e 43be 19b9 d93d
00000010: ce42 973e 22b4 cd3e 59b1 91be b87f 3abd
00000020: 3175 67bc 145c 983e 4704 ffbe 3dc4 073f
00000030: d0ff 843d ea69 423f fb7a 2a3e 5df8 b1be
00000040: e19a 423e 3607 473e cd29 123f e71f 023f
00000050: d429 49bf 9e0f 8e3e ae11 593e 2713 9abd
00000060: e8fb 80be edc5 a33d d25d a1bd f80f e9be
00000070: 602f 32be 5f01 243e 5a9a 99be 6eef 213f
00000080: 06c6 0f3e 46eb f9bd 7258 053e d292 bebd
00000090: 0626 3f3d 9bb6 53bf 05d6 89be 01ec 233e
000000a0: b9ee 07be 7efd 1dbf 6c46 003e a2d4 7cbc
000000b0: 8140 66be 134e 5e3e f7bd f6be dd20 983f
000000c0: 0500 023f 7a5b cd3c c3df a3bd 665a 1abe
000000d0: 37e2 1bbf 2609 91be 8b78 b8bd ee5e 93be
000000e0: 29bf 383e 8c87 1d3e ac20 b33e 656d b63e
000000f0: 26c6 a93d f0a6 3a3e 9de3 d3bd 70ef 36bf
00000100: 6d05 d9be 2177 89bd 7870 253f b637 813e
00000110: 903c 22bf 87ac 563d a510 c13e d00b 073f
00000120: cb69 413e 72ff 0d3f 2712 e2be 6322 b73e
00000130: 9a19 10be 0931 153e 4aa8 79bf 748e 83be
00000140: 9b72 623e da87 723e 93d0 113e 4dc2 d6be
00000150: 5ab0 92be 1b34 a53e 7b36 4bbc d803 efbe
00000160: 894b cabe b3dc b63d 88af a0be 5d86 e43d
00000170: e646 e3be 9ba4 0c3e 8f40 81be 9228 c5be
00000180: 2cba 26be 97a0 1cbd 8d72 98be 0f54 68bc
00000190: e951 733e 85d7 18bd 2b32 6a3e 8623 89bd
000001a0: 2a97 a13e 8ab7 f2be a038 253d 9bd2 bc3e
000001b0: b8da 95bd dddd 4e3e 2ec3 f23d 3c13 abbe
000001c0: 3b3e 213e 5e7c e6be 6fc6 253f 1143 98be
000001d0: cf22 3b3e 87f7 14be 26eb 4e3e 55eb fd3e
000001e0: 1d18 9abe 6874 653e c18b b6be e844 c2be
000001f0: 0839 053f a814 62be 6457 4abd 90a5 92bd
00000200: e871 283f b4d6 823e 361c 91be b938 873e
00000210: 9e0d 3fbe ccec 153c 2b86 983e 779e 6fbd
00000220: 9b26 b13e 5940 4fbe 45e0 5fbf 98eb 4ebe
00000230: d605 be3d fd6a f23c 95bc 08bf 5265 993e
00000240: cfff bb3d 3460 dc3e 1572 acbe c003 41be
00000250: 2945 1fbb 7a87 2a3f 2788 5a3e bf3e be3d
00000260: e526 d93c 36ac d33e de0c 0c3f 23d7 03bf
00000270: 978f cbbd 3eae 73be 06dd 86bd bb67 023e
00000280: 6b8f 343d 81c9 f2be 7ff3 0c3f 4186 0ebe
00000290: 3fd7 20be 1698 813e 108d 55bf 42ef c2bd
000002a0: 1e91 203e 2e8a 41be 1eae d8bd 4d61 b43d
000002b0: 1717 87be 0f82 c2bd 8873 9c3e 6aee 01be
000002c0: fe50 c4bd 8adf a8bd 072d ea3e 1083 a43e
000002d0: 078c 26bf 5f1d 26bd 9399 5cbd ca4e e83e
000002e0: 722e 1dbf f39d a0be 5938 163f 4518 9e3d
000002f0: 93eb 4abe a180 d0be 8b59 da3e 1a13 45bf
00000300: 13f9 743e e581 b1bd a559 b83d 681c f73c
00000310: 549b 3ebf ad05 69bd b400 79bd 3d93 3f3f
00000320: 3d98 4ebd 771b 093e d5bc b33d a75e ea3d
00000330: 5b22 43bd 325c 893e e492 60bf 5bad 273e
00000340: 47b5 063f dddf b13c 3ee2 00bf 5b90 343f
00000350: 6915 2abf b103 d9be ace4 3bbf f8fa 5fbf
00000360: ee51 2abc 65ae 68bd b935 453e 0486 f03e
00000370: 0c70 1c3d 5f9a 3e3c 10e4 df3e 3ecd 3a3d
00000380: 79b2 18be c967 863e e773 0a3e 20cb c83d
00000390: 3298 8f3e 5452 0f3f 73bd fa3c 1e4f 913d
000003a0: 5933 b5be 7a28 8b3e e06a d2be 73ee d43b
000003b0: c2c4 0c3d 0d92 533d 4f24 7e3f eee6 1e3e
000003c0: 0572 4d3d 15a1 bb3e 9768 c43c 7fa5 c2bd
000003d0: c1d9 fa3d d9f7 c4be cc2a babe e065 04bf
000003e0: 2873 b5be 8cc2 193f 567b 503f dd38 263c
000003f0: 83a1 0f3f 0a38 f2bc 6625 d03d faca 603e
0.026559701 -0.30302727 -0.19066766 0.10631008 0.29543155 0.40176493 -0.28455618 -0.04553196
-0.014127062 0.2975775 -0.4980795 0.5303381 0.06494105 0.7594286 0.16648476 -0.347598
0.19004394 0.19436345 0.5709503 0.5082993 -0.7857945 0.2774629 0.2119815 -0.07523184
-0.2519219 0.07996736 -0.07879223 -0.45519996 -0.17400885 0.16016148 -0.30000573 0.63255966
0.14040384 -0.12203078 0.1302202 -0.093053475 0.04666712 -0.8270051 -0.26921096 0.16007997
-0.13274659 -0.61714923 0.12526864 -0.015431555 -0.22485544 0.2170947 -0.48191807 1.1885029
0.5078128 0.025068033 -0.080016635 -0.15073547 -0.6089205 -0.28327292 -0.09007367 -0.28783363
0.18041672 0.15383738 0.34985864 0.35630336 0.08289747 0.18227744 -0.10346148 -0.714591
-0.42386952 -0.06712175 0.6462474 0.25237817 -0.6337366 0.05241063 0.3770801 0.527524
0.18888013 0.55467904 -0.44154474 0.35768422 -0.14072266 0.14569487 -0.97522414 -0.2569462
0.22114031 0.23684636 0.14239721 -0.41945115 -0.2865017 0.32266316 -0.012403126 -0.4668262
-0.39510754 0.08928814 -0.3138392 0.1115844 -0.4439003 0.13734667 -0.25244567 -0.38507515
-0.16281956 -0.038239088 -0.29774895 -0.014180197 0.23761715 -0.03731491 0.228707 -0.06696229
0.31560642 -0.47405654 0.040337205 0.3687943 -0.07317108 0.20201822 0.11853634 -0.33413112
0.15746395 -0.4501676 0.6475591 -0.29738668 0.18274997 -0.14547549 0.2020689 0.49593607
-0.30096522 0.22407687 -0.356535 -0.37943196 0.5204015 -0.22078192 -0.04939975 -0.07160485
0.6579881 0.2555443 -0.28341836 0.26410463 -0.18657538 0.009150695 0.29789862 -0.058500733
0.34599766 -0.2023939 -0.87451583 -0.2020706 0.09278457 0.029592032 -0.53412753 0.29960114
0.09179651 0.43042147 -0.33680788 -0.18849087 -0.0024302697 0.6661297 0.21341 0.092893116
0.026507804 0.41342324 0.54707134 -0.5150015 -0.09939497 -0.23796937 -0.065851256 0.12734883
0.044082087 -0.4741936 0.55059046 -0.13918401 -0.1570711 0.25311345 -0.8341837 -0.09518291
0.15680358 -0.18900368 -0.10580085 0.08807621 -0.26384804 -0.09497463 0.30556893 -0.12688604
-0.095857605 -0.08245762 0.45737478 0.32131243 -0.65057415 -0.040555354 -0.053857397 0.4537261
-0.61398995 -0.31370506 0.5867973 0.07719473 -0.19816427 -0.40723136 0.4264644 -0.7698227
0.2392314 -0.086673535 0.09001473 0.030164912 -0.7445576 -0.05689018 -0.060791686 0.7483404
-0.050438154 0.13389383 0.08776251 0.11443835 -0.047640186 0.26828152 -0.8772414 0.16374724
0.5262036 0.021713192 -0.5034522 0.7053277 -0.6643892 -0.4238563 -0.733958 -0.8749232
-0.01039551 -0.05680694 0.19258775 0.46977246 0.038192794 0.011633485 0.43728685 0.04560589
-0.14911832 0.26251057 0.13520776 0.09804368 0.28045803 0.55985 0.030607915 0.070951685
-0.35390738 0.2717932 -0.41097164 0.006498152 0.03436733 0.051652957 0.9927415 0.1551778
0.050157566 0.36646333 0.023975654 -0.09504222 0.122485645 -0.38470343 -0.36360776 -0.5171795
-0.3543942 0.6006248 0.81438196 0.010145393 0.5610582 -0.029567737 0.10163383 0.2195243

mean_linear.bias f4 [4]
00000000: 93b8 773d b4fa acbc e22d 8b3b 18d3 fa3c
0.060478758 -0.021115638 0.004247413 0.030618235

log_std_linear.weight f4 [4, 256]
00000000: 2da5 233e 62c0 333d 25eb 7bbd 0c3f 26bd
00000010: 233e 053e 23d8 8cbe 9314 2c3d 0d81 e0bd
00000020: 6d9d 6e3d 147c bf3d 55cf 85be e371 773d
00000030: d745 28be 3a3e 463e e8e6 803d 3dac d9bd
00000040: 048b d0bc 3e72 07bd 3626 ae3e 1088 133e
00000050: 9eea 113e 4721 0e3e e727 96bd eaa2 16be
00000060: 8821 47be 56d6 c7bd 2dd2 0abe dddf 7b3d
00000070: 3c26 30bd c9e6 6f3e fa06 94bd e77e 3a3e
00000080: f42a 763d 74c1 203d 3b57 bd3d a582 1b3e
00000090: f1c8 2fbe acea ad3e 2d8b 9fbc 2f38 eabd
000000a0: f326 a2bd 44dc 383e 4fa1 3abe 81e5 01bd
000000b0: 1b53 35bd ea0e e63d 36e2 43b9 c3cf 6b3f
000000c0: 0575 1f3e bc4c 1e3e 1951 fb3e 80f3 babd
000000d0: 5b1e 93bb 0979 543b daf5 2abd 3378 2bbd
000000e0: 8ea9 c6bd 4b36 cb3b d628 bc3d 0133 d43c
000000f0: 8cdd ab3d 848c 5eba 5647 283c f928 82bd
00000100: 98da 643d dddf 183d 7bbf a93e d66c a0bc
00000110: 5729 3fbe d484 333c 4d57 843c a422 a83d
00000120: 11ad b0bd e358 223e 7862 2e3e 484d 7e3d
00000130: 7e3c 053e 32c1 cb3d 563d 473f dc41 fbbc
00000140: 0657 1d3e 9681 f23d 670f 83bd d41b 13bd
00000150: 241f 233e b365 513d fdd8 b6bd 191e 623e
00000160: 6257 113e b9f4 d3bd 58b3 92bd 0172 1e3c
00000170: 3d4f 923c 40c1 bbbd 9a32 4cbe 2dcd 86bc
00000180: 0b69 19be 26dc 52be 9f2f 91be 545d 513e
00000190: 828f 323e 4724 003d fbc1 803d e88b 163c
000001a0: d525 65bd 1fd8 05be d257 97bd 5f56 b8bd
000001b0: 8eb3 37be 420b 443e 21ff b33c 8107 a73d
000001c0: 6316 cb3d 2ace fabd ac3e 033d 9fd9 1abe
000001d0: f639 85bd f545 0f3d 3dc2 4a3e 5de5 b73d
000001e0: 1873 93bd 6af6 af3c 4dd9 413e 51eb c93b
000001f0: 4081 573e b916 d83c da09 c5bc 411d 82bd
00000200: e92d 4b3e 0df7 18be d39b 023d a1bc 993d
00000210: 354c eebd a398 43bd 00b5 b43d 7d22 36bd
00000220: 3d54 de3c 5081 b5bd c402 59be 1360 c2bd
00000230: 06db 833c ddea 8b3c 2fb6 08bd 828b c83c
00000240: b6fd d4bc 7b76 cbbc 95f2 053d d5c6 863d
00000250: 7a8d c6bd 548c cd3d 25ba f0bb 2ccc 31be
00000260: 4140 e8bd 4735 823c 0f82 79bd 1c7b 36bc
00000270: 27a1 4c3e ae37 21be cca0 2ebe a9d5 743e
00000280: ec1b 3c3e 04d6 8fbc 320f ca3d 951b 913c
00000290: 34c1 4e3d 341a 6fbd 657d 893e 2ad5 243e
000002a0: 1681 8dbd fa3e 64be 1e0c a8bd bc6f c73d
000002b0: c20f ecbd 69a7 22be 28d3 373e ee0a 12bd
000002c0: 5c52 88bd 7cd1 2e3e 1239 bbbd 12bc 213e
000002d0: 75a6 d8bd 8b05 963d d1aa 5c3c 377b 133e
000002e0: e259 813e 9b71 a4bc 6523 3e3e cfa0 37be
000002f0: d2b2 d03d 8e10 03bc 01f8 353d 1b4b f03d
00000300: 2f5e 283d cd45 613e 069b d63d 8c70 f6bd
00000310: 3bea 103b 59ee 0f3e e399 ecbe fef2 25be
00000320: 741b 96be 8a22 4e3d deb1 e8bd 1d10 1dbc
00000330: 3530 3a3e 8657 713e 9397 5b3f 1311 713e
00000340: 8adb 913e 6fc8 28bd 1847 0ebe 7c1e 2f3d
00000350: 6774 f8bd f443 c9bd e26b 32bd bf1e 16bd
00000360: a10f 8b3e 0758 adbe 6c77 963d 0dbd c8bd
00000370: 7632 9bbc b2d4 2f3d 0ab2 2c3e b1ed 83bd
00000380: 63c6 69be a485 e43d 46ff d43d 6b4b e83d
00000390: 4222 fc3d 7896 67be ef62 e2bd 0831 f43d
000003a0: b0fc e037 bcb2 313a b2e5 babd ce72 953d
000003b0: ce5d 32bc 9b06 94bc 079a d53e 8709 e63b
000003c0: 2ac2 bebd d46c df3d 6c3b bd3d 6b44 b9bc
000003d0: 1eba a33d 7306 23be 71fa b33e 29b2 f3bd
000003e0: 40c5 cc3a ba97 2e3e e78f 113f 1ad4 debc
000003f0: 4788 643e 7030 51be 2d3e f53d 05b8 74bd
0.15980978 0.043884642 -0.06150355 -0.04058747 0.13011985 -0.2750865 0.04201181 -0.109621145
0.0582556 0.09349838 -0.26134744 0.060411345 -0.16432892 0.19359675 0.06294042 -0.10628555
-0.025456913 -0.033067934 0.34013528 0.14407372 0.14249656 0.13879882 -0.073318295 -0.14710584
-0.19446385 -0.09757678 -0.13556738 0.06149279 -0.043005213 0.23427881 -0.07227893 0.18212472
0.060099557 0.03924699 0.092451535 0.15186556 -0.17166497 0.33968103 -0.019475544 -0.114364974
-0.07917585 0.18052775 -0.18225597 -0.031713013 -0.04426871 0.112333134 -0.0001868092 0.92113894
0.15571983 0.1545896 0.4908531 -0.09128475 -0.0044897026 0.0032420775 -0.04173837 -0.041862678
-0.09700309 0.0062015406 0.09187476 0.025903227 0.08391866 -0.00084895664 0.010270914 -0.06355471
0.05587253 0.037322868 0.331539 -0.019583147 -0.18668114 0.010956962 0.01615491 0.08209732
-0.0862676 0.1585422 0.1702975 0.06208542 0.13011357 0.099489585 0.77827966 -0.030671053
0.15365228 0.11841123 -0.06399422 -0.03591521 0.15929848 0.05112238 -0.08928106 0.22081794
0.1419349 -0.103494115 -0.07163113 0.009670735 0.01786005 -0.09167719 -0.19941178 -0.016455257
-0.14981477 -0.20591792 -0.28356645 0.20445758 0.17437556 0.031284597 0.06286999 0.00918863
-0.055944283 -0.13070725 -0.07389797 -0.09000849 -0.17939588 0.1914492 0.02197224 0.08155728
0.09916379 -0.12246354 0.03204219 -0.15122078 -0.06505196 0.034978826 0.19800659 0.089792944
-0.07199687 0.021479804 0.1893055 0.006162085 0.21045399 0.026378023 -0.02405255 -0.06353236
0.19841732 -0.14937992 0.031886887 0.07506681 -0.11635629 -0.047752988 0.088235855 -0.044466484
0.027139777 -0.08862555 -0.21192461 -0.09490981 0.01609565 0.017079765 -0.03337687 0.024480585
-0.025999885 -0.02483677 0.032702047 0.06580893 -0.09694953 0.10036531 -0.007346409 -0.17363042
-0.113403805 0.015894545 -0.06091505 -0.01113775 0.1998335 -0.15743896 -0.17053527 0.2390963
0.18370026 -0.017558105 0.098661795 0.017713347 0.05047722 -0.0583746 0.2685348 0.1609694
-0.06909387 -0.22289649 -0.08205436 0.097381085 -0.11526443 -0.15884174 0.17951643 -0.035654955
-0.06656334 0.170721 -0.09141745 0.157944 -0.10578624 0.07325276 0.01346846 0.14402471
0.25263888 -0.020073703 0.1856819 -0.17932437 0.10190357 -0.007999552 0.044425968 0.11733075
0.041105445 0.21999283 0.10478787 -0.12033185 0.0022112268 0.14055766 -0.46211156 -0.16205975
-0.2931782 0.050325908 -0.113620505 -0.009586361 0.18182452 0.23568544 0.8577816 0.2354167
0.28487808 -0.041206773 -0.13894308 0.04275368 -0.12131577 -0.09827414 -0.043559916 -0.036650416
0.2716036 -0.33856222 0.07346997 -0.098016836 -0.01894496 0.04292745 0.16864792 -0.064418204
-0.22829585 0.111583024 0.10400252 0.1134251 0.12311222 -0.22615993 -0.11054026 0.119234145
2.6820548e-05 0.00067786477 -0.09125842 0.07297288 -0.010886623 -0.018069556 0.41719076 0.0070201787
-0.093143776 0.10909429 0.092398494 -0.022615632 0.079944834 -0.15920429 0.3515201 -0.11899216
0.001562275 0.17050067 0.568602 -0.027200747 0.2231761 -0.20428634 0.1197475 -0.059745807

log_std_linear.bias f4 [4]
00000000: 166b f1be 6cde c0be a809 fdbe a22b 99be
-0.47152013 -0.37669694 -0.4942143 -0.29916102
