BipedalWalker-Soft-Actor-Critic/dir_chk/weights_actor_lr0005.pth (torch_old, 298369 bytes, 8 tensors)

linear1.weight f4 [256, 24]
-0.060441267 0.64755815 -0.40454674 -1.2102236 0.1508735 0.1563064 -0.06928241 0.31305382
-0.21437143 -0.1252083 -0.011145617 0.0014250638 0.012941661 -0.8824975 0.20508023 0.17451632
-0.06914824 0.11270509 0.19555776 0.13034122 0.08917762 -0.0054896288 0.100550205 -0.23445989
0.35828915 -0.5764655 -0.45961353 0.53589815 -0.19159696 -0.16237238 0.681639 0.020134727
-0.84460706 -0.055497784 -0.09055741 0.67766756 -0.13380204 -0.46039048 0.03977257 -0.049756855
0.011494205 -0.03325647 0.17755057 0.13058849 -0.021935573 0.16700155 0.088633046 -0.06878428
-0.10484267 0.100565426 0.05242609 1.5265408 -0.40595254 0.5684166 -0.66240174 -0.041216254
-0.22629774 -0.41202837 0.06740065 0.56089294 0.28832343 -0.022355508 0.09357148 0.09173568
0.08542315 -0.17434865 -0.13278235 -0.14762078 -0.07469395 0.022010783 -0.12586613 -0.16029243
-0.23526156 -0.3624935 0.8725993 1.4740405 0.050875314 0.006475783 0.13517143 -0.052605163
-0.020937206 -0.08396314 0.28166527 0.6142659 -0.011422327 -0.2895281 -0.1325501 0.0418745
-0.034539625 0.05926707 -0.08233375 0.053602844 0.14997812 0.09077257 -0.0036941657 -0.14147754
-0.9258523 -1.5571471 1.2176148 -0.9556384 -0.26042286 0.04936501 0.03225272 -0.036496896
0.039946202 -0.635278 -0.06961963 -0.005583545 0.09152239 -0.09262473 -0.06297684 -0.22003928
-0.14427204 -0.22345644 -0.19459954 -0.22338969 -0.30154276 -0.09145842 0.052361697 0.27476618
1.2629237 3.1681542 -1.3322486 1.3020321 0.22097848 0.10769554 -0.04467085 0.057243887
-0.120389655 0.62282723 0.14862788 0.1943243 0.07221074 0.17746243 0.21079224 0.31218898
0.108525135 0.20129208 0.25727922 0.25946164 0.3553311 0.3228598 0.111448996 -0.29679018
-0.046838067 0.36018017 -0.14041586 -0.62278545 -0.12892862 -0.26964802 -0.02098971 -0.07137441
-1.0084772 -0.4400667 0.33708474 0.44033846 0.45206788 0.42860824 -0.047362037 -0.25816503
-0.0077501377 -0.08548729 -0.028191715 -0.065995164 -0.2554346 -0.07747693 -0.021957243 -0.03409871
0.68529415 -1.3030547 0.8727245 0.081897825 0.0059040873 -0.0032068226 -0.5115091 0.1994291
-0.24110754 -0.52109617 -0.22971864 -0.07148799 -0.041500244 -1.282115 -0.2751361 -0.33033395
-0.10050645 -0.26144168 -0.3623102 -0.16574885 -0.18242455 -0.30817446 -0.21745263 0.14832103
-0.7291301 -2.2047493 1.4260939 0.9496714 -0.40329355 -0.00034923584 0.030747531 -0.053004447
-0.0586665 -0.67257285 0.11239125 -0.1793225 0.055296283 0.10799026 0.019340297 -0.24190891
-0.20103039 -0.022007545 -0.07208425 -0.13375893 -0.022872247 -0.10395756 -0.19998018 0.018080417
-0.38327223 -0.53069484 0.6786299 -0.2975285 0.079156935 0.29859623 -0.21716341 0.010323987
0.2920194 -0.4487595 -0.3582927 0.36494923 0.66652304 -0.1998626 -0.079120785 -0.17625996
-0.00969701 -0.19392751 0.0006288229 -0.053379655 -0.21056587 -0.07435318 -0.21268603 -0.25097156
0.14368527 -0.43486533 0.49101076 -0.53193384 0.39603418 0.2950078 0.6248734 0.49061635
-0.22271484 0.43195942 0.6664183 0.51839113 0.12825404 0.5358057 -0.24355426 -0.103118345
00000000: 4391 77bd 5fc6 253f c020 cfbe 9be8 9abf
00000010: 957e 1a3e c90e 203e f0e3 8dbd 9748 a03e
00000020: 2f84 5bbe 9b36 00be 1b9c 36bc 35c9 ba3a
00000030: 4309 543c 5beb 61bf 8d00 523e 68b4 323e
00000040: 989d 8dbd edd1 e63d 4b40 483e 2b78 053e
00000050: c2a2 b63d 58e2 b3bb 44ed cd3d 4116 70be
00000060: ad71 b73e 3e93 13bf 7752 ebbe 9f30 093f
00000070: fe31 44be f244 26be e57f 2e3f 95f1 a43c
00000080: 2b38 58bf a551 63bd 2a76 b9bd 9f7b 2d3f
00000090: 6703 09be 4db8 ebbe 90e8 223d d8cd 4bbd
000000a0: 3152 3c3c f037 08bd d1cf 353e fdb8 053e
000000b0: 3bb2 b3bc 7402 2b3e 3e85 b53d c6de 8cbd
000000c0: c1b7 d6bd 3ff5 cd3d bdbc 563d b065 c33f
000000d0: 03d9 cfbe c083 113f 2993 29bf 60d2 28bd
000000e0: 98ba 67be 62f5 d2be 5a09 8a3d ae96 0f3f
000000f0: 219f 933e e622 b7bc 67a2 bf3d ebdf bb3d
00000100: 55f2 ae3d 7488 32be 19f8 07be e729 17be
00000110: 24f9 98bd f54f b43c 0de3 00be b323 24be
00000120: 68e8 70be bf98 b9be ab62 5f3f 5cad bc3f
00000130: a262 503d ce32 d43b 616a 0a3e 8378 57bd
00000140: 8184 abbc def4 abbd 6e36 903e 8840 1d3f
00000150: b624 3bbc 073d 94be 37bb 07be 9984 2b3d
00000160: 6c79 0dbd 07c2 723d 999e a8bd a88e 5b3d
00000170: dd93 193e f8e6 b93d d119 72bb 7ddf 10be
00000180: a804 6dbf 9950 c7bf cdda 9b3f b8a4 74bf
00000190: 2556 85be f732 4a3d 6e1b 043d c57d 15bd
000001a0: a19e 233d 94a1 22bf bd94 8ebd 2cf6 b6bb
000001b0: 1770 bb3d 09b2 bdbd 00fa 80bd fa51 61be
000001c0: 0dbc 13be c4d1 64be 1a45 47be 44c0 64be
000001d0: d063 9abe 8d4e bbbd 3879 563d 27ae 8c3e
000001e0: 7ca7 a13f 0ac3 4a40 1f87 aabf fda8 a63f
000001f0: 2f48 623e 7b8f dc3d c8f8 36bd 9178 6a3d
00000200: da8e f6bd 9b71 1f3f e831 183e f3fc 463e
00000210: 39e3 933d b6b8 353e ecd9 573e 3cd7 9f3e
00000220: 6d42 de3d 831f 4e3e 1aba 833e 28d8 843e
00000230: f5ed b53e e14d a53e 5f3f e43d e2f4 97be
00000240: 46d9 3fbd 8969 b83e 2dc9 0fbe de6e 1fbf
00000250: dd05 04be 4e0f 8abe 9df2 abbc bf2c 92bd
00000260: c815 81bf 6c50 e1be 5f96 ac3e 0b74 e13e
00000270: 7175 e73e 8a72 db3e b2fe 41bd 352e 84be
00000280: def4 fdbb f613 afbd 50f2 e6bc 7928 87bd
00000290: 53c8 82be 3aac 9ebd addf b3bc 17ab 0bbd
000002a0: 706f 2f3f 7fca a6bf df6a 5f3f 0cba a73d
000002b0: 1377 c13b 8e29 52bb 43f2 02bf 2437 4c3e
000002c0: e5e4 76be 8f66 05bf 5d3b 6bbe 4c68 92bd
000002d0: 29fc 29bd 581c a4bf a4de 8cbe 8821 a9be
000002e0: 53d6 cdbd afdb 85be b980 b9be 11ba 29be
000002f0: 80cd 3abe 0bc9 9dbe e7ab 5ebe 78e1 173e
00000300: 45a8 3abf 9d1a 0dc0 3f8a b63f aa1d 733f
00000310: 7e7c cebe a419 b7b9 3fe2 fb3c 311b 59bd
00000320: 494c 70bd bc2d 2cbf 622d e63d 51a0 37be
00000330: 5b7e 623d ff29 dd3d 8b6f 9e3c f8b6 77be
00000340: e9da 4dbe 2b49 b4bc e8a0 93bd 1af8 08be
00000350: 945e bbbc b4e7 d4bd 9bc7 4cbe 621d 943c
00000360: 423c c4be 9edb 07bf b0ba 2d3f a855 98be
00000370: 081d a23d 9be1 983e 1660 5ebe f125 293c
00000380: 9183 953e cec3 e5be 2472 b7be a0da ba3e
00000390: 41a1 2a3f c8a8 4cbe 140a a2bd 7e7d 34be
000003a0: 35e0 1ebc ef94 46be 97d7 243a a0a4 5abd
000003b0: 949e 57be 7b46 98bd 5eca 59be 587f 80be
000003c0: 3b22 133e aba6 debe c365 fb3e d12c 08bf
000003d0: fec4 ca3e 430b 973e b4f7 1f3f 1132 fb3e
000003e0: 5c0f 64be c929 dd3e 649a 2a3f 48b5 043f
000003f0: 0755 033e 902a 093f 4a66 79be b62f d3bd

linear1.bias f4 [256]
-0.2670904 -0.13839294 0.014799685 0.007111053 0.051102802 -0.3004112 -0.006334066 0.077689566
-0.03383722 -0.3404318 -0.019449336 -0.09391708 -0.07537339 -0.25208238 -0.07740196 0.102821216
0.065264486 0.04392095 -0.22049963 -0.035747882 -0.19399078 -0.13328117 -0.20063958 -0.008025246
0.02551747 -0.06554068 -0.05010526 0.17175825 -0.14080593 -0.3382223 -0.088462256 -0.22285786
-0.22595908 -0.15523133 0.09262369 -0.19821501 -0.46599618 -0.05626612 -0.045507282 0.04245785
-0.024570636 -0.16627829 -0.10344506 -0.18719858 -0.2420825 0.026180781 -0.48060086 0.103412576
0.08780891 -0.11715282 -0.054986805 -0.11283996 -0.032731544 0.12996383 -0.015750928 0.05530047
0.082185015 -0.086369626 -0.14332081 -0.16606006 -0.19481198 0.092050545 -0.16538468 -0.01684045
0.0063616745 0.020201456 0.055587616 -0.072543345 0.13799103 0.084311955 -0.26251456 -0.11460783
-0.02704638 -0.05619198 0.014097163 0.027101887 0.26977724 -0.12078498 0.094463065 -0.10057616
-0.153241 -0.3121122 -0.1459881 0.03398469 0.23992708 -0.1199011 0.012877266 -0.19264874
0.09235396 -0.1278748 -0.13209087 -0.21314767 0.008214862 0.22741988 -0.0038012764 -0.14317995
0.00046686086 -0.47854504 -0.10339422 -0.06027523 -0.028196432 0.16091101 0.042027295 0.20743684
-0.1574965 0.18460023 -0.24204876 0.13909635 -0.017766315 -0.084968224 0.2779423 -0.06304265
-0.14375137 0.060717452 -0.081929356 -0.20019405 -0.0772596 0.09695045 -0.37824607 0.028698452
-0.22996852 0.10028298 -0.2396115 -0.030487463 -0.13483675 -0.14122099 0.05772747 -0.18670613
-0.23427106 -0.032296956 0.022688217 -0.07583296 0.066645816 -0.28515887 -0.03655716 -0.18036743
-0.0058098966 -0.054982223 -0.19319294 -0.024785953 -0.26548082 0.032862213 -0.3450832 0.0067733284
-0.17456962 -0.044059496 -0.2178909 -0.27659476 -0.4412886 -0.13946547 -0.010804955 0.0728321
-0.03187949 0.044701044 -0.05035272 0.091180705 -0.22997043 -0.05640363 -0.24352452 -0.056695957
-0.15029688 0.049487934 -0.23429939 0.13178416 0.022848226 -0.25207916 -0.28439307 -0.1986203
-0.125086 -0.0947501 0.07671367 -0.2066411 -0.20234479 -0.31425026 0.011978099 -0.27212125
-0.14602013 -0.046552174 -0.30333287 -0.03394051 0.06526276 -0.10482449 -0.11420908 0.17633219
-0.10818114 -0.0124375075 -0.089674376 0.07418246 -0.11601677 -0.18780802 -0.18152554 -0.22767557
-0.1796927 -0.022938544 0.034389034 -0.09541235 -0.0077442294 0.13521351 -0.14759664 -0.037479956
0.010637615 -0.03492603 0.28553745 -0.037196044 -0.22554648 -0.030419007 -0.1370032 -0.14563839
-0.32590422 -0.14687674 -0.28269428 -0.014102534 -0.055242103 0.004329358 -0.26110983 -0.07811347
-0.022265658 -0.0027222207 -0.1614507 -0.09091853 -0.04175202 -0.25367823 -0.20303476 -0.14691526
-0.057731938 -0.04594113 -0.17866789 0.015223277 0.21950397 -0.099346735 0.09674554 -0.034027006
-0.17909557 -0.18974133 0.02739318 -0.014780315 0.03467267 -0.14631782 -0.1183676 -0.089788154
-0.1509961 -0.09348879 0.21258882 0.11858961 -0.10176983 0.24651292 0.08880541 -0.34824926
-0.14363444 -0.12673983 0.14377216 -0.056263745 -0.14767514 0.015443893 0.23863095 -0.022249326
00000000: 13c0 88be e1b6 0dbe 617a 723c d603 e93b
00000010: 2c51 513d 7fcf 99be ff8d cfbb b51b 9f3d
00000020: e698 0abd 144d aebe 3754 9fbc 9957 c0bd
00000030: 5d5d 9abd f110 81be eb84 9ebd ee93 d23d
00000040: 63a9 853d 74e6 333d a8ca 61be 5f6c 12bd
00000050: 85a5 46be dc7a 08be 7674 4dbe 527c 03bc
00000060: 030a d13c 313a 86bd 2c3b 4dbd 65e1 2f3e
00000070: 6e2f 10be 792b adbe b32b b5bd da34 64be
00000080: d161 67be f6f4 1ebe 7db1 bd3d e0f8 4abe
00000090: 0d97 eebe 4e77 66bd d865 3abd 48e8 2d3d
000000a0: 5c48 c9bc db44 2abe 01db d3bd fcb0 3fbe
000000b0: 7ae4 77be 1479 d63c 5111 f6be f9c9 d33d
000000c0: 28d5 b33d d1ed efbd d839 61bd a318 e7bd
000000d0: 8311 06bd 3d15 053e 1708 81bc bf82 623d
000000e0: 9e50 a83d 8fe2 b0bd b1c2 12be a60b 2abe
000000f0: cb7c 47be ff84 bc3d 9a5a 29be fcf4 89bc
00000100: 9875 d03b 867d a53c d7af 633d 9b91 94bd
00000110: 854d 0d3e bfab ac3d 4f68 86be 83b7 eabd
00000120: 5f90 ddbc 9029 66bd caf7 663c c704 de3c
00000130: 3e20 8a3e 1e5e f7bd da75 c13d e0fa cdbd
00000140: 35eb 1cbe 2ccd 9fbe e87d 15be 8833 0b3d
00000150: 72af 753e b58e f5bd 2bfb 523c b645 45be
00000160: 1324 bd3d 9df1 02be d442 07be 6243 5abe
00000170: a197 063c c2e0 683e d61e 79bb c49d 12be
00000180: 01c5 f439 db03 f5be 59c0 d3bd 29e3 76bd
00000190: 34fc e6bc dbc5 243e d024 2c3d 536a 543e
000001a0: c346 21be d807 3d3e a1db 77be 466f 0e3e
000001b0: aa8a 91bc d203 aebd 744e 8e3e 811c 81bd
000001c0: 8f33 13be ddb2 783d 94ca a7bd abff 4cbe
000001d0: 483a 9ebd f58d c63d 78a9 c1be 0419 eb3c
000001e0: de7c 6bbe 2a61 cd3d b85c 75be d8c0 f9bc
000001f0: a512 0abe 3c9c 10be a473 6c3d e42f 3fbe
00000200: c1e4 6fbe d049 04bd a4dc b93c 504e 9bbd
00000210: 9a7d 883d 5800 92be f6bc 15bd 3db2 38be
00000220: f260 bebb 0a35 61bd 5fd4 45be e90b cbbc
00000230: 1aed 87be 879a 063d bfae b0be ccf2 dd3b
00000240: 61c2 32be bb77 34bd cb1e 5fbe d49d 8dbe
00000250: 94f0 e1be 09d0 0ebe 4407 31bc ff28 953d
00000260: 1194 02bd 7118 373d a73e 4ebd f3bc ba3d
00000270: 5e7d 6bbe 7e07 67bd 7e5e 79be 053a 68bd
00000280: 6de7 19be dcb3 4a3d 2eec 6fbe 6df2 063e
00000290: 342c bb3c 8510 81be f89b 91be 1f63 4bbe
000002a0: 8b16 00be 570c c2bd 0e1c 9d3d b999 53be
000002b0: 7933 4fbe 69e5 a0be ca3f 443c 7a53 8bbe
000002c0: 4d86 15be 7ead 3ebd 724e 9bbe 3405 0bbd
000002d0: 7ba8 853d 39ae d6bd 73e6 e9bd 6d90 343e
000002e0: 138e ddbd b0c6 4bbc 33a7 b7bd f9ec 973d
000002f0: 339a edbd bf50 40be d5e1 39be c923 69be
00000300: 5d01 38be 9de9 bbbc 84db 0c3d 8d67 c3bd
00000310: 4ec3 fdbb 6975 0a3e 9323 17be 9584 19bd
00000320: 6449 2e3c 990e 0fbd f731 923e e15a 18bd
00000330: a8f5 66be 4831 f9bc 914a 0cbe 3b22 15be
00000340: ebdc a6be db66 16be 4ebd 90be 510e 67bc
00000350: 8b45 62bd 4add 8d3b 30b0 85be f4f9 9fbd
00000360: 7866 b6bc 4967 32bb 5553 25be 7f33 babd
00000370: 2b04 2bbd 1de2 81be 58e8 4fbe f470 16be
00000380: 5378 6cbd c42c 3cbd b7f4 36be 0d6b 793c
00000390: a6c5 603e 4d76 cbbd 8722 c63d e75f 0bbd
000003a0: d464 37be 8d4b 42be aa67 e03c 2229 72bc
000003b0: ee04 0e3d 57d4 15be b66a f2bd dae2 b7bd
000003c0: b99e 1abe 0d77 bfbd e2b0 593e 1cdf f23d
000003d0: b36c d0bd e26d 7c3e 9cdf b53d ba4d b2be
000003e0: e814 13be 16c8 01be 0239 133e d074 66bd
000003f0: 2738 17be 6208 7d3c ac5b 743e 3844 b6bc

linear2.weight f4 [256, 256]
-0.47262672 -0.59845054 -0.5289637 -0.36897427 -0.0010693605 0.3972133 0.121266484 -0.014597536
-0.33105314 0.086319 0.0050363117 -0.2702283 -0.075938344 -0.20498076 0.020140648 -0.12015391
-0.0959471 -0.097224854 -0.564508 0.035589583 0.099180244 0.19285896 0.15119907 0.019028135
-0.15594183 -0.30249658 0.391872 0.7263859 0.024205247 -0.29343593 0.80272275 -0.25135326
-0.0033239822 0.54703957 -0.043154977 0.020114176 0.034426775 -0.047518253 -0.15009119 0.41482526
-0.23519301 -0.06583302 0.035171848 0.37508652 0.21169536 -0.34159556 0.09072097 0.2375808
0.19670436 -0.3985314 0.13612261 -0.39998052 0.045900863 0.23987745 -0.2666265 0.25456178
0.22351435 0.05930823 0.2704124 0.11323132 0.270414 -0.19828005 -0.28446674 0.10530202
-1.2254351 -0.32075283 -0.44211525 0.097103156 0.0094904015 -1.0925542 0.19959244 0.11688404
0.03489811 -0.041489072 0.43164828 0.24520138 0.50379515 -0.19277394 0.34138072 0.6086458
-0.06358825 0.11894792 0.4735975 -0.15638342 -0.33460796 -0.2661783 -0.4553475 0.06387732
0.29438505 -0.49427593 -0.31141943 -0.34332323 0.22268863 -0.7559645 -0.2437959 0.11615819
-0.14601445 0.4795112 -0.041881934 -0.204743 -0.26714945 0.15887682 -0.8279992 -0.38650262
-0.6769731 0.4926708 0.87834364 0.42810532 0.69298506 -0.10067548 -0.51053995 -0.090425655
0.33735308 -0.24696653 -0.36543635 -0.07386427 -0.385814 -0.81758964 -0.53916186 0.14580521
0.5121146 -0.029766258 0.12091994 -0.104951695 0.34316203 0.08202295 -1.2418597 -0.22848447
0.19736436 -0.24297279 -0.21433589 -0.8750854 -0.2008646 -0.38837352 0.0676713 0.12999491
0.14096946 0.010377847 0.100909404 0.24292518 0.25768426 -1.2552377 -1.3624339 -0.1476298
-0.45194113 0.054520704 -0.4104524 -0.8656541 0.2849923 0.24090087 -0.31237012 -0.74552137
0.048567295 0.06965729 0.34679943 -1.2941073 -0.78199106 -0.107105926 -0.26173082 0.036393672
-0.04926102 -0.35439685 0.2927467 0.3531227 0.2771718 0.18457037 0.15350813 0.19509082
-0.022127109 -0.25747138 -0.08593907 -0.5072641 -0.41966546 -0.10349525 -0.21348217 -0.008699149
0.26883686 -0.055528786 -0.13218808 -0.18377352 0.16186279 -0.21271788 -0.33992946 -0.092630394
-0.3686166 -0.43555447 0.1778231 -0.19181977 -0.09086319 0.04839977 0.15945072 -1.1620327
0.3992329 -0.8025569 -0.2005379 -0.61312854 0.15961763 -0.35540134 0.11909405 -0.1689203
-0.51878655 -0.22828527 0.07938924 0.12617849 0.01995601 -0.09325265 -0.3970015 0.20595229
0.06713865 0.12734064 0.027733536 -0.24184228 -0.10877715 0.26770076 -0.103423975 -0.4626354
-0.099690504 0.08931902 -0.08109756 -0.37633997 -0.78354216 -0.03180986 -0.058089416 0.48295614
0.4261 0.40919355 0.16683224 -0.39263335 -0.32706305 0.24598601 -0.5122054 -0.1383986
0.14922792 0.20582232 0.065821126 0.27631333 0.1452053 -0.06548744 0.0025922384 -0.41568112
0.3898391 0.6578254 -0.25528732 -0.45592713 0.5235387 0.1010437 0.022685569 0.23890512
0.14391509 0.025861848 -0.09054458 -0.047268987 -0.7372712 -0.41511312 0.30011958 0.31695417
00000000: 21fc f1be 0e34 19bf 2a6a 07bf 32ea bcbe
00000010: c929 8cba 8b5f cb3e 905a f83d 812a 6fbc
00000020: cc7f a9be 04c8 b03d a507 a53b 5d5b 8abe
00000030: 9085 9bbd 7ae6 51be 00fe a43c 4113 f6bd
00000040: ea7f c4bd d31d c7bd 9983 10bf 62c6 113d
00000050: 031f cb3d d27c 453e eed3 1a3e e4e0 9b3c
00000060: 37af 1fbe d5e0 9abe 72a3 c83e 6df4 393f
00000070: 154a c63c 3c3d 96be 3d7f 4d3f 60b1 80be
00000080: 2bd7 59bb c90a 0c3f 46c3 30bd 7cc6 a43c
00000090: 1703 0d3d 80a2 42bd 81b1 19be fa63 d43e
000000a0: 70d6 70be 76d3 86bd 5b10 103d 570b c03e
000000b0: abc6 583e 9de5 aebe eacb b93d 6248 733e
000000c0: de6c 493e 4f0c ccbe ba63 0b3e 3fca ccbe
000000d0: 8b02 3c3d 6fa2 753e 4583 88be ec55 823e
000000e0: f2e0 643e 30ed 723d 7e73 8a3e d3e5 e73d
000000f0: b473 8a3e ed09 4bbe a0a5 91be 96a8 d73d
00000100: 0fdb 9cbf b739 a4be ee5c e2be 05de c63d
00000110: a17d 1b3c d1d8 8bbf f661 4c3e e660 ef3d
00000120: 52f1 0e3d 72f0 29bd 0101 dd3e 1216 7b3e
00000130: b8f8 003f 8866 45be 74c9 ae3e 36d0 1b3f
00000140: 8e3a 82bd f89a f33d 5f7b f23e fa22 20be
00000150: bc51 abbe 8648 88be 4f23 e9be 1dd2 823d
00000160: a3b9 963e bc11 fdbe 5e72 9fbe 10c8 afbe
00000170: 7d08 643e e486 41bf a2a5 79be 58e4 ed3d
00000180: d084 15be 7e82 f53e 648c 2bbd 26a8 51be
00000190: d0c7 88be 9bb0 223e c1f7 53bf ace3 c5be
000001a0: 1c4e 2dbf 593f fc3e 21db 603f 9f30 db3e
000001b0: 7867 313f f22e cebd bfb2 02bf 1631 b9bd
000001c0: 8bb9 ac3e cbe4 7cbe 791a bbbe 2646 97bd
000001d0: 6a89 c5be 8e4d 51bf 8306 0abf f64d 153e
000001e0: f119 033f 5ed8 f3bc e0a4 f73d eaf0 d6bd
000001f0: efb2 af3e a6fb a73d 42f5 9ebf d5f7 69be
00000200: e219 4a3e dccd 78be de7a 5bbe 9905 60bf
00000210: 73af 4dbe e5d8 c6be 4097 8a3d 631d 053e
00000220: 4c5a 103e d807 2a3c 97a9 ce3d 61c1 783e
00000230: 31ef 833e a1ab a0bf 3c64 aebf 442c 17be
00000240: d464 e7be 1a51 5f3d d126 d2be 829b 5dbf
00000250: 83ea 913e b8ae 763e faee 9fbe 7dda 3ebf
00000260: 80ee 463d 7ba8 8e3d b28f b13e 4fa5 a5bf
00000270: 9130 48bf 5a5a dbbd 9501 86be 8811 153d
00000280: ecc5 49bd 8173 b5be e5e2 953e 80cc b43e
00000290: 76e9 8d3e 0400 3d3e 3c31 1d3e e3c5 473e
000002a0: e943 b5bc 4ad3 83be d300 b0bd 0fdc 01bf
000002b0: 64de d6be 51f5 d3bd 129b 5abe e086 0ebc
000002c0: fca4 893e 2772 63bd 505c 07be 202f 3cbe
000002d0: 5cbf 253e b7d2 59be 3c0b aebe 01b5 bdbd
000002e0: 51bb bcbe ff00 dfbe 4217 363e 676c 44be
000002f0: 7b16 babd d63e 463d 0d47 233e 7dbd 94bf
00000300: 4168 cc3e 5e74 4dbf cf59 4dbe fef5 1cbf
00000310: ce72 233e 2af7 b5be 95e7 f33d 71f9 2cbe
00000320: 32cf 04bf 9dc3 69be d396 a23d ef34 013e
00000330: c97a a33c 3ffb bebd c843 cbbe 28e5 523e
00000340: fd7f 893d 9665 023e 7131 e33c 81a5 77be
00000350: 8ec6 debd 1310 893e f3cf d3bd 8cde ecbe
00000360: 892a ccbd e4ec b63d 7a16 a6bd a2af c0be
00000370: 3896 48bf 0e4b 02bd 2bef 6dbd 0746 f73e
00000380: c729 da3e d181 d13e 12d6 2a3e 3d07 c9be
00000390: cf74 a7be c2e3 7b3e e51f 03bf 5db8 0dbe
000003a0: 34cf 183e 16c3 523e 3acd 863d f178 8d3e
000003b0: b3b0 143e 471e 86bd 8be2 293b 28d4 d4be
000003c0: fe98 c73e 3f67 283f 05b5 82be 486f e9be
000003d0: a206 063f 00f0 ce3d 16d7 b93c 8ba3 743e
000003e0: 7a5e 133e 3adc d33c 706f b9bd 209d 41bd
000003f0: cebd 3cbf b589 d4be 46a9 993e d147 a23e

linear2.bias f4 [256]
-0.21490479 0.48245898 0.14510521 0.25875092 0.17494275 0.24132498 0.3368264 -0.26146016
-0.6233334 -0.6766639 0.10703947 0.109616995 -0.16395502 0.022673158 0.016665798 -0.097961284
-0.36132094 0.23686932 0.11813721 -0.06087259 0.2969511 -0.12754418 0.20350868 1.1654099
0.18951432 0.04523345 -0.19954827 0.12521192 -0.53218555 0.072538204 -0.17930365 -0.1471372
-0.20946305 -0.43316925 0.17480153 0.17004949 -0.18716626 0.19454302 -0.05685915 -0.2625964
0.078465246 0.2677759 -0.2583019 -0.19746813 0.1978372 0.16695923 -0.43013325 -0.2074962
-0.18493141 0.10932232 -0.3749193 -0.3334688 0.3420224 0.3937517 -0.14655866 0.088786066
0.080696136 -0.0060785627 -0.10611666 0.25358695 0.21002746 0.2410073 -0.17369528 0.057651542
-0.056518797 0.18801907 0.3093297 0.3308521 0.014727861 -0.13931186 -0.09001839 -0.28924692
-0.36508328 0.010737391 -0.24760282 -0.2478575 -0.27024615 0.3092045 -0.2470215 0.38301292
0.03762992 0.10195188 0.022537064 0.26179367 0.009946377 0.21868515 -0.1156931 -0.16145971
0.4060077 -0.14090513 0.1236613 0.107678846 -0.041899335 0.117903545 0.02566878 0.2238901
0.19775373 -0.40957364 1.1681397 -0.11605726 -0.30076814 0.19184646 0.14039832 -0.07317539
0.12604502 0.12800775 0.23436017 -0.30626324 0.2285137 0.14702679 -0.5593559 -0.17832926
-0.30477554 -0.70840365 0.29721054 0.21559052 0.045951862 0.1419483 0.09587433 -0.28543445
-0.1831363 -0.1760645 0.34609342 -0.48919335 -0.27700582 0.2817175 -0.45637167 -0.116616465
-0.25678906 -0.28243503 -0.7649508 0.043994226 0.090728186 0.24031556 -0.4127302 -0.27388817
-0.15141733 -0.09507678 0.5502375 0.37289405 0.23855916 -0.14469105 -0.35636473 -0.37876716
-0.0036689488 -0.11546378 -0.23984063 0.21733002 -0.86583483 -0.43165305 -0.29434586 -0.32945538
0.0059891497 -0.71526474 -0.04363898 -0.5482611 0.08939771 -0.09803869 0.18445797 -0.012987503
0.1229304 0.04409043 -0.0010322382 0.44176468 -0.09030935 -0.3097932 0.05969803 0.027987318
-0.23364459 -0.1896864 -0.7261526 -0.08633538 0.251535 0.21457207 0.3942006 0.10892641
-0.12153549 -0.26191127 -0.031600982 0.14419875 -0.41179958 -0.23941132 -0.061675783 0.13810316
-0.2885661 -0.16933419 -0.15041246 0.0060327733 -0.17583276 -0.41656032 -0.10969212 0.039050475
0.25859135 0.16764951 0.23491418 0.2202028 0.06656409 -0.56178355 -0.090546355 0.2010045
0.14369026 -0.08830828 -0.18698122 -0.075195774 0.0713092 0.2678696 0.24091518 0.20894541
-0.08931361 -0.15386938 -0.20404568 -0.40159693 -0.019397423 0.045740858 0.27117085 0.09522074
-0.29472578 0.3341866 -0.29061294 -0.057204295 -0.13270324 0.050279513 -0.08044883 -0.004459151
0.25998938 -0.006614875 0.10078428 0.36112398 -0.15877536 0.12790175 -0.18234017 0.3961121
-0.03448961 -0.2681669 -0.116416425 0.13946262 -0.17359789 -0.14959614 0.18094148 0.034032132
-0.11459635 0.32515004 -0.0632064 0.014209258 -0.24124913 0.08227764 0.09972147 0.02453222
0.1927011 -0.3902018 -0.09543887 -0.11602127 -0.09412716 -0.12321423 0.124138184 0.108379
00000000: 0010 5cbe dd04 f73e 7696 143e 007b 843e
00000010: 3124 333e e51d 773e 8374 ac3e 1bde 85be
00000020: c792 1fbf d839 2dbf 8237 db3d e07e e03d
00000030: d3e3 27be 0fbd b93c b686 883c ed9f c8bd
00000040: 0fff b8be df8d 723e ecf1 f13d 8955 79bd
00000050: f909 983e f19a 02be 9464 503e 272c 953f
00000060: 0b10 423e b646 393d 6256 4cbe 8e37 003e
00000070: 503d 08bf e98e 943d 609b 37be 22ab 16be
00000080: 7b7d 56be 5cc8 ddbe 2cff 323e 7421 2e3e
00000090: 83a8 3fbe 4936 473e 24e5 68bd 0973 86be
000000a0: 63b2 a03d ec19 893e 2640 84be 1635 4abe
000000b0: d695 4a3e 5cf7 2a3e 6d3a dcbe e279 54be
000000c0: a95e 3dbe 61e4 df3d 6cf5 bfbe 6cbc aabe
000000d0: 8f1d af3e d399 c93e 7913 16be 78d5 b53d
000000e0: 0444 a53d ae2e c7bb b153 d9bd 26d6 813e
000000f0: 7011 573e 9eca 763e 2ddd 31be 0624 6c3d
00000100: 4180 67bd 1288 403e 7660 9e3e 7265 a93e
00000110: 204d 713c c5a7 0ebe 905b b8bd 2c18 94be
00000120: 32ec babe e2eb 2f3c 988b 7dbe 5bce 7dbe
00000130: b45d 8abe 0d50 9e3e 34f3 7cbe 451a c43e
00000140: d521 1a3d 26cc d03d a69f b83c d209 863e
00000150: 21f6 223c 00ef 5f3e 81f0 ecbd b255 25be
00000160: 3ee0 cf3e 6f49 10be 2342 fd3d ba86 dc3d
00000170: a39e 2bbd 6a77 f13d 5547 d23c 7243 653e
00000180: f47f 4a3e a3b3 d1be 9a85 953f 6eaf edbd
00000190: 48fe 99be 6673 443e 94c4 0f3e fbdc 95bd
000001a0: f211 013e 7714 033e 1dfc 6f3e 89ce 9cbe
000001b0: 7fff 693e 318e 163e f331 0fbf f29b 36be
000001c0: 8a0b 9cbe f159 35bf fb2b 983e c3c3 5c3e
000001d0: 0538 3c3d e55a 113e c359 c43d 7724 92be
000001e0: 1588 3bbe 414a 34be 2833 b13e 8d77 fabe
000001f0: b5d3 8dbe 473d 903e 8ca9 e9be 9dd4 eebd
00000200: db79 83be 539b 90be d1d3 43bf 4a33 343d
00000210: b3cf b93d 4815 763e 5f51 d3be 123b 8cbe
00000220: 250d 1bbe 9db7 c2bd 5ddc 0c3f f8eb be3e
00000230: da48 743e e429 14be 7075 b6be c5ed c1be
00000240: bf72 70bb 4678 ecbd c898 75be c38b 5e3e
00000250: 5aa7 5dbf a101 ddbe 80b4 96be 60ae a8be
00000260: a140 c43b 971b 37bf c9be 32bd d75a 0cbf
00000270: 2616 b73d 82c8 c8bd 8de2 3c3e 89c9 54bc
00000280: efc2 fb3d 2b98 343d 2b4c 87ba fb2e e23e
00000290: 1cf4 b8bd 379d 9ebe ec85 743d a945 e53c
000002a0: 8740 6fbe 273d 42be 23e5 39bf 9bd0 b0bd
000002b0: 32c9 803e c8b8 5b3e a9d4 c93e cf14 df3d
000002c0: 99e7 f8bd 3c19 86be 0870 01bd d6a8 133e
000002d0: 65d7 d2be 3e28 75be bf9f 7cbd ea6a 0d3e
000002e0: f0be 93be f165 2dbe b905 1abe 92ae c53b
000002f0: 810d 34be 6547 d5be 43a6 e0bd 64f3 1f3d
00000300: 1666 843e 50ac 2b3e 588d 703e d87c 613e
00000310: c152 883d 0cd1 0fbf 5e70 b9bd 20d4 4d3e
00000320: 8a23 133e f9da b4bd 0178 3fbe 3e00 9abd
00000330: 8f0a 923d 3426 893e 78b2 763e c9f5 553e
00000340: 0eea b6bd ef8f 1dbe 5af1 50be 1d9e cdbe
00000350: 58e7 9ebc c45a 3b3d e8d6 8a3e 1703 c33d
00000360: 4ce6 96be 821a ab3e 38cb 94be 0d4f 6abd
00000370: 5ce3 07be e4f1 4d3d 5bc2 a4bd 121e 92bb
00000380: 541d 853e 98c1 d8bb fd67 ce3d 3ee5 b83e
00000390: 0296 22be adf8 023e 62b7 3abe 35cf ca3e
000003a0: fa44 0dbd 2c4d 89be bc6b eebd 4acf 0e3e
000003b0: a5c3 31be bb2f 19be b948 393e 4765 0b3d
000003c0: 7eb1 eabd 117a a63e 5b72 81bd f3cd 683c
000003d0: 030a 77be 2e81 a83d c53a cc3d cbf7 c83c
000003e0: 7053 453e 88c8 c7be 7475 c3bd 8f9c edbd
000003f0: bec5 c0bd be57 fcbd 293c fe3d cff5 dd3d

mean_linear.weight f4 [4, 256]
0.13613434 0.8547612 -2.578366 0.32515758 3.2952971 -0.40385556 -0.4346625 0.18065485
-0.48608166 0.57846 -1.0207494 0.024298487 -0.32703736 0.54512256 0.658811 -0.9495002
0.12709601 -0.38269356 -0.46125358 0.10007474 0.20475592 0.3890031 -0.19242205 -0.3360348
-0.067739226 -0.85870916 0.078355744 1.0625707 -0.08646581 -1.8873081 -0.5803627 0.50882787
-0.016905788 -1.012117 -0.9640324 0.30653512 0.8584229 -0.114084005 0.31790105 -0.35789368
-0.94766057 -1.1368716 1.0555209 -0.30338013 -0.43278408 0.06460469 0.12272201 -0.27004027
0.17019033 0.51208335 -0.24590605 0.36972028 -0.14192517 0.15789676 -1.0020702 -1.5598729
-0.10337728 -0.4406851 0.15583561 1.7973007 -0.3275587 0.2963336 -0.7008802 -0.2217903
-0.023805622 0.35441408 1.2082806 0.8668385 -0.21011458 0.27471873 0.15574425 0.14555067
0.36793673 0.57897156 -1.2933924 0.6446112 -0.03243671 0.18315546 -1.5149494 -2.0350766
0.13857408 1.2017872 0.0709943 -0.12961154 0.24357493 1.612073 -0.6562097 -0.37567598
-0.11548897 -0.06094163 -0.7289821 -0.6800158 -0.083014406 0.5747013 -0.056690857 -1.3335501
2.258745 -0.06608357 -0.01641469 -0.69813216 -0.16869433 0.9635655 -0.1724472 -0.05192249
0.36278403 -0.28500888 1.0662102 -0.6271358 0.27852935 2.8546844 -0.044026565 -0.4037529
-0.3986641 -0.7712961 0.45449698 -0.96380407 0.01191233 -0.24628 0.73894376 0.4256934
-0.11502577 0.3700156 -1.2477745 -0.47792813 0.33949536 -2.2050292 0.41417503 0.3226705
0.25424156 0.6829974 -0.01785408 0.06598816 -1.2206467 -0.65656066 1.4136114 -0.33357197
0.16756696 -1.1390346 -0.1330478 -0.2012709 0.33515126 -0.030775368 0.16931821 0.33317533
0.9132151 1.3436389 -0.035549942 -0.3480343 -0.108895145 -0.10457319 0.02519552 0.75666827
0.33159265 -0.29104915 0.18355815 -0.8420339 -1.2141943 -0.16015267 -1.070543 -0.8029289
-0.07684105 -1.1255798 0.80168283 -0.20723076 -0.5973641 0.39358762 -0.35194248 -0.22933961
0.24807906 1.1860291 -0.017422302 0.9891811 -1.0981333 0.1677942 0.22716255 -0.40013906
-0.844215 -0.7044284 0.20740086 1.4892616 -0.5643687 0.89051914 0.021919182 0.27204332
-1.0826277 -0.13399242 -0.025315989 0.6969584 -0.11153579 -0.08796667 0.3485811 2.622819
0.48302656 -0.2799419 -0.10756231 -0.36952028 -0.53381234 -0.09796918 -0.20186336 1.2617711
-1.3264239 0.12106474 -0.0968176 0.18057846 -0.23092948 -0.8333855 -1.0120491 1.0114734
1.7693583 -0.35228786 0.115686364 0.98659927 -0.034524407 1.0720117 -0.26255375 -1.6132988
-0.16403846 -0.680208 0.17468305 0.4737182 -0.09001469 0.20710044 0.12759787 0.96612966
-0.62141407 0.50711274 -0.5305825 0.18786496 -0.07548508 1.0413122 0.3393657 0.6355665
-1.9088771 0.38397542 -0.45294848 -0.050478354 0.44144455 -1.0523057 -1.2907456 0.32231182
0.9030327 0.5630701 0.012131253 -1.1638066 -1.0392791 0.51551664 -0.28448048 -0.24515946
0.7585095 0.955205 -0.30852962 0.3552098 0.079806976 -0.35992166 0.4727824 0.7868872
00000000: cd66 0b3e a1d1 5a3f f303 25c0 0e7b a63e
00000010: 26e6 5240 28c6 cebe 158c debe 96fd 383e
00000020: b2df f8be f415 143f eba7 82bf 9f0d c73c
00000030: 7171 a7be 278d 0b3f d6a7 283f 7212 73bf
00000040: 7525 023e 69f0 c3be 6e29 ecbe fcf3 cc3d
00000050: 89ab 513e 6a2b c73e 490a 45be c10c acbe
00000060: ddba 8abd 5dd4 5bbf fa78 a03d 5102 883f
00000070: fd14 b1bd 5093 f1bf a692 14bf 8b42 023f
00000080: 027e 8abc 0d8d 81bf d4ca 76bf 2cf2 9c3e
00000090: 9ac1 5b3f e0a4 e9bd edc3 a23e d73d b7be
000000a0: e299 72bf 0285 91bf 4f1b 873f a454 9bbe
000000b0: e095 ddbe 774f 843d ad55 fb3d b842 8abe
000000c0: 6046 2e3e e517 033f ccce 7bbe fa4b bd3e
000000d0: d554 11be b0af 213e d643 80bf eaa9 c7bf
000000e0: 78b7 d3bd 7aa1 e1be 5f93 1f3e f30d e63f
000000f0: c6b5 a7be 0ab9 973e e36c 33bf ff1c 63be
00000100: 0204 c3bc c375 b53e f0a8 9a3f 21e9 5d3f
00000110: 4728 57be efa7 8c3e 6c7b 1f3e 3c0b 153e
00000120: 3462 bc3e 7b37 143f e28d a5bf 3d05 253f
00000130: 5bdc 04bd 1b8d 3b3e dde9 c1bf b23e 02c0
00000140: 5de6 0d3e 2ad4 993f 7665 913d e3b8 04be
00000150: b56b 793e 6858 ce3f 5cfd 27bf 9a58 c0be
00000160: 7b85 ecbd ee9d 79bd 929e 3abf 8415 2ebf
00000170: 7503 aabd a01f 133f ac34 68bd c5b1 aabf
00000180: 478f 1040 d356 87bd 1a78 86bc cab8 32bf
00000190: 35be 2cbe 3bac 763f 0096 30be adac 54bd
000001a0: d4be b93e afec 91be 9379 883f f98b 20bf
000001b0: 669b 8e3e 26b3 3640 3355 34bd b3b8 cebe
000001c0: b31d ccbe a973 45bf d4b3 e83e ddbb 76bf
000001d0: ef2b 433c d330 7cbe 6b2b 3d3f 7cf4 d93e
000001e0: a292 ebbd af72 bd3e 13b7 9fbf ffb2 f4be
000001f0: 56d2 ad3e 331f 0dc0 c00e d43e 1135 a53e
00000200: f32b 823e ebd8 2e3f b842 92bc cd24 873d
00000210: 273e 9cbf 5c14 28bf 38f1 b43f f2c9 aabe
00000220: ac96 2b3e e3cb 91bf af3d 08be f519 4ebe
00000230: f298 ab3e a01c fcbc c161 2d3e f595 aa3e
00000240: 77c8 693f 5cfc ab3f d19c 11bd 8d31 b2be
00000250: 6b04 dfbd 782a d6bd d666 ce3c 03b5 413f
00000260: 83c6 a93e 6504 95be abf6 3b3e 898f 57bf
00000270: b86a 9bbf 10ff 23be 8e07 89bf c08c 4dbf
00000280: d75e 9dbd 0013 90bf 163b 4d3f 4d34 54be
00000290: dbec 18bf 5184 c93e ce31 b4be 01d8 6abe
000002a0: 7008 7e3e cdcf 973f 37b9 8ebc f93a 7d3f
000002b0: a28f 8cbf 3ed2 2b3e 4d9d 683e 07df ccbe
000002c0: 791e 58bf 6b55 34bf e460 543e 20a0 be3f
000002d0: 787a 10bf 10f9 633f db8f b33c 4349 8b3e
000002e0: 8b93 8abf 4f35 09be 7a63 cfbc de6b 323f
000002f0: e06c e4bd df27 b4bd 3979 b23e 44dc 2740
00000300: 424f f73e 8b54 8fbe a149 dcbd c331 bdbe
00000310: eda7 08bf 11a4 c8bd 45b5 4ebe b781 a13f
00000320: 42c8 a9bf caf0 f73d 4e48 c6bd 8fe9 383e
00000330: c778 6cbe c158 55bf d38a 81bf f677 813f
00000340: 557a e23f 135f b4be f9ec ec3d c591 7c3f
00000350: 7769 0dbd ae37 893f 726d 86be 9380 cebf
00000360: b3f9 27be 1d22 2ebf 1de0 323e 318b f23e
00000370: 9f59 b8bd 2312 543e 04a9 023e 4654 773f
00000380: fe14 1fbf 24d2 013f 41d4 07bf ac5f 403e
00000390: ec97 9abd b849 853f 57c1 ad3e 7cb4 223f
000003a0: 1656 f4bf 6d98 c43e dde8 e7be 64c2 4ebd
000003b0: 0505 e23e f4b1 86bf 2737 a5bf 0e06 a53e
000003c0: 272d 673f 5d25 103f 2ac2 463c 9df7 94bf
000003d0: 1907 85bf e6f8 033f 6da7 91be 150b 7bbe
000003e0: ae2d 423f 5188 743f 98f7 9dbe 0fde b53e
000003f0: d771 a33d a747 b8be 8910 f23e 7171 493f

mean_linear.bias f4 [4]
0.20746884 -0.05835802 0.20074812 0.03597772
00000000: b672 543e d208 6fbd ea90 4d3e 605d 133d

log_std_linear.weight f4 [4, 256]
0.12932889 0.1848313 0.19085978 0.06768498 1.1824157 0.060386486 0.086674035 -0.08380834
0.05374419 0.073398635 0.0204254 0.05641584 -0.05271352 0.26469144 0.1380583 0.02884589
0.23307736 0.16536404 0.0026756825 0.003212009 0.007263471 0.033554986 0.031309202 -0.30093697
-0.41716713 0.31303847 0.04345669 0.14426623 0.00853731 0.68755627 0.15723555 0.19523
0.07971855 0.50912285 0.1197972 0.14102152 0.16420157 0.19593798 0.053663615 0.1515873
0.06145812 0.39952612 0.45512557 0.035516083 -0.10019679 -0.08024113 -0.09520506 -0.1684001
0.037219815 0.077329904 -0.120283134 0.30042642 -0.0821854 0.02628201 -0.008908623 -0.07133622
0.15033403 -0.20787406 0.1734626 0.43830597 -0.066014655 0.13322991 0.32861614 0.1424953
0.1554965 -0.01336972 0.23222427 0.24289253 0.12730993 0.085370876 0.023161244 0.12539144
0.3136266 -0.20501654 0.42193326 0.22246237 -0.04910575 0.10359526 0.38379773 0.71204215
-0.035798952 0.27097413 0.1787052 0.17568718 -0.10924901 0.17173061 -0.08649912 0.009608439
-0.056806225 0.17740196 0.0109184 0.23342976 -0.0754311 -0.084646836 -0.05333005 0.57535887
0.82757664 -0.2710429 -0.53217083 -0.23352443 0.64918727 0.44143414 -0.17978531 0.1642564
0.086149536 0.048011243 -0.01576198 0.34015828 -0.16531138 1.4405825 0.011610572 -0.058602
-0.08468913 0.057993915 -0.27537873 -0.26338106 -0.20681779 -0.06597635 0.23077534 -0.17926472
0.042912465 0.10088416 0.035799824 -0.058328815 0.2404565 0.5415255 0.08057471 0.2779087
0.121182285 0.4090264 -0.09757477 0.14797926 0.67089957 -0.20232876 0.6279697 0.054541435
0.07590841 0.2498632 -0.14499864 0.0786169 0.21025017 0.07702997 0.24643101 0.039288826
0.16913415 0.15437326 -0.054993793 0.0063576256 0.08269024 0.1071952 -0.03842394 0.49905625
-0.014741582 -0.050763465 0.20977274 -0.11222369 -0.0015674755 -0.1935127 -0.32630777 0.24425259
-0.013522508 -0.029888585 0.011156806 -0.01961689 0.11030637 -0.04528975 0.09376534 -0.06485108
0.25984478 0.39024282 -0.112003356 0.1130415 -0.009465265 -0.008564845 -0.02855609 -0.067939654
0.15167606 0.30045226 0.07719885 0.48654085 0.04586102 0.39553896 0.0052639805 0.021713238
-0.2477949 0.0033645227 -0.0036261962 0.19096087 0.15723673 0.028019426 0.10565566 0.25261638
0.17785005 -0.16361874 -0.017140146 -0.038725104 -0.06373768 0.0065949196 -0.13583538 0.0915217
0.9909832 0.15935393 0.33996162 0.4050862 0.010695965 -0.11176568 0.3528537 0.351407
0.002386985 -0.1840677 -0.0073592872 0.25226638 0.30387637 -0.13125148 -0.061620217 0.548478
-0.007702506 0.12366934 0.075797446 0.07949953 -0.01720102 0.126992 0.050005544 0.24315518
-0.20457853 0.01432228 0.1236936 -0.017072419 0.034626327 0.049997754 0.25169104 0.43620652
0.87558126 0.18171677 -0.13312373 -0.0647376 0.08200315 0.49365658 -0.32106158 -0.21104541
0.6416307 0.27258825 0.038023446 -0.16541593 0.026735226 -0.03152401 -0.06733063 0.014439604
1.112852 0.41529757 -0.07232546 -0.058736585 0.0047628763 0.08966393 0.007476225 0.1294767
00000000: cb6e 043e 6b44 3d3e bf70 433e 6c9e 8a3d
00000010: 6659 973f d257 773d 2882 b13d b5a3 abbd
00000020: de22 5c3d 0652 963d 2b53 a73c 4c14 673d
00000030: 22ea 57bd a385 873e 285f 0d3e 374e ec3c
00000040: d5ab 6e3e 3155 293e 815a 2f3b 9280 523b
00000050: 6902 ee3b f470 093d 143e 003d 6914 9abe
00000060: ee96 d5be 9446 a03e a4ff 313d 87ba 133e
00000070: 13e0 0b3c b003 303f 5b02 213e 60ea 473e
00000080: 7b43 a33d e055 023f 3c58 f53d f267 103e
00000090: 7524 283e f7a3 483e 61ce 5b3d b339 1b3e
000000a0: 82bb 7b3d b08e cc3e 3806 e93e 5079 113d
000000b0: fa33 cdbd 7655 a4bd dffa c2bd 1371 2cbe
000000c0: ce73 183d 245f 9e3d 0157 f6bd 7ed1 993e
000000d0: d250 a8bd 5f4d d73c 79f5 11bc b918 92bd
000000e0: 2af1 193e f0dc 54be 2ea0 313e a469 e03e
000000f0: b132 87bd 6c6d 083e 6040 a83e 4aea 113e
00000100: 793a 1f3e ac0c 5bbc 33cc 6d3e d2b8 783e
00000110: 895d 023e edd6 ae3d a6bc bd3c 9d66 003e
00000120: aa93 a03e dbef 51be a307 d83e 2dcd 633e
00000130: 1c23 49bd c029 d43d 2381 c43e 6548 363f
00000140: eca1 12bd 1fbd 8a3e 7ffe 363e 57e7 333e
00000150: f2bd dfbd 26da 2f3e 7326 b1bd b76c 1d3c
00000160: a5ad 68bd dca8 353e 17e3 323c 3608 6f3e
00000170: 9f7b 9abd 525b adbd 9c70 5abd b84a 133f
00000180: 10dc 533f 23c6 8abe 593c 08bf 0721 6fbe
00000190: 2331 263f a803 e23e a419 38be d432 283e
000001a0: 2b6f b03d 70a7 443d 451f 81bc 3a29 ae3e
000001b0: 6347 29be 0265 b83f 453a 3e3c a708 70bd
000001c0: 7f71 adbd 078b 6d3d 71fe 8cbe e2d9 86be
000001d0: 0bc8 53be 9c1e 87bd 5f50 6c3e 2c91 37be
000001e0: fbc4 2f3d 5b9c ce3d d6a2 123d 32ea 6ebd
000001f0: 3b3a 763e 6aa1 0a3f 5b04 a53d 0d4a 8e3e
00000200: 6b2e f83d e96b d13e 48d5 c7bd e087 173e
00000210: 13c0 2b3f 452f 4fbe 9fc2 203f d766 5f3d
00000220: de75 9b3d 24dc 7f3e 867a 14be e601 a13d
00000230: d24b 573e e4c1 9d3d 6958 7c3e 52ed 203d
00000240: 8131 2d3e 0614 1e3e 2c41 61bd a153 d03b
00000250: 8059 a93d 2889 db3d 6c62 1dbd 4d84 ff3e
00000260: ad86 71bc 5aed 4fbd aace 563e 89d5 e5bd
00000270: c073 cdba 3128 46be d011 a7be 5a1d 7a3e
00000280: 828d 5dbc e8d8 f4bc 09cb 363c 9ab3 a0bc
00000290: 4ee8 e13d bf81 39bd 0b08 c03d a5d0 84bd
000002a0: 600a 853e e8cd c73e 0462 e5bd 4d82 e73d
000002b0: 3314 1bbc 9053 0cbc 76ee e9bc f223 8bbd
000002c0: f850 1b3e e1d4 993e 6e1a 9e3d e21b f93e
000002d0: c4d8 3b3d 1584 ca3e 787d ac3b f6df b13c
000002e0: f2bd 7dbe 537f 5c3b 7aa5 6dbb 3f8b 433e
000002f0: aa02 213e ff88 e53c ff61 d83d ef56 813e
00000300: 531e 363e ac8b 27be 7e69 8cbc 379e 1ebd
00000310: e788 82bd 321a d83b 6e18 0bbe bb6f bb3d
00000320: 13b1 7d3f ad2d 233e 730f ae3e 7567 cf3e
00000330: 213e 2f3c 68e5 e4bd 3da9 b43e 9eeb b33e
00000340: f76e 1c3b 3e7c 3cbe 2d26 f1bb 0f29 813e
00000350: af95 9b3e ca66 06be 7b65 7cbd 0e69 0c3f
00000360: 4e65 fcbb 5a46 fd3d b13b 9b3d a6d0 a23d
00000370: 27e9 8cbc 310a 023e 9dd2 4c3d acfd 783e
00000380: 097d 51be ffa7 6a3c 1253 fd3d 75db 8bbc
00000390: 56d4 0d3d 72ca 4c3d a6dd 803e 7656 df3e
000003a0: 1826 603f f613 3a3e 9651 08be 2695 84bd
000003b0: 44f1 a73d 8ec0 fc3e 2f62 a4be 4a1c 58be
000003c0: e941 243f b090 8b3e 79be 1b3d cb62 29be
000003d0: d503 db3c 521f 01bd a4e4 89bd 1794 6c3c
000003e0: ef71 8e3f e2a1 d43e 5f1f 94bd c695 70bd
000003f0: e711 9c3b b9a1 b73d 1ffb f43b 8a95 043e

log_std_linear.bias f4 [4]
-1.5842829 -1.7389957 -1.8571423 -1.482395
00000000: c8c9 cabf 6997 debf d7b6 edbf 1fbf bdbf
