Project-2_Continuous-Control/checkpoint_critic.pth (torch_old, 542626 bytes, 5 tensors)

fcs1.weight f4 [400, 33]
0	0x3d676c16	0.056499563
1	0x3eb3cbd7	0.35116455
2	0xbe8b7960	-0.2724104
3	0xbda30af0	-0.079610705
4	0x3e28ad6a	0.16472402
5	0xbe71c4a2	-0.23610166
6	0x3d179771	0.03700966
7	0x3d5ef0eb	0.054428976
8	0xbe489bc7	-0.19590674
9	0xbdf610b2	-0.12014903
10	0x3d1da60f	0.038488444
11	0x3d6094be	0.05482935
12	0xbd57856d	-0.05261748
13	0xbdda44ba	-0.1065764
14	0xbcae6a4f	-0.021290926
15	0x3ed92692	0.4241224
16	0xbe837b28	-0.25679898
17	0xbd9e7054	-0.07736269
18	0x3d3b81a2	0.045777924
19	0x3d195d59	0.03744254
20	0xbd27e8d9	-0.040993545
21	0xbd0b0aa6	-0.033945702
22	0xbdeb5685	-0.11491112
23	0xbe0732bb	-0.13202946
24	0xbd45ca6d	-0.04828875
25	0x3e118c63	0.1421371
26	0x3e684827	0.22683774
27	0x3ebdc088	0.37060952
28	0xbe881275	-0.26576582
29	0x3ca4955e	0.020090755
30	0xbed0dd96	-0.40794057
31	0x3d4a588f	0.049400862
32	0x400323a9	2.0490515
33	0xbe325a8a	-0.1741735
34	0xbd235191	-0.03987271
35	0xbac13bfc	-0.0014742608
36	0x3c67beac	0.014144581
37	0xbca91540	-0.020640016
38	0x3e52600c	0.20544451
39	0xbce04504	-0.02737666
40	0xbdce064a	-0.10059793
41	0xbd6c3f2e	-0.05767744
42	0xbc351220	-0.011051685
43	0xbcfe6087	-0.031051887
44	0xbdbd4bc9	-0.092429705
45	0x3d7f74bc	0.062367186
46	0x3e53f703	0.20699696
47	0x3b7a680f	0.0038208996
48	0x3dd0ef52	0.10201897
49	0x3e0f8023	0.14013724
50	0xbd7bbce9	-0.061459456
51	0x3db20599	0.08692474
52	0x3cd97406	0.026544582
53	0x3d5daeb2	0.05412168
54	0x3d3bb5fd	0.045827854
55	0x3d3cd92e	0.046105556
56	0x3e74c138	0.23901832
57	0xbdaedf5e	-0.08538698
58	0x3cf3e1ee	0.029770818
59	0xbe0e7272	-0.13910845
60	0x3f0d5bef	0.55218405
61	0x3dd7ffc6	0.10546832
62	0xbcffea6a	-0.031239707
63	0xbf0f45ff	-0.5596618
64	0x3c82e012	0.015975986
65	0xc01eaf63	-2.4794548
66	0x3ea4a4a5	0.32156864
67	0xbe46f45e	-0.19429156
68	0xbe16c333	-0.147229
69	0x3b55e60e	0.0032638344
70	0x3e6aa8da	0.22915974
71	0xbd878837	-0.06617778
72	0xbe19344b	-0.14961354
73	0x3ce29cfc	0.027662747
74	0xbd912c2f	-0.070885055
75	0xbd9ec34c	-0.07752094
76	0x3dd2a332	0.10285033
77	0xbd048dcb	-0.032361787
78	0x3c3acde8	0.011401631
79	0xbe99b92d	-0.3002409
80	0x3d4ba38b	0.049716514
81	0x3e400a19	0.18753852
82	0x3e1e3243	0.15448861
83	0xbde33e20	-0.11095834
84	0xbd7473f6	-0.0596809
85	0xbb90b3a6	-0.004415947
86	0xbd04826e	-0.03235095
87	0x3b85eae3	0.0040868386
88	0xbd0f7257	-0.035021152
89	0xbe1b7609	-0.15181746
90	0xbcfca578	-0.03084062
91	0x3db36ba5	0.08760766
92	0x3e1a1f21	0.15050937
93	0x3f48a93a	0.7838322
94	0x3e4309a3	0.19046645
95	0xbce1c4fd	-0.027559752
96	0xbf4af9aa	-0.7928721
97	0xbd2c8922	-0.042122968
98	0xc0276fc6	-2.616197
99	0x3e85ae6b	0.26109633
100	0xbe9c189d	-0.30487528
101	0x3f19414d	0.59865266
102	0xbdbafb4a	-0.09129961
103	0x3ead95a7	0.33903238
104	0xbc1d9a91	-0.009619371
105	0xbc4d7e01	-0.012542249
106	0xbcac3054	-0.021019138
107	0x3ee345e0	0.44389248
108	0x3de14bb0	0.11000764
109	0x3da052eb	0.07828315
110	0xbde515ac	-0.11185774
111	0x3d837eee	0.06420694
112	0xbe153d11	-0.14574076
113	0x3e44ab57	0.19205986
114	0xbecb0bbc	-0.3965739
115	0xbcee52d3	-0.029092228
116	0xbd8edca9	-0.06975681
117	0xbde0ed12	-0.109827176
118	0x3bf5c5ac	0.007500371
119	0xbc8bbb16	-0.017056983
120	0x3cc35eda	0.02384894
121	0xbd5e472d	-0.054267097
122	0xbd8338be	-0.06407307
123	0x3ccfa2da	0.025346208
124	0xbe67b422	-0.22627309
125	0x3e334b5e	0.17509219
126	0x3d91c605	0.07117847
127	0x3dd0994a	0.101854876
128	0x3d45b3ad	0.048267055
129	0xbb460bb2	-0.0030219373
130	0x3c94a0da	0.018143106
131	0xbfa7d8f6	-1.3113086
132	0x3e3f47b7	0.18679701
133	0x3e2b5471	0.1673143
134	0xbdff04a1	-0.12452055
135	0xbe139acb	-0.14414518
136	0xbdf560d3	-0.119813584
137	0x3dc811b9	0.09769005
138	0x3d43efa7	0.047835972
139	0xbc96a221	-0.018387856
140	0x3e120afd	0.14262004
141	0xbe3ff0e9	-0.18744244
142	0x3ce7b1d8	0.028283045
143	0x3c328b91	0.010897533
144	0x3c95606f	0.01823446
145	0xbe466006	-0.19372568
146	0xbd44b9a2	-0.048028596
147	0xbd54c4d3	-0.05194552
148	0x3db2d281	0.08731557
149	0x3ba4c55d	0.0050284103
150	0x3b3e24bd	0.0029013597
151	0xbd10550d	-0.03523736
152	0x3bad2b6a	0.0052847164
153	0x3c634e23	0.01387361
154	0xbcb22f87	-0.021751178
155	0xbdf36da8	-0.1188615
156	0x3d451699	0.048117254
157	0x3c765672	0.015035259
158	0x3e334861	0.17508079
159	0x3ef7c2b6	0.4839074
160	0x3e2d9800	0.16952515
161	0xbcf3d9ba	-0.029766906
162	0xbedbae1c	-0.42906272
163	0xbd4ac66a	-0.04950563
164	0x402c09d3	2.6880996
165	0x3e53c695	0.20681222
166	0x3eb09d6c	0.34495103
167	0xbe69b864	-0.22824246
168	0x3bd24e15	0.0064179995
169	0x3ded6359	0.11591215
170	0xbe0ce820	-0.13760424
171	0x3e83af9d	0.2571992
172	0xbda6009a	-0.081055835
173	0xbea01049	-0.31262425
174	0x3db4397b	0.08800026
175	0x3d8fbf10	0.07018864
176	0x3c3f6bab	0.011683385
177	0xbcdef619	-0.027216958
178	0xbdbfb544	-0.093607455
179	0xbdd7fdf8	-0.105464876
180	0x3db75e99	0.0895359
181	0x3e086bb1	0.13322331
182	0xbe9c1b91	-0.30489781
183	0x3e4bd009	0.19903578
184	0x3dc86494	0.09784809
185	0x3c1b88c6	0.009493059
186	0xbd82facb	-0.06395491
187	0x3b9ef861	0.0048513864
188	0x3cc2ccc9	0.02377929
189	0x3d1548d5	0.03644641
190	0x3e07e1bd	0.13269706
191	0x3da5c035	0.08093301
192	0x3eebba13	0.460404
193	0x3d08c8fe	0.033394806
194	0x3c71241c	0.014718082
195	0xbee8bbce	-0.45455784
196	0xbc0bbff8	-0.008529656
197	0x4008d913	2.1382492
198	0x3f3748ec	0.71595645
199	0x3eb0833b	0.3447512
200	0xbc9c5749	-0.01908459
201	0xbd61775c	-0.05504547
202	0x3ce2cc53	0.02768532
203	0xbc5b2135	-0.013374616
204	0x3d2ca021	0.0421449
205	0xbbcb95b3	-0.006212914
206	0xbd047bdc	-0.032344684
207	0xbddd1ebe	-0.10796879
208	0x3d3a2163	0.045441996
209	0x3c8366fd	0.01604032
210	0xbc05f319	-0.008175635
211	0xbf49885c	-0.7872369
212	0xbeb62a43	-0.35579118
213	0xbd3fc298	-0.04681644
214	0x3d37e9f6	0.044900857
215	0x3d24c057	0.040222492
216	0x3a62edc7	0.00086566474
217	0xbd16e17a	-0.036836125
218	0x3b23985c	0.002496264
219	0x3cc83438	0.024438962
220	0x3cc5b38b	0.024133464
221	0xbd9837c3	-0.07432511
222	0xbcc1abe7	-0.02364154
223	0x3c89e96f	0.016834943
224	0x3ec0cafe	0.3765487
225	0x3e7d066b	0.2470948
226	0x3ba6629d	0.0050776736
227	0xbd1493fe	-0.03627395
228	0xbe79cfa1	-0.2439561
229	0x3bd48b18	0.006486308
230	0x3eb6e5d0	0.35722208
231	0x3eaad6c7	0.33366987
232	0x3d998b2c	0.07497248
233	0x3e95f5ab	0.29288992
234	0x3e407794	0.18795615
235	0xbe030885	-0.12796219
236	0x3e9dbeff	0.3080978
237	0x3d7a9020	0.061172605
238	0x3d5c624a	0.053804673
239	0x3cd0357b	0.025416126
240	0x3d77629d	0.06039678
241	0x3d8c2c23	0.06844356
242	0x3d346256	0.044039093
243	0xbd8f3ed1	-0.06994403
244	0xbeaae574	-0.33378184
245	0xbd8bc231	-0.068241484
246	0xbec73a36	-0.389116
247	0xbd02dddb	-0.03194986
248	0xbd61e595	-0.055150587
249	0x3d91e32e	0.07123409
250	0x3c47b72e	0.01218967
251	0xbe5f3ca3	-0.21800475
252	0x3e0dac3e	0.13835236
253	0xbdaa5605	-0.08317188
254	0xbe793604	-0.24337012
255	0xbdead104	-0.11465648

fcs1.bias f4 [400]
0	0xbea044ae	-0.31302398
1	0xbf165130	-0.5871763
2	0xbf346033	-0.7045929
3	0xbe1a5849	-0.1507274
4	0xbf124bac	-0.57146716
5	0xbecc335a	-0.39882928
6	0xbe249e5d	-0.16076036
7	0xbeffda2d	-0.49971142
8	0xbf231a85	-0.6371234
9	0xbf0c4975	-0.54799587
10	0xbf3a87e3	-0.72863597
11	0xbfbdab87	-1.4817971
12	0xbf5178d4	-0.81824994
13	0xbf6e4ccf	-0.9308595
14	0xbf831337	-1.0240239
15	0xbf3f6afa	-0.7477261
16	0xbf6b6c48	-0.919621
17	0xbf1880b8	-0.5957141
18	0xbef8aa4a	-0.4856742
19	0xbf8148a9	-1.0100299
20	0xbeca05af	-0.3945746
21	0xbf58e7b9	-0.8472858
22	0xbf6237c5	-0.8836635
23	0xbf44ac33	-0.76825255
24	0xbf42c891	-0.7608729
25	0xbf55dd85	-0.83541137
26	0xbf73fd01	-0.9530793
27	0xbee1c4b1	-0.44095376
28	0xbf8bd1a6	-1.0923355
29	0xbf4660d7	-0.77491516
30	0xbf5b8374	-0.85747457
31	0xbf47afc6	-0.78002584
32	0xbf5e2f7e	-0.8679122
33	0xbec05cb2	-0.3757072
34	0xbf38f444	-0.7224772
35	0xbf53f65b	-0.82797784
36	0xbf75c0db	-0.959974
37	0xbf877185	-1.0581518
38	0xbf24e406	-0.64410436
39	0xbf69a300	-0.91264343
40	0xbefbc5e3	-0.49174413
41	0xbe35b9a1	-0.17746593
42	0xbf470a34	-0.77749944
43	0xbf84eb14	-1.038424
44	0xbec7ddb5	-0.39036337
45	0xbea98a79	-0.3311346
46	0xbeeeacc2	-0.4661618
47	0xbf92a531	-1.1456662
48	0xbf2f93a8	-0.6858468
49	0xbf1a888b	-0.603646
50	0xbf73285c	-0.9498346
51	0xbf880685	-1.062699
52	0xbe423151	-0.18964125
53	0xbf8cb208	-1.0991831
54	0xbf133718	-0.5750594
55	0xbf18bdde	-0.59664714
56	0xbf767183	-0.96266955
57	0xbf1b283d	-0.60608274
58	0xbf5ab4f1	-0.85432345
59	0xbf91661b	-1.1359285
60	0xbf28c7ed	-0.6593006
61	0xbf2c66f2	-0.6734458
62	0xbf7173dd	-0.9431742
63	0xbed4ba12	-0.4154821
64	0xbf089b85	-0.53362304
65	0xbf1b04e6	-0.6055435
66	0xbf915862	-1.1355097
67	0xbf76c03e	-0.9638709
68	0xbeeb6624	-0.45976365
69	0xbf4de0e2	-0.8042127
70	0xbf9d12c6	-1.2271354
71	0xbf8a7d32	-1.0819457
72	0xbf43b704	-0.76451135
73	0xbf2b36eb	-0.66880673
74	0xbeb923f2	-0.36160237
75	0xbf80254b	-1.0011381
76	0xbf8cb342	-1.0992205
77	0xbf6aadf2	-0.9167167
78	0xbf1337a2	-0.57506764
79	0xbf855fdb	-1.0419878
80	0xbf80c13f	-1.0058974
81	0xbf238b34	-0.6388428
82	0xbf748d72	-0.9552833
83	0xbf7db443	-0.9910318
84	0xbf30fb01	-0.69133
85	0xbf594ba7	-0.8488106
86	0xbf3041c2	-0.6885034
87	0xbf3265bf	-0.696865
88	0xbef64ce5	-0.4810554
89	0xbf068ce0	-0.5255871
90	0xbeedca7f	-0.46443555
91	0xbf02b222	-0.5105306
92	0xbe61886b	-0.22024696
93	0x3ca0eaa0	0.019643128
94	0xbf16d72a	-0.58922064
95	0xbf3abf7e	-0.72948444
96	0xbf6589c3	-0.8966333
97	0xbf82fc93	-1.023333
98	0xbf877a54	-1.0584207
99	0xbf88510d	-1.0649735
100	0xbf171b92	-0.59026444
101	0xbf493d62	-0.7860929
102	0xbf1ada79	-0.6048961
103	0xbf3ef91b	-0.74598855
104	0xbf30e5c4	-0.69100595
105	0xbf1761af	-0.5913343
106	0xbf5860db	-0.8452279
107	0xbf272c41	-0.653019
108	0xbf184ee3	-0.5949537
109	0xbf39fea1	-0.7265416
110	0xbf3b3c47	-0.7313885
111	0xbf52fd89	-0.82418114
112	0xbf953214	-1.1655908
113	0xbf70628a	-0.9390036
114	0xbf0a507e	-0.5402907
115	0xbfa31a6c	-1.2742438
116	0xbf61ff36	-0.88280046
117	0xbfaa3072	-1.3296034
118	0xbedeaf1d	-0.43492976
119	0xbf3e698f	-0.7437982
120	0xbf57d5cb	-0.843106
121	0xbf08e04d	-0.53467256
122	0xbf491ecc	-0.7856262
123	0xbee399fc	-0.44453418
124	0xbed306b7	-0.4121606
125	0xbf711d48	-0.94185305
126	0xbf54f0aa	-0.83179724
127	0xbf133b2d	-0.5751217
128	0xbf39eee7	-0.7263016
129	0xbf4799b7	-0.77968925
130	0xbf73dcf6	-0.95259035
131	0xbee9c3af	-0.45657107
132	0xbf841db7	-1.0321568
133	0xbf3b086e	-0.7305974
134	0xbf2958bc	-0.6615102
135	0xbee66cb1	-0.450048
136	0xbf93b9e3	-1.1541103
137	0xbf1b3a1c	-0.6063554
138	0xbf28d4e2	-0.65949833
139	0xbf3449ac	-0.70424914
140	0xbf30cb72	-0.6906043
141	0x3c38cc59	0.011279189
142	0xbe768582	-0.24074367
143	0xbf6ca73a	-0.9244267
144	0xbf834d0c	-1.0257888
145	0xbf43d7ef	-0.76501364
146	0xbf59a502	-0.85017407
147	0xbfa62c45	-1.298226
148	0xbf0f189f	-0.55896944
149	0xbf0d0b9a	-0.5509583
150	0xbf79da32	-0.97598565
151	0xbf6ed781	-0.9329758
152	0xbf12a4f0	-0.57282925
153	0x3e124c17	0.14286838
154	0xbfaa07c5	-1.3283621
155	0xbdd687d4	-0.10475126
156	0xbf0e88b6	-0.55677354
157	0xbf95c9a4	-1.1702161
158	0xbf1e6148	-0.6186719
159	0xbeef4104	-0.4672929
160	0xbe2cbd2e	-0.16869041
161	0xbf450ef9	-0.7697597
162	0xbf8fd1ce	-1.1235902
163	0xbf8af8e1	-1.0857202
164	0x3e8b54ac	0.27213037
165	0xbf94cb2e	-1.1624506
166	0xbd518f9a	-0.05116234
167	0x3eee7f49	0.46581486
168	0xbf7fa3bd	-0.9985922
169	0xbe9ab6b6	-0.30217522
170	0xbe2ea230	-0.17054057
171	0xbea37cc6	-0.31931132
172	0xbf26f3d0	-0.6521578
173	0x3f1ff52a	0.62483466
174	0xbf21f3bb	-0.6326253
175	0xbf83fc04	-1.0311284
176	0xbf8a7df7	-1.0819691
177	0xbf1c1c52	-0.60980713
178	0xbf41ec1c	-0.757509
179	0xbfa19334	-1.2623048
180	0xbf20690f	-0.62660307
181	0xbf31cbc5	-0.6945155
182	0xbf19442d	-0.59869653
183	0xbf78da5e	-0.972082
184	0xbe9f4e33	-0.3111435
185	0xbe63d284	-0.22248274
186	0xbe777470	-0.24165511
187	0xbf6f554e	-0.9348954
188	0xbf3c371b	-0.73521584
189	0xbef13d1f	-0.47116944
190	0xbec8e91e	-0.39240354
191	0xbf3fecbe	-0.74970615
192	0xbeb40875	-0.35162702
193	0xbf095a01	-0.5365296
194	0xbe4e1cd0	-0.20128179
195	0xbed2727a	-0.41102964
196	0xbf24e6ec	-0.6441486
197	0xbf6fa5cb	-0.93612355
198	0xbf28a05c	-0.6586969
199	0xbf1bb072	-0.6081611
200	0xbf2e23eb	-0.68023556
201	0xbf4ed340	-0.8079109
202	0xbf5bc050	-0.8584032
203	0xbf04c574	-0.5186379
204	0xbf78b450	-0.97150135
205	0xbf32eaa7	-0.698893
206	0xbf5d6901	-0.8648835
207	0xbf6bab30	-0.92058086
208	0xbeb35d6c	-0.35032213
209	0xbf3f28db	-0.74671715
210	0xbec0bd0e	-0.37644237
211	0xbebbc67c	-0.3667487
212	0xbf495563	-0.78645915
213	0xbf6f43da	-0.9346291
214	0xbf18ee77	-0.5973887
215	0xbf2fcfaa	-0.68676245
216	0xbf900f0a	-1.125459
217	0xbf189f11	-0.59617716
218	0xbf8eaa0a	-1.1145642
219	0xbf0311be	-0.5119895
220	0xbf889e23	-1.067326
221	0xbeefe4e7	-0.46854326
222	0xbebd3f70	-0.3696246
223	0xbf85b115	-1.0444666
224	0xbf2726f8	-0.65293837
225	0xbf163070	-0.5866766
226	0xbf56aebc	-0.83860373
227	0xbf3175c4	-0.6932032
228	0xbf200697	-0.62510055
229	0xbf45fa26	-0.7733482
230	0xbf70778f	-0.9393243
231	0x3d554948	0.05207184
232	0xbf7f554d	-0.99739534
233	0xbf70fb9f	-0.94133943
234	0xbdc02177	-0.09381383
235	0xbf813332	-1.0093749
236	0xbf8bac8d	-1.0912033
237	0xbec3c11a	-0.38233262
238	0xbf0a61f3	-0.5405571
239	0xbf986ecc	-1.1908813
240	0xbdfdcb26	-0.12392263
241	0xbf0b7c3d	-0.5448645
242	0xbf3e5143	-0.74342746
243	0xbefc4d76	-0.49277848
244	0xbf717bdd	-0.94329625
245	0xbf3c3ee1	-0.73533446
246	0xbe2b9601	-0.1675644
247	0xbf7850b9	-0.96998173
248	0xbebc5e99	-0.36790922
249	0xbf4005a1	-0.7500859
250	0xbf530ca9	-0.8244119
251	0xbf2e73ce	-0.68145454
252	0xbf85d1c6	-1.0454643
253	0xbf1f2941	-0.62172323
254	0xbf4c300b	-0.7976081
255	0xbf582e99	-0.844461

fc2.weight f4 [300, 404]
0	0xbd72a08d	-0.059235144
1	0xbdc4bac8	-0.09605938
2	0xbd0bff65	-0.03417911
3	0x3c644009	0.013931283
4	0x3ab4b7ce	0.0013787688
5	0xbbce958d	-0.006304449
6	0x3bd0d8f2	0.006373518
7	0xbd83d15b	-0.06436416
8	0xbb9ba1da	-0.004749519
9	0xbd4f54d1	-0.050617997
10	0x3c16e379	0.009209507
11	0x3c323eb7	0.01087921
12	0xbb635409	-0.003468754
13	0xbd2b6cc0	-0.04185176
14	0x3cf04555	0.029329935
15	0x3c208c3b	0.009799059
16	0xbd4eecb2	-0.0505187
17	0xbcbc64e2	-0.022997323
18	0xbd809e17	-0.06280153
19	0xbd613a04	-0.05498697
20	0xbd5de274	-0.05417104
21	0xbdb2f45e	-0.087380156
22	0x3da93adc	0.0826318
23	0xbdc257e1	-0.09489418
24	0x3c94e62b	0.018176159
25	0x3c05a96b	0.008158068
26	0x3d8f96f2	0.070112124
27	0xbbe0a7c3	-0.0068559363
28	0xbd087794	-0.033317164
29	0xbde9c583	-0.114146255
30	0xbd6d4b30	-0.057933033
31	0x3d6ba35f	0.05752885
32	0xbdb189ad	-0.08668838
33	0xbdcfbe33	-0.101436995
34	0x3dba5404	0.09098056
35	0xbd5e452b	-0.054265182
36	0x3bbb6b97	0.005719613
37	0xbd5b521a	-0.053545095
38	0xbcd4aea7	-0.025962187
39	0xbd2344ab	-0.03986041
40	0xbd8f38bf	-0.06993245
41	0xbe1cfe9f	-0.15331505
42	0xbd8e8025	-0.069580354
43	0x3cc6d14e	0.024269726
44	0xbd9b51d5	-0.075839676
45	0xbd966cd7	-0.07344978
46	0x3ce93c6e	0.028471198
47	0xba8e1587	-0.0010840156
48	0xbd012839	-0.0315325
49	0xbda2dbd8	-0.07952088
50	0x3cb85fa8	0.02250655
51	0xbc567065	-0.01308832
52	0xbd2deb91	-0.04246098
53	0xbb4bc78b	-0.0031094279
54	0xbd843a01	-0.06456376
55	0xbcf8d80a	-0.030376453
56	0x3d28de64	0.041227713
57	0x3a58f4ba	0.0008276213
58	0xbd17b2c4	-0.03703572
59	0xbd2bcfb1	-0.041946117
60	0x3d3a5fc2	0.045501478
61	0xbe0b42d5	-0.13599713
62	0xbd205997	-0.03914794
63	0xbd195b06	-0.037440322
64	0xbd1ed2f4	-0.0387754
65	0xbd0a606b	-0.033783358
66	0x3cb55b69	0.022138314
67	0xbc9c7ab3	-0.019101476
68	0xbd91485f	-0.07093882
69	0xbd43bc29	-0.047786865
70	0xbd340140	-0.043946505
71	0x3cb528a0	0.022114098
72	0x3d03be33	0.03216381
73	0xbd3b545e	-0.045734756
74	0xbdd6dfcd	-0.10491905
75	0x3cd9e5ba	0.0265988
76	0x3c9d7252	0.019219551
77	0xbd6e2a0c	-0.058145568
78	0xbd86a4dc	-0.06574413
79	0x3d7fd4d1	0.062458817
80	0x3ce2b7ea	0.027675588
81	0xbd4c9786	-0.04994919
82	0xbd9f5eb7	-0.07781737
83	0x3c9a68db	0.018848827
84	0xbc89c59a	-0.016817857
85	0xbd49afec	-0.049240038
86	0xbcd96501	-0.02653742
87	0x3d213a86	0.039362453
88	0xbc9a11db	-0.018807342
89	0xbd11e0e0	-0.035614848
90	0x3bf86bd0	0.0075812116
91	0x3d1e4f3c	0.038649783
92	0xbac5dddb	-0.0015096025
93	0xbd3413c7	-0.043964174
94	0xbc6c256a	-0.014413217
95	0x3d5b9309	0.05360702
96	0xbe048dfd	-0.12944789
97	0x3cdc50a4	0.026893921
98	0xbc944d5b	-0.018103292
99	0xbd888f44	-0.06667951
100	0xbe0fee3d	-0.14055724
101	0xbd6b1b33	-0.057398986
102	0xbd05c7b9	-0.032661173
103	0xbd0c28f9	-0.034218762
104	0xbcd6ad90	-0.026205808
105	0xbcefc8d5	-0.029270569
106	0xbcebc2b9	-0.028779374
107	0xbd348530	-0.04407233
108	0xbdeb4b11	-0.11488927
109	0xbd4fe0fc	-0.05075167
110	0x3cb9b19e	0.022667702
111	0x3c39c106	0.011337524
112	0xbda5f102	-0.08102609
113	0xbd3f2cc7	-0.046673562
114	0xbd4f9063	-0.050674807
115	0xbdb2cc56	-0.0873038
116	0x3d69d726	0.057089947
117	0x3d41ee36	0.047346316
118	0xbd9013f4	-0.07035056
119	0x3c397e23	0.011321577
120	0xbd028a02	-0.031869896
121	0x3daa22b5	0.08307401
122	0xbd0471fe	-0.032335274
123	0x3d8746ff	0.06605338
124	0xbd7fe132	-0.062470622
125	0xbc936906	-0.017994415
126	0xbc8901e8	-0.016724542
127	0xbdb89394	-0.09012523
128	0x3d6e34c5	0.058155794
129	0x3d39ea25	0.045389313
130	0xbc25e6e8	-0.010125853
131	0xbc3ff343	-0.011715713
132	0x3cde8eac	0.02716764
133	0x3a3d9419	0.0007231846
134	0xbceb27b8	-0.028705463
135	0xbd1a7cb5	-0.037716586
136	0x3c34e2cd	0.011040402
137	0xbc104ba5	-0.008807098
138	0xbb6509a0	-0.0034948364
139	0x3ca75357	0.020425482
140	0x3c8a106f	0.01685354
141	0xbddceedb	-0.107877456
142	0x3c90dd1a	0.017683554
143	0x3c2cc929	0.010546007
144	0xbcbd890d	-0.02313664
145	0xbd1b5a85	-0.037928123
146	0x3c78e356	0.01519092
147	0xbcb458f2	-0.022015069
148	0x3bef659f	0.0073058154
149	0xbddc0202	-0.107425705
150	0xbdcba660	-0.09943843
151	0xbccf86db	-0.025332859
152	0xbd45f451	-0.0483287
153	0xbca16d25	-0.019705364
154	0x3d341b9a	0.043971635
155	0x3c839051	0.016060026
156	0xbe0a93c4	-0.1353293
157	0x3c63aa72	0.013895618
158	0xbca90bd5	-0.020635525
159	0xbd64b2eb	-0.055834692
160	0xbdc0ac6e	-0.09407888
161	0xbd08b76f	-0.03337806
162	0xbb5c8d9c	-0.0033653742
163	0xbd5c32c2	-0.053759344
164	0xbce24573	-0.027621007
165	0x3c2d8d8b	0.0105928285
166	0x3dd23655	0.10264269
167	0xbd961cb6	-0.07329695
168	0xbd5a14d4	-0.05324252
169	0x3c8214df	0.015879093
170	0xbd94d58c	-0.07267293
171	0xbd781f18	-0.06057653
172	0x3c0e2b96	0.008677384
173	0xbd4ce3f9	-0.0500221
174	0xbcd51cc0	-0.026014686
175	0x3c72954c	0.014806103
176	0xbd025c73	-0.031826448
177	0xbc873d3f	-0.016508697
178	0xbbbe9f7c	-0.005817352
179	0x3b9876cd	0.004652834
180	0xbd72f08d	-0.05931144
181	0xbc2add0f	-0.010428681
182	0x3b9e12d6	0.0048240228
183	0x3cc897b3	0.024486398
184	0xbdbee82b	-0.09321626
185	0xbd25ac3b	-0.040447455
186	0x3b366295	0.0027829756
187	0x3cd92fc8	0.026512042
188	0xbdad897a	-0.08473487
189	0xbd2eeb37	-0.042704787
190	0xbe1841dc	-0.14868873
191	0xbd678210	-0.05652052
192	0xbd8b8e32	-0.06814231
193	0xbc9d52f0	-0.019204587
194	0xbd8aa0ed	-0.067689754
195	0xbd469861	-0.048485164
196	0xbcccf59a	-0.025019456
197	0x3d9edd6a	0.07757075
198	0xbdc8b312	-0.0979978
199	0x3b990243	0.004669459
200	0xbd74e28f	-0.059786376
201	0xbd2319e5	-0.039819617
202	0xbd435995	-0.047692854
203	0xbd4fcf79	-0.05073497
204	0x3d6168dc	0.055031642
205	0x3c99e305	0.01878501
206	0xbd938d90	-0.07204735
207	0xbd614d5e	-0.055005424
208	0xbb9aaf5e	-0.0047206124
209	0xbd230c47	-0.03980663
210	0xbcc0271f	-0.023456154
211	0xbd34f310	-0.044177115
212	0xbdb383fb	-0.08765408
213	0x3c90e690	0.017688066
214	0x3c79f243	0.015255514
215	0xbd7613a6	-0.060077332
216	0xbc66551b	-0.014058377
217	0xbd86eb3a	-0.06587835
218	0xbd5a7934	-0.053338245
219	0xbd34ecd7	-0.04417118
220	0xbb8437ba	-0.0040349634
221	0xbc2c5e44	-0.010520522
222	0xbd664350	-0.056216538
223	0xbd518636	-0.051153384
224	0xbdd2c226	-0.10290937
225	0x3b6e5caf	0.0036371162
226	0x3d48a0bf	0.048981424
227	0xbd9a74c9	-0.07541806
228	0x3ce110bc	0.0274738
229	0xbd70f212	-0.058824606
230	0xbd8c5829	-0.06852753
231	0xbc1a7347	-0.009426898
232	0xbc2be831	-0.01049237
233	0xbd52f43a	-0.051502444
234	0x3b80a09c	0.003925396
235	0x3c0cb52e	0.0085881185
236	0xbd56159c	-0.052266702
237	0xbd562e0f	-0.05229002
238	0xbd425601	-0.0474453
239	0xbd19dfd9	-0.037566993
240	0xbdd9ed69	-0.106409855
241	0xbd1af8c5	-0.0378349
242	0x3c8aaaeb	0.016927203
243	0xbd13797e	-0.036004536
244	0xbd5d202c	-0.05398576
245	0xbc58d4af	-0.0132343015
246	0xbd144fc0	-0.036208868
247	0xbce2fd95	-0.027708808
248	0xbc5885fe	-0.01321554
249	0xbd74b7e8	-0.0597457
250	0x3dc25368	0.09488565
251	0xbc528fb8	-0.012851648
252	0xbb9fc18e	-0.0048753684
253	0xbbc5a6c8	-0.0060318448
254	0xbcdbc196	-0.026825707
255	0xbcedd9c3	-0.029034501

fc2.bias f4 [300]
0	0xbc8f2b80	-0.017476797
1	0xbd52d842	-0.05147577
2	0xbd8278d3	-0.06370702
3	0xbdc0d934	-0.09416428
4	0x3c3902c9	0.011292168
5	0xbdc40779	-0.09571738
6	0x3d1d6121	0.038422707
7	0xbdc0662a	-0.09394486
8	0xbcc7918f	-0.0243614
9	0xbd9bb2ea	-0.076024845
10	0x3ea0e6c0	0.31426048
11	0xbd94abb3	-0.072593115
12	0xbd973bae	-0.0738443
13	0xbd5109ed	-0.051034857
14	0xbdc1d55b	-0.094645225
15	0xbb859084	-0.0040760655
16	0xbdb00d4d	-0.08596287
17	0xbdd2dfe7	-0.10296612
18	0xbc9b9a6c	-0.018994533
19	0x3f0e2c0a	0.5553595
20	0xbdaa5045	-0.083160914
21	0xbd52cf5b	-0.05146728
22	0xbd9e66c6	-0.07734446
23	0xbd3f6de8	-0.046735674
24	0xbdf6151e	-0.120157465
25	0xbd213414	-0.039356306
26	0x3f3b4cd8	0.7316413
27	0xbd6dcd1a	-0.05805693
28	0xbd228f39	-0.03968737
29	0xbdabf992	-0.08397211
30	0x3efd3d8a	0.49461013
31	0xbdd22048	-0.102600634
32	0x3ebbcd63	0.36680135
33	0xbc936b51	-0.017995508
34	0xbdf89291	-0.1213733
35	0xbd54f81a	-0.05199442
36	0xbd7a816c	-0.061158583
37	0xbdbdabb0	-0.092612624
38	0xbc87d140	-0.01657927
39	0xbd1e117b	-0.03859089
40	0xbd27f286	-0.041002773
41	0xbd357e77	-0.04431006
42	0xbec77ba0	-0.38961506
43	0xbe5f5641	-0.21810247
44	0xbdb384cb	-0.087655626
45	0xbd47935b	-0.048724514
46	0xbd877be7	-0.06615429
47	0xbcd47f39	-0.02593957
48	0xbddbbb08	-0.10729033
49	0xbd45f345	-0.048327703
50	0xbbe02217	-0.0068400013
51	0x3aa71479	0.001274719
52	0x3ba44950	0.0050136223
53	0xbd3a4586	-0.04547646
54	0xbd82bce9	-0.06383688
55	0xbd976372	-0.073920146
56	0xbd5c220d	-0.05374341
57	0x3d993856	0.07481448
58	0xbdb13098	-0.08651847
59	0x3f2ce0da	0.67530596
60	0x3ec2d7c7	0.3805525
61	0x3e5a4685	0.21315964
62	0xbdb3e991	-0.08784784
63	0xbd0bc462	-0.034122832
64	0x3f00f5cb	0.5037505
65	0xbda5f151	-0.08102668
66	0xbe000609	-0.12502302
67	0x3c67ab28	0.014139928
68	0xbdb28f2e	-0.087187156
69	0xbda97317	-0.08273905
70	0xbd854504	-0.06507304
71	0xbd8c8fcf	-0.06863367
72	0xbd8dd3b7	-0.06925147
73	0xbd872a3e	-0.06599854
74	0xbef59898	-0.47967982
75	0xbd0f8ca1	-0.035046224
76	0xbd9cb5fe	-0.076519
77	0x3ade4eba	0.0016960718
78	0xbc53cde6	-0.012927508
79	0xbd80cef9	-0.06289477
80	0x3ca00059	0.019531416
81	0xbd7bf27c	-0.061510548
82	0x3eaaa827	0.33331415
83	0xbd1ecdea	-0.038770594
84	0xbd30ffc4	-0.043212667
85	0x3c82c97c	0.015965216
86	0x3f16c273	0.58890456
87	0xbd166cf9	-0.03672502
88	0xbd87e2a6	-0.06635027
89	0xbb483905	-0.0030551564
90	0xbd7ce859	-0.06174502
91	0xbd45fb37	-0.04833528
92	0xbdc3df52	-0.09564079
93	0xbd93b657	-0.07212513
94	0xbd9d7ede	-0.076902136
95	0xba43e9a8	-0.0007473477
96	0xbd217bfd	-0.039424885
97	0xbdc6d533	-0.09708633
98	0xbd654d7d	-0.0559821
99	0xbda7fdfa	-0.08202739
100	0xbe9e2ad5	-0.30892053
101	0xbd7978d2	-0.06090624
102	0xbd1f33c5	-0.03886773
103	0xbd22cbbb	-0.039745074
104	0xbd6e2f34	-0.058150485
105	0xbdd74730	-0.10511625
106	0x3cb6db9e	0.022321519
107	0xbd11acc8	-0.035565168
108	0xbde6fa72	-0.112782374
109	0x3e9047ac	0.2817968
110	0xbeb4c828	-0.35308957
111	0x3e892f42	0.26793867
112	0xbca7ce7a	-0.020484198
113	0xbd16d8fc	-0.036828026
114	0xbb687266	-0.0035468577
115	0xbd1d6328	-0.03842464
116	0xbda8caab	-0.08241781
117	0xbd5f202b	-0.054474037
118	0xbd5703b5	-0.05249377
119	0xbdb72481	-0.089425094
120	0xbd4459cd	-0.047937203
121	0xbd66f068	-0.056381613
122	0xbd0f2b3f	-0.034953352
123	0x3f86801e	1.0507848
124	0xbd9ae2df	-0.075628035
125	0xbd859320	-0.065222025
126	0xbd88b890	-0.066758275
127	0xbd7291f1	-0.05922121
128	0xbd63ac58	-0.05558428
129	0xbd9d037d	-0.07666681
130	0xbccdc603	-0.025118833
131	0x3eaa1d31	0.33225396
132	0xbd117831	-0.035515014
133	0x3ed883bc	0.42288005
134	0xbd5a6268	-0.053316504
135	0xbd6b0caa	-0.057385124
136	0xbd36d443	-0.044636022
137	0xbcae9d9f	-0.021315394
138	0xbd4caeda	-0.04997144
139	0xbde69c58	-0.11260289
140	0xbc1af5b3	-0.009457993
141	0xbd3f3ae6	-0.04668703
142	0x3f609cca	0.8773924
143	0xbe026d0a	-0.12736908
144	0xbc99d147	-0.018776549
145	0xbd90ca35	-0.07069818
146	0xbc1a109b	-0.009403373
147	0x3ecca7f3	0.39971885
148	0xbd76641c	-0.060154065
149	0xbcfbda22	-0.030743662
150	0xbd8883cc	-0.06665763
151	0xbdc06e40	-0.093960285
152	0xbd5bf4c3	-0.05370022
153	0xbcf31f12	-0.029677901
154	0xbdcb7c8b	-0.09935864
155	0xbd8ef808	-0.06980902
156	0x3ef1422b	0.47120795
157	0xbce6ffaf	-0.028198091
158	0xbd48b05e	-0.04899632
159	0xbdd04864	-0.101700574
160	0xbea49e57	-0.32152054
161	0xbd3afe8e	-0.04565292
162	0xbdb467ef	-0.08808886
163	0xbde3ca2d	-0.11122546
164	0xbdba06ad	-0.090833046
165	0x3c0994c5	0.008397286
166	0xbdc856cc	-0.0978218
167	0x3e9b8b98	0.3037994
168	0xbca43f4b	-0.020049712
169	0x3c36ad73	0.011149752
170	0xbd067a99	-0.032831762
171	0x3f57ea9a	0.8434235
172	0xbd1b2f77	-0.037887063
173	0x3f480196	0.7812742
174	0xbd18dd05	-0.037320156
175	0xbd8c5bc6	-0.06853442
176	0xbda91f67	-0.08257943
177	0x3e6c9ff2	0.2310789
178	0xbd6006a1	-0.05469382
179	0x3e8dca7a	0.2769354
180	0xbc929e16	-0.017897647
181	0x3b5bb030	0.0033521764
182	0x3f1c54e4	0.6106703
183	0xbd2a8fdb	-0.041641098
184	0xbd823be1	-0.06359077
185	0xbc567051	-0.013088302
186	0xbdf4680a	-0.119339064
187	0xbded35a6	-0.11582498
188	0xbdb92779	-0.09040732
189	0xbc915983	-0.017742878
190	0xbdc0b0aa	-0.09408696
191	0xbd246a7a	-0.040140606
192	0xbd03fe0f	-0.03222471
193	0xbdc77fe5	-0.09741191
194	0x3f0e3459	0.55548626
195	0xbd09584f	-0.033531483
196	0xbd58fb15	-0.052973825
197	0x3f0ffe24	0.5624716
198	0xbd7fbc9a	-0.062435724
199	0x3cbd2fe7	0.02309413
200	0x3f3a6672	0.7281257
201	0xbd5af79f	-0.053458806
202	0x3bdaf339	0.0066818264
203	0x3fad20ee	1.3525674
204	0xbd8fb40a	-0.070167616
205	0xbd9f9453	-0.077919625
206	0x3f4da55a	0.8033043
207	0xbdc0547d	-0.09391115
208	0x3dc89dc8	0.097957194
209	0x3e5ba8d7	0.21451126
210	0xbcb64d5c	-0.022253685
211	0xbd825300	-0.06363487
212	0xbcab31a3	-0.020897692
213	0xbd821b6f	-0.06352889
214	0xbe045e34	-0.1292656
215	0x3c02f7d0	0.007993653
216	0xbde2c707	-0.11073118
217	0xbd37f223	-0.044908654
218	0xbd9b748b	-0.07590588
219	0xbde66319	-0.1124937
220	0xbd809fc4	-0.06280473
221	0xbd6b79f0	-0.057489336
222	0xbd3b16ac	-0.04567592
223	0x3f28f720	0.6600208
224	0x3b92a6a5	0.004475432
225	0x3f2b0c4a	0.66815627
226	0xbde54d09	-0.11196334
227	0xbda43274	-0.08017436
228	0xbc318a7c	-0.01083624
229	0xbd855402	-0.06510164
230	0xbc887b33	-0.016660308
231	0xbe25b4c5	-0.1618224
232	0x3a15a04e	0.0005707786
233	0x3f483edc	0.78220916
234	0xbd4087b5	-0.04700442
235	0x3f425b9d	0.7592104
236	0xbd836a38	-0.06416744
237	0xbd45bfe7	-0.048278715
238	0xbe3e27a6	-0.18569812
239	0x3e81c015	0.2534186
240	0xbe30411e	-0.1721234
241	0x3cc128c7	0.023579014
242	0xbe00aa6b	-0.1256501
243	0xbd74c85d	-0.059761394
244	0xbd6c814d	-0.0577405
245	0xbd2dea0e	-0.04245954
246	0x3e9e6914	0.30939543
247	0xbc966ad1	-0.01836148
248	0xbede4d2f	-0.4341826
249	0x3f10dfbc	0.5659139
250	0xbd33c018	-0.043884367
251	0xbcc9f825	-0.024654457
252	0xbd725875	-0.05916639
253	0xbd79f37b	-0.061023217
254	0xbd197f69	-0.037475023
255	0x3c13a06c	0.0090104155

fc3.weight f4 [1, 300]
0	0x3c81051e	0.01574951
1	0x3aac7261	0.0013156646
2	0xbc84dbbb	-0.016218057
3	0x3c4bd0c5	0.012439911
4	0x3c88dd88	0.016707197
5	0x3c8ddd99	0.01731758
6	0xbd5a2d3d	-0.0532658
7	0x3cb28e0f	0.021796254
8	0x3b9c763c	0.004774837
9	0xbbb50229	-0.005523939
10	0x3c8d69ec	0.017262422
11	0xbc336f32	-0.010951804
12	0x3aa14373	0.0012303427
13	0xbc8c0317	-0.017091317
14	0x3cf868b2	0.03032336
15	0x3cc76252	0.024338875
16	0xbc602cc6	-0.01368255
17	0x3cfc3462	0.030786697
18	0x3a35d9a8	0.00069370354
19	0x3d1c3954	0.03814061
20	0xbcb8ade2	-0.022543851
21	0x3d0564a3	0.032566678
22	0x3c7f9c05	0.015601163
23	0x3c376297	0.011192939
24	0xbcc10a3d	-0.023564452
25	0x3d01ff11	0.03173739
26	0x3d09de71	0.033659402
27	0xbc49cd36	-0.0123169925
28	0x3be23c4b	0.00690416
29	0xbc9bb1b1	-0.019005628
30	0x3c653228	0.013989009
31	0x3cf0c634	0.029391386
32	0x3cae3514	0.021265544
33	0x3cc0b7b2	0.023525093
34	0x3c966f0e	0.018363502
35	0x3b8a0a4f	0.0042126547
36	0x3c66da59	0.014090144
37	0x3c9177f0	0.017757386
38	0xbca94a3a	-0.020665277
39	0xbc167dd2	-0.009185271
40	0x3c921d97	0.017836375
41	0xbbb081d0	-0.0053865686
42	0xbc5270f0	-0.012844309
43	0xbcaaa742	-0.020831708
44	0x3ac1c1bc	0.0014782469
45	0x3c09581f	0.008382826
46	0x3cef0fce	0.029182341
47	0xba48027f	-0.00076297665
48	0x3c920ead	0.017829264
49	0xbca8e48f	-0.020616798
50	0xbbbadb57	-0.005702417
51	0xbc039047	-0.008030004
52	0x3b809ebe	0.0039251735
53	0x3cf9071b	0.030398896
54	0xbca3f381	-0.020013573
55	0xbcda2291	-0.02662781
56	0x3b0c1d67	0.002137983
57	0x3d46cf87	0.048537757
58	0xbd41be4e	-0.04730063
59	0x3d11ea1f	0.035623666
60	0x3ca727b1	0.020404669
61	0x3c8c32bd	0.017114038
62	0x3ac5de18	0.0015096096
63	0x3ca05c8f	0.019575385
64	0x3cb99007	0.022651685
65	0xbaf5a896	-0.0018742259
66	0xbc7f7a58	-0.015593134
67	0xbcbcf92c	-0.023068033
68	0xbc03b191	-0.008037941
69	0x3bda3229	0.0066588116
70	0x3ccc078f	0.024905948
71	0x3bd7aacf	0.0065816413
72	0xbcc49b20	-0.02399975
73	0x3ce7c713	0.028293168
74	0xbcd5183a	-0.026012529
75	0x3c92145c	0.017831974
76	0xbbde0632	-0.006775641
77	0x3aa03bae	0.0012224817
78	0xbce6c7b3	-0.028171396
79	0xbb272fd0	-0.0025510676
80	0xbcf95b31	-0.030438991
81	0xbcd02a05	-0.025410661
82	0x3cb147dd	0.021640712
83	0xb9e2e705	-0.00043278202
84	0x3af583f7	0.0018731345
85	0x3b5b051a	0.0033419789
86	0x3c8e4410	0.01736644
87	0x3c319ab7	0.01084011
88	0x3a76d589	0.00094159745
89	0x3beda2df	0.0072520818
90	0xbba49b49	-0.0050233942
91	0xbcf8011d	-0.030273968
92	0x3cb9351b	0.02260833
93	0xbc8a0995	-0.016850272
94	0xbcb753d5	-0.022378841
95	0x3b58aef3	0.0033063262
96	0x3c6c7aed	0.014433605
97	0xbc4588ed	-0.012056571
98	0x3cefff2f	0.029296486
99	0x3cdcb2ed	0.026940787
100	0xbc938005	-0.01800538
101	0x3b19b910	0.0023456253
102	0x3ca8287e	0.02052712
103	0xbbe630af	-0.0070248465
104	0x3a0bb800	0.00053298473
105	0x3b1992fd	0.002343356
106	0x3dab31da	0.08359118
107	0x3cf3d31c	0.02976375
108	0xbcc577c9	-0.02410497
109	0x3c64f054	0.013973314
110	0xbcc85e1e	-0.024458941
111	0x3c960a9d	0.018315608
112	0x3bed0963	0.007233785
113	0x3c158e34	0.009128142
114	0xbca01bef	-0.01954457
115	0x3d9957b2	0.0748743
116	0x3a553765	0.00081335596
117	0x39be5d43	0.0003630911
118	0xbc9dcf3d	-0.019263858
119	0x3ac82e3c	0.0015272568
120	0xbb0d0635	-0.0021518592
121	0x3d05d8a4	0.032677308
122	0x3baa7c97	0.0052028405
123	0x3d82d6de	0.06388639
124	0x3c18161c	0.009282615
125	0xbb2af8d0	-0.0026088245
126	0x3ce73cb9	0.028227197
127	0xbcdb1c41	-0.026746871
128	0x3c673a7b	0.014113064
129	0xbbec4f60	-0.0072116107
130	0xbcc3e2ff	-0.023911951
131	0x3c81cf90	0.015846044
132	0x3cd1e69e	0.025622662
133	0x3d54eca4	0.05198349
134	0x3b8620dc	0.0040932726
135	0x3aa6d5f9	0.0012728564
136	0x3c4fdea8	0.012687363
137	0x3bc325b4	0.0059554223
138	0xbb0ff45b	-0.0021965716
139	0x3cab10c7	0.020882023
140	0xbbeca1b8	-0.007221427
141	0xbd471aee	-0.048609667
142	0x3cdc398a	0.026882906
143	0x3ceb7afc	0.028745167
144	0xbb9620f4	-0.004581565
145	0xbcd1855b	-0.025576284
146	0xbc85bc69	-0.016325193
147	0x3ce6b650	0.028163105
148	0xbcb2d347	-0.02182926
149	0x3bb3221b	0.005466712
150	0x3b34fb65	0.0027615663
151	0x3d031c57	0.03200945
152	0xbb91602f	-0.004436515
153	0x3c126462	0.008935066
154	0x3cd8d35e	0.026467975
155	0xbb495a2f	-0.003072392
156	0x3ca32a76	0.019917708
157	0x3cd773f1	0.026300402
158	0x3bc7bb6b	0.00609534
159	0x3b625043	0.0034532703
160	0xbd009ac4	-0.031397596
161	0x3c3530b9	0.01105898
162	0x3c4ee2a1	0.012627275
163	0xbc4c1f86	-0.012458688
164	0xbbc7cd92	-0.006097504
165	0xbc361242	-0.011112751
166	0x3b23e354	0.0025007324
167	0x3d424aab	0.04743449
168	0xbcdb1327	-0.026742531
169	0x3c08a6ba	0.008340532
170	0x3cfd654d	0.030932093
171	0x3d0ad121	0.033890847
172	0x3bce4fd1	0.006296136
173	0x3d491a9a	0.049097635
174	0xbc3abdd8	-0.011397801
175	0x3cf378c7	0.029720677
176	0xbab7735c	-0.0013996172
177	0x3d5a0344	0.05322577
178	0xbb491cef	-0.0030687412
179	0x3ca7c6cb	0.020480534
180	0xbc5e5b03	-0.013571504
181	0x3c44f491	0.0120212
182	0x3cd07b7e	0.02544951
183	0xba5285e3	-0.0008030815
184	0xbbf2d605	-0.007410767
185	0xbcd8e4d9	-0.02647631
186	0x3cd45fa0	0.025924504
187	0xbc931d6f	-0.017958371
188	0xbcfbcfae	-0.030738678
189	0x3a6ea53d	0.0009103602
190	0x3a194177	0.0005846242
191	0xbc5d73c0	-0.0135163665
192	0xbadb7e26	-0.0016745969
193	0x3c7a6803	0.015283587
194	0x3c9c475c	0.019076996
195	0x3cd03989	0.02541806
196	0xbc5b915c	-0.013401356
197	0x3c9ff456	0.019525688
198	0x3b832b15	0.0040029385
199	0xbcbc6778	-0.022998556
200	0x3d42492f	0.047433075
201	0x3ceae12a	0.02867182
202	0x3c80077b	0.015628567
203	0x3d96a0a0	0.073548555
204	0xbbcb2d28	-0.0062004514
205	0x3c3b7608	0.011441715
206	0x3cec6e12	0.02886108
207	0xb8fa3c15	-0.0001193212
208	0x3c8b9390	0.017038137
209	0x3cd07451	0.025446089
210	0xbb9592c4	-0.004564615
211	0xbbd7a817	-0.006581317
212	0x3c05fc1b	0.008177782
213	0x3cd76071	0.026291104
214	0x3c8d10b1	0.017219873
215	0xbcfb51d7	-0.030678673
216	0xbcd4ee8a	-0.02599265
217	0xbc49e421	-0.012322457
218	0xba9ccc00	-0.0011962652
219	0x3a028032	0.0004978209
220	0x3cd03b16	0.0254188
221	0x3cbf62af	0.023362486
222	0x3cd6a9d1	0.026204022
223	0x3d613577	0.05498263
224	0xbc80dba3	-0.015729731
225	0x3c84df36	0.016219717
226	0xbba841e5	-0.0051348084
227	0x3bcc2d44	0.006230982
228	0xbbebda57	-0.007197659
229	0xbcd52a49	-0.02602114
230	0x3cbe4f3e	0.023231145
231	0x3cfcabd2	0.030843649
232	0xbb1440ce	-0.0022621634
233	0x3d0b4fb5	0.03401156
234	0x3b4f2adf	0.0031611247
235	0x3cf58ea5	0.029975245
236	0xbbb0ba8d	-0.0053933323
237	0x3c3d4b9c	0.011553671
238	0xbd7d9ddf	-0.061918136
239	0x3c315ed2	0.01082583
240	0xbca72cf8	-0.020407185
241	0x3c69c535	0.014268209
242	0xbc6356fc	-0.013875719
243	0xbc58d763	-0.013234946
244	0xbce59148	-0.028023377
245	0xbba06994	-0.0048953984
246	0x3c66f983	0.014097574
247	0x3bb53c35	0.005530859
248	0xbcc8236e	-0.024430957
249	0x3c641ccf	0.013922884
250	0x3cf0845b	0.029359987
251	0x3acd25f2	0.0015651567
252	0xbcc76aa1	-0.024342837
253	0x3acb9c3c	0.0015534232
254	0x3c201fa3	0.009773168
255	0x39c0b006	0.0003675224
